5_cross_5_iter_10.pt (torch_old, 327252 bytes, 66 tensors)

weight f4 [32, 5, 3, 3]
000000 50 13 3c be 92 66 44 be b5 c3 af be 6d 0c 07 bf
       -0.18366742 -0.19179752 -0.34329 -0.52753335
000010 e6 f7 63 bf 15 25 b6 be 4f 07 13 bf 40 54 58 bf
       -0.8905014 -0.35575166 -0.5743303 -0.84503555
000020 a6 4e 6b bf e8 e8 20 be a3 7c dc 3e 75 6a 51 3e
       -0.91916883 -0.15713847 0.4306384 0.20450766
000030 89 94 10 3e 4e bd 70 3e 20 2e 50 3e 25 da 2f be
       0.14119162 0.23509714 0.20330095 -0.1717306
000040 04 2f 94 3e fd e2 9b 3e d1 dc 92 bd 84 ff 98 bd
       0.2894212 0.30446616 -0.07171024 -0.07470611
000050 dd 40 52 be 7d 38 f5 be b2 38 33 bf d8 e8 ce be
       -0.20532556 -0.4789466 -0.70008385 -0.4041202
000060 bb 6f 11 3e 30 df 49 bf 3a 26 2a bf f0 c5 81 3e
       0.14202778 -0.7885618 -0.6646458 0.25346327
000070 40 22 0a 3f 6b 8f 62 3c e4 f9 7a 3d ac 40 38 3e
       0.5395851 0.013828139 0.06127347 0.1799342
000080 44 9d af 3d d4 5d bd 3d 54 c5 c8 3e cb f2 0d 3d
       0.08574918 0.09246412 0.3921305 0.034655374
000090 34 b3 0f 3e ac f0 85 3e 4f de eb 3d 21 64 54 3e
       0.14033204 0.2616018 0.115170114 0.20741321
0000a0 65 9f 68 3e 43 bb b3 3d a2 81 14 3e c2 28 d9 3d
       0.22717054 0.08775952 0.14502576 0.10603477
0000b0 70 0b 5d 3e c9 95 d3 be d0 06 00 bf ed 1b be be
       0.21586394 -0.41325215 -0.50010395 -0.3713068
0000c0 4c 59 91 be a0 93 38 bd af 2c 86 be e6 80 a2 3b
       -0.2838844 -0.04506266 -0.26205966 0.0049592135
0000d0 58 0a 88 3c 5d cb 3b be 77 de b6 3e 63 8b c6 3e
       0.016606495 -0.18339296 0.35716602 0.3877822
0000e0 ca 5f 99 3e 51 a0 35 3e d3 5d 4a be f3 ae 6a be
       0.29955894 0.17736937 -0.19762354 -0.229183
0000f0 ff 28 04 ba d8 b5 0c 3c 1c 9b 76 be 46 7f 10 bf
       -0.0005041509 0.008588277 -0.24082607 -0.56444204
000100 b5 4e 30 be 98 ee 2f be 89 1e e5 bd 72 07 b1 3d
       -0.17217524 -0.1718086 -0.11187465 0.08643998
000110 e9 6d ea 3c 7a 95 5f be 7d b1 32 3c 91 33 f3 bd
       0.028616862 -0.21834365 0.010906574 -0.1187507
000120 fb 20 da 3e 1a 97 39 3e 84 52 a2 3e a4 00 9f 3d
       0.42603287 0.18124047 0.3170358 0.07763794
000130 fb 24 00 bf 23 e9 84 be d1 84 d7 bd f2 e6 00 3e
       -0.5005643 -0.2595912 -0.105233796 0.12588099
000140 57 5b 94 be d6 12 27 bf 9d 04 1c bf e9 3a f7 be
       -0.28975937 -0.65263116 -0.6094454 -0.48287132
000150 c9 c2 13 bf df ab 2f bf 5c 06 28 bf 0a e2 12 bf
       -0.57719094 -0.6862163 -0.65634704 -0.5737616
000160 3a 91 2f bf 10 54 12 bf bd 3b 68 3d 57 7a 80 3e
       -0.68580973 -0.5715952 0.056697596 0.25093338
000170 bf b5 82 3e 12 ce 56 be 20 d5 e1 3d 86 7b 4b 3e
       0.25529286 -0.20977047 0.110269785 0.19871339
000180 7e 5c eb bc 1f 45 c4 3e 8d 52 d3 bd f8 9d 3c be
       -0.028730627 0.38333985 -0.1031848 -0.18419635
000190 2f c7 89 be 55 ed fa be 2d 8b b6 3d e9 60 09 be
       -0.26909778 -0.49009195 0.089132644 -0.13415875
0001a0 84 13 04 bf 19 15 43 3e de 23 d6 bd c8 d3 1a 3e
       -0.5159228 0.19051017 -0.1045606 0.1511985
0001b0 d1 2f a3 ba d3 5b 8d bd 36 f6 92 3d c6 75 46 be
       -0.0012450163 -0.0690228 0.07175867 -0.19380865
0001c0 91 fc b5 3e e1 a5 bc 3e 8d c0 0d be fb db a3 3e
       0.35544255 0.36845306 -0.13842984 0.3200377
0001d0 97 2a 3e bc 27 7c c9 bd 01 ca 32 be 15 e0 06 bf
       -0.011606834 -0.09838133 -0.17459871 -0.5268567
0001e0 82 04 3c 3e 69 34 5e be 75 33 ed be 3d a2 cd 3c
       0.18361095 -0.2169968 -0.4632832 0.025101775
0001f0 5f 25 fd bc d8 49 0b 3e 48 c3 0f bf 5c 91 1d bf
       -0.030901609 0.13602388 -0.5615735 -0.61549926
000200 ba 51 37 bf 38 ed 0c bf 83 b4 29 bf e8 8f 19 bf
       -0.7160908 -0.5504947 -0.66291064 -0.5998521
000210 c9 c5 29 bf 3e 67 22 bf 09 bc 06 bf 01 5d dd 3c
       -0.6631742 -0.63438785 -0.5263067 0.027021887
000220 56 ac d7 be e8 99 00 3e d4 37 9e 3d 22 2d b4 bd
       -0.4212367 0.1255871 0.07725492 -0.08797671
000230 a5 bf 81 be e7 b0 9a 3e 6a c0 2d 3f ab a7 0e bf
       -0.25341526 0.3021309 0.67871726 -0.5572459
000240 f6 91 98 be 05 dc 99 3d bf c3 e1 be 45 75 01 be
       -0.2979886 0.075126685 -0.44094655 -0.12642391
000250 6d dd 61 3e 42 87 7c bd a2 44 80 be 0c 3c 11 be
       0.22057123 -0.06165243 -0.25052363 -0.14183062
000260 a3 4c 43 3f 23 15 88 bd c6 55 71 bc 00 67 4a 3e
       0.76288813 -0.066446565 -0.014729923 0.19765854
000270 d7 de ed bd 82 e4 31 3e bf 18 43 bc a7 25 27 3d
       -0.11614769 0.17372325 -0.011907755 0.040807392
000280 76 fc 37 3f 50 6b 0f bf 2e ab 63 be 71 41 4d 3e
       0.718696 -0.5602312 -0.22233269 0.20044495
000290 99 30 5d be 45 97 ba bd b2 bc 27 3e 64 0a 1a bc
       -0.2160057 -0.091108836 0.16380575 -0.009401891
0002a0 f0 21 f0 bd 73 fc 17 bb 4e 15 34 3f f2 2d 99 be
       -0.11725223 -0.0023191243 0.7034501 -0.29917866
0002b0 2f d1 c4 be 40 1f f2 be e3 b6 0b bf cf 4b d3 be
       -0.38440844 -0.47289467 -0.5457594 -0.41268775
0002c0 27 03 f7 be 74 a3 00 bf 66 20 9f be 2b f0 cc be
       -0.48244593 -0.5024941 -0.31079406 -0.40026984
0002d0 ae 0b 28 bc 1b 57 57 bf 32 d0 37 bd 29 22 22 be
       -0.010256691 -0.8411729 -0.044876285 -0.15833344
0002e0 36 85 2d 3e 9b 28 5e 3e 19 3e ef 3e 31 ae 0d bf
       0.16945347 0.21695177 0.46727064 -0.5534392
0002f0 92 0f 2a 3d 65 1f ca bd b3 ea 1c 3f 4d 57 24 be
       0.041518755 -0.09869269 0.6129562 -0.16048928
000300 4c 0d 4c 3e 35 59 4f 3e 0c 5d 89 3e 7f ae 0f bd
       0.19926947 0.20248874 0.26828802 -0.03507852
000310 e7 f6 ac bc b4 01 0d 3f cc 25 c1 be a5 24 2b bf
       -0.021113826 0.55080724 -0.3772415 -0.6685279
000320 12 7a 62 be 40 d3 6e be 06 ad 2d bc 95 0f 8e bd
       -0.22116879 -0.23322773 -0.010600334 -0.06936566
000330 15 95 ca 3d b0 51 75 be 9c c8 c8 3e 33 22 cc 3c
       0.098917164 -0.23956943 0.39215553 0.024918651
000340 6d 79 3d 3f f9 d7 2c 3d 38 35 22 3f c4 f4 45 3e
       0.74013406 0.042198155 0.63362455 0.19331652
000350 f4 5f a7 3e 94 a6 14 3e a6 09 c9 3d 41 2b 1b 3f
       0.32690394 0.1451667 0.098162934 0.60612875
000360 3f 18 1e 3f 75 f3 20 3f 50 cb 4f 3f 99 a5 52 3f
       0.61755747 0.62871486 0.81169605 0.8228393
000370 47 34 0b 3f 9c 50 44 3f f0 12 1d 3f c3 ca 37 3f
       0.54376644 0.766855 0.6135702 0.71793765
000380 54 1a 13 3f 7f 10 53 3b 13 17 a8 bd 42 cf 45 be
       0.5746205 0.0032205877 -0.08207526 -0.19317344
000390 af 93 1a 3f c2 1e 3f 3e d1 79 22 3d 7a 1c 12 bc
       0.603816 0.18664077 0.039666954 -0.008917922
0003a0 30 28 60 3e 42 aa 11 bf 92 2b 3a 3e 7e 15 5c 3e
       0.2189033 -0.5690042 0.18180683 0.21492574
0003b0 e8 20 93 3e e7 1d b5 be eb a6 8a be db 8f cf 3e
       0.28736043 -0.35374376 -0.27080473 0.4053944
0003c0 a2 fb 9f be db 0e 09 3e 5f b2 3d 3e 8b 3f b5 bd
       -0.31246668 0.13384573 0.18525074 -0.088500105
0003d0 46 81 67 be fb e5 6e 3d f2 0c 36 3f 85 98 b9 3c
       -0.22607908 0.058324795 0.711135 0.022655735
0003e0 07 43 14 be ff 86 8b bd 3c af 1f 3e 1d 04 ba be
       -0.14478694 -0.06812858 0.1559419 -0.36331263
0003f0 4e 9c f9 3d b4 0a a9 3d f1 51 31 3e cf 09 c3 be
       0.12188016 0.082539946 0.17316414 -0.3809342

bias f4 [32]
000000 16 e9 61 3d 2d 07 a2 bd 69 b7 0a be 94 c4 21 3c
       0.05515393 -0.07911525 -0.13546528 0.009873528
000010 f1 49 8b bd c6 f6 0a be 86 52 36 3b 62 8f b0 3d
       -0.068012126 -0.13570699 0.0027820184 0.08621098
000020 d0 69 8e 3b 46 70 6c bd ae 3c 02 bc bd 82 81 3d
       0.00434611 -0.05772426 -0.0079490375 0.063237645
000030 e6 50 23 bd 1b e5 bb bd 22 48 17 3d ae 2f c1 bd
       -0.039872073 -0.09174558 0.036934026 -0.09432922
000040 18 fd e6 bd 12 54 de bd 2f 88 89 bc 4f 8d c3 bd
       -0.112787426 -0.10855879 -0.01678857 -0.09548437
000050 3c 5e b4 bd 4a f3 df bd 1a 34 65 3c 19 5f 2c bc
       -0.08807036 -0.109350756 0.013989473 -0.01052072
000060 12 34 5d 3d 8f 64 00 be 24 5c 72 bc 9f 1e 02 3e
       0.054004736 -0.1253836 -0.014792476 0.12706994
000070 b6 83 30 bd 62 30 f4 bd 36 cc aa 3d eb ba c9 3d
       -0.04309436 -0.11923291 0.083397314 0.09850105

weight f4 [32]
000000 1c f1 00 3d 5d 0c ea 3f 25 85 a5 3f 66 a4 8b 3f
       0.03147994 1.8285023 1.2931257 1.0909545
000010 28 2b c9 3f 04 8d 90 3e 99 a1 b2 bd a2 66 da 3f
       1.5716295 0.28232586 -0.087222286 1.7062571
000020 3d 85 1c 40 47 b4 f2 bd 46 a8 96 3f 5e 2c 2b 3e
       2.4456322 -0.118507914 1.1770103 0.16716143
000030 51 55 90 3e 42 b8 3e 3f 46 21 b7 3f 96 a7 6a 3e
       0.2819009 0.74499905 1.4307029 0.22915491
000040 60 07 8e 3d 81 32 14 40 a8 ea 9b bc 8a 96 08 40
       0.069350004 2.3155825 -0.019032791 2.1341882
000050 ba b4 ca 3f f6 a8 d2 3f f6 fb 95 3e 4d ae 86 3e
       1.5836403 1.6457813 0.29293793 0.26304856
000060 72 5a c1 3e d5 49 00 40 f3 1d 86 3f 97 5f 19 40
       0.37764317 2.0045063 1.047789 2.3964593
000070 da 43 00 40 bc 6a e6 bd 46 75 23 3e 4a cc d7 3f
       2.0041413 -0.11250827 0.15962705 1.6859219

bias f4 [32]
000000 c5 89 bc bd 19 94 c2 3e 0d 15 db 3e 97 cb 2b 3c
       -0.09205965 0.38003615 0.42789498 0.010485551
000010 92 4c 81 3f 7b 8d 6a bf d7 59 d7 be 3d bc 94 3f
       1.0101492 -0.9162213 -0.4206073 1.1619946
000020 81 d2 7b 3f d6 80 c8 be 0c 83 1d 3e 54 f9 20 bf
       0.9836808 -0.39160794 0.15382022 -0.62880445
000030 f6 91 ec 3e 86 ff 0c bf 71 19 69 3e 8f 7c 28 bf
       0.4620511 -0.550774 0.22763611 -0.6581506
000040 f2 26 01 bf 5c 48 c8 3e cf 5f d9 be 07 06 9d 3f
       -0.5045005 0.39117706 -0.4245591 1.2267464
000050 53 83 fc 3f 9d 8d 4a 3b 25 9f 4b bf 74 52 c3 be
       1.9727577 0.0030907162 -0.7953971 -0.38148844
000060 57 1d 97 bf 5d 3d d8 bb 40 21 4e 3e 51 3f 85 3e
       -1.1805829 -0.006599112 0.20129871 0.2602487
000070 3d b2 0e 3f 84 7a a3 be 1d 97 66 bf e9 98 33 3e
       0.5574072 -0.3192941 -0.9007433 0.175388

running_mean f4 [32]
000000 4f 5f 64 bf 11 30 5e c0 4d 4d 3e c0 d5 bc d1 bf
       -0.8920793 -3.4716837 -2.973468 -1.6385752
000010 72 ac 5f 40 88 44 84 bf 76 1f db 3f a5 f2 1c 40
       3.4949002 -1.0333414 1.7118976 2.4523098
000020 a4 cb c2 bf 32 dd b1 3f 90 51 ab 3f b0 ee 33 bf
       -1.5218396 1.3895628 1.3384266 -0.70286083
000030 f8 1b 90 bf 19 8b f7 bf c9 8c 8d 3f 71 55 8c 3f
       -1.1258535 -1.9339324 1.1058589 1.0963575
000040 02 82 85 3f 0a cb 88 40 f7 83 ab bf 1d 75 0c 40
       1.04303 4.274785 -1.3399647 2.194648
000050 f6 ba 26 bf 6a 07 9b c0 75 96 23 bf 80 f0 a1 3f
       -0.6512903 -4.844655 -0.63901454 1.265152
000060 f1 8e 23 be a6 ee 14 c0 cf 45 b1 bf 80 ae 39 c0
       -0.15972497 -2.327066 -1.3849429 -2.9012756
000070 85 16 0d 40 e3 f4 12 40 9f f2 3d c0 d8 84 ab bf
       2.2044995 2.2961967 -2.9679334 -1.3399916

running_var f4 [32]
000000 a6 78 f5 40 5f 06 0e 41 ec 2e 0d 41 59 cd 99 40
       7.6709776 8.876555 8.823956 4.806317
000010 79 cb 40 41 03 a1 3d 40 aa 74 40 40 13 21 0b 41
       12.049676 2.9629524 3.0071206 8.695575
000020 02 5e 6e 41 11 25 63 40 35 ec 0f 41 47 f8 b6 40
       14.897951 3.5491374 8.995168 5.7178073
000030 28 58 c4 40 56 c1 1e 40 50 8a b3 40 13 ed 5c 40
       6.1357613 2.4805503 5.610634 3.4519699
000040 39 b6 b5 40 3f 39 8f 41 94 4e 19 40 1b 9a 28 41
       5.678494 17.902952 2.395421 10.537623
000050 92 69 14 41 2c 27 11 41 1d df 34 40 31 72 a0 40
       9.275774 9.072063 2.8261178 5.0139394
000060 b1 84 84 40 e2 78 fc 40 de 24 20 41 cc bd 15 41
       4.1411977 7.889756 10.009001 9.358837
000070 35 57 23 41 ef 11 9f 40 4f d9 07 40 74 c6 c1 40
       10.208791 4.970939 2.1226385 6.055475

weight f4 [2, 32, 1, 1]
000000 67 97 38 3f ab 2c a7 3d 94 7b 8d 3c c0 ee 12 3f
       0.7210602 0.081628166 0.01727084 0.57395554
000010 5d f5 0a 3d ea 83 e6 3d 8e 44 52 3f 6c c2 82 3f
       0.033925403 0.11255629 0.82135856 1.0215583
000020 ac f6 2e bf 3a 5e 4b bf d0 86 9c 3e eb 44 24 3f
       -0.6834514 -0.79440653 0.30571604 0.6416766
000030 e0 5e 81 be 24 cb e7 3e 04 cc ae be c9 0d 5e be
       -0.25267696 0.45272171 -0.34140027 -0.21684946
000040 8a ed 82 bf ff f9 c0 3e 91 a2 cf 3e 71 3c 57 3f
       -1.0228741 0.37690732 0.40553716 0.840766
000050 af 4f 65 be e5 93 08 3e 13 94 55 be ac e2 cf be
       -0.22393678 0.13337667 -0.20857267 -0.40602624
000060 4b a8 38 bf 13 11 f2 3e 86 4e 7e 3e 5c a4 c5 bf
       -0.72131795 0.47278652 0.24834642 -1.5440784
000070 40 c6 97 3f bf 76 21 3f 9d 0a 69 be 7c f2 84 be
       1.1857376 0.6307182 -0.22757955 -0.2596625
000080 2f 59 2a c0 3f 6b 93 bf e3 98 09 3e 71 f6 e6 be
       -2.6616933 -1.1517104 0.13437228 -0.45109895
000090 26 de b4 bf cb f8 bb 3e 02 f7 7f be 6a 3a b5 3f
       -1.4130294 0.3671325 -0.2499657 1.4158452
0000a0 77 3e a6 3f 1b 56 5e bf dd f6 42 bf ec 80 7d bf
       1.2987813 -0.86850137 -0.76157933 -0.99024844
0000b0 f6 96 63 be 0a 0b b6 be e9 ec da 3d 68 02 ac bd
       -0.22225556 -0.35555297 0.10689718 -0.083988965
0000c0 df 31 8d 3f af c3 28 bf 23 9d c6 3f 06 1f 61 bf
       1.1030844 -0.6592359 1.5516704 -0.87937963
0000d0 cc dc 39 3d 5a 37 a4 be 48 d1 30 3c 6f b6 da be
       0.045376584 -0.3207348 0.010792084 -0.4271731
0000e0 72 7f 0c 40 c7 fa 35 bd b8 ec 63 be 44 d6 b7 3f
       2.1952786 -0.044428613 -0.2225827 1.4362264
0000f0 fd bf 93 bf 1a 8d 13 40 5b e8 11 40 c5 92 65 3f
       -1.1542965 2.3054872 2.2798069 0.8967708

bias f4 [2]
000000 c8 cc 16 3e 62 70 96 b9
       0.14726555 -0.0002869396

weight f4 [2]
000000 a7 e0 84 be 68 ca 1b bf
       -0.25952646 -0.6085572

bias f4 [2]
000000 c1 4d c3 bf 40 6e 4f c0
       -1.5258104 -3.2411041

running_mean f4 [2]
000000 49 b0 62 40 61 fb ba 3f
       3.5420096 1.4607965

running_var f4 [2]
000000 62 f5 2c 42 bf 6d 05 43
       43.23963 133.4287

weight f4 [26, 18]
000000 12 52 b4 bd 63 93 9a be a9 02 fc 3c 77 d4 a0 3d
       -0.08804716 -0.30190572 0.030762987 0.078530245
000010 b2 d0 0e 3e 66 7d 32 be ea 2f c8 be 95 bd 53 be
       0.13946798 -0.17430648 -0.39099056 -0.20677789
000020 91 9e a7 bd 36 9d 0e bf 1b 85 36 be fa 70 fe 3e
       -0.08184541 -0.55708635 -0.17824213 0.4969557
000030 81 54 9a be b9 37 bd 3e 85 f3 80 3e a4 e7 98 3d
       -0.30142596 0.36956576 0.2518579 0.07466057
000040 32 ad 79 3e 39 59 54 3e 73 ff 90 3e eb 9a 7a bc
       0.24382475 0.2073716 0.28319892 -0.015295724
000050 d3 2d 83 3e 09 ff 02 3e 4a 4a fe bc 55 55 1a be
       0.256209 0.127926 -0.031041283 -0.15071614
000060 1e 30 db 3e 23 d1 46 be db d9 40 be 62 bc 71 be
       0.42810148 -0.19415717 -0.18833105 -0.23607019
000070 dc da 03 bf 48 37 e0 3e ae e7 1f be 6b 7e a2 be
       -0.5150583 0.43792176 -0.15615723 -0.31737074
000080 49 de 84 bd 20 15 cf be 7e b8 7e 3e 6f 1b 5f 3e
       -0.0648771 -0.40445805 0.24875066 0.21787809
000090 5c fd 9b be bc 49 96 be cf 3f 86 be 5b 09 72 be
       -0.30466735 -0.2935313 -0.26220557 -0.23636381
0000a0 a9 cf a5 be 4e 4d e0 bd 71 34 b6 be 0a 23 05 bf
       -0.32384995 -0.10952245 -0.35586885 -0.5200659
0000b0 cf c8 82 3d 94 5a 28 bc 89 01 3a 3d 3b 7c 43 3d
       0.063859574 -0.010275502 0.04541162 0.047725897
0000c0 e4 65 5c be 4e 0a f2 3d 66 a1 45 be 0c 2e 20 be
       -0.21523243 0.11818372 -0.1929985 -0.15642565
0000d0 0c 49 63 bc a5 4f 42 3e ec dc 2a bd cc 59 28 be
       -0.013872396 0.18975694 -0.041714594 -0.16440505
0000e0 65 32 ba be 83 0a 33 3e 59 0e cf bd 8c 10 b5 3c
       -0.36366573 0.17484479 -0.101101585 0.022102617
0000f0 5a ef 30 3e 02 66 7e be 6a 8f d6 3c e9 8d 13 3c
       0.17278805 -0.248436 0.026191432 0.009006002
000100 9b 54 b8 3e ad 44 21 bd 5d 4f 83 3d 22 23 ad be
       0.3600205 -0.039372135 0.06411622 -0.33815867
000110 b7 18 96 3e 35 98 cb 3c a0 b3 80 bd eb 10 0a be
       0.2931573 0.024852851 -0.06284261 -0.13483016
000120 68 d7 44 be 4e 9d 0a 3e ab 6f 49 be 56 e4 21 be
       -0.19222796 0.1353657 -0.19671504 -0.1580976
000130 2f cf a2 3d e7 a0 75 bc 3d 0e a5 be 1d 8f d7 bc
       0.079496734 -0.014991975 -0.32237425 -0.026313359
000140 dd 97 b3 3c 33 14 c1 3e 02 0f 56 3e 76 ec e5 bd
       0.021923 0.37710723 0.20904163 -0.11226742
000150 53 8c bd 3e 28 df ae be 4f 82 72 3e f7 fb a1 3d
       0.3702112 -0.3415463 0.23682521 0.079093866
000160 e1 01 a9 3e 8c dd 0f be b8 76 a0 bc f1 94 36 bd
       0.33009246 -0.14049357 -0.01958786 -0.044575635
000170 bb 90 d9 3e 46 eb 0f 3e 99 d5 ad bc 65 2c b0 bd
       0.42493233 0.14054593 -0.021220015 -0.086022176
000180 ed aa 81 3e 44 14 d1 bd c9 31 66 3d 51 c5 1d bf
       0.2532572 -0.102089435 0.056199823 -0.61629206
000190 7d be ea be f6 42 67 3e 54 83 bc 3e 4f 27 f4 3d
       -0.45848456 0.22584137 0.36818945 0.1192156
0001a0 5c 77 d0 bc 4c d8 b8 3e 06 92 ab 3e e2 ba 41 3d
       -0.02544754 0.3610252 0.33509845 0.047297366
0001b0 f1 96 b6 3e 1f f8 f4 3c c0 c5 3e 3e 00 f0 db 3d
       0.35662034 0.02990347 0.18630123 0.10739136
0001c0 cf cf 94 bd 92 35 c1 3d e8 d9 a0 3d 6f 04 2a be
       -0.07266199 0.09434046 0.07854062 -0.16603254
0001d0 e9 5d d0 3d c0 ef 00 be ce 7d 07 3e 7f 93 9b be
       0.10174162 -0.12591457 0.13231584 -0.30385968
0001e0 b1 8c e0 3d 71 97 1d 3e 69 f1 0a bd ec 64 4e 3e
       0.10964335 0.15389802 -0.033921633 0.20155686
0001f0 26 1f 35 3f b9 35 22 3e ec aa 0e be c7 7d 7b be
       0.70750654 0.15840806 -0.13932389 -0.24559699
000200 8d 35 18 be 1d 10 08 3e 0b e7 e1 bd 7b 02 2b be
       -0.14864178 0.13287397 -0.11030396 -0.16700165
000210 78 42 17 bf 5e c8 bd be 39 a6 8e be 0e 29 66 be
       -0.590858 -0.3706693 -0.27861193 -0.22476599
000220 4d 0b 24 bf 85 94 12 3f 46 b1 a3 bd c7 8f 68 3e
       -0.64079744 0.5725787 -0.079927966 0.22711097
000230 01 91 1e be 9d 82 f0 3d 98 2f cf bd 32 e2 39 be
       -0.15485002 0.117436625 -0.101165 -0.18152693
000240 d9 ce 06 be c1 b6 a6 bd 0d e9 e3 bc 2d 6a 09 be
       -0.13164844 -0.08140326 -0.027821088 -0.13419409
000250 43 57 9e bd 0a 49 b3 bd d4 8b 01 3e 62 fb 1f be
       -0.077314876 -0.087541655 0.12650996 -0.15623239
000260 52 91 23 3d 3c 76 1f 3d 3a 64 f0 be a6 c8 9a 3e
       0.03993351 0.038931116 -0.46951467 0.30231208
000270 bd f8 11 bc 4d 7a 9f 3e 1d 15 78 3e 04 a3 d2 bd
       -0.0089094015 0.31147996 0.24226804 -0.10284999
000280 ea cb 4c 3d 1d b4 84 3e 9e 1b 5e 3c 24 80 6c bc
       0.049999155 0.25918666 0.013556389 -0.014434848
000290 76 ef 75 be ff ec 31 be bd 76 4a bc 9d 7f 66 be
       -0.24017128 -0.17375563 -0.012357411 -0.22509618
0002a0 2f ee c8 bb 3e 1f 6a be c5 b1 5b 3e e2 60 df 3e
       -0.0061319093 -0.2286348 0.21454532 0.43628603
0002b0 2f 4c fa 3d 91 b4 52 be b2 4b 17 be 1a c7 d4 3c
       0.12221562 -0.20576693 -0.14774969 0.025973845
0002c0 1d ae 88 be e8 b0 6d bd d5 1e e4 bd 45 00 fb bd
       -0.26695338 -0.05803004 -0.11138693 -0.12255911
0002d0 c6 24 82 3e a9 2f d5 bd 6f cb 80 3e 2d b3 94 bd
       0.2541868 -0.10409481 0.25155208 -0.072607376
0002e0 c2 a6 b9 bd 68 57 14 3e 51 87 ec bd d2 1a 5b 3d
       -0.0906501 0.14486468 -0.11549247 0.053492375
0002f0 8c f4 03 be e6 05 86 3c b2 4e 0a be da 39 0f bd
       -0.12886256 0.016360234 -0.13506582 -0.03496728
000300 7f ea 02 3f f4 88 b5 bd e4 60 6d 3d a6 0a a2 be
       0.5113906 -0.08864012 0.05795373 -0.3164875
000310 62 ee e1 be f3 a2 80 3e 0d 6f 6d 3e 0d 32 e3 bd
       -0.44127184 0.2512432 0.23186894 -0.11093531
000320 fe e5 8b 3c 49 96 fd bd f7 a8 7a 3d 07 81 16 bc
       0.017077442 -0.1238218 0.061196294 -0.009186036
000330 9e 09 6d be f5 8e d9 be 54 4f 8f bd 54 9e 4f be
       -0.231482 -0.4249188 -0.069975525 -0.20275241
000340 dc 03 c8 be 4f 87 83 3e 84 56 81 be d6 98 b6 bd
       -0.39065444 0.2568917 -0.2526132 -0.0891587
000350 6b 80 d8 3e ce 73 20 be 9f e2 dd 3d a9 50 53 3d
       0.42285475 -0.15669176 0.1083424 0.051590595
000360 65 db 24 be c0 cf 07 be 08 02 75 be c9 c5 6c be
       -0.16099317 -0.13262844 -0.23926556 -0.23122324
000370 38 81 9b be 0d 34 f4 3d 20 93 0a bf e6 14 2f be
       -0.30372024 0.119239904 -0.54130745 -0.17097816
000380 6d 41 96 3c a9 d6 c0 be 4c f4 2f bd fe 32 98 be
       0.018341744 -0.37663773 -0.04295759 -0.29726404
000390 2b 3f f0 bd ed ba a2 be ff 9d 25 bf 8b 08 76 3d
       -0.11730798 -0.31783238 -0.6469421 0.06006674
0003a0 6e 34 7d be 67 4b ed be bb a5 0d 3d 31 38 16 3e
       -0.24727032 -0.4634659 0.03458188 0.14669873
0003b0 27 04 f3 bc a5 5d 0d 3e 03 5e f7 bd 85 3e 5b 3d
       -0.029665066 0.13805254 -0.12078478 0.05352642
0003c0 27 cd 74 3e ee be af 3e 9d b6 4e 3c e6 ba 87 be
       0.23906384 0.34325355 0.012616781 -0.2650978
0003d0 3c 4b f3 3e 93 e3 00 bf e5 3c b4 3d c3 79 39 be
       0.47518337 -0.5034725 0.08800677 -0.18112855
0003e0 2e c4 3a 3d e2 5a e8 be 30 ba 8e 3e 54 66 2a 3e
       0.045597248 -0.45381838 0.27876425 0.16640598
0003f0 25 6b 3d bd cf 11 7c be 86 c7 87 be ca df f4 3c
       -0.04624476 -0.24616168 -0.26519412 0.029891867

bias f4 [26]
000000 16 c8 16 bd e4 2b 29 3e 1f 6e d9 3d 65 00 fd bc
       -0.03681191 0.16520649 0.10616707 -0.030883977
000010 d9 6e bd 3d d9 57 e8 bd 4e 5e ff be eb 18 74 3d
       0.09249658 -0.113448806 -0.49876636 0.059594076
000020 6b 0d 50 be 1a ef ce be b2 be 1a be c5 28 c4 be
       -0.20317619 -0.40416795 -0.15111807 -0.38312355
000030 ad bc c5 be da 84 25 be 86 dd 51 be ba e6 24 3e
       -0.3862051 -0.1616396 -0.2049466 0.1610364
000040 17 70 0a be a1 98 c4 be c4 db e4 3e 21 c9 30 3e
       -0.13519321 -0.38397697 0.44698918 0.17264225
000050 1b 0f b1 bc e6 cc 0a be cf 40 03 be c7 fb 73 be
       -0.021613648 -0.13554725 -0.12817691 -0.23826514
000060 45 7c 94 be 72 25 1c 40
       -0.2900106 2.4397855

weight f4 [1, 32, 1, 1]
000000 d9 d4 2c 3f 02 45 87 be 29 21 99 3e 4c da b3 3c
       0.6751228 -0.26419836 0.29908112 0.021954678
000010 76 0b ae 3d 58 d1 14 3f af fe 3d be 35 bc d3 be
       0.0849828 0.58131933 -0.18554185 -0.41354528
000020 2b 0f c5 3e b2 58 af 3e fe 54 28 3f 5c 51 c5 3c
       0.38488135 0.34247357 0.6575469 0.024086647
000030 eb df 3c bd 6d 44 0d 3f ba 54 f0 be 3c 74 2d 3e
       -0.046111982 0.55182534 -0.4693964 0.16938871
000040 00 20 ca bd 0d 89 8e be 17 2c 42 bf d9 eb 45 3e
       -0.09869385 -0.27838936 -0.75848526 0.1932825
000050 60 00 bb 3e be f8 42 bf b0 f8 58 3d a8 fe ee be
       0.36523724 -0.761608 0.052971542 -0.46678662
000060 a2 86 22 be 98 4b 21 bf 0f c2 ea bd 9c ae b4 be
       -0.15871671 -0.6300597 -0.11462795 -0.35289466
000070 dd 8a 16 3f 83 f8 d4 be bd a1 79 be a1 a0 db 3e
       0.5880564 -0.4159585 -0.24378105 0.42895988

weight f4 [32, 9]
000000 d4 d2 b9 be c0 09 1d 3e 05 15 9e be 7d b9 06 3e
       -0.36293662 0.1533575 -0.30875412 0.13156696
000010 70 09 9b 3e 0c 4a 85 be 58 0c 88 bd b2 34 a8 3d
       0.30280638 -0.26033056 -0.066429794 0.08213176
000020 df 0b 52 3e 52 ae 1c be 53 40 a5 bd 04 6c ca bd
       0.20512341 -0.15300873 -0.080689095 -0.098838836
000030 fd 44 40 be 08 d9 22 3d 2e a4 17 3e e9 f1 a5 be
       -0.18776317 0.03975776 0.14808723 -0.32411125
000040 59 d8 51 3e 56 33 98 bd f9 23 ab 3e a8 8f bb 3d
       0.20492686 -0.074316666 0.33425882 0.0915826
000050 a2 e7 7d be 47 59 d1 b9 23 28 38 bd 6c 92 76 be
       -0.24795392 -0.00039930103 -0.044960152 -0.24079293
000060 9e 35 86 be 2a 9a 9b be 68 7b d6 3d e1 ee 3b be
       -0.26212782 -0.30391055 0.104727566 -0.18352844
000070 c9 28 9a 3e 76 ef 83 be ea 6f 1c be 41 45 e6 3d
       0.30109242 -0.25768632 -0.15277067 0.11243678
000080 7b 0f 9b be da ed 87 bd ac 3c 81 3d 0b aa 1b be
       -0.30285248 -0.066371635 0.063104 -0.15201585
000090 4c d2 10 be 73 9a 8b 3e f0 75 2e 3c 18 08 b2 3c
       -0.14142722 0.27266273 0.010648236 0.021732375
0000a0 e2 0e 11 3e 09 88 20 3f 44 37 c6 be e6 46 66 3e
       0.14165834 0.62707573 -0.3871404 0.22487983
0000b0 e2 2c c8 bd d8 50 c3 bd da 6a d1 be 94 79 04 be
       -0.09774186 -0.09536904 -0.40901834 -0.12937003
0000c0 d7 e1 9d bd 6c c4 f1 3e 39 76 c7 be 28 78 91 3e
       -0.07709091 0.4722017 -0.38957384 0.28411984
0000d0 f6 ac 4f 3e 2b 06 37 3d b2 10 ab 3e 73 1c 7d 3c
       0.20280823 0.044683617 0.33411175 0.015448677
0000e0 a4 c5 a1 be 3d 27 13 be 1c 32 8b be de 02 89 bc
       -0.315961 -0.14370437 -0.27186668 -0.016725
0000f0 f2 b2 6a 3e c8 f2 1d be 38 91 a0 3b d9 4c 82 3e
       0.22919825 -0.15424645 0.004900124 0.25449255
000100 19 e9 64 3e fe 58 0d be 38 5e 5c be 7f b7 fd 3d
       0.22354545 -0.13803479 -0.21520317 0.12388515
000110 f2 2e a6 be 2a 6c 83 3e aa 62 7f bd 7e 91 70 3e
       -0.3245769 0.2566846 -0.062349953 0.23493001
000120 a9 3f 3c 3e ec 71 f6 3d b2 c3 4f be 17 e7 86 bd
       0.1838366 0.120334476 -0.20289496 -0.06587046
000130 a4 02 9d 3e 8a 8b bf 3e 12 e0 b4 be c2 85 98 3d
       0.30666077 0.37411147 -0.35327202 0.07447387
000140 34 49 06 3d 3f c1 35 be f6 49 44 be 87 43 81 3c
       0.032784656 -0.17749499 -0.19168839 0.01577927
000150 45 3e 95 3e 17 68 2f bd 9b de 4e 3d de 09 0f 3d
       0.2914907 -0.042823877 0.050505262 0.03492152
000160 89 16 07 be 3b ad 89 3e bd ae 18 bd b4 dc 45 3e
       -0.1319219 0.26889977 -0.03727602 0.19322473
000170 c8 b6 10 be 8e bd 6d 3e fd 21 7b be 1b 63 4e be
       -0.14132226 0.2321684 -0.24524684 -0.20154993
000180 dd 10 42 be 90 91 08 be a8 4d bf bc f9 f2 6e be
       -0.18951745 -0.13336778 -0.02335246 -0.23334874
000190 fe 20 2f be 73 2a a6 be b3 c2 9e be df 26 90 be
       -0.1710243 -0.3245426 -0.3100792 -0.28154656
0001a0 26 85 81 be 59 42 4b be 17 e2 5c be 0e 58 5a 3e
       -0.25296897 -0.19849528 -0.21570621 0.21322653
0001b0 9b 95 90 be 5b a3 3d 3e dd 7d 11 be 7c 7d 6f 3e
       -0.2823914 0.18519346 -0.1420817 0.23387712
0001c0 4d fc 17 be e9 af 96 3d 55 ca b5 3d 27 e3 3b be
       -0.14842339 0.07357771 0.088764824 -0.1834837
0001d0 e7 6e 02 3d 91 02 c1 3b 8f af 1a be a4 cb 37 be
       0.031844046 0.0058901985 -0.15106033 -0.17948776
0001e0 e3 3d 94 3d d6 fa 80 be a5 15 3a 3e ed bf 49 be
       0.072383665 -0.25191373 0.18172319 -0.1970212
0001f0 1b 81 9e 3d 8f eb 66 3d ad a5 23 3c 27 d6 c4 bb
       0.07739469 0.05637699 0.009988231 -0.0060069743
000200 0d 2c a2 3e 0c 64 58 be 78 6a 38 3e 30 d8 7f be
       0.31674233 -0.21131915 0.18009365 -0.24984813
000210 76 32 1d 3b 62 27 0c be c4 a3 39 3e 58 90 11 3e
       0.0023986376 -0.13686898 0.18128878 0.14215219
000220 49 d1 2c be be d4 7b 3d 9b 17 24 3e fc 04 da bd
       -0.16876711 0.061482184 0.1602463 -0.10645482
000230 e9 1f 16 3e 1e e3 ac be a3 81 c3 bd 81 34 f1 bd
       0.1466061 -0.33767027 -0.095462106 -0.117775925
000240 82 d3 1e be c4 a8 05 be ab 43 c1 3d 2e 46 66 3e
       -0.15510371 -0.1305266 0.09436735 0.22487709
000250 a1 40 69 be d1 6f 68 3e 21 e4 35 be a4 f5 54 be
       -0.2277856 0.22698905 -0.17762806 -0.2079683
000260 50 88 a5 3d 2d 07 19 be 2e 53 87 be ad 23 7d be
       0.0808264 -0.14944144 -0.2643065 -0.2472064
000270 17 06 24 3e f6 84 48 3e d8 43 ab be a6 3b 8b 3e
       0.16017948 0.1958197 -0.33450198 0.27193946
000280 ae 8d a0 3d ea 71 38 3e c9 c4 98 3e e8 f6 ab 3e
       0.07839523 0.18012205 0.29837635 0.33586812
000290 9c 0c 66 3e 93 94 e2 3d a2 d1 0c bf 40 07 d6 be
       0.22465748 0.110634945 -0.55007374 -0.41802406
0002a0 63 39 28 3e fa ee 36 be 08 7b e4 3d f4 53 27 3d
       0.16428141 -0.178646 0.11156279 0.04085155
0002b0 a0 22 15 bd c4 32 84 3e f4 94 a7 3c 6b a6 1c be
       -0.036409974 0.2581998 0.020456769 -0.15297858
0002c0 23 2c 08 3f 24 f1 b5 bc e0 7b 8f be 45 fe 24 3e
       0.5319235 -0.022209711 -0.28024197 0.16112621
0002d0 ba 9d 58 3e fe 43 17 3e e5 cd 1c be f0 cc 35 be
       0.21153918 0.1477203 -0.15312918 -0.17753959
0002e0 ed 28 33 3e 5e 67 c0 be 77 29 8c 3e 4b bd 54 3d
       0.1749608 -0.37578863 0.27375385 0.051938336
0002f0 f5 aa 90 be 4b 76 83 be d7 18 04 be 8c 46 53 3e
       -0.2825543 -0.25676188 -0.129001 0.2063238
000300 39 65 a1 bd 46 7a bb 3d b1 0b c6 3e a8 f6 a0 be
       -0.07880635 0.09154181 0.38680795 -0.31438184
000310 26 d2 3d be 7d 2e 4b 3e e6 e8 a8 bc 41 bd ab be
       -0.18537197 0.19841953 -0.020618867 -0.33542827
000320 45 70 38 3e 14 8a 65 3e cc 58 73 3d 1c 44 64 bd
       0.18011577 0.22415954 0.059410855 -0.055729017
000330 73 c9 6b be f4 7d 83 bd 68 cf 8d be 67 7f 8f 3e
       -0.23026066 -0.06420508 -0.276973 0.28026888
000340 5f c3 83 3d b8 0a 73 3e c7 56 3c be 74 6e af 3d
       0.064337485 0.23734558 -0.18392478 0.08565989
000350 05 7e 0b be 75 b2 96 3e 7d 8a 09 be c1 b3 31 3d
       -0.13622291 0.29433027 -0.13431735 0.043384317
000360 ae 88 ed 3e d6 bb 82 be 40 81 a1 3e 08 7b c5 3d
       0.4639334 -0.25533932 0.31543922 0.09642607
000370 30 c4 7a 3c 4b 53 12 bf a5 b7 21 3e 3c 7a 84 bd
       0.015305564 -0.57158345 0.15792711 -0.06468627
000380 8b c0 45 be e5 be 56 3e a5 5e cf 3d fa 36 8c be
       -0.1931173 0.20971258 0.10125474 -0.27385694
000390 ef 51 75 3e e1 81 84 3e 13 97 d8 3d d2 68 bf 3c
       0.23957036 0.2588034 0.1057569 0.023365412
0003a0 d4 43 93 be 49 65 95 be 6a 2f 11 bd 50 8a 01 be
       -0.28762686 -0.29178837 -0.03544561 -0.12650418
0003b0 29 33 50 be 88 83 96 be be 4d 65 bb aa d4 83 be
       -0.20332016 -0.29397225 -0.0034988965 -0.25748187
0003c0 02 6e 5b be 35 d5 f7 3d be c6 7a 3e d1 46 36 3d
       -0.21428683 0.12101213 0.24489877 0.04450113
0003d0 0c 3d d7 3d fd 06 a0 3e aa 04 3b 3e e5 c5 4b 3e
       0.10509691 0.31255332 0.18263498 0.1989971
0003e0 8c e2 80 3e 2b 77 22 3e 5f 5f bd be c2 5b 91 be
       0.25172842 0.15865771 -0.36986825 -0.28390318
0003f0 cf 48 80 3e c0 af 4b be 8b b5 7c 3e ea 22 ae 3e
       0.2505555 -0.19891262 0.24678628 0.34011012

bias f4 [32]
000000 b5 84 ce bd f4 75 5d be 28 ce 45 3e 20 55 04 be
       -0.100839056 -0.21627027 0.19316924 -0.12923098
000010 c5 9e 7f 3e ef dc e5 be ba 57 01 3e 47 46 75 3e
       0.2496291 -0.4489512 0.12631121 0.2395259
000020 f8 25 81 be 5a cc 2e be 1b a2 ce 3c 7f 59 36 3d
       -0.2522428 -0.17070141 0.025223782 0.044518944
000030 7b ed 70 be 7e c8 6e be a1 24 40 be b6 22 53 be
       -0.23528092 -0.23318669 -0.18763973 -0.2061871
000040 5c c1 a0 be 6b ad ea bd e7 ab 08 3e 93 ab 0f be
       -0.31397521 -0.11458858 0.13346826 -0.14030294
000050 15 ea 91 3e d1 30 66 be 22 d7 b6 3d d1 88 28 3e
       0.28498903 -0.2247956 0.08927752 0.16458441
000060 03 3b 27 3c 5f e9 73 be 0c 03 c9 3d 62 bf 80 be
       0.010206941 -0.23819493 0.09815034 -0.25146013
000070 55 d6 3e be 67 59 71 bd 2e 62 55 3e c7 92 5f be
       -0.18636449 -0.05892315 0.20838234 -0.21833335

weight f4 [1, 32]
000000 74 42 8d 3d 14 46 b5 bd 6f 3d 01 3e 97 af 60 bd
       0.068974406 -0.08851257 0.12621091 -0.054854956
000010 b1 f1 ac be d2 4c f3 3e f9 eb 3f 3e 3c c0 37 3e
       -0.33778146 0.47519547 0.1874236 0.17944425
000020 6f c3 a9 be fe 79 55 bd 70 d2 01 3e 4e 1c 05 bd
       -0.33156916 -0.052118294 0.12677932 -0.032497697
000030 6f 1f 70 bd 2b 85 cd bd 4f 20 0c bd 64 c4 a8 3d
       -0.058623727 -0.100351654 -0.0342105 0.082405835
000040 28 58 48 bd c6 b6 50 3e c9 c3 16 3f d5 ff ac be
       -0.048912197 0.20382223 0.58892494 -0.33788934
000050 5d ba 54 3e c9 89 50 be 2a 86 2e bd 0f 49 09 3e
       0.20774217 -0.20365061 -0.042608418 0.13406776
000060 36 04 e6 3e b1 47 1d be e6 a3 36 be 20 17 0a be
       0.44925088 -0.1535938 -0.1783596 -0.13485384
000070 6e 02 26 3e 3f 68 8e bc 0c ec 80 3d d3 00 b5 3d
       0.16211864 -0.017383693 0.06295022 0.08838048

weight f4 [32, 32, 3, 3]
000000 ff e0 0e 3d 4e d1 a4 3c 0d bd 18 3d 62 90 86 3c
       0.03488254 0.020119336 0.037289668 0.016426269
000010 28 61 87 3b 48 f5 8d bc 57 bc f9 bc 2e 49 cb 3c
       0.004131455 -0.017328873 -0.030485315 0.024815168
000020 70 49 3a bc 48 7c c5 bc 00 f8 3a b8 de eb 0a bd
       -0.011370048 -0.024107113 -4.4576824e-05 -0.033916347
000030 c4 de 29 bc 80 c2 66 bd d0 38 01 3b fd 24 58 3d
       -0.010368053 -0.056337833 0.00197177 0.05276965
000040 46 1a 8e 3c 29 19 1c bd 41 db 2d 3d ac b8 5d bc
       0.017346513 -0.038109932 0.042445425 -0.013532799
000050 e6 0f 32 bd a6 63 ce 3c 84 d0 a4 bc 7b 86 18 bd
       -0.043472193 0.025194 -0.02011896 -0.037237626
000060 f2 51 c1 3c d3 b3 4c 3d e9 0e 34 3d 64 a6 12 3c
       0.023598645 0.04997618 0.043959532 0.008950803
000070 c0 20 94 ba 2a 00 b8 3c 48 3e cb 3b 72 f6 4f bd
       -0.0011301264 0.022461016 0.006202493 -0.050772138
000080 cc ea 7b bc 3c f8 43 bd 6c 1b 23 3c 58 22 68 bd
       -0.015375804 -0.047844157 0.009955268 -0.056673378
000090 86 36 6d bd 4e 80 ab 3c 76 3d b7 3c 72 db 23 bd
       -0.057913326 0.020935204 0.022368174 -0.0400042
0000a0 fe c5 d3 3c 19 45 41 3d 40 94 53 bb 8b 46 24 bd
       0.025851246 0.047185037 -0.0032284409 -0.040106338
0000b0 a0 53 f1 bb 3c 5f 6a bd 80 48 00 3a a5 fd 3a 3d
       -0.007364705 -0.05721973 0.0004893616 0.04565205
0000c0 6c ce 3b bc 80 76 9f 39 88 86 b5 bc 90 15 75 bc
       -0.011462789 0.00030415133 -0.022158876 -0.014958754
0000d0 18 0d f9 3b 5a b1 bd 3c ae 39 ba 3c d1 49 f3 bc
       0.007600438 0.023155857 0.022732582 -0.029698284
0000e0 a3 fa 30 3d 9a 56 ce 3c 37 f3 20 3d 54 33 bc bc
       0.043207776 0.02518778 0.039294448 -0.022973694
0000f0 00 67 b3 3a bc ae 08 bd 31 48 31 bd 88 52 e8 bc
       0.0013687313 -0.033369765 -0.043281738 -0.028359666
000100 8c bd 0a 3c d9 49 f3 bc 8d 91 5f 3d e6 bb f5 3c
       0.008468043 -0.0296983 0.054582167 0.029996824
000110 e6 e8 30 bd b9 80 54 bd c4 6b 77 bc 1f 68 34 bd
       -0.04319086 -0.051880572 -0.015101377 -0.04404461
000120 e5 4c 56 bd 6c 82 56 3c 10 f9 4e bb cc b6 7f bc
       -0.052319426 0.013092618 -0.0031581558 -0.015607547
000130 d2 53 b9 3c 20 5e 90 ba 20 d0 ae bb 5b c9 1d 3d
       0.022622976 -0.001101438 -0.005334869 0.038522106
000140 12 24 5f bd e8 8d f6 3b 36 f0 3d bd c4 dd 47 3c
       -0.05447776 0.0075242408 -0.04637166 0.012198869
000150 f6 56 b2 3c 42 ec 91 3c 24 3c b2 bc 33 31 70 3d
       0.021769982 0.017812852 -0.021757193 0.05864067
000160 6f 65 3c 3d c0 73 ef ba c5 ac 2e bd 20 1c 08 bc
       0.045995172 -0.0018268749 -0.042645235 -0.008307487
000170 71 fd 5d 3d d2 06 c4 bc 9e 90 61 bd 39 35 0c 3d
       0.05419678 -0.023929033 -0.05506956 0.034230445
000180 b6 b4 a0 3c 84 be 39 bd 00 fa c8 3a ec 4a 35 bc
       0.01961742 -0.045347705 0.0015333295 -0.011065226
000190 fe 2f ff 3c 33 38 2a bd 52 1a 28 bd d0 d8 90 bc
       0.031150814 -0.041557502 -0.041040726 -0.01768151
0001a0 38 50 58 bd 41 cf 27 3d 12 38 1a bd 82 02 5c bd
       -0.052810878 0.040969137 -0.03765113 -0.05371333
0001b0 20 01 95 ba bf 4f 6d 3d 49 46 e7 bc 85 00 e8 bc
       -0.0011368133 0.05793738 -0.028231757 -0.02832056
0001c0 1c da ad bc 72 60 96 3c 00 32 d5 ba a0 a9 38 3b
       -0.021222167 0.018356536 -0.0016265512 0.0028177276
0001d0 c8 d7 da bb 1b f7 13 3d 64 36 75 3c f1 92 52 3d
       -0.006678555 0.03612433 0.014966581 0.051409665
0001e0 36 44 d9 3c c8 64 9c bc 0c 00 80 bc 61 4d 67 3d
       0.026521783 -0.019091025 -0.015625022 0.05647028
0001f0 7b 36 17 bd 00 3f 3c b9 78 9f ca 3b bc 99 24 3c
       -0.03691719 -0.00017952546 0.006183561 0.010046419
000200 ca eb eb bc 9b 80 28 3d 93 73 2a 3d ac 11 52 3c
       -0.028798956 0.041138273 0.041614126 0.012821596
000210 0d f2 6b 3d 34 72 41 bd fd 91 58 3d ee b7 85 3c
       0.057603884 -0.047228053 0.0528736 0.016323056
000220 0f c4 5b bd 22 41 fc bc 5c 51 26 bd 07 63 41 3d
       -0.053653773 -0.030792776 -0.040604934 0.04721358
000230 54 26 96 bc ae f3 f4 3c 44 1d 5b 3c 1b 30 14 3d
       -0.018328823 0.029901352 0.013373677 0.03617869
000240 90 60 1e bb 5c e4 35 3c 8c be 4f bd 6e 68 16 bd
       -0.0024166442 0.011101808 -0.05071883 -0.036720686
000250 c0 4b f0 ba 56 2e 1e bd 83 00 03 3d 18 59 d7 bc
       -0.0018333122 -0.03861841 0.03198291 -0.0262876
000260 d4 20 5b 3c 09 c3 03 3d fc 75 02 bd 6e 6f d1 bc
       0.013374526 0.032168422 -0.0318508 -0.02556583
000270 9e 66 a8 3c 8c 63 d4 bc 10 1f 1d bd c5 5e 53 3d
       0.020556744 -0.025926374 -0.0383597 0.05160405
000280 ae 9c fb 3c a2 d4 24 bd 97 8d 26 bd b9 cd 3e 3d
       0.03071436 -0.040241845 -0.040662374 0.04658291
000290 4a 7a 67 bd 58 3c f3 3b 1e ab 0b bd 71 1b 6e 3d
       -0.05651311 0.007422965 -0.034098737 0.05813164
0002a0 44 8d f6 bc 67 09 1a 3d 3b 88 68 3d fc a7 36 3c
       -0.030096658 0.037606623 0.056770544 0.011148449
0002b0 45 5d 6d 3d 1f a5 14 bd 27 63 f8 bc 16 9b a6 3c
       0.057950277 -0.036290284 -0.030320717 0.020337623
0002c0 ff 6a 6e bd a1 45 22 3d 3e 49 31 bd 8c 65 36 bd
       -0.05820751 0.039617185 -0.04328274 -0.044530436
0002d0 a4 a8 40 bd 60 7e 3a bd d7 34 1b 3d 22 01 a1 3c
       -0.04703583 -0.045530677 0.03789219 0.01965386
0002e0 21 d4 56 bd 0e b7 de 3c 14 7f 52 3c 46 3c 38 bd
       -0.052448396 0.027186897 0.012847681 -0.044979356
0002f0 68 d4 3b bc 15 20 51 3d 60 d1 14 3b 23 fb 3d bd
       -0.011464216 0.051055986 0.0022707805 -0.04638208
000300 fe 03 af 3c 51 2e 0f 3d c9 1e 5b 3d 20 b9 39 bb
       0.021364208 0.03495628 0.053496156 -0.0028339103
000310 24 a2 1d 3c 80 3f a9 bb ca 35 b9 3c f1 9b 12 3d
       0.009621177 -0.0051650405 0.022608656 0.03579325
000320 ac 0b 26 bc 80 a6 dd 3a 47 ab 4c 3d 86 a4 d2 bc
       -0.010134619 0.0016910583 0.04996803 -0.025713217
000330 3c 25 5c bd 66 c7 08 bd 15 ce 40 3d d0 ce 21 3b
       -0.053746447 -0.033393286 0.047071535 0.002468992
000340 79 1b 2e 3d c7 b5 27 bd e6 bc 8d 3c 3c b8 5e bc
       0.04250667 -0.04094484 0.017301988 -0.01359373
000350 90 b7 04 bb d3 a6 21 3d c0 47 7f 3a 90 b0 78 3b
       -0.0020251013 0.039465737 0.00097381696 0.0037947036
000360 af ab 0d 3d 39 c2 34 3d 80 1d a0 bb 28 eb 05 bd
       0.03458756 0.044130538 -0.004886329 -0.032694966
000370 c4 6e c2 bc 68 d4 00 bc c9 ca 3e 3d 84 4e bc bc
       -0.023734458 -0.007863142 0.04658011 -0.022986658
000380 00 98 8b 37 5c 90 75 3c 41 e1 4d 3d c7 1f 19 3d
       1.6640872e-05 0.014988031 0.050263647 0.03738382
000390 f8 4f d7 bb 46 43 e2 bc 84 7d 28 bc 93 1c 1b 3d
       -0.0065708123 -0.02761997 -0.0102838315 0.037869047
0003a0 1e 53 b5 3c 9e 43 d7 bc c4 2c 84 bc a9 a8 26 3d
       0.02213436 -0.02627736 -0.016134627 0.04068819
0003b0 70 61 5d bb 9e 20 e8 3c 98 b0 c7 bc 9a 91 e7 3c
       -0.003378 0.028335866 -0.024376199 0.02826767
0003c0 01 bc 17 3d ce ab fd bc 42 0e a9 3c 10 90 d1 bc
       0.03704453 -0.030965712 0.020636681 -0.02558139
0003d0 a0 cc 72 bc e6 cc 82 3c d2 df be 3c 7c ef 1f 3c
       -0.014819294 0.015966844 0.023300085 0.009761687
0003e0 ca e2 8f 3c 2f 33 11 3d c9 83 61 3d 88 41 0a bd
       0.017564196 0.035449203 0.05505732 -0.0337539
0003f0 a5 d4 2c bd a2 7d a9 3c 7d 67 58 bd 30 3f 04 bc
       -0.04219498 0.02068979 -0.05283307 -0.008071706

bias f4 [32]
000000 9e a5 be bc 5c 9f 13 3c 78 6d 91 3b 74 a5 28 bd
       -0.023272332 0.009010162 0.0044380985 -0.041173413
000010 29 0f 54 3d bc 17 2b 3c 45 14 54 3d c9 bd 0a 3d
       0.05177227 0.01044267 0.051777143 0.0338724
000020 1b a2 fa bc 00 a5 7e bb d0 4f ca bc b3 68 3f 3d
       -0.030594876 -0.0038855672 -0.02469626 0.04673071
000030 9a c0 0e bd 80 79 b8 39 98 0d 68 bd 03 1f 10 bd
       -0.034851648 0.0003518574 -0.05665359 -0.035185825
000040 d9 55 37 3d 0a e9 a5 3c 37 eb 38 bd 0c 00 0c 3c
       0.044759605 0.020252723 -0.045146193 0.008544933
000050 04 0b ae bc 48 5f 84 3b ba f5 82 bc 68 af 93 bc
       -0.021245487 0.0040396787 -0.015986312 -0.018027976
000060 8f 47 46 bd 1d 13 36 3d 68 b9 6a bc 5a d6 8e bc
       -0.048408087 0.04445182 -0.014326431 -0.017436195
000070 d1 4e 37 bd 30 e1 77 3b 1a cb e9 3c 51 73 26 bd
       -0.0447529 0.0037823431 0.02853923 -0.040637318

weight f4 [32, 32, 3, 3]
000000 b8 79 dd bc 73 06 50 3d e5 3c 1a bd 67 b8 03 3d
       -0.02703558 0.0507874 -0.03765573 0.03215828
000010 a5 1c 3d 3d d2 5e fc 3c a2 77 fc 3c 5b e9 0d 3d
       0.046169896 0.030806933 0.030818764 0.034646373
000020 98 25 54 bd b3 16 0c 3d 43 8a 40 3d 76 5d e1 3c
       -0.051793665 0.034201335 0.047006857 0.027510386
000030 55 8e 3a 3d e7 0d 3f 3d c1 30 48 3d c1 58 1d 3d
       0.045545895 0.046644118 0.04887462 0.03841472
000040 a3 04 59 bd 4a 13 a9 bc 2b a9 57 3d b8 92 51 bd
       -0.052982938 -0.02063908 0.052651566 -0.051165313
000050 ef 50 38 3d 3d 01 67 3d b3 14 51 3d 38 84 ca bc
       0.04499906 0.056397665 0.05104513 -0.02472125
000060 25 fb 6b bd 2c 64 f3 bc d9 ff 2e 3d 17 fb 28 3d
       -0.057612557 -0.029710852 0.042724464 0.041255083
000070 58 e9 08 bd e2 cb e6 bc c1 f3 4d bd f6 c8 96 bc
       -0.03342566 -0.02817339 -0.05028129 -0.018406373
000080 ea f3 a4 3c d4 43 3e 3c 49 ea 03 bd 02 5b 83 bc
       0.020135839 0.011612851 -0.032205854 -0.016034607
000090 7e 01 ee 3c b4 b1 18 3c 88 07 5a bd 8c 6f 52 bc
       0.029053446 0.0093197115 -0.05322984 -0.012843978
0000a0 48 50 e4 bb c2 50 a4 3c 66 56 f3 3c f9 2c 1f bd
       -0.006967578 0.02005804 0.029704284 -0.03886125
0000b0 1a 5a f7 3c ff 39 39 3d bb d7 59 bd 7c 9c 4d 3c
       0.030194331 0.045221325 -0.053184252 0.012549516
0000c0 1a 2a 6f bd ca 46 db 3c aa 4d bb 3c 76 26 d6 bc
       -0.05838976 0.026767153 0.022864182 -0.026141386
0000d0 e8 1b 19 bd 18 bb 80 3b ee 25 86 3c 82 20 39 bd
       -0.03738013 0.0039285533 0.016375508 -0.045197017
0000e0 b1 b4 38 3d 00 62 50 b9 48 88 6a bd 55 28 64 bd
       0.045094196 -0.00019872934 -0.057258874 -0.055702526
0000f0 2d 63 37 bd c5 e7 3b 3d fa e0 99 3c f0 43 40 bd
       -0.044772316 0.04587533 0.018784035 -0.04693979
000100 07 a0 69 3d e0 8c 30 bc c8 11 9f 3b a4 6c 53 bd
       0.05703738 -0.010775775 0.0048544146 -0.05161728
000110 ac 8a 09 bc 14 7a 34 bd 23 d0 01 3d e0 52 44 bc
       -0.008394878 -0.044061735 0.031692635 -0.01198265
000120 90 88 14 3b 81 13 2f 3d 00 f5 56 bc ce df 20 bd
       0.0022664405 0.04274321 -0.013119936 -0.039275937
000130 a0 32 63 bc d6 02 bf 3c 4c 37 4e bc 4f 0e 10 3d
       -0.01386705 0.023316782 -0.012586426 0.035169896
000140 b8 12 70 bc ce 64 2a bd b4 ec 6c 3c 08 fa 9a 3b
       -0.0146529 -0.04160004 0.014460731 0.004729513
000150 60 69 23 bb b2 0c 94 3c 7f 9e 47 3d ca e1 ab 3c
       -0.0024934635 0.01807246 0.048735138 0.020981688
000160 00 98 3a bd 4c 5e 0d bd 94 a5 68 3c 44 f1 29 bd
       -0.045555115 -0.034513757 0.014199633 -0.041489854
000170 e8 30 0d bc 83 55 51 3d 24 17 59 bd dc 30 a5 bc
       -0.008617617 0.05110694 -0.053000584 -0.0201649
000180 44 3d 67 bd 16 05 6a bd 12 e5 03 bd 52 38 99 bc
       -0.05645491 -0.057133757 -0.03220088 -0.018703613
000190 b0 89 49 bc e0 c4 b0 bb de fb b8 3c 48 1b 99 bc
       -0.012300894 -0.005394563 0.022581037 -0.018689767
0001a0 d2 3a 4f bd 0e e1 1a bd 24 4f 5b 3c 88 5a 80 bc
       -0.050593205 -0.037812285 0.013385568 -0.015668169
0001b0 00 0f b4 39 85 63 f1 bc ae 45 a9 3c 7f 95 33 3d
       0.0003434345 -0.0294664 0.020663109 0.043843742
0001c0 4b cd ff bc 25 f8 4a 3d 91 27 4c bd 5e a6 88 3c
       -0.031225821 0.049553055 -0.04984242 0.016680893
0001d0 b1 48 23 bd 46 70 94 bc 8c ab 01 bd e0 d9 d3 ba
       -0.039864246 -0.018119942 -0.03165774 -0.0016162954
0001e0 6a f2 cf bc 1a b7 cd 3c d0 cb b8 bc 08 5b 34 bd
       -0.025384147 0.025111724 -0.022558123 -0.044032127
0001f0 ac a5 c3 bc de 4f 8f bc 1c f8 0b bc ce 8f ad bc
       -0.02388271 -0.017494138 -0.008543041 -0.021186735
000200 0c 49 32 3c d5 77 4a 3d 18 e1 2e bd 20 b0 b1 ba
       0.010881674 0.049430687 -0.042695135 -0.0013556518
000210 d8 8f e2 bb 74 e5 44 bc 42 a7 b0 3c cc 06 15 bd
       -0.00691412 -0.0120175965 0.02156413 -0.036383435
000220 9d c1 15 3d f5 90 16 3d 80 e2 af b9 af 5f 41 3d
       0.036561597 0.036759336 -0.00033547357 0.04721039
000230 6d ff 5a bd 3a ea b4 bc c9 b1 39 3d e4 a9 48 bc
       -0.05346625 -0.022084344 0.045335565 -0.012247536
000240 94 02 75 3c 50 eb 4a bd 62 88 d8 bc b5 5e 3a 3d
       0.014954228 -0.049540818 -0.02643222 0.045500476
000250 ae d4 ff 3c d8 95 89 bc ec 68 71 bc e8 44 ec bb
       0.031229343 -0.016795084 -0.014734488 -0.0072103627
000260 e0 cc 84 bb dc 98 54 bd 28 fd 90 bc ae 32 ee bc
       -0.0040527433 -0.05190359 -0.01769884 -0.0290769
000270 d0 bc 28 3b 1d 4b 48 bd f4 c4 48 3c ed e4 4f 3d
       0.0025747307 -0.04889976 0.0122539885 0.05075543
000280 5b e2 5f 3d 65 3f 22 3d ed 48 3e bd 4d d3 07 3d
       0.05465923 0.03961124 -0.046456266 0.033160497
000290 50 b8 78 bc 6a d7 a7 bc 83 c7 05 3d 5c a8 dd bc
       -0.015180662 -0.02048846 0.032660972 -0.027057819
0002a0 56 a2 d1 3c be f8 0b bd f0 b6 0f bc b8 40 c3 3b
       0.025590103 -0.034172766 -0.008771643 0.005958643
0002b0 eb af 55 3d 53 a5 69 bd 42 26 c3 bc e8 52 b2 3b
       0.05216972 -0.05704243 -0.023821954 0.005442012
0002c0 30 85 d1 bc 9a 59 f3 3c 1e ab cb 3c be e0 d0 bc
       -0.025576204 0.029705811 0.024861868 -0.02549779
0002d0 7b a3 6a 3d cf 8a 09 3d e8 d9 fc 3b f7 eb 45 3d
       0.057284813 0.033579644 0.007716406 0.048320737
0002e0 c0 54 ed bb 41 a9 50 3d e9 0f 42 3d f0 2b a5 bc
       -0.007242769 0.050942663 0.047378454 -0.020162553
0002f0 54 6e c6 bc f4 df 37 bc 66 83 83 3c 7b 15 27 3d
       -0.02422253 -0.011222828 0.016053867 0.04079197
000300 7c 04 46 bc a6 92 f2 3c a0 65 a9 bb 78 13 b3 bc
       -0.01208603 0.029610943 -0.0051695853 -0.02185987
000310 1d 3a 58 3d 53 d1 16 3d c6 5a 97 bc 5a 75 92 bc
       0.052789796 0.03682072 -0.018475901 -0.017878223
000320 45 fc 4d 3d 60 97 52 bc 9c bd 2a bd 14 09 18 3c
       0.05028941 -0.012853473 -0.04168473 0.009279508
000330 15 f2 66 3d 62 cf 89 bc f7 c7 fa bc ea f9 d7 3c
       0.05638321 -0.01682252 -0.030612929 0.026364285
000340 ca d4 ea 3c 1c d0 a0 bc 1c 30 31 bc 36 28 99 3c
       0.028665919 -0.019630484 -0.010814693 0.018695932
000350 40 d3 1b bd f8 34 ba bc 23 f2 37 3d 9a 61 df 3c
       -0.03804326 -0.022730336 0.044908654 0.02726822
000360 6b 29 29 3d ca 93 d4 bc 81 d6 60 3d b0 9c 0a bd
       0.041299265 -0.025949378 0.054892067 -0.033840835
000370 80 1e 1e ba 2f 2b 2d 3d 0d 38 31 3d 47 cc 3c 3d
       -0.00060317665 0.04227751 0.043266345 0.04609325
000380 d2 53 85 bc cf 3e 60 3d db 6b 3f 3d 0c 09 29 bd
       -0.01627532 0.0547474 0.04673372 -0.041268393
000390 76 59 a4 bc 8a af ce 3c 79 0e 62 3d 37 4e 5b bd
       -0.02006219 0.025230188 0.055189583 -0.05354139
0003a0 f7 84 5c 3d 28 5d a3 bc 2e 79 af 3c d0 10 04 bc
       0.053837743 -0.019941881 0.021420088 -0.008060649
0003b0 d6 b0 46 bd 46 63 d9 3c 63 2a 0a 3d 62 86 a6 3c
       -0.048508488 0.026536595 0.03373183 0.02032775
0003c0 c2 a4 8b 3c c1 15 14 3d 57 08 2b 3d d1 4d 2c 3d
       0.017046336 0.03615356 0.041756 0.0420664
0003d0 0e af 9e 3c f2 18 d4 3c f8 75 85 bc fc d3 68 bd
       0.019370582 0.025890801 -0.016291603 -0.05684279
0003e0 31 03 4b bd c1 ba 0f 3d 96 19 87 3c c9 3f 2c 3d
       -0.04956359 0.03509021 0.016491693 0.042053018
0003f0 92 c9 0e bd 9b 0d 23 3d 48 c2 9b bb 89 18 2e 3d
       -0.0348602 0.039807897 -0.0047533847 0.042503867

bias f4 [32]
000000 bc d7 3b bd a0 0b 8e bb cd ba 3c bd a4 33 18 bc
       -0.045860037 -0.004334882 -0.046076585 -0.009289656
000010 96 7e d8 bc 52 39 e0 bc 00 bf b8 bb 15 60 5b 3d
       -0.026427548 -0.027371082 -0.0056380033 0.053558428
000020 32 7e a9 3c fa e0 db 3c d7 34 2a bd 12 c0 a4 3c
       0.020690057 0.026840676 -0.0415543 0.020111118
000030 33 ae 2e 3d d0 4f 4b bd 3a a7 87 3c b0 8e ee bb
       0.042646598 -0.049636662 0.016559232 -0.0072801933
000040 44 9b 20 3c 68 e8 fc bc 48 38 6c bd b2 c7 b4 3c
       0.009802643 -0.030872539 -0.05767086 0.022067878
000050 d8 6e 96 3b 90 88 3a bd f9 76 69 bd a1 a0 45 bd
       0.0045908503 -0.045540392 -0.056998227 -0.04824889
000060 a2 87 c9 bc d3 bd 60 bd 56 90 e7 3c 25 d0 60 3d
       -0.024600808 -0.05486853 0.028267067 0.054886002
000070 78 eb 79 bc ac db 08 3c 6b e8 5b bd 80 80 01 bc
       -0.015253894 0.008353155 -0.053688448 -0.007904172

weight f4 [32]
000000 00 00 80 3f 00 00 80 3f 00 00 80 3f 00 00 80 3f
       1.0 1.0 1.0 1.0
000010 00 00 80 3f 00 00 80 3f 00 00 80 3f 00 00 80 3f
       1.0 1.0 1.0 1.0
000020 00 00 80 3f 00 00 80 3f 00 00 80 3f 00 00 80 3f
       1.0 1.0 1.0 1.0
000030 00 00 80 3f 00 00 80 3f 00 00 80 3f 00 00 80 3f
       1.0 1.0 1.0 1.0
000040 00 00 80 3f 00 00 80 3f 00 00 80 3f 00 00 80 3f
       1.0 1.0 1.0 1.0
000050 00 00 80 3f 00 00 80 3f 00 00 80 3f 00 00 80 3f
       1.0 1.0 1.0 1.0
000060 00 00 80 3f 00 00 80 3f 00 00 80 3f 00 00 80 3f
       1.0 1.0 1.0 1.0
000070 00 00 80 3f 00 00 80 3f 00 00 80 3f 00 00 80 3f
       1.0 1.0 1.0 1.0

bias f4 [32]
000000 00 00 00 00 00 00 00 00 00 00 00 00 00 00 00 00
       0.0 0.0 0.0 0.0
000010 00 00 00 00 00 00 00 00 00 00 00 00 00 00 00 00
       0.0 0.0 0.0 0.0
000020 00 00 00 00 00 00 00 00 00 00 00 00 00 00 00 00
       0.0 0.0 0.0 0.0
000030 00 00 00 00 00 00 00 00 00 00 00 00 00 00 00 00
       0.0 0.0 0.0 0.0
000040 00 00 00 00 00 00 00 00 00 00 00 00 00 00 00 00
       0.0 0.0 0.0 0.0
000050 00 00 00 00 00 00 00 00 00 00 00 00 00 00 00 00
       0.0 0.0 0.0 0.0
000060 00 00 00 00 00 00 00 00 00 00 00 00 00 00 00 00
       0.0 0.0 0.0 0.0
000070 00 00 00 00 00 00 00 00 00 00 00 00 00 00 00 00
       0.0 0.0 0.0 0.0

running_mean f4 [32]
000000 84 97 29 be 34 82 38 3f 56 ed 78 bd 3a 7f 2e 3e
       -0.16561705 0.72073674 -0.060773216 0.1704072
000010 3d 94 6e 3e 94 f7 c3 3e 30 ac da 3e 7a 3e 16 3d
       0.23298736 0.38274825 0.42709494 0.036680676
000020 0b 63 81 3e ba b0 03 be 81 85 f4 3c d3 1e 3c 3d
       0.25270876 -0.12860385 0.029848816 0.045927834
000030 c9 57 8f be 63 88 c7 3e ee 1d 37 3e f8 b1 e9 be
       -0.27996662 0.38971242 0.17882511 -0.45643592
000040 51 e7 4a 3e 88 1b b1 be 85 8d 3a be e9 9b 24 3e
       0.19814803 -0.34591317 -0.18218048 0.160751
000050 89 60 38 3d 7f 31 1b be 63 a6 a7 be 22 ce 07 bf
       0.045013938 -0.151556 -0.3274413 -0.5304891
000060 a2 83 f1 be 8a 76 28 3f db 9a f6 be 5d 6e 39 3d
       -0.4717074 0.65805876 -0.4816502 0.045271266
000070 01 08 4b be d9 8b e4 3d f6 24 80 3d d8 db c0 be
       -0.19827272 0.11159486 0.0625705 -0.37667727

running_var f4 [32]
000000 12 af 15 3e 9b 62 dc 3d 70 b2 12 3e f6 6f 98 3e
       0.14617565 0.10760995 0.14325881 0.2977292
000010 7b e2 31 3e bc e0 8f 3e fb 28 91 3e c8 7c cb 3e
       0.17371552 0.28101146 0.28351578 0.39743638
000020 75 81 04 3e 58 1d ad 3e 58 19 f1 3d a0 cb 2a 3e
       0.12940009 0.3381145 0.11772412 0.1667924
000030 35 84 70 3e 44 35 9f 3e b7 db 0b 3f 29 8d c1 3d
       0.23487933 0.31095326 0.54632133 0.09450752
000040 44 6e fa 3d 1a d3 34 3e ad 55 67 3e 61 76 9c 3e
       0.12228063 0.17658654 0.22591276 0.30559066
000050 b1 ec 46 3e 1d c9 38 3e 2a ef 9c 3e a6 9a 60 3e
       0.19426228 0.18045469 0.30651218 0.21933994
000060 78 d2 01 3e c7 8f 00 3e 00 75 25 3e 39 52 0e 3f
       0.12677944 0.12554847 0.16157913 0.5559421
000070 8d 8e 3e 3f 30 42 6d 3e 81 d8 25 3e 13 af 44 3e
       0.74436265 0.2316978 0.16195871 0.1920741

weight f4 [32]
000000 00 00 80 3f 00 00 80 3f 00 00 80 3f 00 00 80 3f
       1.0 1.0 1.0 1.0
000010 00 00 80 3f 00 00 80 3f 00 00 80 3f 00 00 80 3f
       1.0 1.0 1.0 1.0
000020 00 00 80 3f 00 00 80 3f 00 00 80 3f 00 00 80 3f
       1.0 1.0 1.0 1.0
000030 00 00 80 3f 00 00 80 3f 00 00 80 3f 00 00 80 3f
       1.0 1.0 1.0 1.0
000040 00 00 80 3f 00 00 80 3f 00 00 80 3f 00 00 80 3f
       1.0 1.0 1.0 1.0
000050 00 00 80 3f 00 00 80 3f 00 00 80 3f 00 00 80 3f
       1.0 1.0 1.0 1.0
000060 00 00 80 3f 00 00 80 3f 00 00 80 3f 00 00 80 3f
       1.0 1.0 1.0 1.0
000070 00 00 80 3f 00 00 80 3f 00 00 80 3f 00 00 80 3f
       1.0 1.0 1.0 1.0
