5_cross_5_iter_0.pt (torch_old, 342085 bytes, 66 tensors)

weight f4 [32, 5, 3, 3]
000000 30 b8 a2 3c c6 dd fb 3d a4 d0 18 3d a0 11 b9 bb
       0.019863218 0.12298159 0.03730835 -0.005647853
000010 cd 8f e6 bd 5a f7 fa 3d 08 d5 15 3d 3a 3a fc 3d
       -0.112578966 0.1225421 0.036580116 0.12315793
000020 9f 21 10 3e 38 b5 c9 bc 48 28 e9 3c cc fc 37 3d
       0.14075325 -0.024622545 0.02846159 0.04491882
000030 ba af cc 3d 1a 30 c0 3d a0 fb 14 3c 65 e8 0a 3e
       0.09994455 0.09384175 0.009093195 0.13565214
000040 68 02 a6 3c db 80 fa bd 8f 1e 0f 3e e0 e2 a3 bb
       0.02026482 -0.122316085 0.13976501 -0.005001411
000050 15 75 ce bd 00 cf 02 ba 71 f6 06 3e 0f be 05 be
       -0.100809254 -0.0004989952 0.13179947 -0.13060783
000060 90 5d 0a bc 8e fd 49 bd 6e b4 ec 3d 1d b9 0b 3e
       -0.008445159 -0.049314074 0.11557852 0.13644834
000070 90 cb e8 bd fc f4 2b 3d e8 60 e7 3c 58 fc fd bc
       -0.113669515 0.041981682 0.02824445 -0.031004116
000080 fc b6 c7 bc d6 38 fc 3d a0 88 a5 bc d4 b5 02 be
       -0.024379246 0.12315528 -0.02020675 -0.12764674
000090 50 d9 76 bd 6c 82 50 3d 32 b4 8b bd 64 39 38 3d
       -0.06026584 0.05090563 -0.06821479 0.044976607
0000a0 1a 9d ef bd 44 b2 86 bd cd 0e 18 be 58 ce fb bc
       -0.116998866 -0.0657697 -0.14849396 -0.03073804
0000b0 0c 73 94 bd 20 55 bf 3d 3e 3f 93 3d 8c 28 96 3d
       -0.07248506 0.09342408 0.07189797 0.073319525
0000c0 9b 6b dc bd 40 9d 4a 3c f6 90 98 bd 28 e9 07 be
       -0.107627116 0.012366593 -0.07449524 -0.13272536
0000d0 58 64 9e bc d0 83 bd 3d 32 84 5a bd 30 f4 f3 3c
       -0.019334957 0.09253657 -0.053348728 0.029779524
0000e0 2c 37 1a 3d d4 61 8f bd 00 7f 79 bc 58 3f 97 3d
       0.037650272 -0.07001081 -0.015228033 0.07385129
0000f0 08 6a b4 bd 76 f6 c7 bd 0e cb 97 3d bb a5 8f bd
       -0.08809286 -0.097638056 0.074117765 -0.070140325
000100 80 1c 71 bd 62 33 e8 3d 91 bd 0e be 89 b1 c6 bd
       -0.05886507 0.113379255 -0.13939501 -0.09701831
000110 12 47 d3 3d 83 e1 15 be f0 f9 7b bc 88 bd b4 3c
       0.1031629 -0.14636807 -0.015379414 0.022063032
000120 6c 27 2a bd dc d1 d1 bd 40 e8 c7 bb 92 a2 c1 3d
       -0.041541502 -0.102451056 -0.0061006844 0.09454836
000130 c4 e1 f0 bc 70 f3 1a bd 3c 55 51 bd 98 fd 69 3d
       -0.029404528 -0.037829816 -0.051106676 0.05712661
000140 06 8b c9 3d e8 36 ad 3d 17 06 11 be 30 e2 8f 3d
       0.0984097 0.08457738 -0.1416248 0.07025564
000150 e0 ae fd 3c 9b 3d c7 bd 60 b4 02 3c 00 22 f6 3b
       0.030967176 -0.09728547 0.007977575 0.0075113773
000160 c4 76 94 3d 50 18 2a 3d d6 28 89 3d d8 34 7f 3d
       0.07249215 0.041527092 0.06697242 0.062306255
000170 44 1d 0a bd 26 a2 75 bd 69 15 f8 bd cc 73 59 3d
       -0.033719316 -0.05996909 -0.12113459 0.053088948
000180 b0 5b af 3d a0 cd 47 3c 31 f3 cb bd 52 ab a4 3d
       0.0856241 0.012195021 -0.099584945 0.08040489
000190 7e f5 e0 bd 60 da 1d bc 3e 5a 02 be fe ff f8 3d
       -0.10984324 -0.009634584 -0.12729737 0.12158202
0001a0 5d b2 16 3e 34 e5 2b 3d 42 7e 6b bd cc 4b 7e 3d
       0.14716478 0.041966632 -0.057493456 0.062084004
0001b0 d0 23 76 bc e8 ef 85 3c 62 09 8e 3d d8 5a 1b 3d
       -0.015023187 0.016349748 0.069353834 0.037928432
0001c0 a0 53 7c 3c e0 1f 98 bc 96 54 e8 3d 74 28 bf bd
       0.015400797 -0.018569887 0.113442585 -0.09333888
0001d0 a0 47 fb 3b 40 98 1a bc 60 a0 9e bc e0 05 9e bc
       0.0076684505 -0.009435713 -0.019363582 -0.01928991
0001e0 c0 3c 7d 3d 55 d3 11 3e 93 2e f8 bd 84 02 01 be
       0.061825514 0.14240773 -0.12118258 -0.12598616
0001f0 80 4a ae 3d 58 1c 97 3c 05 53 91 bd a2 ca e1 3d
       0.085103035 0.018446133 -0.07095913 0.11024977
000200 22 ad e3 3d 80 4e 64 bc 24 72 ba bd f4 6d b3 3d
       0.11117007 -0.0139347315 -0.09103802 0.08761206
000210 6e 0b b9 3d 3c 21 21 bd a0 2c 16 be c8 1e 0d be
       0.09035383 -0.039338335 -0.1466546 -0.13781273
000220 d8 9d b7 bc a8 14 b0 bc ac c2 7c 3d bf b2 15 3e
       -0.022414133 -0.021494225 0.06170909 0.14618967
000230 f8 dd c6 3d c4 93 92 3d 58 1e 08 be ec 14 96 3d
       0.09710306 0.0715709 -0.13292825 0.07328209
000240 63 84 94 bd 02 65 e0 bd f8 77 86 bc ee 20 18 be
       -0.07251813 -0.10956766 -0.016414627 -0.14856312
000250 e8 2f c1 bc 78 fa 68 3d 4c ed 0a 3d 09 05 9a bd
       -0.023582414 0.05687949 0.03391771 -0.07520492
000260 b8 66 a4 bc ac 6e 46 3d 98 c1 b5 3c ca 2a cd 3d
       -0.020068511 0.04844539 0.02218704 0.10017927
000270 d8 8c 3c bd 2c ab c7 3d 48 4e 76 3d 52 f5 d4 3d
       -0.046032757 0.09749445 0.06013325 0.10398354
000280 32 5b 1d bd c8 1a c5 3c 0e 11 35 bd d6 6b d5 3d
       -0.03841705 0.024060622 -0.044205718 0.10420959
000290 93 c9 cc bd 07 90 09 be 40 f4 d6 3c ec b8 56 bd
       -0.09999385 -0.13433848 0.026239514 -0.05242245
0002a0 20 20 66 bc c4 08 d0 bd 90 3d 1a 3c 25 67 a5 bd
       -0.014045745 -0.10157922 0.009414092 -0.08076314
0002b0 ec ce 98 bd 1e 3c ae 3d 00 11 21 bb 3b d9 14 3e
       -0.07461342 0.0850756 -0.0024576783 0.14535992
0002c0 44 cd a0 3d f8 04 b2 bd 16 5c c9 bd c2 80 48 bd
       0.07851651 -0.08692354 -0.09832017 -0.048950918
0002d0 75 4a 0c 3e e8 70 b4 3d 22 7e 22 bd f6 fe ed 3d
       0.13700278 0.08810598 -0.03967107 0.116208956
0002e0 10 48 c3 bd 0f 39 03 3e 82 73 c0 3d 09 a6 a0 bd
       -0.09535229 0.12814735 0.09397031 -0.07844169
0002f0 33 a0 14 3e f7 a8 8a bd 82 9a 39 bd bb 86 87 bd
       0.14514236 -0.06770509 -0.045313366 -0.06617495
000300 70 69 c8 3c d0 62 63 3d 50 97 34 3c 82 e6 b5 3d
       0.024464339 0.055514157 0.011022404 0.088818565
000310 68 ad ca bd 51 22 16 3e b0 26 af 3d 80 f7 a2 bb
       -0.09896356 0.14661528 0.08552301 -0.004973352
000320 9e f4 cc bd e1 e9 e7 bd dc 3a df bc dc 3d 9f bd
       -0.100075945 -0.11323906 -0.027249746 -0.077754706
000330 47 a6 c9 bd fa b0 cd 3d 40 83 b3 bb 7b ec 0b 3e
       -0.09846168 0.10043521 -0.0054782927 0.13664429
000340 48 de bf 3d 40 9a 32 3c 05 58 12 be 9c 37 37 3d
       0.09368569 0.010901034 -0.1429139 0.044730768
000350 52 05 ac 3d 44 53 0f be bc f7 31 bd fe ca aa bd
       0.08399452 -0.13996607 -0.04344915 -0.08339499
000360 33 99 0a 3e 68 47 f9 bc 64 d5 10 be c8 f6 cc 3d
       0.13535003 -0.030429557 -0.14143902 0.10008007
000370 3a 36 8a bd 1a 42 d6 3d 80 05 b8 bb 80 22 b5 3b
       -0.06748624 0.104618266 -0.00561589 0.0055277944
000380 24 71 0a bd 50 c1 e0 bc e2 99 a4 bd 3c 92 65 3d
       -0.033799306 -0.027435929 -0.08037163 0.056047663
000390 08 64 ae bd 4c 42 4d 3d e4 e4 c6 3d 00 70 01 3c
       -0.08515173 0.050112054 0.09711626 0.007900238
0003a0 02 f8 7d bd ce 5e 11 bd f1 c9 16 be da be e5 3d
       -0.062004097 -0.035490803 -0.14725472 0.11218043
0003b0 90 e1 dc 3c de c6 38 bd 28 32 b1 bc 0a 1d c0 bd
       0.026963025 -0.04511153 -0.021630362 -0.09380539
0003c0 e4 a4 2e 3d ac 67 4b 3d 50 49 2c 3d 90 82 fa bd
       0.04263772 0.049659416 0.042062104 -0.12231934
0003d0 fa f3 d8 3d 96 bf f7 3d 98 5d 0c bd 8e 96 bc bd
       0.1059341 0.12097089 -0.034268945 -0.092084035
0003e0 50 bd 7c bc b2 ec e8 bd 06 d0 de 3d 84 0c a8 bd
       -0.015425995 -0.11373271 0.10879521 -0.08205512
0003f0 2c 5a 15 bd 08 b8 a7 3c c6 df d8 3d 9a c3 93 bd
       -0.036462948 0.020473495 0.105895564 -0.072150424

bias f4 [32]
000000 3f ba 00 3e 1c d6 b9 3d 78 b2 05 bd 96 ff 0a be
       0.12571047 0.09074041 -0.032640904 -0.13574061
000010 c8 ba 7d 3d 32 a3 f8 bd 30 b2 61 3d ae 77 90 bd
       0.061945707 -0.12140502 0.055101573 -0.07054077
000020 6c 04 8b bd 6e 3c 65 bd a6 3c 5e bd 61 51 05 3e
       -0.06787953 -0.055965833 -0.054257058 0.13019325
000030 02 fd 80 3d 3b d4 ad bd d4 74 95 bd 40 3c 7e 3c
       0.062982574 -0.084877454 -0.07297674 0.015517294
000040 62 79 f3 3d b8 48 88 bd 91 08 80 bd c0 8e 3c 3d
       0.11888386 -0.06654495 -0.06251634 0.046034575
000050 6c f4 be 3d 6f aa a1 bd f0 e8 ef 3c ec 42 c8 3d
       0.093239635 -0.07893836 0.029285878 0.09778389
000060 e6 0c 15 bd 5e 8c ee 3d 10 32 8b bc 08 57 ec 3c
       -0.036389254 0.11647867 -0.016991645 0.028850093
000070 76 70 90 3d 15 70 18 be 28 b0 32 3d dd d8 f5 bd
       0.070527 -0.14886506 0.043625027 -0.12004254

weight f4 [32]
000000 8c 90 78 3e 24 15 c4 3e 9a a8 5e 3f a8 79 1e 3e
       0.2427389 0.3829738 0.86976016 0.15476096
000010 05 d6 16 3f fa 6f f7 3e 58 ae 24 3e c3 45 26 3f
       0.5892032 0.4832762 0.16082132 0.649502
000020 34 74 23 3e 96 89 5e 3f 31 4e 07 3f 38 d4 3d 3f
       0.15962297 0.8692869 0.52853686 0.74151945
000030 bf f6 50 3f 0e 80 12 3f 33 ee 1d 3f b0 f6 ed 3d
       0.81626505 0.57226646 0.6169159 0.116193175
000040 c6 46 04 3f 10 76 55 3d 39 e1 11 3f be fa 3c 3f
       0.5167049 0.052114546 0.5698429 0.738201
000050 e0 e0 63 3d 11 e0 41 3f f8 32 c5 3e 43 d0 05 3f
       0.05563438 0.75732523 0.3851545 0.5227091
000060 f6 5b af 3e 80 59 70 3d a5 54 5f 3f 0d d0 03 3f
       0.34249848 0.058679104 0.8723853 0.51489335
000070 65 7f 44 3f 68 41 34 3e e1 2a 57 3f 08 14 78 3e
       0.7675689 0.17603076 0.84049803 0.24226391

bias f4 [32]
000000 00 00 00 00 00 00 00 00 00 00 00 00 00 00 00 00
       0.0 0.0 0.0 0.0
000010 00 00 00 00 00 00 00 00 00 00 00 00 00 00 00 00
       0.0 0.0 0.0 0.0
000020 00 00 00 00 00 00 00 00 00 00 00 00 00 00 00 00
       0.0 0.0 0.0 0.0
000030 00 00 00 00 00 00 00 00 00 00 00 00 00 00 00 00
       0.0 0.0 0.0 0.0
000040 00 00 00 00 00 00 00 00 00 00 00 00 00 00 00 00
       0.0 0.0 0.0 0.0
000050 00 00 00 00 00 00 00 00 00 00 00 00 00 00 00 00
       0.0 0.0 0.0 0.0
000060 00 00 00 00 00 00 00 00 00 00 00 00 00 00 00 00
       0.0 0.0 0.0 0.0
000070 00 00 00 00 00 00 00 00 00 00 00 00 00 00 00 00
       0.0 0.0 0.0 0.0

running_mean f4 [32]
000000 66 b5 a8 3d 00 cc af 3d 0e fd 10 3d b7 59 02 3e
       0.08237724 0.08583832 0.03539758 0.12729536
000010 03 22 35 3e 89 76 ff bd 25 fc 98 3e 5b e3 83 3e
       0.17688756 -0.12473781 0.2987987 0.25759396
000020 10 e5 5f 3e 89 8d ba be 6d a7 37 3e 2d 48 eb be
       0.21864724 -0.36436108 0.17934962 -0.45953503
000030 d0 23 be bc 8b f1 5d 3e 9d c0 ba bd 65 f2 8a be
       -0.023210436 0.21674173 -0.09118769 -0.27138057
000040 53 2f 74 3e 69 ea ab 3e 08 5f ea be 20 37 8f be
       0.23846178 0.33577278 -0.45775628 -0.27971745
000050 5c 6c aa 3e ef 8b 91 bc 76 4f af 3e 7b b0 9d 3d
       0.33285797 -0.01776692 0.3424031 0.076996766
000060 08 b7 9f bc 7b e1 89 be 0e e2 52 be 98 88 d1 3d
       -0.019496456 -0.2692984 -0.20594046 0.10231131
000070 f5 4a 1d bf e1 e8 f3 be 26 cd 11 3f af 43 77 be
       -0.614425 -0.4763861 0.56953657 -0.24146913

running_var f4 [32]
000000 07 62 3f 3d b8 08 46 3d af 3a d0 3c 53 2a 04 3d
       0.046724346 0.04834816 0.025418608 0.032266926
000010 54 39 31 3d d6 47 04 3d 42 89 7f 3d 95 95 2c 3c
       0.043267563 0.03229507 0.06238676 0.01053371
000020 52 aa 59 3c e4 4e 17 3d 6f 27 3a 3d c5 5a 37 3d
       0.013285236 0.03694047 0.045447763 0.0447643
000030 10 8c 81 3d 08 d6 46 3d 64 02 2e 3d 5b 36 a8 3c
       0.06325543 0.04854396 0.04248275 0.020533731
000040 a3 7e 5e 3c fc fa 40 3d 06 44 07 3d 9d 51 e8 3c
       0.013579997 0.047114357 0.033023857 0.028359229
000050 08 08 15 3d fb 31 1f 3d a5 e9 28 3d bb e9 80 3c
       0.036384612 0.038866024 0.041238446 0.015736451
000060 ed 0d 68 3d 56 ef e8 3c 5e b5 30 3d fc dc ad 3c
       0.056653906 0.028434437 0.043141715 0.021223538
000070 55 29 1c 3d 9b 3e 30 3d 0d 4b 55 3d 1a c4 07 3d
       0.038125355 0.043028455 0.052073527 0.033146

weight f4 [2, 32, 1, 1]
000000 28 61 9a 3c b2 df 8c bd 98 70 c6 3c 2f 56 e2 bd
       0.018845156 -0.06878604 0.02422361 -0.110515945
000010 9f 0e 86 bd 7e 1d b3 3d da 67 c7 3d 02 b9 fc 3d
       -0.065457575 0.087458596 0.09736605 0.12339975
000020 f1 01 2e 3e e0 62 81 bb c0 f3 30 3d a8 fb 47 3d
       0.16992928 -0.0039485544 0.043201208 0.048823982
000030 83 1c b8 bd f9 aa 20 3e 7d ce 15 be 50 a1 11 bc
       -0.08989813 0.15690221 -0.1462955 -0.008888558
000040 80 45 57 bb 80 4a 5c 3c f8 a7 e1 3c b0 8f 86 3c
       -0.0032847822 0.013445497 0.027545914 0.016425937
000050 12 58 f6 3d af ee 14 3e 8e e5 33 be b0 9d d5 bc
       0.12028517 0.14544176 -0.17568037 -0.026076168
000060 63 09 16 be c2 97 08 be 50 ad 11 3c c0 87 65 3b
       -0.14652018 -0.13339141 0.008891419 0.003502354
000070 72 20 9b 3d 3c f0 1e 3d 88 87 c8 bd c2 32 74 bd
       0.07574548 0.038803324 -0.097914755 -0.05961872
000080 07 12 26 be f1 f6 90 bd de 3d 34 be a1 57 8a bd
       -0.16217814 -0.0707835 -0.17601725 -0.06754995
000090 74 8e 8e 3d 78 88 b4 3c e6 78 b8 bd 4c 4e 34 bd
       0.069607645 0.02203773 -0.090074345 -0.044019982
0000a0 c2 e8 90 3d 86 e5 e0 3d b6 9c eb 3d f2 a1 8b 3d
       0.07075645 0.10981278 0.115044996 0.06817998
0000b0 00 1a 2e 3a 74 13 8c 3d 40 c3 96 3b 73 14 0a 3e
       0.00066414475 0.06839648 0.0046009123 0.13484363
0000c0 63 fd 09 be 44 65 3d bd ea 89 af 3d 53 24 d7 bd
       -0.13475566 -0.046239153 0.08571227 -0.10504975
0000d0 53 46 05 3e 0e 11 de bd 5e 6c 8e 3d 24 43 01 bd
       0.13015108 -0.10843097 0.06954263 -0.03155817
0000e0 18 3e b9 bd da 26 9b bd c0 1c 14 3b e9 ef 1a 3e
       -0.090450466 -0.0757577 0.0022600144 0.15130581
0000f0 23 64 28 3e d8 5a 90 3d f8 f4 e2 bc 9e 63 8c 3d
       0.16444449 0.07048577 -0.0277047 0.06854938

bias f4 [2]
000000 c4 4f 68 bd 8f 23 13 3e
       -0.056716695 0.14369033

weight f4 [2]
000000 be a2 c8 3e 8c 18 1c 3e
       0.39186662 0.15243739

bias f4 [2]
000000 00 00 00 00 00 00 00 00
       0.0 0.0

running_mean f4 [2]
000000 f3 ec 81 3d d9 2b 8f 3e
       0.063440226 0.2796314

running_var f4 [2]
000000 21 a3 e1 3d ed 38 0d 3e
       0.110174425 0.13791247

weight f4 [26, 18]
000000 c8 ce c7 bd 7b e8 1d 3e 70 40 6c bd cc ae dd bd
       -0.09756237 0.15420716 -0.05767864 -0.108243555
000010 fe ee fb 3d 09 c0 1e be 54 04 99 bd d4 e6 6d be
       0.123014435 -0.15502943 -0.07471529 -0.23232585
000020 b6 82 29 be 80 33 90 3a 44 c5 23 3d 76 61 b3 bd
       -0.16553769 0.0011001676 0.03998305 -0.087588236
000030 c0 45 36 be ac 12 6c bd 84 b3 42 3d 92 20 ba bd
       -0.17800045 -0.057634994 0.04753448 -0.090882435
000040 57 70 66 3e d4 4e 5f be 60 40 31 be 41 0a 47 be
       0.22503792 -0.21807414 -0.17309713 -0.19437505
000050 a6 3d d7 3d ba ac ad 3d 48 5c 34 bd 67 9c e5 bd
       0.105098054 0.084802106 -0.04403332 -0.11211472
000060 24 65 2f be 0e 91 81 bd e2 53 ea 3d 00 63 0f 3a
       -0.17128426 -0.06326495 0.114417806 0.0005469769
000070 f0 d9 09 be 16 84 5a be 15 9c ee bd 9a 47 c6 3d
       -0.13462043 -0.2133945 -0.11650864 0.09681626
000080 b4 e0 b6 bd de 80 e3 3d 89 9d 1b 3e 55 70 03 3e
       -0.089295775 0.11108564 0.15196814 0.1283582
000090 87 1d 50 3e 38 7d 0e bd 7e 1b f3 3d ce 66 55 be
       0.20323764 -0.034787387 0.11870478 -0.20839998
0000a0 b7 c7 37 3e 04 5b a2 bd e7 0b 12 3e 38 b2 d8 bd
       0.17947279 -0.07927516 0.14262353 -0.105808675
0000b0 ac fd 79 bd a6 ce dc 3d d0 ce 4a be 05 23 44 be
       -0.061032936 0.107816026 -0.19805455 -0.19153984
0000c0 10 fa 54 bc 77 68 6c 3e 00 45 d7 bc bc 33 17 3d
       -0.012999073 0.23086725 -0.026278019 0.036914572
0000d0 94 bc 06 bd dc af 53 3d c2 49 e1 3d 8a 76 b0 3d
       -0.032894686 0.051681384 0.11000396 0.086163595
0000e0 bf 1f 33 3e b1 28 56 3e a8 70 a3 bd 6e 18 e9 3d
       0.17492579 0.2091396 -0.07980472 0.11381613
0000f0 27 e7 4a be 61 01 21 3e 23 11 3d 3e 6d aa 03 be
       -0.1981474 0.15723182 0.18463568 -0.12857981
000100 a7 07 0e be 30 f1 1c bd 92 d0 b5 bd da 08 4c be
       -0.13870107 -0.03831595 -0.08877672 -0.19925252
000110 d4 a9 52 be 2c f1 2a be fb 86 4f 3e 9c 62 5e be
       -0.20572597 -0.16693562 0.20266335 -0.21717304
000120 60 74 2f be 0c a9 3d be a8 6a 9c 3c 99 9d 68 3e
       -0.17134237 -0.18521518 0.019093826 0.22716369
000130 5a 20 4b be 3d 96 31 3e e6 0f 81 3d 33 bf 0d 3e
       -0.1983656 0.17342468 0.063018605 0.13842468
000140 64 59 1f 3d f0 8d 1f be ac 09 39 be 6c 0d 0c 3d
       0.03890361 -0.15581489 -0.18070096 0.034192488
000150 12 97 c6 3d 68 1f 6e bd 3e fe da bd 3b 1b 52 3e
       0.09696783 -0.05813542 -0.10693024 0.205182
000160 d1 5d 5a 3e 2b 57 09 be 47 6b 11 3e 02 3a 11 be
       0.2132485 -0.13412158 0.1420108 -0.14182284
000170 34 a0 32 be f0 e9 85 bd c8 b1 33 bd d0 20 18 bd
       -0.17443925 -0.06538761 -0.043870717 -0.037140667
000180 09 2c 1a be 8c 09 be bd e8 f5 67 be d8 9b 07 be
       -0.1505586 -0.09279165 -0.226524 -0.13243043
000190 82 90 4e be 14 29 d5 bd 5d 0e 2a be 76 d9 89 3d
       -0.20172313 -0.10408226 -0.16607042 0.067309305
0001a0 ca 76 d1 3d ec a4 11 3d 84 a8 7f 3d cf f8 45 3e
       0.10227735 0.035557672 0.06241657 0.19333194
0001b0 80 6d 4a be 02 c1 0e be 00 18 3b 3c 6c a2 55 be
       -0.19768333 -0.13940814 0.011419296 -0.2086274
0001c0 6e 45 ec 3d b9 d7 32 3e 42 f8 1f be e4 ce 69 3d
       0.1153668 0.17465104 -0.15622047 0.057082072
0001d0 68 6f 91 3c bd ce 58 3e 03 b5 65 be b8 f0 1e bd
       0.017753318 0.21172614 -0.22432332 -0.038803786
0001e0 37 9d 26 3e b8 a0 54 be ea 30 c4 bd 7e 45 dc 3d
       0.1627091 -0.20764434 -0.09579642 0.10755442
0001f0 d2 4e bf 3d fd 68 42 3e cd 66 25 3e 1c 4a 78 3d
       0.09341206 0.18985362 0.16152497 0.06061755
000200 be 16 a8 3d 2f 75 41 3e 44 72 30 3d c0 2b 0e bc
       0.08207463 0.18892358 0.043077722 -0.008677423
000210 40 9f 41 bb 9e 04 3c be ab 3e 1b 3e 38 84 12 be
       -0.0029544383 -0.18361136 0.15160625 -0.1430825
000220 26 4e ec bd cc ff 21 3d c8 c8 2a be e8 10 e5 bc
       -0.11538343 0.039550588 -0.16678154 -0.027962163
000230 db 13 63 3e ef 64 27 3e 4c 2e c7 bd e1 23 4f 3e
       0.22175543 0.16347097 -0.09725627 0.2022853
000240 3c 1c c6 bd 6d 81 63 be ee 25 40 be c2 80 26 be
       -0.09673354 -0.22217341 -0.18764469 -0.16260055
000250 cc 40 e1 bd 83 47 5e 3e 58 d0 ad bc 25 3f 6e 3e
       -0.10998687 0.21706967 -0.02121751 0.23266275
000260 18 4d 29 be 15 68 69 3e 01 fd 20 be 1c ec 42 3d
       -0.16533315 0.2279361 -0.15721513 0.047588453
000270 d6 a1 6e be 36 c3 64 be b8 11 af 3c a2 ee 9d 3d
       -0.23303923 -0.22340092 0.021370754 0.07711531
000280 9a 2c 30 be 00 ac 6b ba 20 25 42 3c 3f d5 66 be
       -0.17204514 -0.00089901686 0.011849672 -0.22542284
000290 1c b1 66 3d f4 77 60 bd 48 a9 a2 bc b8 b3 dc 3c
       0.05632125 -0.054801896 -0.01985611 0.026941165
0002a0 be d6 10 be 39 57 71 3e c8 7b 2b bd 30 e0 7f bd
       -0.14144418 0.23568429 -0.041866094 -0.06246966
0002b0 d8 70 fa bc 14 ae 54 bd 4c 98 6d bd 20 e5 ce bd
       -0.030571386 -0.051923826 -0.05800657 -0.10102296
0002c0 98 a2 d4 bd 74 4c 6b bd 00 86 aa 3b 68 65 af 3c
       -0.10382575 -0.05744596 0.0052039623 0.021410659
0002d0 32 0d 89 3d 78 ee a2 bc e0 34 5a be 88 5d 3d bd
       0.0669197 -0.019889101 -0.21309233 -0.046231776
0002e0 50 98 7d bc 67 a6 45 be ba f7 db 3d 97 93 40 3e
       -0.015478209 -0.19301759 0.107406095 0.18806301
0002f0 9a f5 46 be 47 a6 17 be f8 ce eb 3c 79 01 45 3e
       -0.19429627 -0.14809524 0.028785214 0.19238843
000300 86 33 27 be 59 a9 3a be d8 58 2f bd d9 92 41 3e
       -0.16328248 -0.18228664 -0.042809337 0.18903674
000310 bf cd 62 3e 44 81 f9 bd 32 d8 f6 3d 2a 60 86 3d
       0.22148798 -0.121828586 0.12052955 0.065613106
000320 81 b9 0b 3e d8 40 c7 3c b8 06 86 bc 50 4b 6c bc
       0.13644983 0.024322912 -0.016360626 -0.014422253
000330 c4 25 27 bd 8c 00 32 bd d8 80 9c bc 4c 46 04 3d
       -0.0408075 -0.043457553 -0.019104406 0.032293603
000340 62 d1 2c be 73 55 07 3e 98 af a7 3c 6e 7f 26 be
       -0.16876748 0.1321619 0.020469472 -0.16259548
000350 fb 11 5b be ee 72 9e 3d ec 6d 51 3d c2 cc 69 be
       -0.21393578 0.07736765 0.05113022 -0.22832015
000360 50 c0 0e bd b9 69 06 3e 4a f0 f3 3d f6 d8 cb 3d
       -0.034851372 0.13126267 0.11911066 0.099534914
000370 5c d1 59 3d bf 02 2c 3e e3 87 68 3e 6e 2e 98 bd
       0.053178176 0.16797923 0.22708087 -0.07430731
000380 69 0d 09 3e ce a0 82 bd 60 77 e7 3b c9 2d 21 3e
       0.13384022 -0.06378327 0.007063791 0.15740122
000390 c7 2d 62 3e ab 44 5b 3e fb 22 5b 3e 24 4a 1f be
       0.22087775 0.21412914 0.21400063 -0.15555626
0003a0 fb 2e 11 3e 44 94 9f bd 57 49 4a 3e ab e6 0a 3e
       0.14178078 -0.07791951 0.1975454 0.13564555
0003b0 80 fe 29 bd 28 da c8 3c e8 28 1a be d9 42 0a 3e
       -0.041502476 0.024518088 -0.15054667 0.13502063
0003c0 b9 f9 48 3e 80 84 5d bb b2 22 f8 3d c5 62 f9 bd
       0.19626512 -0.00338009 0.121159926 -0.12177042
0003d0 49 08 42 be 18 48 6f bd 71 41 10 3e eb 92 56 3e
       -0.18948473 -0.058418363 0.14087464 0.20954482
0003e0 13 ac 33 3e 42 5f 1f be c2 a4 ef 3d 22 1a 82 3d
       0.1754611 -0.15563682 0.11701347 0.06352641
0003f0 c0 4b 41 3b d4 35 73 3d e6 f0 d2 3d a0 ce 08 3c
       0.0029494613 0.059377506 0.10299854 0.0083500445

bias f4 [26]
000000 79 a1 6e be ae d9 82 3d 7a 6c 2c be 3f 04 48 3e
       -0.23303784 0.06389175 -0.16838256 0.1953287
000010 dc 2e 79 3d 50 fa 51 bd 07 a1 42 3e b7 82 03 3e
       0.060835704 -0.051264107 0.1900674 0.12842833
000020 e3 bb 1a 3e ca 49 d7 bd 79 4d 32 3e 48 e3 a1 bd
       0.15110736 -0.10512121 0.17412366 -0.079046786
000030 da d2 8d bd a1 9c 57 3e 55 94 44 3e cf 80 6f 3e
       -0.06924982 0.21055843 0.19197209 0.2338898
000040 48 06 37 bd b0 df 3a bd 24 de 77 bd c0 98 06 bd
       -0.044683725 -0.04562348 -0.060514584 -0.032860518
000050 a6 f1 e6 3d 4e 61 41 be e2 60 2f be 03 20 33 3e
       0.112765595 -0.18884775 -0.17126802 0.1749268
000060 16 a0 ca bd 83 8d 4c 3e
       -0.09893815 0.19975857

weight f4 [1, 32, 1, 1]
000000 50 cb 58 3d 3b 2e 1c 3e 94 49 75 3d b8 18 da 3c
       0.05292827 0.1525201 0.059884623 0.026623115
000010 16 4c 08 be 39 4a 25 3e 9c 32 ad bd 31 e0 0c be
       -0.13310274 0.16141595 -0.084569186 -0.13757397
000020 38 1a 03 3d 08 4a 12 3d 5d 07 16 3e 8a 2c 75 bd
       0.032007426 0.035715133 0.14651246 -0.05985693
000030 e9 b3 31 3e 50 8b 3b 3c da c5 fb 3d d3 4a 2a be
       0.17353787 0.011446789 0.122935966 -0.16630106
000040 22 93 f9 3d b0 d7 d3 3c 80 3b e3 ba c9 2b b9 bd
       0.121862665 0.025859684 -0.0017336458 -0.090415545
000050 2e a9 9a 3d 88 fc 3c bd 70 32 5c 3c 49 30 80 bd
       0.075518 -0.04613927 0.01343976 -0.0625921
000060 05 ea 82 bd f5 2e 33 be 0c db 60 3d 88 ad 70 3d
       -0.06392292 -0.17498381 0.0548964 0.058759242
000070 e6 29 8d 3d 22 e6 cb 3d 33 75 2b 3e 00 14 1e bc
       0.06892757 0.09956004 0.16743927 -0.009648323

weight f4 [32, 9]
000000 d6 eb b3 bd 22 0b 76 3e cd 71 9d 3e 76 fe c3 bd
       -0.087852165 0.24027684 0.30750886 -0.09570019
000010 18 e9 33 bd 18 3a 41 3d b8 40 20 be 60 bd 12 be
       -0.043923467 0.047174543 -0.15649688 -0.14330053
000020 48 91 78 bd be 2d 48 be f8 f5 55 3d 00 95 b6 bd
       -0.060685426 -0.195487 0.052236527 -0.08915138
000030 86 30 72 be 38 61 49 3d e2 f1 66 3e c8 c8 6a be
       -0.23651323 0.04916498 0.22553208 -0.22928154
000040 10 9a e9 bd 00 7c 44 3d 80 de 9f 3d 00 30 86 3d
       -0.11406338 0.047969818 0.078061104 0.06552124
000050 08 91 0c be 20 e5 17 bd a0 c9 27 bd a0 d3 8e bd
       -0.137272 -0.037083745 -0.04096377 -0.06973958
000060 82 2f 56 3e 48 31 02 3d b6 33 34 be 28 c6 72 bd
       0.2091656 0.03178528 -0.17597851 -0.059271008
000070 50 04 cd bd 2e 00 24 be 00 a1 ca 3a bc 99 ac bd
       -0.10010588 -0.16015694 0.0015459359 -0.0842776
000080 5a 09 64 3e 87 5c 84 3e ba 3e 6e 3e 0c 6c eb 3d
       0.22269192 0.25851843 0.23266116 0.11495218
000090 15 76 91 3e 40 9e db 3b 3e c9 a8 be 50 f8 95 bc
       0.28410402 0.0067022145 -0.32966036 -0.018306881
0000a0 9e a0 56 be 7b df 78 be a4 d0 c9 3d b5 3f 93 3e
       -0.20959708 -0.24304001 0.09854248 0.28759542
0000b0 0a 56 37 3e 88 1c 4a bd 82 ac 1b 3e c1 db 91 3e
       0.17903915 -0.049343616 0.15202525 0.2848797
0000c0 b0 26 98 be d0 72 b6 3d 46 a5 e9 bd 3e 2a 1f 3e
       -0.29717016 0.089086175 -0.114084765 0.15543458
0000d0 00 bd b7 bd 30 23 ad bc 36 75 bc bd c6 01 5d 3e
       -0.08971596 -0.021134943 -0.09202044 0.21582708
0000e0 08 c6 7c 3d 80 7c cc 3c b8 18 68 bd 82 20 6f 3e
       0.061712295 0.02496171 -0.0566642 0.23352244
0000f0 50 ce 78 be 58 6f 66 bd ab 83 a0 3e 0e e5 a5 be
       -0.24297452 -0.05625853 0.31350455 -0.32401317
000100 5f 6a a8 be a2 3b 06 3e 60 22 d6 bd d0 dd fd bc
       -0.32893655 0.13108686 -0.10455775 -0.030989558
000110 c8 9b 44 be 48 f9 03 3d 42 c0 38 3e 18 7c 6e 3d
       -0.19200051 0.032220155 0.1804209 0.058223814
000120 79 ab 95 3e 70 cb ad 3d 33 d7 25 be 70 e2 88 bd
       0.29232386 0.08486068 -0.16195373 -0.066838145
000130 10 4f a5 be b3 68 8d be 6e 7b 5a 3e 95 a9 96 3e
       -0.32286882 -0.27618942 0.21336147 0.29426256
000140 b0 a5 49 be 77 8f 9d be 90 32 49 be 92 92 55 3e
       -0.19692111 -0.30773517 -0.19648194 0.20856693
000150 9f 91 84 be e0 14 40 bc 12 16 61 3e f6 2c 6b 3e
       -0.2589235 -0.011723727 0.21981075 0.2296637
000160 2e 57 42 3e ee 95 4f 3e 04 d5 f5 3d 72 81 56 3e
       0.18978569 0.20272037 0.1200352 0.20947817
000170 20 95 3e 3c 13 c7 2c be da 26 65 3e 48 b5 16 be
       0.011632234 -0.16872816 0.22378102 -0.14717591
000180 f8 ad 04 3d 3d 3b 93 3e e6 d1 17 3e e1 94 9d 3e
       0.032392472 0.28756133 0.14826164 0.30777648
000190 df 74 91 3e 50 81 22 be 15 e9 84 3e be 86 39 3e
       0.28409478 -0.15869641 0.25959077 0.18117806
0001a0 1e 95 5d 3e 14 a6 cf 3d d8 89 16 be 90 0c db 3c
       0.21638915 0.10139099 -0.1470102 0.026739389
0001b0 70 d9 de bd f6 21 fb bd 44 26 84 bd be ac 3b 3e
       -0.10881317 -0.12262337 -0.06452611 0.18327615
0001c0 06 e5 d1 bd 92 63 57 3e c3 58 50 be 24 70 f0 3d
       -0.10248761 0.21034077 -0.2034636 0.11740139
0001d0 ce 7c 9b be ba 44 17 3e 80 8a 0d 3d e8 58 21 bd
       -0.30368656 0.14772311 0.034555912 -0.03939143
0001e0 dc c8 82 be 0a 1d 3c 3e 1e 4f 39 be f0 4a ab bd
       -0.2554387 0.18370453 -0.18096587 -0.083639026
0001f0 11 1f 96 3e ba 83 15 3e e2 84 61 3e b8 f7 38 bd
       0.29320577 0.14601031 0.22023347 -0.045158118
000200 c4 e8 8f be d8 86 0f 3d 28 17 26 3e 5f af 8f be
       -0.28107274 0.035040706 0.16219771 -0.28063485
000210 46 21 13 3e 26 72 73 be 58 0d 37 bd 00 f5 40 3c
       0.14368162 -0.23774013 -0.04469046 0.011777163
000220 70 d8 83 bd 08 55 58 bd 30 91 a8 bc 95 2c 9e 3e
       -0.064377666 -0.052815467 -0.020577043 0.30893388
000230 1a d0 9f be de 1a 08 be 81 4d a2 3e 5c 22 f1 bd
       -0.31213456 -0.13291499 0.31699756 -0.11774132
000240 d9 32 a0 3e de 92 93 be 00 8c b8 bb e6 d8 a3 be
       0.31288794 -0.28822988 -0.0056319237 -0.32001418
000250 f0 c6 c1 bd 8b 2d 94 3e 8c 8e fb bd 39 2d 9a 3e
       -0.094617724 0.28940997 -0.12283048 0.30112627
000260 20 89 f7 bd a6 ea 5f be c0 28 82 bb 7e 3b 19 3e
       -0.120867014 -0.21866855 -0.003972143 0.149641
000270 3a 5a 2f 3e 9b 4e 80 3e 98 d2 17 be 2a ce 84 be
       0.17124262 0.2505997 -0.14826429 -0.2593854
000280 3d fd 86 3e 30 42 ca 3d 9a f7 1d 3e f6 55 4a be
       0.2636508 0.098759055 0.15426484 -0.19759354
000290 20 b9 7c be aa 57 56 3e 2f d3 8f be 98 92 64 bd
       -0.24679995 0.20931879 -0.28090808 -0.055803865
0002a0 58 d3 27 be 11 ac 8a 3e 10 83 b0 bd bf e8 81 3e
       -0.16389215 0.270844 -0.08618748 0.25372884
0002b0 f3 1e 33 be b2 35 47 3e d0 61 2a 3e b0 7f ef bc
       -0.17492275 0.19454077 0.16638875 -0.02923569
0002c0 40 53 7d 3d 76 58 89 be 3a 7a 83 be 38 04 19 bd
       0.06184697 -0.26825303 -0.2567919 -0.03735754
0002d0 4e c7 24 be 7e e3 72 3e 10 f9 c1 bd e0 11 0d bc
       -0.16091654 0.23719594 -0.09471333 -0.008610219
0002e0 57 9b 80 3e 1e 20 8e be 00 8f 85 be 14 44 e4 3d
       0.25118515 -0.27758878 -0.26085663 0.11145797
0002f0 a0 63 c9 bd e0 d0 53 bc e8 b8 51 be c6 9d c5 bd
       -0.09833455 -0.012928218 -0.20480692 -0.096492335
000300 5e e9 3a 3e 04 84 e7 3d fe a8 0f 3e 0e 1b 09 3e
       0.18253085 0.11304477 0.14029309 0.13389227
000310 00 3a f1 3d 1f cd 8b 3e 88 a1 5d 3d 60 d3 09 3d
       0.11778641 0.27304932 0.054109126 0.03364885
000320 07 c4 a4 3e d5 c9 a3 3e 98 9c 28 be f5 77 9b 3e
       0.32180807 0.31989923 -0.16465986 0.30364957
000330 99 c0 8b 3e f2 c6 4c 3e bc 8a a2 be d0 ee b6 3d
       0.27295378 0.19997767 -0.3174647 0.089322686
000340 d4 54 fc 3d ac 4f c8 3d 7a d5 44 3e 58 fd 01 3e
       0.12320867 0.09780821 0.1922206 0.12694299
000350 0e f1 04 3e 20 be 00 bc 72 0e 54 3e 80 d6 22 3b
       0.1298258 -0.007857829 0.20708635 0.002484709
000360 a8 3b 3a 3d 64 7c ae 3d 6d 77 8f 3e 00 9e af bc
       0.04546705 0.085198194 0.28020802 -0.021437645
000370 a4 52 d5 3d c0 fa f9 bb 80 c2 2f 3c 5b 07 13 be
       0.10416153 -0.0076287687 0.010727525 -0.14358275
000380 9b dd 29 be 60 32 64 3c a4 f0 a7 be c0 53 f1 3b
       -0.16588442 0.013928026 -0.32800782 0.00736472
000390 22 33 5d 3e 00 e4 e3 3d 3e 12 09 3e 8b 61 16 be
       0.21601537 0.11127472 0.13385865 -0.14685647
0003a0 e7 cc a9 be 18 79 87 be a2 e5 a3 be 00 87 0f 3e
       -0.3316414 -0.26459575 -0.32011133 0.14016342
0003b0 9b 7c 20 be 34 cd 9d bd d9 8d 9c 3e d1 78 82 3e
       -0.15672533 -0.07705155 0.3057697 0.254828
0003c0 7c ee 8e bd 40 fb 94 bc 9b 0a 29 be e2 64 59 3e
       -0.06979081 -0.018186212 -0.16507952 0.2122989
0003d0 23 99 0c be 82 b4 13 3e 90 74 57 be db 29 9d be
       -0.13730292 0.14424327 -0.21040559 -0.30695996
0003e0 a9 dd 8f 3e 8e ad 5c be 78 45 0b 3d 2a 2c 7d 3e
       0.280988 -0.21550581 0.034001797 0.24723879
0003f0 43 a4 94 3e 3c 4c fb bd 3e 83 2b be 74 41 d1 3d
       0.29031572 -0.122704 -0.16749284 0.10217562

bias f4 [32]
000000 e3 39 99 3e 56 b7 26 be 1a 6b 69 3e e8 1d 88 be
       0.29926977 -0.16280875 0.22794762 -0.26585317
000010 c0 bd 9f 3d 4b 0e 74 be f3 64 65 be 00 62 1a 3d
       0.07799864 -0.23833577 -0.2240179 0.037691116
000020 34 83 90 3d c1 3c a8 3e 92 97 86 be e6 5e b2 bd
       0.07056275 0.32858852 -0.26287514 -0.08709507
000030 72 9e 7d 3e 81 cf 98 3e 9e 55 67 be 00 59 93 bc
       0.24767473 0.29845813 -0.22591254 -0.017986774
000040 ec 66 b2 3d 06 cd 45 3e 20 e9 c4 3d ee 1b 1f 3e
       0.08711037 0.19316491 0.096147776 0.15537998
000050 bf 73 85 3e eb 5d 86 be 98 89 14 bd e2 34 3d 3e
       0.2606487 -0.2624353 -0.036264032 0.18477204
000060 f9 22 a6 3e 95 09 a2 3e c6 b5 a7 be 97 9a 9d be
       0.32448557 0.31647936 -0.3275587 -0.30782005
000070 73 ad 9b be a0 22 67 bd 80 7b 3b be 28 41 14 3e
       -0.3040577 -0.056429505 -0.1830883 0.1447798

weight f4 [1, 32]
000000 03 a1 0e be ac f5 25 bd 25 4d 2a 3e 9c fa 04 be
       -0.13928609 -0.040517494 0.16630991 -0.12986225
000010 8f 44 c3 bd ea 68 aa 3d 9c 00 2a 3d 1e 4b 8d bd
       -0.09534561 0.08320792 0.041504487 -0.06899093
000020 5f 35 2e 3e 73 09 30 be 9d c4 86 bd ba 15 a8 3d
       0.17012547 -0.17191105 -0.0658047 0.08207269
000030 60 b7 9e bb 00 65 cc bb e2 10 bb bd 00 b4 1e 3a
       -0.0048436373 -0.006237626 -0.091340795 0.0006054044
000040 3f 21 10 3e 58 04 fc 3c 88 b2 a0 3c 1b 2c 14 3e
       0.14075182 0.03076379 0.01961638 0.1446995
000050 7c 44 eb bd b6 18 94 bd 76 73 f3 3d 21 53 af bd
       -0.11487672 -0.07231276 0.11887257 -0.085607775
000060 a5 f9 23 3e 40 d7 17 3d 4e e4 ce 3d eb 45 da bd
       0.160132 0.037070513 0.101021394 -0.10657867
000070 b4 00 58 3d 2c 3c 7d 3d 80 83 ec bd d3 b8 0a be
       0.052735046 0.061824962 -0.11548519 -0.13547067

weight f4 [32, 32, 3, 3]
000000 f8 81 08 bd 8c 95 12 3c 86 ee 38 bd 58 9a 2c bc
       -0.033327073 0.008946788 -0.04514935 -0.010534845
000010 c2 85 8a bc 68 3f 27 bc f8 01 ca bb 1b f3 5c 3d
       -0.016909484 -0.010207988 -0.0061647855 0.05394278
000020 16 8a 89 3c f8 68 5b bc 3d 38 66 3d 81 e0 4e 3d
       0.016789477 -0.013391726 0.056205977 0.050507072
000030 98 7c 40 bc 66 bf c3 3c 34 86 07 bd 00 ef f9 ba
       -0.011748455 0.023894977 -0.03308697 -0.001906842
000040 b6 c7 9b 3c a1 88 1e bd 3e 26 2a bd 72 cf 65 bd
       0.019016128 -0.03870452 -0.041540377 -0.05610604
000050 53 f2 6f 3d f0 72 26 bb fc 1e 55 3c f8 58 37 bd
       0.058580708 -0.0025398098 0.0130078755 -0.04476258
000060 60 0d 91 bc d6 7d f9 3c e6 cf 51 bd e2 f7 d3 3c
       -0.017706573 0.030455511 -0.051223658 0.025875036
000070 03 d7 61 3d 9a a3 e0 3c 56 7f 8e 3c b4 29 50 3c
       0.05513669 0.027421761 0.017394703 0.012705255
000080 c3 f4 49 3d 7c d2 62 3c 04 1b 2f 3c d0 53 4f bb
       0.04930569 0.013844129 0.010687593 -0.003163565
000090 00 ea 14 b9 05 2f 2d 3d b5 5a 26 3d f8 f2 90 3b
       -0.00014201552 0.04228117 0.04061385 0.0044234954
0000a0 b5 6f 49 3d b0 ea fd bb 21 ca 25 3d 6e 5c a1 3c
       0.049178798 -0.007748924 0.04047597 0.019697394
0000b0 62 1e f0 3c 3d 80 0b 3d 9c 90 01 bd 14 a4 19 3c
       0.029311363 0.034057844 -0.03163205 0.009377498
0000c0 27 b6 1c bd c2 a4 14 bd 31 96 53 3d 02 fc e8 3c
       -0.03825965 -0.036289938 0.051656906 0.02844048
0000d0 0c b2 07 bd ae a8 9a 3c 08 db 81 bc 13 23 09 3d
       -0.033128783 0.01887926 -0.015851513 0.033480715
0000e0 3e a1 05 bd 4b 65 6f 3d f9 e6 3c 3d 28 ec 03 bd
       -0.032624476 0.05844621 0.04611871 -0.032207638
0000f0 c0 1d 6c 3a a2 b1 ff 3c 80 8a 83 bc 79 c1 1a 3d
       0.00090071186 0.031212632 -0.016057253 0.037782166
000100 aa 74 e3 3c 3d 51 10 3d 10 d3 c7 bb b6 08 c1 3c
       0.02776559 0.035233725 -0.0060981587 0.023563724
000110 1d ff 56 bd 2a e6 e7 3c 70 44 16 bc 1c 49 a0 bc
       -0.05248939 0.028307993 -0.00917159 -0.019566111
000120 a3 c3 11 3d 90 51 70 bc a0 09 83 3a fb 0e 59 3d
       0.035586964 -0.0146678835 0.0009997375 0.052992802
000130 c7 7f 6e bd 96 6d 9f 3c 92 0b dc bc cc f6 60 bd
       -0.058227327 0.019461434 -0.026860986 -0.054922864
000140 de fc e7 bc 31 d4 54 3d 4d 1b 67 bd 12 e2 8d 3c
       -0.028318819 0.051960174 -0.05642252 0.017319713
000150 46 06 8d 3c e4 80 20 3c cf 14 03 3d 50 fa 13 3b
       0.017214905 0.009796355 0.032002266 0.0022579618
000160 10 5b c1 bb cd e7 39 bd 88 41 e1 3b e0 2d 2c 3b
       -0.005900748 -0.045387078 0.006874267 0.002627246
000170 ba 5f 8b bc 36 f7 b5 bc a8 19 63 bd 1f 4f 4c 3d
       -0.01701342 -0.022212606 -0.05544439 0.049880143
000180 3c ea 2d 3c 6a 84 65 bd 21 f3 1d 3d b5 df 04 3d
       0.010614928 -0.056034483 0.038561944 0.032439906
000190 10 53 89 bb e2 d8 0a bd d0 4c f5 bc 4a 78 00 bd
       -0.00419081 -0.03389824 -0.029943854 -0.031364717
0001a0 70 6d 76 3b be 4c 9f 3c dc c9 a4 bc 15 a7 47 3d
       0.003760185 0.019445773 -0.020115785 0.048743326
0001b0 0e 9f 3e bd 78 a4 ce 3b 46 99 57 bd 92 e5 8e 3c
       -0.046538405 0.0063062273 -0.052636407 0.017443452
0001c0 da c0 11 bd 60 91 e4 bb 1c 25 50 3c c7 9d 43 3d
       -0.03558431 -0.006975338 0.01270416 0.04775789
0001d0 f1 93 70 3d 73 e3 44 bd 41 bb 64 bd dc e4 86 bc
       0.058734838 -0.048068475 -0.05584264 -0.01646655
0001e0 69 03 53 3d 9c 3b 31 3c 1a d8 87 3c da f5 0e bd
       0.051516924 0.010817435 0.016582537 -0.03490243
0001f0 43 1d 5e bd 20 3b be 3a 97 e7 4c bd f4 37 48 3c
       -0.054227125 0.001451347 -0.05002555 0.0122203715
000200 c4 3f 7f bc 00 73 65 bd 98 74 8d 3b 6c 44 21 3c
       -0.015579168 -0.056017876 0.0043168776 0.009842973
000210 b8 77 d2 3b 1e 2a 0b bd f5 97 28 3d 48 65 c0 bb
       0.006422963 -0.033975713 0.041160543 -0.0058714487
000220 28 44 db 3b 76 7f df bc c8 b8 ff 3b f4 4f 45 bd
       0.0066914745 -0.027282458 0.00780401 -0.048171952
000230 5c cd 43 bc bc 30 3d 3c 65 1f 6e bd 5c 15 bc bc
       -0.011950817 0.011547264 -0.05813541 -0.022959404
000240 79 cd 38 bd d2 35 f7 bc 08 2b e3 3b 38 c6 35 bc
       -0.04511783 -0.03017703 0.00693262 -0.011094622
000250 63 fe 5d 3d de 1f 63 bd d2 74 35 bd ee 8e 80 bc
       0.05419768 -0.055450313 -0.04430086 -0.015693154
000260 c4 82 9e bc 7e ec 8e bc a8 00 b8 3b 4a c2 8b bc
       -0.019349463 -0.017446753 0.0056153126 -0.017060418
000270 62 35 82 3c 86 3c e8 bc 4e 51 b3 3c fc 9b 2c bd
       0.015894596 -0.028349172 0.021889355 -0.042140946
000280 0d c2 01 bd 66 39 b2 bc 13 00 0f bd cc 28 3e 3c
       -0.031679202 -0.021755885 -0.03491218 0.011606406
000290 80 55 18 bd 00 77 7c bc 55 03 2d 3d c6 ff aa 3c
       -0.037190914 -0.015409231 0.042239506 0.020873915
0002a0 da a2 ec 3c 9d 7d 54 3d 7b c4 6b 3d a5 26 f6 bc
       0.028886247 0.051877607 0.057560425 -0.030047724
0002b0 12 05 9b 3c e2 62 d9 3c 98 87 bb bb b8 4e 36 bd
       0.018923316 0.026536409 -0.005722951 -0.044508666
0002c0 47 90 38 bd b3 4b 34 3d ed 0a 2d 3d 0a 96 80 3c
       -0.04505947 0.044017505 0.042246748 0.015696544
0002d0 5a e0 9f 3c 02 56 61 bd d8 8c 7d bc 18 9c a7 3b
       0.019516159 -0.055013664 -0.015475474 0.0051150434
0002e0 7a 32 e2 bc 96 31 8b bc a8 33 f4 3b 17 ff 63 3d
       -0.02761196 -0.016991418 0.007452447 0.055663195
0002f0 5a 22 83 bc 28 dc 2b bd 4d 13 59 bd e0 fe 5a bd
       -0.016007591 -0.041958004 -0.052996922 -0.053465724
000300 d8 3f a6 3b cb 9b 10 3d d9 67 31 bd e6 bc 8a bc
       0.0050735287 0.035304826 -0.043311927 -0.016935777
000310 5c 0b 59 bc 88 2d ad bc ed e4 2b 3d d3 2d 57 3d
       -0.013247337 -0.021139875 0.041966368 0.052533936
000320 20 64 8d ba 9a d5 6b bd fc e3 11 3c 15 76 6a 3d
       -0.0010787286 -0.057576753 0.008904453 0.057241518
000330 79 f0 57 bd 03 20 58 3d 49 dd 2d bd bd df 5d 3d
       -0.052719567 0.052764904 -0.042447362 0.05416845
000340 b6 b8 ac bc 10 b4 7d 3b 23 c5 38 3d 12 33 c2 3c
       -0.02108417 0.0038712062 0.04510988 0.023705993
000350 b9 c4 20 3d 0e 8a 89 bc 86 39 aa 3c e8 aa e2 bc
       0.03925011 -0.016789462 0.020779382 -0.027669385
000360 ea c1 e7 bc 9c 5f 2f bd 4c 9c 0a bd 37 bf 28 3d
       -0.028290708 -0.04281579 -0.033840463 0.04119798
000370 ca fe 8a bc c5 ea 49 3d 47 4e 65 3d 64 2f 75 3c
       -0.016967196 0.04929616 0.055982854 0.014964912
000380 c6 37 e2 3c 6a 6a 02 bd c0 a4 53 3b 40 ac 25 3b
       0.027614485 -0.031839766 0.0032294244 0.002527967
000390 b2 21 53 bd 9f 33 07 3d 65 cf 68 bd ff 17 63 3d
       -0.051545806 0.033008214 -0.05683841 0.055442806
0003a0 00 d8 b2 b9 0a 70 f1 3c a2 d9 bf 3c 20 44 85 bb
       -0.00034111738 0.02947237 0.023419205 -0.004066959
0003b0 61 ea 39 bd d4 66 11 3c 94 8c 39 bd ec f8 14 bd
       -0.045389537 0.008874614 -0.04530008 -0.036370203
0003c0 50 28 77 3b 30 5e 64 bd 99 e2 68 3d b4 fd 32 3c
       0.0037713237 -0.055753887 0.056856725 0.010924745
0003d0 7e f8 ef 3c 86 77 62 bd a7 7a 57 3d 1d 20 1c bd
       0.029293295 -0.055289768 0.052607205 -0.038116563
0003e0 3f 2c 46 3d 98 96 c1 bc 46 7b a8 bc 81 d5 65 3d
       0.04838204 -0.023631379 -0.020566594 0.056111816
0003f0 db 84 08 bd 78 f8 dc bb 4e 4f a4 3c 3a 85 8a 3c
       -0.033329826 -0.006743487 0.020057347 0.01690923

bias f4 [32]
000000 d8 ff 21 bd b6 ee c1 3c ff c4 fe bc 62 2b d9 3c
       -0.039550632 0.023673397 -0.031099794 0.026509944
000010 30 58 04 bd 94 85 d3 bc f4 72 22 bc 2b 44 6e 3d
       -0.032310665 -0.025820531 -0.009915102 0.05817048
000020 af ec 03 3d 72 69 4c bd de c0 90 3c f1 18 07 3d
       0.03220814 -0.049905248 0.017670091 0.03298277
000030 c2 e4 95 3c 2b a0 6d 3d 12 e4 54 bd b8 bd 95 bc
       0.018297557 0.058014076 -0.051975317 -0.018278942
000040 cc 47 23 3c bc 82 13 bd d0 33 15 bc cc 06 12 bc
       0.009965848 -0.03601335 -0.009106591 -0.008912753
000050 18 8c ca bc 0f e6 59 3d 16 e6 e7 3c 1a 7b fd bc
       -0.024725005 0.053197917 0.028307956 -0.030942488
000060 38 90 45 bc ea 61 c1 bc 50 b5 2b bb 5e 96 d5 3c
       -0.01205831 -0.02360626 -0.00262006 0.026072677
000070 c6 96 2f bd 11 f4 64 bd 57 6c 29 bd e9 e8 6a 3d
       -0.042868398 -0.055896822 -0.041363087 0.057351027

weight f4 [32, 32, 3, 3]
000000 24 12 dc bc b1 29 62 3d 2c a5 1a bd fa 8e 9f 3c
       -0.026864119 0.05521554 -0.037755176 0.019477356
000010 fe dc d6 3c dd d8 50 3d bb 87 15 3d 75 83 5f bd
       0.026228424 0.050988067 0.036506396 -0.054568727
000020 00 0f 2e b9 7e bb b8 bc e9 a9 38 3d 79 35 5c 3d
       -0.00016599521 -0.02255034 0.045083914 0.053761933
000030 f0 05 2d bc a6 a1 a2 bc f8 0f e9 3b a4 0f 6a 3c
       -0.010560498 -0.01985247 0.0071124993 0.014285956
000040 31 6a 6a 3d 82 4e 6a bd 97 c5 00 bd a6 f7 9c 3c
       0.05723018 -0.057203777 -0.031438436 0.019161057
000050 14 ba 30 3c 0c 84 6f 3c 07 34 09 3d 58 eb 9e 3b
       0.010786552 0.014618885 0.033496883 0.0048498325
000060 d6 91 3a bd ac 7f 4f bd 4c 82 53 3c cd 57 55 bd
       -0.045549236 -0.050658867 0.012909483 -0.052085686
000070 ac 64 27 bd fa 56 e1 bc 00 46 1a bd 96 01 90 3c
       -0.040867493 -0.027507294 -0.037664413 0.017578881
000080 c1 10 57 3d 4c 63 71 bc dc 57 01 bd 90 03 b6 bb
       0.052506212 -0.014733147 -0.03157793 -0.005554624
000090 ae 5d 8e 3c 0c de 83 bc 65 1e 36 3d 85 b1 09 3d
       0.017378654 -0.016097091 0.04446258 0.03361656
0000a0 30 b8 ad bc ea c8 d0 3c 5d fd 00 bd ee 9d 9b 3c
       -0.021205992 0.025486428 -0.031491626 0.018996205
0000b0 98 81 4b bc 74 82 7a 3c 5b e8 6d 3d c8 22 a8 bb
       -0.012421034 0.0152898915 0.05808292 -0.0051310994
0000c0 e0 11 2e bb 36 cf 2e bd 03 50 26 3d 00 81 e7 ba
       -0.0026560947 -0.04267808 0.04060365 -0.0017662346
0000d0 30 95 de bc 97 49 5b 3d e4 3c 93 bc 54 f6 26 3c
       -0.027170748 0.053536978 -0.01797337 0.010190565
0000e0 e8 c4 42 bd 89 15 6a 3d 02 e0 84 bc 24 24 4a 3c
       -0.047551066 0.057149444 -0.016220096 0.012337718
0000f0 b5 4a 61 3d 60 ea 4d bc 06 24 00 bd 10 ea bd bb
       0.055002887 -0.012568086 -0.031284355 -0.0057957247
000100 97 b5 62 3d 20 29 2c bd c2 4f 4e bd 60 aa e8 ba
       0.05534896 -0.042031407 -0.05036903 -0.0017750971
000110 34 2d be bc f2 82 02 bd 58 e7 be 3b a2 b7 ef bc
       -0.023214914 -0.03186316 0.005825918 -0.029262368
000120 76 a0 27 bd 2b a6 27 3d 4f 7e 65 3d 8a 00 a0 3c
       -0.04092451 0.040929954 0.05602866 0.019531507
000130 48 62 b5 bb 91 db 24 3d 40 ba d4 3a e0 0a 8a 3a
       -0.0055353977 0.040248457 0.0016229823 0.0010531805
000140 b2 a9 a5 3c 1e 86 e0 3c ea f3 a0 3c 06 3c b0 bc
       0.020222519 0.027407702 0.019647557 -0.021512996
000150 17 70 50 bd 30 22 6f bc e0 5b 10 bc 8c 88 74 3c
       -0.050888147 -0.014595553 -0.008810967 0.014925133
000160 1a fc 34 bd 27 04 eb bc 7e c6 b4 bc 90 2d 4a bc
       -0.044185735 -0.028688503 -0.022067305 -0.0123399645
000170 be 0a 6a bd e8 e9 5b bd 8f a5 11 3d 80 a7 8e ba
       -0.05713915 -0.053689867 0.03555828 -0.0010883659
000180 d4 f7 4a bc 3e 7f de 3c d0 37 89 bb 6e f7 b8 3c
       -0.012388188 0.027160283 -0.0041875616 0.022578921
000190 ae ea 44 bd 78 27 8c 3b a5 63 5e 3d 30 c8 2d bb
       -0.04807537 0.004277166 0.054294247 -0.0026517026
0001a0 4c c1 69 bd b9 f0 34 bd a5 99 61 bd a0 c4 04 bc
       -0.057069108 -0.044174884 -0.055078167 -0.00810352
0001b0 f2 a7 da bc 9c fe f7 bc 25 fd 0f bd 1a e7 81 3c
       -0.02669141 -0.030272774 -0.035153527 0.015857268
0001c0 0c b2 37 3c 04 6e 40 3c 46 04 cc bc 35 c9 50 bd
       0.011211883 0.01174498 -0.024904381 -0.050973136
0001d0 20 8e 18 bc 11 ee 28 3d 35 cc 3f bd 57 2f 54 bd
       -0.009311229 0.041242663 -0.046825606 -0.05180296
0001e0 20 70 23 bc 2d fc 59 bd 04 be 00 3c 44 9c 47 bd
       -0.009975463 -0.05321901 0.007857803 -0.04873301
0001f0 0a 77 ab 3c 5d 92 6a 3d 7f 77 3b 3d eb 23 28 bd
       0.020930786 0.05726849 0.045768257 -0.04104988
000200 c2 ff fb 3c ac ea 17 bc b2 96 6c bd 80 63 cb bb
       0.030761603 -0.009272259 -0.0577609 -0.0062069297
000210 40 6c d2 bc 90 fe d5 bb f5 34 46 3d d0 87 4b bc
       -0.025686383 -0.0065305904 0.048390348 -0.012422517
000220 2c 56 24 3c 83 d8 48 3d fa f1 a7 bc bd 5c 25 bd
       0.010030311 0.049034607 -0.020501126 -0.040371645
000230 ad 59 34 3d fc e0 5f bd 60 09 54 bb b0 b3 23 bd
       0.044030834 -0.05465792 -0.003235422 -0.039966285
000240 f9 ad 49 3d 44 14 7e 3c 74 30 32 bd 0b d3 40 3d
       0.04923818 0.015507761 -0.04350324 0.047076266
000250 5e 1f d5 3c 84 cd 4b bc ea ae 6c bd a8 61 82 3b
       0.026015934 -0.012439135 -0.057784 0.0039789267
000260 d6 48 8f 3c 57 0e 53 3d 0d c7 6d bd 6b 3a f7 bc
       0.017490786 0.051527347 -0.058051158 -0.030179223
000270 ea df f6 3c 29 0c 4e 3d 62 32 6e bd 0e 59 00 bd
       0.030136067 0.050304566 -0.058153518 -0.03133493
000280 8b d8 09 3d 29 ea 18 3d ba 25 aa 3c b9 86 53 3d
       0.033653777 0.037332688 0.020769943 0.051642153
000290 08 a4 a9 3b 5c b5 31 3c 8a 80 e3 bc 85 0f 5e bd
       0.0051770248 0.010846462 -0.027771253 -0.05421402
0002a0 dc c8 d0 bc c2 7d d8 3c 2b 12 71 bd d0 85 77 3b
       -0.025486402 0.026427153 -0.058855217 0.0037768967
0002b0 00 00 ee b4 84 29 52 bd 61 b9 5e bd ec dd 2a 3c
       -4.4330955e-07 -0.051309124 -0.05437601 0.010428887
0002c0 ae 9a 91 3c 11 bb 53 3d 00 24 03 3b 00 a8 84 b9
       0.017773952 0.051692072 0.0020010471 -0.00025302172
0002d0 e0 6f c4 bc f5 1d 2f 3d 44 32 13 bd 30 a8 78 3b
       -0.023979127 0.04275318 -0.03593661 0.0037942044
0002e0 b8 5f b8 3b 60 b2 f7 bc 32 75 de 3c 80 dd 66 3b
       0.005626645 -0.030236423 0.027155492 0.003522724
0002f0 90 43 7a 3b 62 87 88 3c ee fa f2 3c 20 74 b9 ba
       0.0038187243 0.016666118 0.029660668 -0.0014148988
000300 c0 99 15 ba 50 ec a8 bc 04 6a 31 bd b7 42 31 3d
       -0.00057068095 -0.020620495 -0.043313995 0.043276515
000310 b6 36 80 3c 84 76 1f 3c 86 2d bd 3c f0 e5 05 bb
       0.015651088 0.009732846 0.023092996 -0.0020431243
000320 ea 51 cf 3c b2 d9 ad 3c c4 c2 3f bd 60 65 a4 3a
       0.025307614 0.02122197 -0.046816602 0.0012542419
000330 cd 62 53 bd 44 25 23 3c 5d 8a 43 3d 8b b5 3c 3d
       -0.051607896 0.009957615 0.047739375 0.04607157
000340 94 12 58 bd 31 c1 09 bd 7c de 58 bc 7a 7f 3b bd
       -0.052752092 -0.033631507 -0.013236638 -0.045775868
000350 05 a2 36 bd 53 5b 52 bd 3c f0 30 bd 6c 20 66 3c
       -0.044588108 -0.051356625 -0.043197855 0.014045816
000360 13 72 6d 3d 5c ad 9a bc af 4a 4c 3d 92 d9 a3 3c
       0.057970118 -0.018881492 0.04987591 0.020001207
000370 f2 8e f6 3c c2 1c 31 bd 27 f2 4a 3d 82 2a b6 3c
       0.030097459 -0.043240316 0.04954734 0.022237066
000380 aa 65 e2 3c 83 65 46 3d b2 28 bf bc a0 c2 0b bc
       0.027636368 0.048436653 -0.023334835 -0.008530289
000390 b4 29 3b bc 3e d0 9f 3c 28 de 29 bd f4 0a d3 bc
       -0.011423517 0.019508477 -0.04147163 -0.025762059
0003a0 28 38 58 bd a2 53 5f bd 80 ec b8 39 fc 32 92 bc
       -0.05278793 -0.054523118 0.0003527142 -0.017846577
0003b0 bf 6b 33 3d ea 33 ff 3c 5e 1a 92 bc b4 c5 65 bd
       0.043803927 0.031152684 -0.017834838 -0.056096748
0003c0 cc 4a 37 bd 1c d3 33 3c ee e7 17 bd 8c cd cf bc
       -0.044749066 0.010975625 -0.03708642 -0.025366567
0003d0 26 ae e6 3c ac 0e 65 3c ba 5f c5 bc 05 6b 13 3d
       0.028159212 0.013980549 -0.024093498 0.035990734
0003e0 92 6b ba 3c 34 96 76 3c e1 ef 5f 3d f2 3c 14 bd
       0.022756372 0.01505046 0.054672126 -0.036190934
0003f0 18 68 bc 3b d7 ca 43 3d 5a 91 b0 3c 86 e9 3d bd
       0.0057497136 0.047800865 0.021553684 -0.046365283

bias f4 [32]
000000 7b 74 23 bd ae be 03 bd 08 0b c3 3b 3b a6 58 bd
       -0.039906006 -0.03216427 0.0059522428 -0.052892905
000010 08 81 fa bc 01 c9 32 bd e8 f6 08 bd a9 ff 29 bd
       -0.030579105 -0.043648724 -0.033438593 -0.041503582
000020 8c 0f 4f 3c 25 85 4a 3d 74 52 3f bd 84 28 95 bc
       0.012637984 0.049443383 -0.046709493 -0.018207796
000030 a7 be 1a 3d a9 2f 17 3d 38 08 5b bd d2 42 45 bd
       0.037779476 0.036910687 -0.053474635 -0.048159428
000040 9f dd 4b bd 41 07 e9 bc c4 be 01 3c 05 55 ee bc
       -0.0497719 -0.028445842 0.007919017 -0.029093275
000050 a2 43 50 bd ba b9 d6 bc d7 03 1f 3d c4 42 55 bd
       -0.05084575 -0.026211608 0.03882202 -0.052065626
000060 1a fb 94 bc 8f 62 08 3d a8 aa 65 bc 2b 48 27 3d
       -0.01818614 0.033297118 -0.014017738 0.04084031
000070 85 61 00 bd 47 89 46 3d 15 69 6b 3d 62 a0 0f bd
       -0.031343002 0.04847076 0.05747326 -0.035065062

weight f4 [32]
000000 13 e4 66 3f 00 92 1b 3e 7c a1 45 3e dd 83 75 3f
       0.90191764 0.15192413 0.19299883 0.9590433
000010 00 48 d9 39 fe 14 1e 3f 98 55 9e 3d 88 73 b8 3e
       0.0004144311 0.6175078 0.077311695 0.36025643
000020 ce e5 76 3f 29 e0 56 3f 00 1e fd 3a be 76 23 3f
       0.96444404 0.8393579 0.0019311309 0.6385306
000030 5a 5a a4 3e e5 c8 41 3f 36 92 35 3f c2 6a 07 3f
       0.32100183 0.75697166 0.70926225 0.52897274
000040 60 b3 65 3e 1c d6 23 3f 84 37 79 3e d9 42 17 3f
       0.22431707 0.6399858 0.24337584 0.59086376
000050 2c 48 61 3e 8b ca 79 3f d5 bf 71 3f be b2 86 3e
       0.22000188 0.9757468 0.9443334 0.26308244
000060 ba 42 82 3e e9 cb 28 3f b0 f5 52 3f 08 f2 4a 3f
       0.25441533 0.6593614 0.8240614 0.7927556
000070 9f 4b 26 3f e4 18 3a 3f d4 63 e9 3e 54 87 c1 3e
       0.6495914 0.7269423 0.45583975 0.3779856

bias f4 [32]
000000 00 00 00 00 00 00 00 00 00 00 00 00 00 00 00 00
       0.0 0.0 0.0 0.0
000010 00 00 00 00 00 00 00 00 00 00 00 00 00 00 00 00
       0.0 0.0 0.0 0.0
000020 00 00 00 00 00 00 00 00 00 00 00 00 00 00 00 00
       0.0 0.0 0.0 0.0
000030 00 00 00 00 00 00 00 00 00 00 00 00 00 00 00 00
       0.0 0.0 0.0 0.0
000040 00 00 00 00 00 00 00 00 00 00 00 00 00 00 00 00
       0.0 0.0 0.0 0.0
000050 00 00 00 00 00 00 00 00 00 00 00 00 00 00 00 00
       0.0 0.0 0.0 0.0
000060 00 00 00 00 00 00 00 00 00 00 00 00 00 00 00 00
       0.0 0.0 0.0 0.0
000070 00 00 00 00 00 00 00 00 00 00 00 00 00 00 00 00
       0.0 0.0 0.0 0.0

running_mean f4 [32]
000000 8c 82 8c bc 06 2a 8d 3d 15 27 07 be 24 dc 65 bd
       -0.017152093 0.06892781 -0.13198502 -0.056118146
000010 c9 25 6f bc 7c 95 95 bd 1d 76 7b 3d 68 69 51 3e
       -0.014596411 -0.073039025 0.06139194 0.20450366
000020 05 6b ab 3d dc 15 48 be ae 86 11 be 38 24 33 3d
       0.08370022 -0.19539589 -0.14211532 0.043735713
000030 75 00 c5 3d de 3a 6f 3d 3f 28 aa bd ac 60 8d 3c
       0.09619228 0.05840575 -0.083084576 0.01725801
000040 b1 a4 1f 3e 66 ee 6e bd 32 7a d5 bd 3e f7 a8 3d
       0.15590169 -0.058332823 -0.104236975 0.08250283
000050 84 be 10 3c ba 75 b5 3d 6d d4 0c 3d 7e 1c 9c bd
       0.008834485 0.08860345 0.034382273 -0.07622622
000060 6d 6a 21 3d 34 13 b8 bc fe 1b e9 3d 83 45 0b 3e
       0.039408136 -0.022470094 0.11382292 0.13600735
000070 af 3b 7a bd fd 73 fe bc 88 10 1e 3d 1f 84 ba bd
       -0.061092075 -0.031061167 0.038589984 -0.09107231

running_var f4 [32]
000000 14 67 09 3d 89 78 98 3c 80 3d 4d 3c 8c e5 eb 3c
       0.03354557 0.018612163 0.01252687 0.02879598
000010 98 22 72 3c 4f 8d 65 3c 1e 49 6c 3c 4d a6 c5 3c
       0.014778756 0.014010741 0.014421729 0.02412715
000020 21 6b 96 3c f9 09 40 3d 36 d5 18 3d 18 c3 41 3c
       0.01836163 0.04688451 0.03731271 0.011826299
000030 04 fb 8d 3c 06 9f 07 3d 3d 0e 4d 3c 3d 0e f6 3c
       0.017331608 0.03311064 0.012515602 0.030036086
000040 3b be b1 3c 68 2f 36 3d 16 9e ea 3c 93 4a ff 3c
       0.021697154 0.044478804 0.028639834 0.03116349
000050 da b4 42 3c b2 75 92 3c c2 44 98 3c 04 3d b2 3c
       0.011883939 0.017878387 0.018587474 0.02175761
000060 14 3a 07 3d fe 85 1c 3d ea 5b 99 3c 9a 28 2c 3d
       0.033014372 0.038213722 0.018720586 0.04203091
000070 88 d2 aa 3c 16 8e b2 3c 5a 05 0d 3d 29 41 05 3d
       0.020852342 0.021796267 0.03442893 0.032532845
