5_cross_5_iter_0.pt (torch_old, 327252 bytes, 66 tensors)

weight f4 [32, 5, 3, 3]
000000 04 f5 02 3d c4 b2 4d 3d f1 40 c2 bd f3 e9 10 be
       0.031971946 0.050219312 -0.09485043 -0.14151745
000010 40 8a 62 bd 26 69 79 bd 65 b9 08 3e d8 1d 3a 3d
       -0.055307627 -0.060891293 0.13351972 0.045438617
000020 04 16 67 bd a0 78 67 3c fe 97 db bd 6a 79 3b bd
       -0.05641748 0.01412788 -0.107223496 -0.045770086
000030 a0 4d d7 3c 9e 06 4f bd 28 98 93 3c 68 e6 06 be
       0.026282132 -0.05054342 0.01801689 -0.1317383
000040 60 99 a5 3d 80 fc 41 bb f6 fc 2b bd 53 ee f1 bd
       0.080858946 -0.0029599965 -0.04198929 -0.11813035
000050 88 6e aa 3d d4 c2 e6 bc 8a 5b ee 3d 30 d3 6e 3c
       0.083218634 -0.028169073 0.116385534 0.014576718
000060 24 05 b6 bd 5c 2c 37 3d 50 64 39 bc f7 bf f8 bd
       -0.08887699 0.04472004 -0.01131542 -0.121459894
000070 2a d0 11 be 6c 15 73 3d 84 7e 37 3d d8 38 ae 3c
       -0.14239565 0.0593466 0.04479839 0.02126734
000080 d0 1f 27 3c 34 26 d6 bd b8 54 a5 bc 26 9f a1 3d
       0.010200456 -0.104565054 -0.020181999 0.07891683
000090 ba b3 0b bd f4 8c 6a 3d 50 f6 e0 3c 00 81 bc bc
       -0.034106947 0.05726333 0.027461201 -0.02301073
0000a0 36 fc ae 3d ae ce f2 3d ee f8 d0 3d 14 6b a7 bd
       0.08544199 0.11855827 0.102037296 -0.081747204
0000b0 4a 0c d9 3d 09 32 08 be d4 d6 f8 bd 76 2f da bd
       0.10598047 -0.13300337 -0.1215035 -0.10653584
0000c0 ce 3c 27 bd 28 f7 61 3d 8c 23 2f bd 6b 3a 10 3e
       -0.040829472 0.055167347 -0.04275851 0.14084785
0000d0 cc 5b b5 3d 00 db 46 ba 7e 6a cf 3d 32 71 81 bd
       0.088553995 -0.0007585734 0.10127734 -0.063204184
0000e0 e0 c2 92 bc e6 95 f1 bd b0 2f 22 3d 4c 8c 5e 3d
       -0.01791519 -0.11796169 0.03959626 0.054333016
0000f0 96 7b 17 bd ab 8a 08 3e 35 6e 06 3e ef 3e 83 bd
       -0.036983095 0.13334148 0.13127978 -0.06408488
000100 ea 76 ed 3d 46 6b d1 3d 80 ec 6e 3c f8 46 f7 3c
       0.11594947 0.10225539 0.014582753 0.030185208
000110 c8 5f bc bc 2e 6d 03 be dd 75 16 3e 0a 1f 90 bd
       -0.02299489 -0.12834617 0.14693399 -0.0703717
000120 10 75 17 bd ae b5 ed bd 3a 5b be bd 2a 1c 3a bd
       -0.036976874 -0.11606918 -0.09294744 -0.045437016
000130 c6 ae d3 3d e8 60 f7 3c 01 7b 07 be c0 06 4a 3b
       0.1033607 0.030197576 -0.13230516 0.0030826777
000140 fe 8b ac 3d de 3f 8f 3d d6 98 a4 3d c6 d8 df 3d
       0.08425139 0.069946036 0.08036964 0.10930018
000150 15 e2 af bd 58 73 bb 3d f8 77 8d 3c f6 6b d3 bd
       -0.085880436 0.091528594 0.01726912 -0.10323326
000160 d4 e9 0b be 80 a8 e0 ba 60 08 9f 3b f2 12 2d bd
       -0.13663417 -0.0017140061 0.0048532933 -0.042254396
000170 63 1b 8c bd 2c 34 50 3d 8a c1 ed bd 00 cc 40 bc
       -0.06841161 0.050831005 -0.1160918 -0.011767387
000180 a8 33 cd bd be bb ea 3d 70 b2 5c 3d c0 2c 93 bd
       -0.10019618 0.1146159 0.05388111 -0.0718627
000190 fa 73 ad 3d 4b 33 07 3e 20 7c 3f bc 08 c2 9c 3c
       0.084693864 0.1320316 -0.011687309 0.01913549
0001a0 a0 e4 91 bb c0 1e d4 3b de 0d 6c bd 80 a0 98 3b
       -0.004452303 0.0064733922 -0.057630412 0.004657805
0001b0 06 6a 85 3d 2e 8d ff 3d 2e bb 16 be 12 55 d7 3d
       0.06514363 0.124781 -0.14719841 0.10514273
0001c0 30 51 8f bc 79 63 0c be e1 39 9f bd ec dd 97 3d
       -0.017494768 -0.13709821 -0.077747114 0.07415375
0001d0 78 fa a3 3d 24 72 2a 3d 78 89 38 3d 94 60 7b 3d
       0.080067575 0.04161276 0.045052975 0.0613714
0001e0 b6 22 e1 3d 2a ee 08 be 38 e6 31 bd c0 35 56 3c
       0.10992949 -0.13372102 -0.043432444 0.013074338
0001f0 5e fb ec 3d b0 89 47 3d 40 26 49 3c 9a 93 ee 3d
       0.11571382 0.048715293 0.012277186 0.116492465
000200 ce c0 f1 3d e0 46 f1 bc a8 73 cb bc 64 7c 6d 3d
       0.11804353 -0.029452741 -0.024835423 0.057979956
000210 b6 5f e7 3d 00 72 4d 3d 00 9c 14 bc 7a db b5 bd
       0.11297552 0.050157547 -0.009070396 -0.088797525
000220 d0 8a 46 3d 71 c8 b0 bd f9 0a 8d bd 31 cf e5 bd
       0.048472226 -0.08631981 -0.068868585 -0.11221159
000230 3f 51 01 3e 0d 11 08 3e 5f e0 06 3e 54 02 d8 bd
       0.12628649 0.13287754 0.13171528 -0.10547319
000240 68 c9 82 bc cc 03 d4 bd 18 33 83 bc 7c eb b0 bd
       -0.015965179 -0.10352287 -0.016015574 -0.08638665
000250 b0 7b 21 bc de d1 11 bd 45 f0 86 bd b1 d3 00 3e
       -0.00985615 -0.035600536 -0.065887965 0.12580754
000260 74 e2 19 bd c6 b9 e2 3d 74 49 8a 3d 63 9f 0d be
       -0.03756948 0.1107059 0.06752291 -0.13830332
000270 f0 98 d6 bd c6 7e 86 3d 5f 17 04 3e 00 03 ac 3c
       -0.10478389 0.06567149 0.1289954 0.020997524
000280 ea 9b aa bd 19 6e 01 3e 94 aa eb bd c0 4f d2 3c
       -0.083305195 0.12639655 -0.115071446 0.025672793
000290 a8 7d 62 bd c8 26 03 3d d0 88 28 bc 1a 80 14 be
       -0.055295616 0.032019407 -0.010286525 -0.14501992
0002a0 64 c0 e2 bd bf ea a1 bd 52 dc 0f bd 1a 36 bf 3d
       -0.11071852 -0.079061024 -0.035122223 0.09336491
0002b0 4c 11 17 bd 60 7e f4 bb 98 28 84 bd 4c c5 b9 3d
       -0.03688173 -0.007461354 -0.06453055 0.090708345
0002c0 b0 fc f7 3c 7e 87 ee 3d df 18 dc bd c2 14 d7 3d
       0.030271858 0.11646937 -0.10746931 0.10502006
0002d0 e0 3b 41 bc 4e dd d9 3d 51 83 0a 3e c2 52 2e bd
       -0.0117940605 0.10637914 0.13526656 -0.042559393
0002e0 50 98 72 3c 29 76 0a be 3e a3 88 bd cc ab 04 be
       0.014806822 -0.13521637 -0.06671761 -0.1295616
0002f0 9c b5 68 3d b7 05 00 3e 42 e4 f1 3d 0c 41 d2 bd
       0.05681382 0.1250218 0.11811115 -0.10266313
000300 d0 92 81 bc e5 18 07 3e fe 55 f8 3d df 11 09 be
       -0.015817076 0.1319309 0.12125777 -0.13385724
000310 26 03 de bd 9d 85 98 bd 37 9e 04 be 4f ac 16 3e
       -0.10840444 -0.0744736 -0.12950979 0.14714168
000320 56 93 a5 bd 5e ea e4 3d 7a 24 6b bd c0 70 66 bd
       -0.08084743 0.111775145 -0.057407834 -0.05625987
000330 8e ce d0 3d 10 6b 2d bd f8 e8 a5 bc 4c e8 d3 bd
       0.10195647 -0.04233843 -0.02025269 -0.103470415
000340 40 af 70 bc b6 4e dd 3d 2c ff b6 3d 5f 7d c2 bd
       -0.01469022 0.108060285 0.08935389 -0.09496569
000350 26 f3 b0 3d 8d f5 b3 bd 86 33 a3 3d 80 73 8e 3d
       0.08640127 -0.087870695 0.07968812 0.069556236
000360 c8 fc 9a bc 0a b1 dd 3d 48 1f c4 3d a0 7e ac bb
       -0.018919364 0.10824783 0.09576279 -0.0052641183
000370 cd 17 9b bd 0e 31 ec 3d 64 8d 25 3d 58 54 1c bd
       -0.07572899 0.11532794 0.040418044 -0.038166374
000380 92 cf c6 bd a6 cf ed 3d e4 05 89 3d c8 02 74 bd
       -0.0970756 0.116118714 0.06690577 -0.059572965
000390 62 44 ef 3d 1d 54 15 3e f0 8a 77 3d 5c 5c 94 3d
       0.11682965 0.14582868 0.060435236 0.07244179
0003a0 f4 9a 14 bd b5 bf 16 be c0 d2 a1 3d 89 2c 15 3e
       -0.036280587 -0.14721568 0.079015255 0.1456777
0003b0 a2 ed f7 3d 5a cb d6 3d 7a 85 eb bd 84 03 43 3d
       0.12105872 0.10488005 -0.11500068 0.047610775
0003c0 b2 f3 de 3d ae 0c 89 3d 7f c7 94 bd 9a 9f 11 be
       0.10886325 0.066918716 -0.07264613 -0.1422104
0003d0 a9 7d 06 be 80 11 ce ba b6 8c 06 bd 4d 40 07 3e
       -0.13133873 -0.0015721768 -0.032849036 0.13208123
0003e0 f4 79 f5 bd 74 54 7b 3d 2f 97 0e 3e 03 b9 0b 3e
       -0.11986151 0.061359838 0.1392486 0.13644795
0003f0 40 c1 68 bc 30 a3 fe 3c d4 f6 01 be 30 59 c5 3d
       -0.014206231 0.031083673 -0.12691814 0.09636152

bias f4 [32]
000000 eb ef a0 bd e0 81 4c bc 40 6c c2 bb aa ec 2d bd
       -0.07858261 -0.0124821365 -0.0059333146 -0.04246203
000010 56 0e e7 3d 4a e9 de 3d 15 52 16 3e 00 d8 c4 3d
       0.11282031 0.1088434 0.1467975 0.09611511
000020 60 fe c0 3c c6 96 9d 3d 40 78 42 3d e3 9f ed bd
       0.023558795 0.076947734 0.04747796 -0.116027616
000030 b0 a8 88 3d 70 19 82 3c 90 25 76 bc 6a 0c ee 3d
       0.066727996 0.01588127 -0.015023604 0.116234615
000040 71 a8 e4 bd ba 3c 16 bd bd 20 cf bd d4 0a 73 3d
       -0.1116494 -0.036679007 -0.10113666 0.0593365
000050 7c bd b8 bd 97 27 05 3e 72 54 fc bd 51 d9 83 bd
       -0.09020516 0.13003384 -0.12320794 -0.06437934
000060 37 1b 0f 3e 50 4c a6 bc a8 84 64 3d b8 ce ce bc
       0.13975225 -0.02030006 0.055790573 -0.025245056
000070 00 cd c4 bb 92 90 dc 3d 10 9f e6 3c 12 77 89 bd
       -0.006005883 0.10769762 0.028152019 -0.06712164

weight f4 [32]
000000 00 00 80 3f 00 00 80 3f 00 00 80 3f 00 00 80 3f
       1.0 1.0 1.0 1.0
000010 00 00 80 3f 00 00 80 3f 00 00 80 3f 00 00 80 3f
       1.0 1.0 1.0 1.0
000020 00 00 80 3f 00 00 80 3f 00 00 80 3f 00 00 80 3f
       1.0 1.0 1.0 1.0
000030 00 00 80 3f 00 00 80 3f 00 00 80 3f 00 00 80 3f
       1.0 1.0 1.0 1.0
000040 00 00 80 3f 00 00 80 3f 00 00 80 3f 00 00 80 3f
       1.0 1.0 1.0 1.0
000050 00 00 80 3f 00 00 80 3f 00 00 80 3f 00 00 80 3f
       1.0 1.0 1.0 1.0
000060 00 00 80 3f 00 00 80 3f 00 00 80 3f 00 00 80 3f
       1.0 1.0 1.0 1.0
000070 00 00 80 3f 00 00 80 3f 00 00 80 3f 00 00 80 3f
       1.0 1.0 1.0 1.0

bias f4 [32]
000000 00 00 00 00 00 00 00 00 00 00 00 00 00 00 00 00
       0.0 0.0 0.0 0.0
000010 00 00 00 00 00 00 00 00 00 00 00 00 00 00 00 00
       0.0 0.0 0.0 0.0
000020 00 00 00 00 00 00 00 00 00 00 00 00 00 00 00 00
       0.0 0.0 0.0 0.0
000030 00 00 00 00 00 00 00 00 00 00 00 00 00 00 00 00
       0.0 0.0 0.0 0.0
000040 00 00 00 00 00 00 00 00 00 00 00 00 00 00 00 00
       0.0 0.0 0.0 0.0
000050 00 00 00 00 00 00 00 00 00 00 00 00 00 00 00 00
       0.0 0.0 0.0 0.0
000060 00 00 00 00 00 00 00 00 00 00 00 00 00 00 00 00
       0.0 0.0 0.0 0.0
000070 00 00 00 00 00 00 00 00 00 00 00 00 00 00 00 00
       0.0 0.0 0.0 0.0

running_mean f4 [32]
000000 02 95 c3 ba 3c 69 65 bd 2e 19 d7 3e 56 3a 0d 3d
       -0.0014921727 -0.056008562 0.42011398 0.03447946
000010 d2 76 83 3e e5 7f cf 3e 87 cc b5 3e 73 db e6 3d
       0.2567659 0.40527263 0.35507604 0.11272325
000020 1e 78 43 3c 2f dd 25 3e 93 fb 74 3d 24 84 dc bc
       0.011930494 0.16197656 0.059810232 -0.026918478
000030 1f 9e 75 3e 20 75 ee be ad fe 81 be b7 87 69 be
       0.239861 -0.46573734 -0.25389615 -0.22805677
000040 63 bb 08 bf 30 02 a2 3e 7e 50 0d be 81 85 05 3e
       -0.5341093 0.31642294 -0.13800237 0.13039209
000050 a7 23 6c 3e de 5b 48 be 9a 6f 9f 3e 31 ab 0c be
       0.23060475 -0.19566295 0.31139833 -0.1373718
000060 fa 6b c4 3e 29 c3 15 3f a0 44 ec bd a6 a8 7d be
       0.3836363 0.58500916 -0.11536527 -0.24771366
000070 76 76 b6 bd 90 96 14 3f 11 c5 48 3d ab 76 82 3e
       -0.089093134 0.5804224 0.049016062 0.2548116

running_var f4 [32]
000000 b6 13 21 3d 46 c5 94 3d b8 2e 8b 3d e9 7e 66 3d
       0.03932544 0.072641894 0.0679602 0.056273375
000010 ae d7 c3 3c cf 3e 24 3d 6b d8 9f 3c c3 6b 92 3d
       0.023906555 0.04009896 0.019512376 0.0714946
000020 54 79 c9 3c c2 cb c1 3c fa 54 51 3c ae 73 0f 3c
       0.024593987 0.02365673 0.012776608 0.0087556075
000030 ef 16 90 3d 0c 7d 7e 3d 2d 57 23 3d a1 da 4c 3d
       0.07035624 0.062130973 0.03987806 0.05001319
000040 c0 13 75 3d e5 1f e0 3d 1b 62 24 3d 60 2e d0 3c
       0.05983329 0.109435834 0.040132623 0.025412738
000050 bd 62 a2 3d ff f9 f7 3c 23 51 ef 3c 3d 66 26 3d
       0.07928989 0.030270575 0.029213494 0.040624846
000060 ab d8 cd 3c 05 d1 0b 3d 5f 00 2b 3d 6b c5 b3 3c
       0.02512773 0.034134883 0.0417484 0.021944722
000070 ff 80 86 3d 98 ca 55 3d 85 c1 45 3e 67 dd 5b 3d
       0.06567573 0.05219516 0.19312103 0.053677943

weight f4 [2, 32, 1, 1]
000000 40 14 02 bc 16 e0 a2 bd e8 5d 1e be 6d 2a 21 3e
       -0.007939398 -0.07952897 -0.1546551 0.1573884
000010 20 3d f1 3c 26 3a b1 bd 0c 11 73 3d 90 dd 0c 3c
       0.029448092 -0.08653669 0.05934243 0.0085977465
000020 2c 91 a5 bd 4d 6c 2d 3e 82 a0 e4 3d 90 d2 20 bc
       -0.0808433 0.16935845 0.11163427 -0.009815827
000030 85 46 1f 3e 93 27 17 be 8e 0c 00 be 86 8c ab 3d
       0.15554245 -0.1476119 -0.12504789 0.08376412
000040 7e 9e cd 3d 58 79 be bd 38 87 4d 3d 9f d0 04 be
       0.100399956 -0.09300488 0.050177783 -0.12970208
000050 f0 9f 1b 3d 09 7b cc bd c0 81 9d 3b 96 47 b2 3d
       0.037994325 -0.099844046 0.004806727 0.0870506
000060 00 26 9f bc fd 8a d1 bd 3e d7 25 be 02 ff d3 bd
       -0.0194273 -0.10231588 -0.1619539 -0.10351373
000070 c0 05 fc bd 68 32 91 3c 32 fb c4 3d 00 9f 0b be
       -0.12305784 0.01772423 0.09618224 -0.13634872
000080 94 8c 85 bd a1 71 f5 bd e8 e3 ff 3c 86 2f 14 be
       -0.06520954 -0.119845636 0.031236604 -0.14471254
000090 a8 df 2d bd f6 04 2a be 86 4f 9c 3d 5a 33 81 bd
       -0.042449623 -0.16603455 0.076323554 -0.06308623
0000a0 a1 98 19 be ee 67 66 bd 5f 08 34 3e 08 5a 49 3d
       -0.1499963 -0.05625146 0.17581318 0.049158126
0000b0 90 67 0c be e8 75 3d 3d d6 19 aa 3d 77 bc 28 3e
       -0.13711381 0.046255022 0.08305709 0.16478144
0000c0 ee 0b d4 3d 90 18 8a 3d 87 de 2a 3e c6 d1 ef 3d
       0.10353838 0.06742966 0.1668645 0.11709933
0000d0 0b 20 04 be ad 7d 87 bd 26 6c b7 3d 5e 0a bb 3d
       -0.12902848 -0.06615768 0.089561746 0.09132837
0000e0 7e 95 e2 3d 85 92 27 3e 62 2a ca 3d 27 9c bf bd
       0.110636696 0.16364487 0.09871365 -0.093559556
0000f0 4a c6 da 3d 40 f7 04 3c 80 75 a8 bc 74 cd bc bd
       0.10682352 0.00811559 -0.02056384 -0.092188746

bias f4 [2]
000000 10 3f a0 3c f3 b2 06 3e
       0.01956132 0.13154201

weight f4 [2]
000000 00 00 80 3f 00 00 80 3f
       1.0 1.0

bias f4 [2]
000000 00 00 00 00 00 00 00 00
       0.0 0.0

running_mean f4 [2]
000000 fe 4e 12 bf 88 c6 18 3f
       -0.5715178 0.59677935

running_var f4 [2]
000000 67 db f4 3e 63 77 b0 3e
       0.4782364 0.34466085

weight f4 [26, 18]
000000 e6 09 bb 3d e1 aa 64 3e d0 ab 60 bc 81 b8 4a be
       0.09132747 0.2233081 -0.013712838 -0.19796945
000010 2b 4e 4d 3e e6 da 60 be 34 97 40 bd 6d 06 18 3e
       0.2004935 -0.21958503 -0.0470192 0.14846201
000020 a6 17 17 be 97 a3 59 3e 0f 42 21 be ee c2 10 be
       -0.14755115 0.21253811 -0.15747856 -0.1413686
000030 3a e7 8b 3d a4 11 3f be 70 9b 9e bc 03 12 1a 3e
       0.06831212 -0.18659073 -0.019361228 0.15045933
000040 cb 70 0c 3e e5 cc 13 be 2c 78 1f 3d c0 b8 be 3b
       0.13714902 -0.1443363 0.038932964 0.0058203638
000050 b4 71 42 3d 2e 45 ab 3d 06 93 e4 3d 90 8a d8 bd
       0.047471717 0.08362804 0.11160855 -0.10573304
000060 b2 c0 e1 3d b7 f1 47 be 44 8c 36 be b0 22 ee bc
       0.11023082 -0.195258 -0.17826945 -0.029069275
000070 a5 8c 4f 3e ec 79 11 bd 6c 80 ce bd 1a 07 32 be
       0.20268495 -0.035516664 -0.10083088 -0.17385522
000080 04 4e 19 bd 34 39 64 3d 1a d2 9b 3d 90 f8 7e bc
       -0.037427917 0.055718616 0.07608433 -0.015562192
000090 3b a3 49 3e 45 37 60 be da af be 3d 10 eb ea bd
       0.19691174 -0.21896084 0.09310885 -0.11470616
0000a0 cf 0e 5f 3e 60 bf 8b 3b c2 91 de 3d eb 1c 54 be
       0.21782993 0.004264757 0.10867645 -0.20714156
0000b0 94 e3 9e bd 4c d4 4c bd 19 cf 29 3e bf d5 47 be
       -0.07758251 -0.05000715 0.16582908 -0.19515131
0000c0 a3 4d 52 3e b1 e7 17 3e 58 ba bb bc aa 8d eb 3d
       0.20537429 0.14834477 -0.022916004 0.1150163
0000d0 80 f9 04 be 19 8a 15 be 69 71 5b 3e be 5e 9a bd
       -0.12985802 -0.14603461 0.21429981 -0.07537602
0000e0 cc 2d 37 3d 1c f7 c6 bd e4 20 18 be 7c 19 4d 3d
       0.04472141 -0.09715101 -0.14856297 0.050073132
0000f0 8e 42 4d be ca 1b 95 bd 2f 5e 42 3e 41 c5 42 3e
       -0.2004492 -0.07280691 0.1898124 0.19020559
000100 80 c4 d7 3a 7c e1 79 3d 3c e6 03 be a8 68 19 bd
       0.001646176 0.061006054 -0.12880796 -0.037453324
000110 40 eb 22 bd 98 83 c3 bd c0 e5 fa bc c6 be 70 be
       -0.039775133 -0.09546584 -0.030627131 -0.23510274
000120 a6 d7 c2 bd 37 a6 56 3e 98 a4 a5 bc d6 ab 81 3d
       -0.09513788 0.20961843 -0.020220086 0.06331603
000130 5a 72 3b be 08 4a 9a bd ea ff 58 be d3 52 03 be
       -0.1830534 -0.075336516 -0.21191373 -0.12824564
000140 68 14 18 be 0f 8c 1c be 66 17 f2 3d fa fc e1 bd
       -0.14851534 -0.15287803 0.11820869 -0.110345796
000150 5f 4e 3d 3e b2 54 d4 3d f5 09 48 3e 94 0e 76 bd
       0.18486927 0.10367717 0.19535048 -0.060072497
000160 04 6e 7e bd c8 59 8e 3c d9 b1 21 3e 30 23 12 bd
       -0.062116638 0.017376795 0.157905 -0.03567809
000170 00 47 cc ba 9d fa 1c 3e d0 0d 6b bd 20 6f 3d 3c
       -0.0015585124 0.15329976 -0.05738622 0.011562139
000180 b7 7e 22 3e 89 6a 3a be fb ac 33 be 9e fa 9c 3d
       0.1586865 -0.18204702 -0.17546456 0.07664989
000190 90 2f 47 be e0 30 43 bc 17 52 71 3e 3a ad 1f be
       -0.19451737 -0.011913508 0.23566471 -0.15593424
0001a0 e0 9f f9 bb 1c 84 16 bd 27 86 09 3e 84 91 28 bd
       -0.0076179355 -0.036747083 0.13430081 -0.0411544
0001b0 82 13 bf 3d ea 4b 6e be 61 7a 11 be 7d 38 16 3e
       0.09329893 -0.23271146 -0.1420684 0.14669986
0001c0 28 eb 9f 3c fa 83 ce bd 60 1f fb 3b 1c eb 35 3d
       0.01952131 -0.10083766 0.0076636523 0.04441367
0001d0 df d3 2d 3e 07 ec 57 3e ee ae bd 3d 3c 31 76 3d
       0.16975354 0.21086131 0.09261881 0.060105547
0001e0 b0 5a 0d bc ea e1 01 be 80 a9 f2 bb be 2f ed 3d
       -0.008627579 -0.12683836 -0.00740546 0.11581372
0001f0 df c1 f7 bd 8f eb 33 3e 10 f0 1a be 94 88 05 be
       -0.12097525 0.17570327 -0.15130639 -0.13040382
000200 b0 f3 51 bd 7d bf 41 3e 2a b8 cc bd e8 d2 d6 bd
       -0.05125779 0.18920703 -0.09996064 -0.10489446
000210 08 6b be 3c 02 27 bb bd ae 55 db 3d f8 00 ec bc
       0.023244396 -0.091382995 0.107097015 -0.028809056
000220 aa 91 ed bd b6 a9 68 be 28 8b 1e be b9 f7 52 3e
       -0.11600049 -0.2272099 -0.15482771 0.20602311
000230 c8 81 8a 3c e8 73 53 be 1a b6 bf 3d a7 c1 16 3e
       0.016907588 -0.20649683 0.09360905 0.1472231
000240 84 27 55 3d 08 5f 1b be e9 c4 25 3e 0d 3a 63 be
       0.05203964 -0.1517297 0.16188397 -0.22190113
000250 0f 7d 1e be 00 cf e9 bd 31 41 45 be bc 79 ff bd
       -0.15477394 -0.11416435 -0.1926315 -0.12474391
000260 f2 8e ee 3d ec 92 e0 bd dc d3 19 be ea 7c 11 be
       0.116483584 -0.10965523 -0.15022224 -0.14207807
000270 4c f8 1e bd bb a2 06 3e 30 98 c5 bc 79 d9 02 3e
       -0.038811013 0.13148014 -0.02412042 0.12778272
000280 f4 9d 09 3d 34 51 24 be 00 f7 2c bc eb f2 3e be
       0.0335979 -0.16046602 -0.010556936 -0.18647353
000290 80 5e f2 bc 66 a2 69 be 88 e6 fa 3c 04 65 4f 3d
       -0.029586077 -0.22815856 0.030627504 0.050633445
0002a0 a4 54 2f be 64 7b a7 bd 78 4a 06 be 5f de 4e be
       -0.17122132 -0.08177832 -0.13114345 -0.20202015
0002b0 da 92 46 be bf 39 44 3e 52 f9 f0 3d 80 ab e1 bc
       -0.19391957 0.19162653 0.11766304 -0.027547598
0002c0 c0 da ea bb 70 03 87 bc 40 72 06 3b 00 54 0a b9
       -0.0071671903 -0.016481131 0.0020514876 -0.00013191998
0002d0 fb 45 60 3e 7a 1c d1 3d b0 74 01 bc 5a da ab 3d
       0.21901695 0.102105096 -0.007901356 0.08391257
0002e0 82 a2 9b bd 0d 5f 06 be 9a 12 a9 3d b3 7d f8 bd
       -0.07599355 -0.13122196 0.08255501 -0.1213335
0002f0 44 4c 1f bd e8 c0 70 bd 62 28 db 3d 4d c2 57 3e
       -0.038891092 -0.05877772 0.10701062 0.21070214
000300 68 dd 74 bd a5 56 18 3e 1a c1 06 be b6 a9 17 be
       -0.059781462 0.14876802 -0.131596 -0.14810833
000310 c7 c1 6b 3e 1d 08 0e 3e ca 99 af 3d c6 f3 9e 3d
       0.23023139 0.13870282 0.08574255 0.0776134
000320 13 fd 3f 3e ec d1 5d bd 88 f7 46 bd 8e 6a f5 3d
       0.18748884 -0.054155275 -0.048575908 0.11983214
000330 7c a7 5b bd 1b 6d 3d 3e c0 89 ed 3b 83 a1 0d be
       -0.053626522 0.18498652 0.007249087 -0.13831143
000340 d8 a0 69 be 4f ae 6b 3e 80 bf e6 bb ed ce 2c 3e
       -0.22815263 0.23015712 -0.0070418715 0.16875811
000350 f0 35 5e bc 94 23 c3 bd 30 ca 20 be bc 82 3b bd
       -0.013562664 -0.0952827 -0.15702128 -0.045778975
000360 a9 fe 5c 3e e0 9e 9a bb e2 fd f1 3d b7 27 38 be
       0.2158152 -0.0047186464 0.118160024 -0.179839
000370 90 63 2e be 80 27 ff 3a dc ce 59 be 2a 27 08 be
       -0.17030168 0.0019466728 -0.21270317 -0.1329619
000380 39 f7 68 3e 8a 91 02 be 40 60 85 bb c4 a7 56 bd
       0.22750558 -0.12750831 -0.004070312 -0.052406088
000390 34 ed 6c bd cd d9 f9 bd 7e 0b b9 3d 47 3e 3f be
       -0.057843402 -0.12199745 0.09035395 -0.186761
0003a0 62 f1 ea bd b9 fd 34 3e 04 79 96 bd d0 4a 14 bc
       -0.11471821 0.17674913 -0.07347301 -0.00905104
0003b0 a7 dd f6 bd 05 dd 2b 3e a7 88 48 3e 02 ac ce 3d
       -0.120539956 0.16783531 0.19583379 0.10091402
0003c0 53 53 44 3e f8 61 f9 bc dc 3f 6e 3d e9 e5 4b 3e
       0.1917241 -0.030442223 0.05816637 0.19911923
0003d0 44 c5 2f 3d 2e 9f 34 be ac 39 0f 3d 28 76 5f be
       0.042912737 -0.17638847 0.03496711 -0.21822417
0003e0 12 14 96 3d 36 14 d2 3d af 01 71 3e 94 96 69 be
       0.07328047 0.10257761 0.23535798 -0.22811347
0003f0 1e 3f d4 bd f4 14 79 3d c0 7e 9a bd 20 00 58 3c
       -0.10363601 0.060810998 -0.07543707 0.013183624

bias f4 [26]
000000 f8 23 0c bd b0 a6 26 bc 82 f4 59 be 7e 52 b0 3d
       -0.03421399 -0.010171577 -0.21284679 0.08609484
000010 65 61 55 3e 07 19 0d 3e 16 91 10 be 80 cc 11 bc
       0.20837934 0.13779078 -0.14117846 -0.008898854
000020 b0 76 76 bc 4f 6b 65 3e 14 3f ad bd eb d1 29 3e
       -0.015042946 0.22404216 -0.08459297 0.16583984
000030 04 9f b2 bd d3 5d 62 3e c8 1e e9 3c ba 2c 92 bd
       -0.08721736 0.22106104 0.02845706 -0.07137437
000040 88 50 99 3c 2c 24 3a 3d 90 40 1e be 62 9d fa 3d
       0.018715158 0.045444652 -0.15454316 0.1223705
000050 82 28 c3 3d 88 fa c8 3c d0 09 98 bd e0 d9 6a bc
       0.095292106 0.024533525 -0.074237466 -0.014334172
000060 22 7d ca bd b2 d5 94 3d
       -0.098871484 0.07267322

weight f4 [1, 32, 1, 1]
000000 ab 84 2b be 9d 55 2d be 34 f2 04 be 68 d5 46 bd
       -0.16749828 -0.1692719 -0.12983018 -0.048543364
000010 60 3a 94 3b ec 25 bf bd 59 d2 34 be 48 8a ab 3c
       0.0045235604 -0.09333405 -0.17658366 0.020939961
000020 93 9c 20 3e 54 5f 0c 3d cc bc 10 be 4b ab 23 3e
       0.15684728 0.0342706 -0.1413452 0.15983312
000030 48 6e 9f 3c 9e 8d bd 3d 20 93 ef 3c 31 e4 30 3e
       0.019461766 0.09255527 0.02924496 0.17274548
000040 00 84 8b ba 90 ee 80 bd 8f c5 2f be f6 3d a1 3d
       -0.0010644197 -0.06295502 -0.17165206 0.07873146
000050 e9 f1 17 be ce 7a a9 3d ec f9 17 3d 3e 0c e4 3d
       -0.14838375 0.08275376 0.03710358 0.111351475
000060 18 30 8b 3c 14 ad 59 3d 40 02 71 bb 6d 7c 24 3e
       0.016990706 0.053143576 -0.0036775023 0.1606309
000070 38 38 a6 bc 80 69 91 bb 6e f2 62 bd 00 db 83 3a
       -0.020290479 -0.0044376254 -0.05540698 0.0010059774

weight f4 [32, 9]
000000 45 ff 85 3e c3 71 44 be ac f8 dd 3d a0 ce 60 be
       0.26171318 -0.19184022 0.10838446 -0.21953821
000010 48 20 01 3e ab 4a 4a be ae 42 1a be a0 db 4d 3d
       0.1260997 -0.19755046 -0.15064499 0.05025828
000020 b8 73 6c 3d ec 4a b8 bd b8 5d 77 bd 98 a1 23 3e
       0.057727545 -0.08998665 -0.06039211 0.15979612
000030 ed bb 85 3e 10 8a a4 3c 26 ed 12 3e a8 47 3a bd
       0.26119938 0.020085365 0.14348277 -0.045478493
000040 20 85 46 3d d6 c6 05 3e 5b c8 66 be 92 e7 5f 3e
       0.0484668 0.13064131 -0.22537367 0.21865681
000050 b8 11 4b bd 8d 47 8f 3e 3f d1 a2 3e bc 81 a5 3d
       -0.049577445 0.27984276 0.31800267 0.080813855
000060 80 f4 28 3d 38 7c 3f bd 7f 2d a0 3e bc a8 8d 3d
       0.0412488 -0.046749324 0.3128471 0.06916949
000070 d6 99 5f be 6b 09 80 be 81 46 94 3e bb 49 07 be
       -0.21836028 -0.25007185 0.2896004 -0.1321172
000080 f1 70 8f 3e 36 3c 7d 3e bc c4 d3 bd a5 11 9c 3e
       0.28015855 0.2473 -0.103402585 0.30482212
000090 fa 07 32 3e 06 b5 ba bd 58 99 3f 3d 93 ea 05 be
       0.17385855 -0.09116559 0.0467771 -0.13077764
0000a0 6f 32 9b 3e 9c 6f e3 bd d1 1d 86 3e ea 36 89 be
       0.30311915 -0.11105272 0.26194623 -0.2679971
0000b0 4b 7b 40 be ac c3 c7 3d f2 53 0c 3e f0 e5 e5 3d
       -0.18797033 0.09754118 0.13703898 0.11225498
0000c0 f8 80 8c be 9e 8c 1b be 18 d6 4c 3d e8 a5 39 3d
       -0.27442145 -0.1519036 0.050008863 0.045324236
0000d0 30 3a 4c be d8 64 05 be 9c 38 b7 bd 49 d6 94 3e
       -0.19944072 -0.1302675 -0.08946344 0.29069737
0000e0 e6 46 f8 bd fa a4 67 3e c4 1f a8 3d 62 0b 22 3e
       -0.12122898 0.22621527 0.08209184 0.15824655
0000f0 5a 6b 3d 3e 82 22 13 3e 18 8f 92 be a0 6d 21 bd
       0.18497983 0.14368632 -0.28624797 -0.039411187
000100 1e 09 28 3e 5e 46 54 be 96 5d 21 3e f0 69 2a be
       0.16409728 -0.20729968 0.15758356 -0.16641974
000110 b8 0f 22 be 88 6b 7c be 8a a5 56 3e 92 ad 80 be
       -0.15826309 -0.24650395 0.20961586 -0.25132424
000120 28 91 25 3d b0 1c 76 be 96 d7 6a be f8 98 24 3e
       0.040421635 -0.24034381 -0.22933802 0.16073978
000130 d2 45 5d 3e 40 94 b2 bc c0 8b 15 be c6 34 21 be
       0.21608666 -0.021799207 -0.14604092 -0.15742788
000140 68 76 09 3e 5b 6c 99 3e 70 57 a1 bc 6d 87 a5 3e
       0.13424075 0.2996548 -0.019695014 0.32329884
000150 28 db a0 be 4c d8 d1 bd 00 55 95 bb e4 ab 9c 3d
       -0.31417203 -0.102463335 -0.004557252 0.07649973
000160 42 2f 74 3e a3 b8 79 be 14 3c a8 bd 70 3a 9a 3c
       0.23846152 -0.2438684 -0.08214584 0.018826693
000170 49 ab 80 3e 00 84 3c 3b ce dc a7 be f1 3a a2 3e
       0.2513068 0.0028765202 -0.32785648 0.31685594
000180 9c e0 80 3d 15 c6 85 3e 00 96 52 ba 09 2f 93 3e
       0.06292841 0.26127687 -0.0008033216 0.28746822
000190 0a cf 2c 3e 82 91 77 3e 95 a9 a7 3e 06 b7 48 be
       0.16875854 0.241766 0.32746568 -0.19601068
0001a0 68 1f 5e bd 7d c6 a0 3e 2e 61 50 3e 72 17 68 3e
       -0.05422917 0.31401435 0.20349571 0.22665194
0001b0 20 bd 99 be 85 cb 8c 3e 36 61 20 be 0c 63 fc bd
       -0.30027103 0.27499023 -0.15662083 -0.12323579
0001c0 c5 c4 80 3e 42 b1 9a be 00 10 af 3a f8 96 17 3e
       0.25150123 -0.30213362 0.0013356209 0.14803684
0001d0 c3 c2 5d be 32 c7 45 3e ff cb a3 be b8 72 30 be
       -0.21656327 0.19314268 -0.31991574 -0.17231262
0001e0 90 d9 d8 3d c2 a6 03 3e c2 6c 3a 3e 00 24 e4 3d
       0.10588372 0.12856582 0.1820555 0.11139679
0001f0 e8 ef 09 3e a8 87 0f be 80 8b 75 bb 80 cb 50 be
       0.13470423 -0.14016593 -0.0037467182 -0.20390129
000200 5b 1d 9d be 00 f0 e1 b9 de 12 86 be 16 90 36 be
       -0.3068646 -0.00043094158 -0.2618627 -0.17828402
000210 70 7c b7 bc e0 48 1e be d8 a1 4d be b6 f5 3f be
       -0.022398204 -0.15457487 -0.2008127 -0.18746075
000220 e1 70 8d 3e d8 b2 1a bd 50 e3 ff 3c 16 20 eb bd
       0.27625182 -0.037768215 0.03123632 -0.11480729
000230 b0 b2 65 be 9d 3f 90 3e 78 87 1b bd d6 7d 10 3e
       -0.22431445 0.28173533 -0.03797099 0.14110503
000240 c0 1d fd 3c 84 02 df 3d e2 4b 60 3e fa d4 2c 3e
       0.030897975 0.10889152 0.21903947 0.16878119
000250 0b 7e 6c be 70 e3 89 3c 36 de e1 bd 48 8e 39 bd
       -0.23094957 0.016832083 -0.110287115 -0.045301706
000260 9a 0b 6d 3e c8 18 a3 be f0 a8 cd bc 53 e6 07 be
       0.23148957 -0.31854844 -0.02510497 -0.13271455
000270 82 b1 6f 3e 00 b8 13 3a df a4 89 3e 86 d1 b4 bd
       0.23407558 0.0005635023 0.268836 -0.08829026
000280 c8 31 1c be a8 b9 4a be a4 2d 95 3d 63 9d 8f 3e
       -0.15253365 -0.19797385 0.07284096 0.28049764
000290 c0 8a 1e bd ee 37 01 be 5b 21 20 be 24 28 a0 bd
       -0.03870654 -0.12618992 -0.15637724 -0.07820156
0002a0 c0 2f 60 3d 9b 72 45 be 60 4a e0 bd 86 15 40 3e
       0.054733038 -0.19282 -0.10951686 0.1875821
0002b0 07 95 9c be b6 26 be bd c0 8b fa 3c 94 cd 8c be
       -0.3058245 -0.09284727 0.030584216 -0.27500594
0002c0 73 66 7b be 5d 97 a3 3e 56 66 48 3e 20 16 1c 3c
       -0.245508 0.3195142 0.19570288 0.009526759
0002d0 d5 bf 94 3e f2 de 14 3e 3e b0 3d 3e cb 17 87 be
       0.29052606 0.14538172 0.18524262 -0.2638534
0002e0 3e 47 17 3e 08 3c 63 bd 1b 57 53 be 40 b0 09 bd
       0.1477327 -0.055477172 -0.20638697 -0.03361535
0002f0 00 63 fd bc 7b 1b 34 be a0 5f 16 bd 52 e8 4e 3e
       -0.030930996 -0.17588608 -0.03671229 0.2020581
000300 26 7b 38 be 0b b5 4b be dd db a1 3e 2b 2d 18 be
       -0.18015727 -0.19893281 0.31613055 -0.1486098
000310 38 15 25 3d d8 ca 45 3d 50 87 10 3e db 45 18 be
       0.04030344 0.04828915 0.14114118 -0.14870398
000320 60 e9 35 3c e0 80 4e bc 57 f8 92 be 20 db 03 bd
       0.011103004 -0.012603968 -0.28705093 -0.032191396
000330 0c bd fc 3d 20 61 b2 3d db 00 97 3e 08 21 34 3d
       0.12340745 0.087099314 0.2949284 0.043976814
000340 13 24 54 be 40 e9 9d bd 40 2c 96 3d 9e 4c 66 3e
       -0.20716886 -0.077105045 0.07332659 0.22490165
000350 e0 7b 2c bd cb 0d 9f be f5 d8 9b 3e bb 81 75 be
       -0.042110324 -0.3106521 0.30438963 -0.2397527
000360 d8 66 53 3d f8 67 2d bd 2a db 6c 3e 38 c1 1b 3e
       0.05161175 -0.04233548 0.2313048 0.15210426
000370 af 1f aa be fa d0 55 3e 50 10 6d be 4e 84 46 be
       -0.33227298 0.208805 -0.23150754 -0.19386408
000380 c3 d9 8e be c0 7e 19 3d bb 4f 08 be b0 7a 0e 3e
       -0.27900514 0.037474394 -0.13311665 0.13913989
000390 f8 bd 2c 3d 10 a9 96 bd c3 e4 21 be aa ea 7d 3e
       0.042173356 -0.07356465 -0.15809922 0.24796548
0003a0 84 57 ae 3d e8 e3 92 be 3a 2e 7c 3e 60 ae 48 3c
       0.08512786 -0.28689504 0.24627009 0.0122486055
0003b0 e0 8f 3a 3c 0b b1 a1 be 08 0c 11 be 73 da a2 3e
       0.011386842 -0.31580386 -0.14164746 0.3180729
0003c0 93 48 12 be a6 12 8a be 92 d6 7b 3e 7c a2 95 be
       -0.14285497 -0.26967353 0.24593571 -0.29225528
0003d0 88 91 2e 3d e2 db 23 3e ca 9d 01 3e 5a b1 61 3e
       0.04261926 0.16001847 0.12657848 0.2204031
0003e0 b4 75 8c bd de 1a 7b be c5 68 9e 3e b7 63 8c 3e
       -0.068583876 -0.24521968 0.30939308 0.27419826
0003f0 48 b6 24 bd 32 5f 5c 3e 00 7d ce bc 28 fe 70 bd
       -0.0402129 0.21520689 -0.025206089 -0.058836132

bias f4 [32]
000000 24 8d b7 3d 75 6e 8e 3e 01 90 84 3e 90 c2 4b be
       0.08962467 0.27818647 0.25891116 -0.19898438
000010 7b 7d 68 be cb c8 a2 be e0 01 21 be 3e e2 09 be
       -0.22704117 -0.31793818 -0.15723372 -0.13465211
000020 20 21 60 bc 5a 83 a2 be ab 05 03 be 0e d9 73 3e
       -0.013679773 -0.31740838 -0.12795131 0.23813269
000030 10 29 0e 3e 40 7a ac 3c 46 96 75 be 40 49 ae bd
       0.13882852 0.021054387 -0.23983106 -0.08510065
000040 64 38 e9 3d 6a 69 47 3e 72 36 a8 be e0 d5 16 3d
       0.11387709 0.19473806 -0.32854038 0.03682506
000050 be 8a 09 be 7e 99 62 3e 28 45 3b 3d d0 d3 97 3d
       -0.13431832 0.22128865 0.04572025 0.07413447
000060 f0 23 db bc a0 a2 81 3d 62 8e 32 3e 6f 61 99 be
       -0.026750535 0.063298464 0.17437127 -0.29957148
000070 0e 75 57 be 6f 00 a7 3e f4 48 c9 3d 50 6a 81 3d
       -0.21040747 0.32617518 0.09828368 0.063191056

weight f4 [1, 32]
000000 6d fc cc bd 0d e1 da bd fa 23 fa 3d 12 20 fe 3d
       -0.10009084 -0.10687456 0.12213893 0.12408461
000010 f0 e9 10 be b8 c7 87 3c 1e 98 d2 3d d0 e1 2b be
       -0.1415174 0.016574726 0.1028292 -0.1678536
000020 9f dc a1 bd 1a b9 e0 bd 40 5a 2d 3b 12 36 e9 3d
       -0.07903408 -0.10972805 0.0026451498 0.11387266
000030 08 92 e9 bd 50 2e 43 bd 20 54 c3 3c de 97 f1 bd
       -0.114048064 -0.04765159 0.023843825 -0.117965445
000040 8a f6 ec 3d f9 75 00 3e 2d a5 14 3e c5 30 fa bd
       0.11570461 0.12545003 0.14516135 -0.12216333
000050 14 33 bd bd 2c b2 2b be fa 53 9b 3d b2 b5 18 be
       -0.09238258 -0.16767186 0.07584377 -0.14913061
000060 d8 8a a2 3c 60 de 26 be 40 28 7f bd f8 bc 4b 3d
       0.019841596 -0.16295767 -0.062294245 0.04974076
000070 a7 df 85 bd 2a 4c a5 bd 6c 7e 44 bd 3e e0 aa 3d
       -0.06536799 -0.08071168 -0.047972128 0.08343552

weight f4 [32, 32, 3, 3]
000000 09 d6 3a 3d a0 9d 51 bc cc 1f 70 bd 2a a6 f5 3c
       0.045614276 -0.012793928 -0.058624074 0.02998646
000010 00 21 82 ba 9e 58 ce bc 40 61 33 bc 56 01 98 bc
       -0.0009928048 -0.02518874 -0.010948479 -0.018555325
000020 be dd d1 3c d9 9f 60 3d e8 12 07 bc d2 75 91 bc
       0.02561843 0.054839943 -0.008244254 -0.017756376
000030 63 18 23 3d d0 43 3e bc cf 3c 56 3d eb d1 47 3d
       0.03981818 -0.011612847 0.052304085 0.048784178
000040 80 f6 f3 bc 3d 33 06 3d 3d 22 1f 3d a4 b9 0c 3c
       -0.029780626 0.03276371 0.03885101 0.008589182
000050 11 2a 5a 3d db 0e 07 bd 12 3a e3 3c 27 61 18 3d
       0.053262774 -0.03297315 0.027737651 0.037202027
000060 76 3f f0 3c b5 bf 6a 3d 80 d1 be ba e2 8a 27 bd
       0.029327136 0.057311732 -0.0014558285 -0.040903933
000070 d8 15 3e bc 3a 29 83 3c ca 3c 46 bd d0 64 fd bc
       -0.011601888 0.01601087 -0.048397817 -0.03093186
000080 b5 8c 2c 3d d4 35 0e 3c 90 09 28 bb f0 a7 39 3b
       0.042126376 0.008679826 -0.0025640465 0.0028328858
000090 7a fb ac 3c ba 1a c6 3c 0c d2 25 3c 51 b2 69 3d
       0.021116007 0.024182666 0.01012088 0.05705482
0000a0 40 7e 1c ba a8 27 be 3b ab 2a 63 3d a0 b9 13 bc
       -0.00059697405 0.0058030672 0.055460613 -0.009016424
0000b0 ac 3d 36 3c 02 27 3e bd 3e 2c c5 3c 11 41 61 3d
       0.011123102 -0.04642392 0.024068948 0.054993693
0000c0 00 81 92 39 df fc 3c bd fd 72 0e 3d 53 20 17 bd
       0.00027943403 -0.046139594 0.03477763 -0.03689606
0000d0 68 0d d3 3b 19 ca 62 3d f3 2a 45 3d c6 89 bb 3c
       0.006440807 0.055368517 0.048136663 0.022892844
0000e0 d6 fd 2d bd 19 96 34 bd e0 15 55 bc b4 a5 c6 bc
       -0.042478405 -0.044088457 -0.013005704 -0.024248935
0000f0 88 ab 4f bd 81 1f 24 bd a8 bb d8 3b bf 78 6c 3d
       -0.050700694 -0.040069107 0.0066141672 0.05773234
000100 44 59 34 bd 35 88 61 3d 93 d4 40 3d 01 99 6a 3d
       -0.044030443 0.055061538 0.047077727 0.057274822
000110 ee 2c d8 3c 48 2d b5 3b da 9b 81 bc e4 66 7f bc
       0.026388612 0.0055290796 -0.015821386 -0.015588496
000120 8b 68 62 bd 25 69 6f bd 0c 51 3f 3c a8 65 9f bc
       -0.05527548 -0.058449883 0.011677038 -0.019457653
000130 e0 31 f7 ba 8c 81 3b 3c 2c e5 2c 3c 97 e3 6d 3d
       -0.0018859468 0.011444461 0.010552686 0.058078375
000140 68 06 ab bb 82 d3 f0 3c 42 d3 b1 bc 38 39 6e bc
       -0.0052192695 0.02939773 -0.02170718 -0.014540009
000150 54 bc 39 bc 4f 5f 18 3d 60 0d 6e bc 8d f1 e5 bc
       -0.011336405 0.03720027 -0.014529556 -0.028069282
000160 2e b0 3f bd 8a a9 55 bd 03 2c 07 3d 6f 5b 09 3d
       -0.046798877 -0.05216364 0.033000957 0.033534463
000170 00 e4 94 b8 c9 c5 5d 3d 28 bd 2c bc 64 80 65 bc
       -7.099658e-05 0.0541437 -0.010543145 -0.0140076615
000180 65 74 05 bd 60 de c2 3a 74 97 39 bd 7b bb 45 3d
       -0.032581706 0.0014867298 -0.045310453 0.0482745
000190 62 87 b2 3c 30 a7 9b bc 60 87 ff 3a 71 da 5f 3d
       0.021793071 -0.01900062 0.0019495301 0.05465168
0001a0 67 7d 58 bd 58 96 06 bd e8 0f c2 bc 66 b3 f7 3c
       -0.052853968 -0.032858223 -0.023689225 0.030236911
0001b0 e4 92 16 bc e4 82 c5 bc a2 7b a6 3c 20 21 06 bb
       -0.009190295 -0.024110265 0.020322625 -0.0020466521
0001c0 00 c0 e1 37 20 42 38 bb 3e 2b 84 3c e8 8b 12 bc
       2.6911497e-05 -0.0028115585 0.0161339 -0.008944489
0001d0 e1 b8 6e 3d be 49 68 bd d0 16 6e bc a4 39 8a bc
       0.058281783 -0.05671095 -0.014531806 -0.016873188
0001e0 e4 ee a2 bc 70 65 4c bc dc 4b 90 bc 50 35 2a 3b
       -0.019889303 -0.012475356 -0.017614298 0.0025971718
0001f0 62 23 df 3c 60 7a 43 bd 41 a8 61 bd 18 9c 96 3b
       0.027238552 -0.047724128 -0.0550921 0.0045962445
000200 ef cc 26 3d fe 13 86 bc 0e c6 38 bd a7 8a 0b bd
       0.040722784 -0.016366955 -0.045110755 -0.034067776
000210 a4 36 b5 bc 40 8f 52 bc 28 29 1a bd fa e4 3e bd
       -0.022120781 -0.012851536 -0.037636906 -0.046605088
000220 a8 70 4b bd e7 9c 56 bd c0 99 61 3a a9 ec 14 3d
       -0.049667984 -0.052395727 0.00086059794 0.03635851
000230 ad b6 04 3d 71 7f 47 3d 2d 1b 0f 3d 1b 4a 30 3d
       0.032400776 0.048705522 0.034938026 0.043039422
000240 71 71 64 3d b9 a3 62 3d 3e bf 9d 3c 6a 0c 82 bc
       0.05577225 0.05533192 0.01925623 -0.01587506
000250 44 87 06 3c be 4e 11 bd 21 55 0b 3d 79 aa 08 3d
       0.008210961 -0.035475485 0.034016732 0.0333657
000260 18 af 50 bd 8a 0a b0 3c 03 a9 33 3d 2c 2e a2 bc
       -0.050948232 0.0214894 0.043862354 -0.019797407
000270 78 87 e0 bb 04 21 1d 3c e0 96 34 3b ee 85 5b bd
       -0.0068520866 0.009590391 0.0027555749 -0.053594522
000280 08 e4 58 bc 18 75 83 bb db 67 0e 3d 41 3a 16 3d
       -0.013237961 -0.0040117614 0.034767013 0.03667665
000290 10 f7 c2 bc 6c c3 08 3c 54 6f 0a 3c 8a da 5f bd
       -0.02379945 0.008347373 0.008449394 -0.054651774
0002a0 51 eb 32 3d 70 6b 14 bc 88 85 8c 3b ac 3d 57 bd
       0.043681446 -0.009058818 0.004288379 -0.05254905
0002b0 f2 c4 d5 3c c7 4a 57 3d 54 35 58 3c f4 6c c4 bc
       0.026094887 0.052561548 0.013196308 -0.023977734
0002c0 10 15 61 3b f3 2c 5a bd 36 f8 46 bd 8b 70 3f 3d
       0.003434483 -0.053265523 -0.048576556 0.04673819
0002d0 16 a6 94 3c be 84 31 bd 83 3c 13 3d 5d c6 33 3d
       0.018145602 -0.043339483 0.03594638 0.043890346
0002e0 3e 88 95 3c 05 e4 2a 3d 4c 98 6b 3c fe 1c 2c bd
       0.018253442 0.041721363 0.014379572 -0.042019837
0002f0 1d 98 3e bd 73 39 69 3d ec cf 45 3c 6d 85 67 3d
       -0.046531785 0.056939553 0.012073498 0.05652373
000300 c6 9a d9 3c 54 aa 5c bd 04 fa 0e 3c ee 86 da 3c
       0.02656306 -0.053873375 0.008726601 0.026675668
000310 d0 37 25 3b 64 9f 54 3c 3a f8 a9 bc d5 a2 51 3d
       0.0025210269 0.012977455 -0.020748246 0.05118068
000320 f7 9e 2f 3d 7b c4 60 3d a3 00 65 3d 46 df 5a bd
       0.04287621 0.05487488 0.05590881 -0.053435586
000330 9f ae 47 bd b0 28 05 bb ec cc 0e bd dc 33 07 bd
       -0.048750516 -0.002031844 -0.034863397 -0.03300844
000340 7c b4 27 bc de 9e bc 3c 40 d6 27 ba ba b9 f1 3c
       -0.010235902 0.023024973 -0.000640247 0.029507507
000350 92 89 b7 3c ea 99 32 bd b4 28 fa bc 1e c8 81 3c
       0.022404466 -0.043603815 -0.030536987 0.015842494
000360 00 8d c9 b9 07 bb 0c 3d 00 48 f7 bc 18 40 12 bd
       -0.0003844276 0.03435805 -0.0301857 -0.035705656
000370 c8 de 1e bd a9 46 37 3d 98 d1 fa 3b 07 c9 5e 3d
       -0.03878668 0.04474512 0.00765438 0.054390933
000380 d5 b0 e3 bc 6c b5 05 bd c5 87 0d bd 08 31 72 bc
       -0.027794281 -0.03264372 -0.034553308 -0.014782198
000390 d2 7a d9 bc 8d b8 1a 3d aa 01 91 3c 96 39 b4 bc
       -0.026547823 0.037773658 0.017700989 -0.022000115
0003a0 13 b3 68 bd b2 c1 82 3c 2e 33 cf 3c 80 0b e9 ba
       -0.056811403 0.015961502 0.025292959 -0.0017779917
0003b0 a0 59 29 bd 30 f4 3e 3b b9 41 44 3d a6 c5 9f bc
       -0.04134524 0.0029137246 0.04791424 -0.019503426
0003c0 d5 1d 11 3d a5 f2 18 3d ca c1 bf 3c 6f df 4f bd
       0.03542884 0.03734078 0.023407836 -0.050750192
0003d0 69 0a 33 bd 42 28 f7 3c 9b 2c 4d bd 0c 0c 25 bd
       -0.0437111 0.030170564 -0.050091367 -0.040294692
0003e0 29 df 52 3d 74 1a 18 bd b7 76 4b 3d 20 94 bb bc
       0.051482353 -0.037134603 0.049673762 -0.02289778
0003f0 f3 90 34 3d 3d 3d 45 3d 9b 82 52 3d 6e b7 0b bd
       0.044083547 0.048154105 0.051394086 -0.03411048

bias f4 [32]
000000 ab 5e 0d 3d 85 49 36 3d f4 3a 33 3c f8 05 57 bc
       0.03451411 0.044503707 0.0109393485 -0.013123982
000010 8b b6 53 bd 33 09 0e 3d ba 79 a6 3c 64 6c 17 3c
       -0.05168776 0.03467674 0.020321716 0.009242151
000020 cb fc 52 3d 8b 91 1a 3d ee fe a8 bc a4 0b 0e bc
       0.051510613 0.037736457 -0.020629372 -0.0086697675
000030 9e 1a 93 3c 07 b6 62 3d 38 44 83 bc 64 49 43 bd
       0.017957028 0.055349376 -0.01602374 -0.047677413
000040 fb d6 5d 3d 59 1a 38 bd 2c e0 29 bd c3 b7 67 bd
       0.0541601 -0.044947002 -0.041473553 -0.056571733
000050 f7 38 36 3d 06 66 e4 3c f0 f5 74 bc c5 42 66 bd
       0.04448792 0.02788068 -0.014951214 -0.05621602
000060 e4 7b 16 bd 13 31 3e bd 2a f3 db bc 9d 2a 25 bd
       -0.036739245 -0.04643352 -0.026849348 -0.040323842
000070 e1 12 65 3d 24 34 7c 3c 58 1b 94 bc 25 16 59 3d
       0.055926207 0.015393291 -0.018079445 0.052999634

weight f4 [32, 32, 3, 3]
000000 10 5f 6c 3b b0 ff 6a bd 79 17 66 3d 9a 7e bf 3c
       0.0036067404 -0.05737275 0.05617473 0.023375798
000010 4a 26 f8 3c 2d 64 26 3d ae c2 3d bd df 1f 1c 3d
       0.030291695 0.04062288 -0.04632824 0.038116332
000020 80 b2 c5 3a 0b cb 20 3d 45 57 0a 3d 84 7b 40 bd
       0.0015083104 0.039256137 0.033774633 -0.046992794
000030 00 4d e4 ba f7 d5 33 3d 53 17 2f 3d 86 ba b2 3c
       -0.0017417967 0.043905225 0.042746853 0.021817457
000040 12 77 56 bd c6 fd 37 bd cb 0c 10 3d 19 ec 5e 3d
       -0.052359648 -0.04491975 0.03516845 0.05442438
000050 00 b8 39 b9 e0 54 dd bb dd 02 4b 3d 95 3d 64 bd
       -0.0001771152 -0.0067545027 0.049563278 -0.05572279
000060 78 fa 33 bd ae 7f a3 3c a8 8f a9 3b 96 76 a6 3c
       -0.043940037 0.019958343 0.005174596 0.020320218
000070 73 88 70 bd c0 6a ae ba 65 66 2c 3d 55 d7 3d bd
       -0.058723878 -0.001330696 0.04208984 -0.046347935
000080 40 79 d4 bc 44 f9 10 bd 0a 66 a4 3c 13 a6 64 3d
       -0.025936723 -0.03539397 0.020068187 0.055822443
000090 2e ca c6 3c 20 14 3a 3b 48 36 af 3b c8 d0 0c bd
       0.024266329 0.0028393343 0.005347047 -0.034378797
0000a0 de 57 8e bc bc 05 33 3c ee 7a bd 3c f9 d5 02 3d
       -0.017375883 0.01092666 0.023129907 0.03194234
0000b0 01 3c 0c bd 0a 03 1c bd 32 28 9d 3c 69 b8 14 3d
       -0.03423691 -0.038088836 0.019184206 0.03630868
0000c0 68 2e fd bb b8 18 8a bc 76 92 16 bd f8 2a cc 3b
       -0.0077264793 -0.01685749 -0.03676077 0.006230708
0000d0 21 d4 1a 3d 44 22 f3 bc 9e dd 1f bd c3 96 28 3d
       0.03779996 -0.029679425 -0.03902971 0.041159403
0000e0 fc 52 0d bd 87 20 24 bd f6 ea a3 bc 5f 2b 69 3d
       -0.03450297 -0.040070083 -0.020009499 0.056926128
0000f0 18 ae db 3b 69 cc 0e 3d 9e 87 46 bd 20 8e 8c bb
       0.006704103 0.03486291 -0.04846918 -0.0042894036
000100 c2 3b b6 3c 54 3f 7c 3c 81 ae 12 3d a8 34 f2 bb
       0.022245292 0.015395958 0.03581095 -0.007391531
000110 50 7b 05 bd 34 71 6e 3c 6b f0 09 3d 76 1c ea 3c
       -0.032588303 0.014553357 0.033676546 0.028578024
000120 38 cf f1 3b 8c 83 4c 3c 84 72 1a bd 2a 09 a9 bc
       0.0073794387 0.012482535 -0.037706867 -0.020634253
000130 67 81 50 3d 4d b0 59 3d a0 af f9 ba 00 4c 7b bb
       0.050904658 0.05314665 -0.0019049533 -0.003834486
000140 c0 92 79 bc 00 1a 5b b9 a8 f5 b7 bb 29 e1 12 3d
       -0.015232742 -0.00020895153 -0.0056140013 0.03585926
000150 43 79 56 3d e8 ba a4 bc 0c b5 2c 3c 03 d2 fb bc
       0.052361738 -0.020108655 0.010541212 -0.03073979
000160 20 d0 17 bc 00 0a f2 b8 e1 19 6e 3d a0 75 8c bb
       -0.009265929 -0.00011541322 0.05813015 -0.004286483
000170 2d df 21 bd 12 f2 93 3c c0 87 0b 3b 38 99 48 bc
       -0.039519478 0.018059764 0.002129063 -0.012243561
000180 64 2e 08 bc 7e e0 9a bc c7 41 6e 3d 74 71 0e 3c
       -0.008311842 -0.018905874 0.0581682 0.0086940415
000190 fa 1b cb 3c cc 70 43 3c 4b a4 5b 3d 98 4c c6 bc
       0.024793614 0.011928748 0.05362348 -0.024206445
0001a0 d1 87 63 3d da c9 84 bc 4d 17 0a 3d e1 1a 21 3d
       0.055549446 -0.016209532 0.033713628 0.039332274
0001b0 64 29 05 bd 25 81 19 3d 66 15 21 bd 4c df ec bc
       -0.032510176 0.037476677 -0.039327048 -0.02891507
0001c0 80 e3 33 3a 75 7f 4d bd 28 7c 8d 3b c0 8d 45 bc
       0.0006862208 -0.05017038 0.004317779 -0.012057722
0001d0 09 41 6f 3d f0 49 84 bb fd 73 3f 3d 5d 30 5e bd
       0.05841163 -0.0040371343 0.046741474 -0.05424534
0001e0 38 c9 c4 3b 38 85 a1 3b d2 9a a8 3c b2 f1 ca 3c
       0.0060054325 0.004929211 0.020581637 0.024773452
0001f0 4c 51 32 3c 57 0e 0d 3d c2 93 8c bc 5a 88 a0 3c
       0.0108836405 0.034437504 -0.0171603 0.019596267
000200 84 cb 66 bc b3 92 61 bd e0 e4 89 3a 88 38 fc 3b
       -0.014086608 -0.055071544 0.001052048 0.0076971687
000210 f3 bb 56 3d 7b 66 27 3d b8 49 29 bc 00 d1 13 ba
       0.052425336 0.040869217 -0.010332517 -0.00056387484
000220 ee 16 ba 3c 7c 1b 55 bd 4c 68 24 bc 21 47 5c 3d
       0.022716012 -0.052028164 -0.010034632 0.05377877
000230 3e e3 c5 3c 88 03 a8 bb 97 76 00 3d 13 16 5d 3d
       0.02415621 -0.005127374 0.031363096 0.05397613
000240 ad 27 1e bd 71 c8 17 3d 2c e4 3d bd d1 fa 36 3d
       -0.038612057 0.03705639 -0.04636018 0.04467279
000250 64 f5 4e bc cc 3d 59 bc 23 99 5d 3d 30 69 8e bc
       -0.012631748 -0.013259362 0.05410112 -0.017384142
000260 3c 16 03 bd 72 1e 2c bd 3c f1 38 3c f9 c8 0c 3d
       -0.032003626 -0.042021222 0.0112879835 0.03437135
000270 a3 86 44 3d 99 3e 4f bd c2 4e dd 3c be e3 c2 bc
       0.047979962 -0.050596807 0.027015094 -0.023790237
000280 cf e2 61 bd 34 18 33 3c c5 e6 11 3d 62 ff 24 bd
       -0.055147942 0.010931063 0.03562047 -0.040282615
000290 db 59 08 bd a4 17 4e bd 08 c1 8d 3b 09 a7 30 3d
       -0.033288818 -0.050315514 0.0043259896 0.043128047
0002a0 36 c0 d6 bc ac 7e 39 bc af 08 58 bd ef 00 58 3d
       -0.0262147 -0.011321705 -0.052742656 0.052735265
0002b0 54 ad c2 bc 03 88 54 3d a4 22 22 bd b2 83 5c bd
       -0.02376429 0.051887523 -0.039583817 -0.053836532
0002c0 5b bd 6c bd 04 10 b6 bc 65 dd 5c 3d 42 14 17 bd
       -0.05779777 -0.022224434 0.053922076 -0.036884554
0002d0 4c 6d af bc a2 df e8 3c 68 e3 cf 3b b0 23 79 3b
       -0.021414421 0.028426949 0.0063442476 0.0038015656
0002e0 42 30 c7 bc d0 14 0b bd c5 e9 68 3d 50 00 3d bd
       -0.024315003 -0.033955395 0.056863565 -0.046142876
0002f0 9e ec 89 3c 55 0d 60 3d 45 b3 f5 bc 00 ea 9b ba
       0.01683646 0.054700214 -0.029992709 -0.0011895299
000300 a9 0a ea bc 23 9b 0d 3d e3 8a 2a 3d 2d 3e 68 3d
       -0.028569536 0.034571778 0.04163636 0.05669992
000310 e7 4f 09 3d 78 fc f3 3b 81 0f 39 3d 6b b7 04 3d
       0.033523466 0.007445868 0.0451808 0.032401484
000320 cb c2 24 3d 19 dc 1f 3d 1d 26 15 3d 6f 50 0f bd
       0.04022483 0.03902826 0.0364133 -0.034988817
000330 8b fe 3b bd 00 6d 40 bd 44 27 68 bc f8 04 2f bc
       -0.045897048 -0.04697895 -0.014169518 -0.010682337
000340 f0 c7 01 bd 51 6b 3b bd aa b5 e0 3c 42 41 d5 bc
       -0.031684816 -0.04575664 0.027430374 -0.026032094
000350 54 df 91 bc 52 20 4c bd 12 6b ea 3c d8 c2 96 bc
       -0.017806686 -0.04983551 0.028615508 -0.018403456
000360 d8 7a 6c bd 8a d0 ac 3c ed e4 51 bd 4e 35 37 bd
       -0.05773434 0.021095533 -0.05124371 -0.04472857
000370 45 58 53 bd ec 23 e2 bc 83 ef 5a 3d 8a 2d 97 3c
       -0.051597852 -0.02760502 0.053451072 0.018454332
000380 01 71 19 bd 2c 58 3b bc 6e 90 b5 bc f2 71 f5 3c
       -0.037461285 -0.011434596 -0.022163596 0.02996156
000390 37 c0 50 bd 6c 38 47 bd 97 c4 10 3d e5 96 e5 bc
       -0.05096456 -0.048637792 0.035343733 -0.028026054
0003a0 c2 f3 c3 bc 3d ba 3a bd e2 28 40 bd a8 0f 63 bd
       -0.023919944 -0.045587767 -0.04691399 -0.055434853
0003b0 40 5f 09 ba 1b 36 6e bd cc 93 13 bc d5 83 1e 3d
       -0.00052403286 -0.058157068 -0.0090074055 0.038699944
0003c0 3d c8 00 3d 7e e6 82 3c 40 dd a4 bb 72 c1 dd 3c
       0.031440962 0.015979048 -0.005031258 0.027069781
0003d0 38 a3 ac bc 40 cc c3 ba 40 af a0 ba b7 cd 01 3d
       -0.021073923 -0.001493819 -0.001225926 0.031690326
0003e0 f6 9d 97 bc 14 82 a7 bc 90 db be bc 50 30 19 bd
       -0.018507939 -0.020447768 -0.023298055 -0.03739959
0003f0 84 92 43 bc b7 f0 6a bd 2b e4 44 3d 7b a8 65 bd
       -0.0119367875 -0.05735847 0.04806916 -0.05606888

bias f4 [32]
000000 a7 48 62 3d 93 d4 08 bd d2 b7 9f 3c 0b 79 5c bd
       0.055245068 -0.03340585 0.019496832 -0.053826373
000010 98 e3 4b bc a2 91 0e bd c8 d5 d3 bb b2 35 e6 bc
       -0.012444399 -0.034806855 -0.0064646937 -0.028101776
000020 82 64 33 bd 62 57 c4 3c de 4c 99 bc 4e 16 d0 bc
       -0.043797024 0.023967449 -0.018713411 -0.02540126
000030 58 d9 19 bc 58 7b c1 bc a3 42 3f 3d d8 36 69 bd
       -0.009390198 -0.023618385 0.04669441 -0.05693707
000040 1c 72 6a bc c6 79 b9 3c d5 07 65 3d 90 c0 04 bd
       -0.014309432 0.022641074 0.055915672 -0.032410204
000050 5e 9e db 3c ec c6 55 bd ee 3c d8 3c 9a b5 dc 3c
       0.026808914 -0.05219166 0.026396241 0.026942063
000060 80 00 5d ba 8c c1 43 bc fa 39 4a bd 48 07 93 bc
       -0.00084305555 -0.011948001 -0.049371697 -0.017947808
000070 68 7c ba 3b 9e be 0c bd 29 57 33 3d 2c 7b 2f 3c
       0.0056911 -0.034361474 0.043784294 0.010710519

weight f4 [32]
000000 00 00 80 3f 00 00 80 3f 00 00 80 3f 00 00 80 3f
       1.0 1.0 1.0 1.0
000010 00 00 80 3f 00 00 80 3f 00 00 80 3f 00 00 80 3f
       1.0 1.0 1.0 1.0
000020 00 00 80 3f 00 00 80 3f 00 00 80 3f 00 00 80 3f
       1.0 1.0 1.0 1.0
000030 00 00 80 3f 00 00 80 3f 00 00 80 3f 00 00 80 3f
       1.0 1.0 1.0 1.0
000040 00 00 80 3f 00 00 80 3f 00 00 80 3f 00 00 80 3f
       1.0 1.0 1.0 1.0
000050 00 00 80 3f 00 00 80 3f 00 00 80 3f 00 00 80 3f
       1.0 1.0 1.0 1.0
000060 00 00 80 3f 00 00 80 3f 00 00 80 3f 00 00 80 3f
       1.0 1.0 1.0 1.0
000070 00 00 80 3f 00 00 80 3f 00 00 80 3f 00 00 80 3f
       1.0 1.0 1.0 1.0

bias f4 [32]
000000 00 00 00 00 00 00 00 00 00 00 00 00 00 00 00 00
       0.0 0.0 0.0 0.0
000010 00 00 00 00 00 00 00 00 00 00 00 00 00 00 00 00
       0.0 0.0 0.0 0.0
000020 00 00 00 00 00 00 00 00 00 00 00 00 00 00 00 00
       0.0 0.0 0.0 0.0
000030 00 00 00 00 00 00 00 00 00 00 00 00 00 00 00 00
       0.0 0.0 0.0 0.0
000040 00 00 00 00 00 00 00 00 00 00 00 00 00 00 00 00
       0.0 0.0 0.0 0.0
000050 00 00 00 00 00 00 00 00 00 00 00 00 00 00 00 00
       0.0 0.0 0.0 0.0
000060 00 00 00 00 00 00 00 00 00 00 00 00 00 00 00 00
       0.0 0.0 0.0 0.0
000070 00 00 00 00 00 00 00 00 00 00 00 00 00 00 00 00
       0.0 0.0 0.0 0.0

running_mean f4 [32]
000000 d1 96 4a 3e 41 28 21 3d 27 4c 12 bc c5 1a 7e be
       0.19784094 0.03934503 -0.008929289 -0.248149
000010 0a de 1f 3e e2 9b b9 bd b7 72 4e 3e fc 61 2a 3e
       0.15612045 -0.090629354 0.20160948 0.1663894
000020 fb 30 4a bd 30 5b 83 3e 5f 81 72 3d 46 b7 38 3d
       -0.049363118 0.25655508 0.05920541 0.04509666
000030 e9 02 81 3d 9f a8 17 3e ba 63 0e 3e c7 ab 2e 3e
       0.06299383 0.14810418 0.1390523 0.17057715
000040 35 f5 97 3e 30 ea ac be e9 d2 1e be 4b d4 5b 3e
       0.29679266 -0.3377242 -0.15510143 0.21467702
000050 b5 98 17 3d d4 ae 2b 3e 34 99 4a 3e e7 b6 68 be
       0.037010867 0.1676591 0.19785005 -0.22726022
000060 23 04 5c bd 45 7b a1 3c ac f6 78 3e b0 43 08 3e
       -0.053714883 0.0197121 0.24312848 0.1330707
000070 01 33 07 bd be 6c 64 3e f3 cb de bb d1 6d 9d 3e
       -0.033007625 0.22307107 -0.006799215 0.30747846

running_var f4 [32]
000000 90 bf 22 3d a0 e7 61 3d df 66 3a 3e d9 6c 9c 3d
       0.03973347 0.055152535 0.18203305 0.076379485
000010 5f 65 4e 3d 40 67 87 3d 51 12 fd 3d 66 cb c7 3d
       0.050389644 0.0661149 0.12357009 0.09755592
000020 d8 09 ca 3d b5 f8 65 3d 6e 36 55 3d b5 43 e4 3d
       0.09865159 0.05614539 0.05205386 0.111457266
000030 4b 95 7a 3d f2 f5 9c 3d 36 6a ba 3d c9 57 01 3e
       0.061177533 0.07664098 0.091022894 0.12631144
000040 98 f7 8e 3d 33 65 10 3e b3 20 b4 3d 2e 98 8c 3d
       0.069808185 0.14101104 0.087952994 0.068649635
000050 08 0a 5d 3d cd f8 8a 3d 72 5d 6e 3d 51 0e 70 3d
       0.053964645 0.06785736 0.058194585 0.058607403
000060 1e 07 67 3d c1 ab 39 3d 76 8f 2b 3e 69 f1 03 3d
       0.05640327 0.045329813 0.16753945 0.03221265
000070 e5 d6 c9 3d 64 01 d8 3d 6b da ce 3d ee 91 96 3d
       0.09855441 0.1054714 0.10100254 0.07352053

weight f4 [32]
000000 00 00 80 3f 00 00 80 3f 00 00 80 3f 00 00 80 3f
       1.0 1.0 1.0 1.0
000010 00 00 80 3f 00 00 80 3f 00 00 80 3f 00 00 80 3f
       1.0 1.0 1.0 1.0
000020 00 00 80 3f 00 00 80 3f 00 00 80 3f 00 00 80 3f
       1.0 1.0 1.0 1.0
000030 00 00 80 3f 00 00 80 3f 00 00 80 3f 00 00 80 3f
       1.0 1.0 1.0 1.0
000040 00 00 80 3f 00 00 80 3f 00 00 80 3f 00 00 80 3f
       1.0 1.0 1.0 1.0
000050 00 00 80 3f 00 00 80 3f 00 00 80 3f 00 00 80 3f
       1.0 1.0 1.0 1.0
000060 00 00 80 3f 00 00 80 3f 00 00 80 3f 00 00 80 3f
       1.0 1.0 1.0 1.0
000070 00 00 80 3f 00 00 80 3f 00 00 80 3f 00 00 80 3f
       1.0 1.0 1.0 1.0
