5_cross_5_iter_0.pt (torch_old, 327252 bytes, 66 tensors)

weight f4 [32, 5, 3, 3]
000000 d0 ae 03 3c fd 41 c9 bd be 50 9f bd 43 0b 08 be
       0.008037284 -0.098270394 -0.07779072 -0.13285546
000010 22 2c 0c be d8 45 a5 bc 48 01 af bd 00 67 37 3d
       -0.1368871 -0.020174906 -0.08545166 0.044775963
000020 f2 29 14 be cc 07 07 be 40 1c 00 bc fa da d9 3d
       -0.14469126 -0.13186568 -0.007819235 0.106374696
000030 64 f4 86 3d fa b7 a8 3d bc 59 94 3d ae 3d 09 be
       0.065895826 0.08238216 0.07243678 -0.13402435
000040 55 b6 cf bd 79 36 06 3e ae d0 e1 3d 28 22 4a bd
       -0.10142199 0.13106717 0.110261306 -0.04934898
000050 d8 5b 05 3d fc 9a 3a bd 4c b4 a0 bd 9c f4 b8 3d
       0.032558292 -0.04555796 -0.07846889 0.090310305
000060 a6 44 f6 3d 80 ed 5e 3c 3e 3a f6 3d ac c2 b5 3d
       0.120248124 0.013606429 0.120228276 0.08875021
000070 20 8a 33 3d cb 3b 04 be f0 83 5a bc 04 b0 a8 3d
       0.0438329 -0.12913434 -0.01333712 0.08236697
000080 40 13 b0 bc 90 d3 58 3c a0 58 92 bb 5e 22 69 bd
       -0.021493554 0.013234034 -0.0044661313 -0.05691754
000090 ae c4 63 bd a2 bf 88 3d a4 e2 a5 bd 00 0a 46 3c
       -0.05560749 0.06677176 -0.08099869 0.012087345
0000a0 2c 2d 03 3d 2e 89 de bd 58 5d 50 bd 1e c4 b8 bd
       0.0320255 -0.10866009 -0.05087027 -0.090217814
0000b0 78 e1 a8 3c 18 40 8d 3c 8a f7 ce bd a1 c5 8c bd
       0.020615324 0.017242476 -0.10105808 -0.06873632
0000c0 2a 5f 31 bd 20 bd 63 bc 86 0d 86 bd 20 ff 6e 3d
       -0.043303646 -0.013900071 -0.06545548 0.058348775
0000d0 1c f6 0d be 84 02 77 bd a4 71 6e bd 53 19 10 3e
       -0.13863415 -0.060305133 -0.058213845 0.1407216
0000e0 8b b3 82 bd 58 f2 c2 3c fa ef f6 3d 8e 43 58 bd
       -0.06381901 0.0237972 0.12057491 -0.0527988
0000f0 a8 76 b7 bc d0 e7 bc bc d0 95 77 3c 8f e5 8e bd
       -0.022395447 -0.023059756 0.015111402 -0.069773786
000100 40 ee 78 3c 54 a7 19 3d 30 5b 34 bd d4 ae c7 3d
       0.015193522 0.037513092 -0.044032276 0.09750143
000110 9e 03 86 bd 9a bd 62 bd dd fa 12 be da c6 c6 bd
       -0.06543659 -0.0553566 -0.14353509 -0.09705897
000120 da 81 81 3d 30 31 fa bc 44 bc 6c 3d e0 46 81 bc
       0.06323595 -0.030541033 0.05779673 -0.015780866
000130 fb 57 15 be 40 94 3d bb 41 76 8b bd ee 1d e5 3d
       -0.14584343 -0.0028927475 -0.068096645 0.11187349
000140 e8 87 c0 bc 38 43 dd bd 6c 02 84 bd 96 95 81 3d
       -0.023502305 -0.108038366 -0.064457744 0.063273594
000150 ce b2 02 bd 5a 56 11 be 02 f1 e4 bd 0c 0c e9 bc
       -0.031908803 -0.14193097 -0.11178781 -0.028448127
000160 b3 ea 10 be 18 23 d7 bc d4 5f 03 3d 4e 8b f5 3d
       -0.1415203 -0.026261851 0.03207381 0.11989461
000170 00 19 bb 3c c6 e0 5f bd d8 ab ad bd 16 74 b0 bd
       0.02283907 -0.05465772 -0.08480042 -0.08615892
000180 90 20 5c bc 30 c6 c7 bc 00 86 8a 3d 40 d1 c2 bb
       -0.013435498 -0.024386495 0.0676384 -0.0059453547
000190 59 31 a5 bd 20 44 02 3d 24 65 d7 bc 51 62 0c 3e
       -0.08066053 0.03180325 -0.026293345 0.1370938
0001a0 ce 32 08 bd d2 2c c7 3d 24 6f ea bd 00 3f 06 bc
       -0.033251576 0.09725346 -0.1144698 -0.008193731
0001b0 de bd ee bd ca 5d 56 bd 3e 50 d7 3d d9 c2 9e bd
       -0.11657308 -0.052335538 0.10513352 -0.07752008
0001c0 e2 ba ea 3d 40 47 62 3d 8c 4d 95 bd f0 e8 3c bd
       0.11461426 0.05524373 -0.072901815 -0.046120584
0001d0 c2 6c d5 bd 90 fd e7 3c e0 58 77 3d 00 55 30 3c
       -0.104211345 0.02831915 0.060387492 0.010762453
0001e0 5a 28 f0 3d 69 42 07 3e e0 d0 43 bc 98 71 10 bd
       0.117264464 0.13208927 -0.011951655 -0.03526458
0001f0 18 9e c8 3c f8 14 49 3d 20 3b 2f 3d 00 af 3e bc
       0.024489447 0.049092263 0.042780995 -0.011638403
000200 4c ba e7 bd e8 05 5d 3d c4 a3 73 bd e0 0d 88 3b
       -0.1131483 0.05396071 -0.05948235 0.0041520447
000210 fa ba 74 bd 40 7f fb bc 5c 80 a0 3d ba b8 30 bd
       -0.059748627 -0.030700326 0.078369826 -0.04314492
000220 ab a3 17 be f6 2b 9a 3d c4 b7 52 3d 5e 33 b0 3d
       -0.14808528 0.07527916 0.051444784 0.086035475
000230 be 12 e2 bd e8 c2 27 3d f0 53 b0 bc 85 c0 81 bd
       -0.11038731 0.04095736 -0.0215244 -0.06335548
000240 d0 5c 3d 3d ba 0f 18 bd 72 4a db bd 5c 8e 1d 3d
       0.04623109 -0.037124373 -0.10707559 0.038465843
000250 30 f4 49 bc 84 f9 be 3d e3 ea 91 bd d8 9a e3 bd
       -0.012326285 0.09324935 -0.07124879 -0.111135185
000260 f0 59 b5 3c aa d4 fc bd e2 4a 9f 3d 20 a5 3b bc
       0.022137612 -0.1234525 0.07777955 -0.011452943
000270 a7 d8 05 be c3 cd 0b 3e a0 cb 9a 3d a0 93 cb bd
       -0.13070928 0.1365271 0.0755837 -0.099402666
000280 28 c9 99 3c 6d 82 f7 bd 1c 03 7a 3d 6e 6b b5 3d
       0.018772677 -0.120854236 0.06103812 0.08858381
000290 e3 14 11 3e d6 e6 db 3d 58 ec 5a bd bf 30 0e 3e
       0.14168124 0.10737388 -0.05344805 0.13885783
0002a0 23 c6 01 3e f0 df 53 bc c0 a2 0a bc 16 b4 da 3d
       0.1267324 -0.012931809 -0.008461654 0.1067888
0002b0 70 3a aa 3c db 51 8c bd 85 74 11 be a0 3c fe bb
       0.020779818 -0.0685155 -0.14204605 -0.007758692
0002c0 20 0f a0 bd 34 7e c9 bd aa b2 c2 3d 20 6c 9c 3b
       -0.07815385 -0.098385245 0.09506734 0.0047736317
0002d0 00 cb 9b ba 44 b6 d7 bc 20 4f 04 3c 80 74 f6 3a
       -0.001188606 -0.026332028 0.0080755055 0.001880303
0002e0 6c 65 91 3d e7 b3 0e 3e 46 a7 4f bd 12 5a 7f bd
       0.07099423 0.13935815 -0.050696634 -0.062341757
0002f0 e0 de 09 be 07 66 11 3e b0 94 b9 bc 20 e0 d0 3b
       -0.13463926 0.14199077 -0.022653908 0.006374374
000300 20 5a af 3b 40 a0 7c bd a3 66 06 3e 70 0f f9 bd
       0.00535132 -0.061676264 0.1312509 -0.121611476
000310 40 4f aa 3c 30 aa 60 3d e0 6d cc 3d 28 36 e4 3c
       0.020789742 0.054849803 0.099818945 0.027857855
000320 d9 75 a7 bd 10 b9 28 bc cc c6 db bd a6 81 ec bd
       -0.081767745 -0.010298029 -0.10731277 -0.11548166
000330 c0 38 18 3b f5 aa 00 3e b8 9b b1 3c fe 46 d3 bd
       0.0023227185 0.12565215 0.021680698 -0.10316275
000340 08 0a 1c bd 9a c1 e3 3d 5a b3 2c bd a8 17 c9 bc
       -0.038095504 0.11120911 -0.04216323 -0.024547413
000350 8c a0 04 3d 3e a3 30 bd 20 e1 b1 3d 32 15 f1 3d
       0.032379672 -0.04312443 0.08685517 0.11771621
000360 ff b3 85 bd 5a 49 5d bd b3 c3 05 3e 37 47 11 3e
       -0.06528472 -0.05402503 0.13062935 0.14187323
000370 b0 1a 0f be 70 da ae 3d b3 f1 8d bd d8 82 13 3d
       -0.13975024 0.085377574 -0.06930866 0.036013454
000380 18 71 de bd 4a 05 a2 3d a8 c6 b8 3d 63 e8 8f bd
       -0.10861415 0.07911165 0.09022266 -0.07026746
000390 8a 66 a6 bd 32 d5 88 3d 57 e4 11 3e 9e aa 3f bd
       -0.081250265 0.06681289 0.14247261 -0.046793573
0003a0 84 1f cf bc f8 5b 17 be b8 21 2d bd 24 18 01 3d
       -0.025283583 -0.14781177 -0.042268485 0.031517163
0003b0 77 9e 12 3e 66 34 fd 3d a5 b0 fb bd 48 67 c5 bc
       0.14318262 0.1236351 -0.12289552 -0.0240971
0003c0 94 43 c7 bd a2 d8 e9 3d 36 61 90 3d 20 71 dd 3b
       -0.097296864 0.114182726 0.070497915 0.0067578703
0003d0 4c b2 1c bd 6c 3b b9 3d 21 64 07 3e 4e 28 f4 bd
       -0.038255975 0.09044537 0.1322179 -0.1192175
0003e0 63 b1 cb bd a2 b0 e6 bd 2a e5 ab 3d 36 60 07 be
       -0.09945943 -0.11264159 0.08393319 -0.13220295
0003f0 b5 01 99 bd 45 cf fb bd 38 2c 42 3d fa c6 d0 3d
       -0.07471029 -0.12295393 0.04740545 0.10194202

bias f4 [32]
000000 c8 f9 63 3d 58 82 a3 bd ee fb 0b be c0 3e 23 3c
       0.05565813 -0.079838455 -0.13670322 0.009963691
000010 15 90 8c bd dc 3b 0c be 80 00 38 3b 9c 2c b2 3d
       -0.06863419 -0.1369471 0.002807647 0.08699915
000020 60 b7 8f 3b c6 99 6e bd f0 6c 03 bc be b1 82 3d
       0.0043858737 -0.05825212 -0.008021578 0.06381558
000030 f4 ce 24 bd e2 9c bd bd 30 aa 18 3d d4 f3 c2 bd
       -0.04023643 -0.09258439 0.03727168 -0.09519163
000040 b0 19 e9 bd f6 5b e0 bd 30 ca 8a bc 22 57 c5 bd
       -0.113818526 -0.1095504 -0.016942114 -0.0963576
000050 49 04 b6 bd 6e ff e1 bd c0 4c 67 3c e0 f1 2d bc
       -0.08887536 -0.110350475 0.01411742 -0.0106167495
000060 00 3a 5f 3d 00 91 01 be b0 93 74 bc 25 4f 03 3e
       0.054498672 -0.1265297 -0.01492779 0.1282316
000070 3c 21 32 bd d9 6b f6 bd e6 5b ac 3d 18 93 cb 3d
       -0.043488726 -0.12032289 0.08415966 0.09940165

weight f4 [32]
000000 00 00 80 3f 00 00 80 3f 00 00 80 3f 00 00 80 3f
       1.0 1.0 1.0 1.0
000010 00 00 80 3f 00 00 80 3f 00 00 80 3f 00 00 80 3f
       1.0 1.0 1.0 1.0
000020 00 00 80 3f 00 00 80 3f 00 00 80 3f 00 00 80 3f
       1.0 1.0 1.0 1.0
000030 00 00 80 3f 00 00 80 3f 00 00 80 3f 00 00 80 3f
       1.0 1.0 1.0 1.0
000040 00 00 80 3f 00 00 80 3f 00 00 80 3f 00 00 80 3f
       1.0 1.0 1.0 1.0
000050 00 00 80 3f 00 00 80 3f 00 00 80 3f 00 00 80 3f
       1.0 1.0 1.0 1.0
000060 00 00 80 3f 00 00 80 3f 00 00 80 3f 00 00 80 3f
       1.0 1.0 1.0 1.0
000070 00 00 80 3f 00 00 80 3f 00 00 80 3f 00 00 80 3f
       1.0 1.0 1.0 1.0

bias f4 [32]
000000 00 00 00 00 00 00 00 00 00 00 00 00 00 00 00 00
       0.0 0.0 0.0 0.0
000010 00 00 00 00 00 00 00 00 00 00 00 00 00 00 00 00
       0.0 0.0 0.0 0.0
000020 00 00 00 00 00 00 00 00 00 00 00 00 00 00 00 00
       0.0 0.0 0.0 0.0
000030 00 00 00 00 00 00 00 00 00 00 00 00 00 00 00 00
       0.0 0.0 0.0 0.0
000040 00 00 00 00 00 00 00 00 00 00 00 00 00 00 00 00
       0.0 0.0 0.0 0.0
000050 00 00 00 00 00 00 00 00 00 00 00 00 00 00 00 00
       0.0 0.0 0.0 0.0
000060 00 00 00 00 00 00 00 00 00 00 00 00 00 00 00 00
       0.0 0.0 0.0 0.0
000070 00 00 00 00 00 00 00 00 00 00 00 00 00 00 00 00
       0.0 0.0 0.0 0.0

running_mean f4 [32]
000000 55 7a a3 bd d2 e1 00 bf d9 4f 3f be aa e0 81 bd
       -0.07982317 -0.50344574 -0.18682803 -0.063416794
000010 b2 ac 54 bd 25 d3 47 be 29 fb c3 bc f5 b3 34 3d
       -0.051922508 -0.19514139 -0.023923473 0.044116933
000020 09 8c 05 3e a9 c8 ae 3e 3c 9e e7 3d 41 27 21 bd
       0.130417 0.34137467 0.11309478 -0.039344076
000030 c3 01 4c 3e 9f 1a 00 bf 9a af 7c 3c 28 a7 c4 3d
       0.19922547 -0.5004062 0.015422726 0.09602195
000040 ac 5a b1 bc eb 36 34 be d5 f5 13 3e c2 b1 f7 3c
       -0.021649681 -0.17599075 0.14449246 0.030236129
000050 8d 60 cd bd c5 a3 4e be b1 f5 c2 be e5 98 55 3e
       -0.10028181 -0.2017966 -0.38078073 0.20859106
000060 20 41 29 3e a7 9a 06 be b5 e4 eb 3c 65 c9 d4 be
       0.1652875 -0.13144933 0.02879558 -0.41559902
000070 ca bb 92 bd 3c 00 26 be f6 e4 8d bd 8d 89 4a bd
       -0.07164724 -0.16211027 -0.069284365 -0.049447585

running_var f4 [32]
000000 13 d7 a4 3c 0d 40 c5 3c 3a 95 94 3c 76 3f 03 3d
       0.020122087 0.024078393 0.018137563 0.032042943
000010 8e b1 e9 3c b4 51 c8 3c 7b 18 89 3d f3 4b 3c 3d
       0.028527047 0.024453022 0.066941224 0.04597087
000020 b0 48 0c 3d 3d 08 3f 3d b4 02 97 3d 72 00 ef 3c
       0.034249008 0.046638716 0.073735625 0.029175017
000030 21 9f 2e 3d 04 93 c2 3c d6 bd de 3c 57 23 8e 3d
       0.042632226 0.023751743 0.02719013 0.06940334
000040 55 3c 6b 3d e6 27 d5 3c 96 e7 17 3d bd 39 ec 3c
       0.057430584 0.026020002 0.037086092 0.028836126
000050 5f 39 b8 3d a6 b6 b4 3c e2 50 12 3d 74 5f 14 3d
       0.08995318 0.02205975 0.035721667 0.036223844
000060 a5 27 8b 3c e3 61 8c 3c d2 ff ca 3c 3a 2d 85 3d
       0.016986677 0.01713652 0.024780188 0.06502767
000070 24 c2 e6 3c 8c 6b 15 3d 86 b4 8d 3d a3 5b 30 3d
       0.028168745 0.036479518 0.06919198 0.04305614

weight f4 [2, 32, 1, 1]
000000 3c ee 45 3d ae 87 88 bd e0 ba 1a bc c4 f6 05 bd
       0.0483229 -0.06666504 -0.009443969 -0.032706037
000010 90 4d 36 3d 90 d7 ee bc b6 ac 11 be 1e 97 81 3d
       0.044507563 -0.029155523 -0.1422604 0.063276514
000020 54 c9 bf bd 40 37 74 3b b2 85 9f 3d aa 1e d4 3d
       -0.09364572 0.0037264377 0.07789172 0.10357411
000030 c0 d9 9b bb 90 e2 a1 bc 12 94 a2 3d 04 12 ea bd
       -0.0047561824 -0.019761354 0.079383984 -0.114292175
000040 ee 07 e8 bd 60 79 43 3d d2 b5 a4 3d 62 34 80 3d
       -0.113296375 0.047723174 0.08042492 0.06259991
000050 b8 b7 42 bd e4 74 47 bd f1 dc ac bd a6 98 fc 3d
       -0.04753849 -0.04869546 -0.08440579 0.12333803
000060 9a f5 ee 3d 88 71 0e be 42 84 97 3d a0 45 91 3d
       0.116679385 -0.13910496 0.07398273 0.07093358
000070 1d 89 1b 3e a8 4a 61 3d b0 59 09 bc c8 e9 88 3c
       0.15189023 0.05500284 -0.0083832 0.016713038
000080 b0 c8 16 be f2 05 93 bd 24 07 d4 bd f8 9b 7c 3d
       -0.14724994 -0.07178868 -0.103529245 0.06167218
000090 e5 9c 24 be b2 5b 92 3d 30 85 0c be 2c d0 56 3d
       -0.16075476 0.07146396 -0.13722682 0.052444622
0000a0 43 d6 1f 3e 7b 14 be bd 77 08 33 3e cf 16 de bd
       0.15609078 -0.0928125 0.17483698 -0.10844194
0000b0 10 5f 05 bd 72 e2 b6 3d 60 b7 ad bb c8 b0 33 be
       -0.03256136 0.0892991 -0.005301401 -0.17547905
0000c0 83 7a 34 3e e5 6b 0b be 2c 23 e2 bd 6c ea 08 3d
       0.1762486 -0.13615377 -0.11041865 0.033426687
0000d0 b2 e8 b8 3d 00 bd fa ba aa 0b 11 be c3 a4 22 be
       0.09028758 -0.0019129813 -0.14164606 -0.15883164
0000e0 29 ce f1 bd f8 6c 06 3d b1 0f 25 3e 65 c2 2f 3e
       -0.118069 0.032818764 0.16119267 0.17164
0000f0 ce 37 d3 bd 6e 23 d8 3d f8 59 c7 3c 9c 98 fd bd
       -0.10313378 0.10553633 0.024334893 -0.123826236

bias f4 [2]
000000 ab 2d 18 3e 00 ee 97 b9
       0.14861171 -0.00028978288

weight f4 [2]
000000 00 00 80 3f 00 00 80 3f
       1.0 1.0

bias f4 [2]
000000 00 00 00 00 00 00 00 00
       0.0 0.0

running_mean f4 [2]
000000 38 4c 04 3f 72 ba 33 bf
       0.516788 -0.7020637

running_var f4 [2]
000000 3a 06 96 3e 70 fe 8f 3f
       0.29301625 1.1249523

weight f4 [26, 18]
000000 bb 21 3d be 90 ea 52 be 20 6b 81 bc b0 2f 2d bd
       -0.18469898 -0.20597291 -0.015798151 -0.042281806
000010 9a 2d fd 3d 46 b6 02 be 43 03 4d be 52 54 d1 bd
       0.123622134 -0.12764844 -0.20020775 -0.10221161
000020 b0 0c 77 bc b1 23 01 3e c4 62 fd bd 25 f4 66 3e
       -0.0150787085 0.12611271 -0.12372354 0.22554071
000030 ca a3 cc bd 0c 8b 30 bd 72 ef b6 3d b2 7d 86 bd
       -0.09992178 -0.043101355 0.08932389 -0.06566943
000040 2b ca 55 3e b0 9b 64 3c 0c 8d 1a 3d 24 ee 8e bd
       0.20877902 0.013953134 0.03773217 -0.069790155
000050 77 c0 2d 3e 8f fc 27 3e 70 79 d5 bd 79 98 67 be
       0.16967951 0.16404937 -0.10423553 -0.22616757
000060 5f bd 70 3e 9e 9f 5c be 61 40 63 be e7 cc 14 3e
       0.2350974 -0.21545264 -0.22192527 0.14531289
000070 54 78 41 3d 5e e4 04 be 34 fc 2a bd cf a7 41 3e
       0.047233894 -0.1297774 -0.041744426 0.1891167
000080 c6 69 d7 bd 32 33 a1 bd 92 40 b5 3d a4 37 55 bd
       -0.105182216 -0.07871093 0.088502064 -0.052055016
000090 30 4c 55 3c 92 95 e1 3d ce 58 f7 3d 9c 3d 4c be
       0.013018653 0.110148564 0.12077485 -0.19945377
0000a0 f0 63 6c be ec a4 21 bd 72 19 e3 3d 43 59 30 be
       -0.23084998 -0.039463922 0.11088838 -0.1722155
0000b0 b7 a4 2d 3e 94 af 5e 3d 8d fa 31 be 82 29 f8 bd
       0.16957365 0.054366663 -0.17380734 -0.12117292
0000c0 18 47 1f be 04 52 40 bd 25 37 67 3e 5e 6f bb bd
       -0.15554464 -0.046953216 0.2257963 -0.09152101
0000d0 00 73 c6 3b 6d 2c 6d 3e c0 a8 2e 3c 43 ec 0d 3e
       0.0060561895 0.23161478 0.01066035 0.13859658
0000e0 05 6f 4f be b5 cd 49 3e f8 a9 d7 3c 57 70 0a 3e
       -0.20257194 0.19707377 0.026326165 0.13519417
0000f0 51 be 5c 3e 35 52 45 3e 41 e6 14 3e 38 33 0e be
       0.21556975 0.1926964 0.1454096 -0.13886726
000100 00 26 63 bc bf 24 34 3e 68 6f fa 3c 34 46 5e 3d
       -0.01386404 0.17592143 0.0305707 0.05426617
000110 d1 a8 2b 3e 1f c3 63 be ec 51 2f 3d 3f 34 5f 3e
       0.16763617 -0.22242402 0.042802736 0.21797274
000120 d8 61 0d bd 94 c9 33 bd c9 6b 4e be 42 65 21 be
       -0.03451714 -0.04389341 -0.20158304 -0.15761283
000130 07 cc 18 3e e4 26 33 3d b5 0a 6c be cd 61 3a 3e
       0.1492158 0.04373826 -0.2305096 0.1820137
000140 56 96 b2 3d 28 92 17 bd e5 6c 41 3e f6 bf 83 3d
       0.087200806 -0.03700462 0.18889196 0.06433098
000150 23 58 5a 3e 02 b1 6d be 5a c4 ea 3d e9 09 17 3e
       0.21322684 -0.23212054 0.11463232 0.14749874
000160 d0 24 10 3c ae a9 1f be cb 41 6e be 46 8d 34 be
       0.008797839 -0.15592071 -0.23267286 -0.17632017
000170 6c 26 3d 3d b7 03 00 3e 28 4d 85 3c 5c c2 69 bd
       0.04617922 0.12501417 0.016272143 -0.05707012
000180 fc 7f 0c 3d 8f b1 06 3e de 6a e9 3d 7e a4 de bd
       0.034301743 0.1315367 0.113973364 -0.10871218
000190 8a 36 b0 3d 4e 0c 2b be 79 80 18 3e 00 32 71 be
       0.086041525 -0.16703913 0.14892758 -0.2355423
0001a0 b8 e4 cc bc 54 45 94 bd 65 66 5f 3e 48 e6 82 3c
       -0.025011405 -0.07239786 0.21816404 0.015978947
0001b0 3c bc c2 bd 24 c9 1f be c4 e2 53 be 18 d9 c5 3c
       -0.09508559 -0.15604073 -0.20691973 0.02415137
0001c0 80 b4 81 bb f9 4e 0d 3e a8 8d f5 3c d8 0b 91 bd
       -0.003958285 0.13799657 0.029974774 -0.07082337
0001d0 db ae 30 3e 4d f3 51 3e 6d 5c 3c be 98 f4 90 bd
       0.17254202 0.20502968 -0.18394633 -0.070779026
0001e0 30 23 55 bc 87 23 e3 bd 8a 1c 10 be f2 46 c8 bd
       -0.013008878 -0.11090761 -0.14073387 -0.09779157
0001f0 2a c9 e2 3d 66 0d 9f 3d 13 7f 66 3e c9 50 55 3e
       0.11073525 0.077662274 0.22509412 0.20831598
000200 ad d3 01 3e ad 3d 5b 3e 40 4d 0c bc e6 a6 e1 bd
       0.12678404 0.21410246 -0.00856334 -0.110181615
000210 68 f5 4c be 64 60 5a bd 8a 71 56 be 20 7f 90 3b
       -0.2001549 -0.05331458 -0.20941749 0.0044096857
000220 7f 46 4c be 43 85 0e 3e 1e 5e b3 bd 17 f2 ea bd
       -0.19948767 0.13918023 -0.08758186 -0.11471956
000230 dc 85 7c 3d 7c 66 3c bd 9c 1b 44 bd 15 e3 44 3e
       0.061651096 -0.045996174 -0.047877893 0.1922725
000240 f2 83 9d bd 96 d8 56 be 46 25 08 be 30 09 22 be
       -0.07691182 -0.20981058 -0.13295469 -0.15823817
000250 9c 1f 4f bd 70 e4 70 bd e5 71 0c 3e b0 a9 1b 3c
       -0.050567254 -0.058811605 0.13715322 0.009500906
000260 ca 54 c6 3d 41 68 35 3e 5c e6 5b bd db 7f 13 be
       0.09684141 0.17715551 -0.053686485 -0.14404242
000270 a4 27 13 bd 25 d7 5e be cf 0c 49 be 98 b3 bd 3c
       -0.035926476 -0.21761759 -0.19633792 0.023156926
000280 a1 12 08 be 30 ba 86 bc 80 1f d9 ba 0d ff 37 3e
       -0.13288356 -0.016446203 -0.0016565174 0.17968388
000290 50 7a 27 be 06 ed 24 be 48 aa c5 3c 68 8e 28 be
       -0.16355252 -0.16106042 0.024129048 -0.16460574
0002a0 a0 a1 8b bb b0 7c 55 be 01 a5 70 3e cc 5d 74 3d
       -0.0042612106 -0.20848346 0.23500444 0.059659764
0002b0 fe 92 ec 3d 58 e0 0f be 00 4e d3 39 18 36 6c bd
       0.11551474 -0.14050424 0.0004030317 -0.057668775
0002c0 68 b5 ec bc fb 4b 60 3e e2 b1 dc 3d c0 25 12 bd
       -0.028895095 0.21903984 0.10776116 -0.035680532
0002d0 4d bf 09 3e 7e ad d9 bd d0 7a 01 bd e0 8b 98 bd
       0.13451882 -0.10628794 -0.031611264 -0.07448554
0002e0 58 09 ba bc 13 e7 4a 3e ea 6a 63 be 00 ea f2 3a
       -0.022709534 0.1981471 -0.22208753 0.0018532872
0002f0 80 9b 35 be ea 7f b4 bd c2 06 2b be d4 95 ce bd
       -0.177351 -0.0881346 -0.16701797 -0.10087171
000300 2c e2 25 3d 65 9a 3e 3e 7d 3b 0e 3e a7 06 05 be
       0.040498897 0.18613584 0.1388988 -0.12990819
000310 d4 0b 0f be 90 3a e5 bc 07 38 3e 3e 34 b2 47 3d
       -0.13969356 -0.027982026 0.1857606 0.048753932
000320 dc 7f 19 3d 8a 3c b2 bd b5 bf 21 3e 24 b5 6d 3d
       0.03747545 -0.08702953 0.15795787 0.058034077
000330 6e 91 07 be 28 75 38 be 70 b5 9f bc 3e 6d 4a be
       -0.13239071 -0.18013442 -0.019495696 -0.19768235
000340 ce 49 e2 3d 82 78 ab 3d 8a 79 0e be b1 d0 4a 3e
       0.110492334 0.083725944 -0.13913551 0.19806172
000350 cb 18 37 3e 18 56 25 be 69 a4 62 be 48 f7 9b 3c
       0.17880552 -0.16146123 -0.2213303 0.019038811
000360 81 38 18 3e 04 1f 5b bd 92 12 2b be be b9 51 be
       0.14865305 -0.053496376 -0.16706303 -0.20481011
000370 b4 cd 66 be 65 21 42 3e 3a 0c 70 be f5 91 0d 3e
       -0.22539407 0.18958052 -0.23442164 0.1382521
000380 ba 24 da 3d 97 78 6f be 70 54 5f bc c0 1a f4 bb
       0.10651536 -0.23385845 -0.013630971 -0.007449478
000390 ae 02 81 3d c5 bf 53 3e 50 e0 4d 3c 5c 9a 65 3d
       0.06299339 0.20678623 0.012565687 0.05605541
0003a0 3c 2d 06 3d 48 5b 16 be 54 c6 71 3d 54 b7 05 be
       0.032757983 -0.14683259 0.05902703 -0.13058215
0003b0 c8 40 2a be e7 b2 62 3e fd 43 47 be e8 48 ed 3c
       -0.16626275 0.22138558 -0.19459529 0.028965428
0003c0 a0 34 a1 bd 20 ee 45 bd 94 16 55 bd 68 90 c5 3c
       -0.078713655 -0.048322797 -0.052023485 0.02411671
0003d0 30 14 45 be e0 d5 fd 3b 62 48 90 bd fa d5 a7 3d
       -0.19245982 0.007746443 -0.07045056 0.0819511
0003e0 c0 43 52 bb 00 df d8 bb 9e f3 f1 3d 7a 5c d8 3d
       -0.003208384 -0.0066183805 0.118140444 0.105645135
0003f0 d0 f2 c5 bc ec ea 07 3d de 6c bd bd 6c 86 20 3d
       -0.024163634 0.033183023 -0.092492804 0.039190695

bias f4 [26]
000000 86 14 f0 3d 04 09 73 3d ab bb 02 3e ae 4d 49 be
       0.117226645 0.05933477 0.12766902 -0.19658539
000010 d6 13 27 be 30 8a 8a bc 00 c8 2a 3a 3a 9b f7 3d
       -0.1631616 -0.016911596 0.00065147877 0.12090154
000020 b0 da b2 bc 75 2a 2a 3e be 44 e8 bd bc 43 6b 3d
       -0.021832794 0.16617759 -0.113412365 0.057437643
000030 31 01 4d 3e 71 c6 ea bd 2f 8b 44 3e f1 eb 1b be
       0.20019986 -0.11463631 0.1919372 -0.15226723
000040 26 1b f4 3d 54 e4 ab bd ab d7 66 be 82 92 bf 3d
       0.11919241 -0.083931595 -0.22543208 0.09354116
000050 a5 00 53 be 50 0a 1e be 04 7d 18 be a8 af bb bd
       -0.20605715 -0.15433621 -0.1489144 -0.09164363
000060 81 83 5d 3e 64 c3 40 bd
       0.21632196 -0.04706134

weight f4 [1, 32, 1, 1]
000000 aa 20 24 be f3 b0 22 3e 34 9f 08 3d f4 7b 48 bd
       -0.16028085 0.15887813 0.033354953 -0.048946336
000010 9c b6 ec bd 00 9d 16 3a 00 c4 80 ba e5 29 00 3e
       -0.115582675 0.0005745441 -0.0009824038 0.12515981
000020 d6 34 af 3d 0c 95 1a bd 7b 19 82 bd 78 72 a5 3c
       0.085549995 -0.0377398 -0.06352516 0.020196185
000030 be ea 85 3d c9 8b 91 bd f8 2e 95 bd 5e f1 da 3d
       0.06538914 -0.0710674 -0.07284349 0.106905684
000040 aa 20 b3 3d 5b ed 0c be c0 8e a0 3c d4 23 43 3d
       0.087464646 -0.13762419 0.019599319 0.04764159
000050 b4 14 21 bd 00 72 2f bd f8 89 0b be 71 72 14 3e
       -0.039326385 -0.04283333 -0.1362685 0.14496781
000060 5c 53 66 3d 40 72 d5 bb fd 1b 09 3e 6c fb 6b 3d
       0.05623184 -0.006513864 0.13389583 0.05761282
000070 9a ef ba 3d 18 71 7c 3d f8 cd dd 3c d2 11 e5 3d
       0.091277316 0.061631292 0.027075753 0.111850396

weight f4 [32, 9]
000000 8e 32 9d be ee 74 62 3e 06 58 a6 be de 18 2a 3e
       -0.30702633 0.22114918 -0.32489032 0.16611049
000010 dd 90 9a 3e 9a 41 86 be 8e ce 1a be 94 0a d4 3d
       0.30188647 -0.26221925 -0.15117857 0.1035358
000020 da 73 6e 3e 00 71 27 be 30 0e c7 bd dc 14 f2 bd
       0.23286381 -0.163517 -0.09719503 -0.11820385
000030 66 b5 42 be 20 4c 84 3d 42 bb 31 3e 6e 50 97 be
       -0.1901451 0.06459832 0.1735659 -0.2955355
000040 1a 42 4b 3e d4 f4 95 bd 27 f3 94 3e b4 09 be 3d
       0.19849434 -0.07322088 0.2909176 0.092791945
000050 a8 88 8b be c0 10 a9 3d 76 24 3b 3e 40 f9 46 bd
       -0.27252698 0.08255148 0.18275627 -0.048577547
000060 30 50 a5 be e4 e5 80 be 76 64 04 3e 63 de 3c be
       -0.3228774 -0.25175393 0.12928948 -0.18444209
000070 e1 87 9b 3e 16 b9 82 be 28 40 1c be bc 7b d9 3d
       0.30377105 -0.25531834 -0.15258849 0.106193036
000080 fb 52 9f be 98 6d 74 bd 80 59 84 3d 88 bd 1e be
       -0.31117997 -0.05967483 0.06462383 -0.15501988
000090 d6 c3 a1 be 5f c3 8d 3e 80 74 3f 3b 90 15 fe bc
       -0.31594723 0.2768812 0.0029213727 -0.031016141
0000a0 52 69 6b 3e 2a 76 31 3e db 85 41 be 87 f9 8f 3e
       0.22989395 0.17330232 -0.18898718 0.28120062
0000b0 7e a8 8e be 4e 66 07 3e f0 d7 95 be ce db 2c be
       -0.27862924 0.1322262 -0.2926631 -0.16880724
0000c0 dc 39 8a bd 25 a1 99 3e 40 89 2c be da f5 04 3e
       -0.06749317 0.30005756 -0.16849232 0.1298441
0000d0 5f 07 aa 3e e6 e9 53 3e 31 07 8b 3e 48 50 24 bd
       0.3320875 0.20694694 0.27153924 -0.040115625
0000e0 5a b6 a6 be d0 01 20 be 1e 3e 47 be 52 3a 21 3e
       -0.32560998 -0.15625691 -0.1945729 0.15744904
0000f0 02 86 7a 3e 60 25 d1 bd b8 7a 0f 3d b2 f2 79 3e
       0.24465182 -0.10212207 0.035029143 0.24408987
000100 1d 1a 81 3e e6 d1 7d be bb 6b 7c be 24 5a f3 3d
       0.25215235 -0.24787101 -0.24650471 0.11882427
000110 ec 33 bd bd fc 3f f4 3d 40 89 f9 bc d9 04 9b 3e
       -0.09238419 0.119262666 -0.030460954 0.30277136
000120 d8 6c 45 3d d0 58 9a 3d 86 bd 35 be d0 ad 28 be
       0.048199505 0.07536471 -0.17748079 -0.16472554
000130 29 48 a2 3e b3 9b 9e 3e 0c b0 8d be ec 74 89 3d
       0.3169568 0.30978164 -0.27673376 0.06711754
000140 40 43 85 bb 5b 94 44 be 06 df 3f be d0 32 d2 3c
       -0.0040668547 -0.19197218 -0.1873742 0.025658995
000150 0d 43 9e 3e 80 e5 3f bc a8 a2 20 3d c0 1e 6e 3d
       0.3091053 -0.011712432 0.03921762 0.058134794
000160 30 2f ed bd c1 0e 88 3e 96 eb b5 bd 26 d5 42 3e
       -0.11581266 0.26573756 -0.08882825 0.19026622
000170 20 13 17 be d9 d3 88 3e 63 f1 21 be b8 1f 48 be
       -0.1475339 0.26724127 -0.15814738 -0.1954335
000180 b8 dd 4a be a0 e4 08 be 58 71 07 bd 10 43 71 be
       -0.19811141 -0.13368464 -0.033067077 -0.23560739
000190 db d8 30 be 47 bc a7 be fa 2a a0 be 74 68 91 be
       -0.17270224 -0.32760832 -0.3128279 -0.28400004
0001a0 a8 92 82 be 8e 42 4d be 6b cc 5f be 2a d6 5a 3e
       -0.25502515 -0.2004492 -0.21855323 0.2137076
0001b0 48 62 98 be fa 80 3f 3e 8b 07 10 be 86 42 61 3e
       -0.29762483 0.18701544 -0.14065377 0.21998033
0001c0 73 d1 11 be 08 52 68 3d 8c 31 d2 3d 88 ec 40 be
       -0.14240055 0.056718856 0.102633566 -0.1884023
0001d0 10 be e9 3c 00 49 bb bb d8 fc 20 be a0 5c 3a be
       0.028533012 -0.0057154894 -0.15721452 -0.18199396
0001e0 20 05 7d 3d cc 4e 86 be 58 78 1e 3e b8 45 51 be
       0.061772466 -0.26231992 0.15475595 -0.20436752
0001f0 bc ca ae 3d 98 6b 44 3d 08 8e 7b 3d 90 b2 d7 3c
       0.08534762 0.047954172 0.06141475 0.026330262
000200 b7 0e 99 3e be 9a 2d be a2 18 56 3e ee 49 92 be
       0.2989404 -0.1695356 0.20907834 -0.2857203
000210 c8 9d 70 3d ec 5a ce bd aa b9 50 3e 7c d2 cf 3d
       0.058744222 -0.10075936 0.20383325 0.101475686
000220 9e 84 2f be d4 51 c2 3d 32 cc 41 3e 18 6a 54 bd
       -0.17140433 0.09488264 0.1892555 -0.05185899
000230 82 60 69 3e ef 62 a6 be 30 e3 ae bd 06 f6 ec bd
       0.22790721 -0.32497355 -0.08539426 -0.11570363
000240 40 24 24 be 16 26 06 be 2c c8 bc 3d ae 68 62 3e
       -0.16029453 -0.13100466 0.09217867 0.22110245
000250 9b 90 6d be 4a ce 60 3e 0b ad 39 be 63 7d 57 be
       -0.23199694 0.21953693 -0.18132417 -0.21043925
000260 5c 17 a3 3d 40 ad f3 bc a6 be 4d be 57 80 87 be
       0.0796344 -0.029745698 -0.20092258 -0.26465103
000270 9b 87 93 3e 48 3c 09 3e 9f 6c 9c be e2 7c 6d 3e
       0.28814396 0.13401902 -0.3055162 0.2319217
000280 f2 ed 30 3e 82 37 75 3e 00 1f 22 bc 6e 91 4d 3e
       0.17278269 0.23946956 -0.009895086 0.20075008
000290 e0 86 1f 3e f2 e8 5e 3e fb cd 86 be d0 b6 76 be
       0.15578794 0.21768549 -0.26329026 -0.24093175
0002a0 9f 89 8a 3e 6c 7f df bd 88 09 0c 3e 18 ba 49 3d
       0.27058122 -0.10912976 0.13675511 0.04924974
0002b0 d8 6d 0c bd 32 6c 5d 3e 10 38 a8 bc be 2b 9c be
       -0.034284443 0.21623304 -0.020534545 -0.30502123
0002c0 1d d4 9a 3e ce cf 0b be 2e 3d 9a be dc ca fe 3d
       0.30239955 -0.1365349 -0.301248 0.12441036
0002d0 52 60 48 3e 4a 5d 41 3e fc 11 85 be 93 8e 7b be
       0.19567993 0.18883243 -0.25990283 -0.24566106
0002e0 22 4c 33 3e 83 df 9e be 14 03 f1 3d 64 47 fa 3d
       0.17509511 -0.310299 0.11768165 0.12220648
0002f0 66 2b 88 be 98 c7 a7 be de 0a 1c be 30 0b 08 3e
       -0.2659561 -0.32769465 -0.1523852 0.13285518
000300 10 9e 08 be 2c 36 bd 3d 39 53 a1 3e e2 12 a2 be
       -0.13341546 0.09238848 0.31508806 -0.3165503
000310 9b 00 2b be 8e 8e 21 3e 80 98 2d 3c 62 d5 a6 be
       -0.1669945 0.15777037 0.010595441 -0.32584673
000320 5a 53 2d 3e 95 20 90 3e 7a ed 35 3e 24 6f 98 bd
       0.16926327 0.28149858 0.17766371 -0.074430734
000330 2c 0b b1 bd c0 35 c6 3b ea 30 90 be 73 27 9a 3e
       -0.08644709 0.006048888 -0.28162318 0.30108222
000340 ec 51 8c 3d 55 b9 83 3e 46 d5 56 be 50 ea bc 3d
       0.06851563 0.25727335 -0.20979795 0.09224379
000350 40 b5 27 3d dd 3a 87 3e 0e f0 1d be a0 62 ad 3d
       0.040944338 0.26412097 -0.15423605 0.08466077
000360 0a 07 71 3e 62 22 9b be db 0a 91 3e e4 39 e5 3d
       0.23537841 -0.3029967 0.28328595 0.111926824
000370 00 c4 f7 3d 73 14 9a be 80 76 52 3d 6c c4 d3 3d
       0.12097931 -0.30093727 0.05138254 0.10340199
000380 50 36 01 be 09 2b 8a 3e 6a 82 09 3e e6 cd 77 be
       -0.12618375 0.26985958 0.13428655 -0.24199638
000390 37 13 96 3e b9 42 9d 3e ac d4 df 3d c4 86 e8 3d
       0.29311535 0.30714968 0.10929236 0.113538295
0003a0 08 e7 6e be b3 41 95 be a4 62 a8 bd 10 dc 16 be
       -0.23330319 -0.29151687 -0.08221939 -0.14732385
0003b0 cb fc 49 be 08 6d 99 be e8 4c 19 bd 38 9a 69 be
       -0.19725339 -0.29965997 -0.03742686 -0.22812736
0003c0 53 e2 58 be e0 4c 6b 3c 52 65 66 3e 30 45 a6 bc
       -0.21180086 0.01436159 0.22499588 -0.020296663
0003d0 9c d0 9c 3d c5 8c 98 3e b6 30 35 3e b9 b0 85 3e
       0.076569766 0.297949 0.17694363 0.2611139
0003e0 e4 84 ef 3d 72 db 7e 3e 3f 47 a8 be 32 6d a2 be
       0.11695269 0.24888399 -0.32866856 -0.31723934
0003f0 1e 6e 19 3e 58 43 74 be 62 4d 6c 3e 75 07 a9 3e
       0.14983413 -0.23853815 0.23076394 0.33013502

bias f4 [32]
000000 70 1f a5 bc 88 3d 5f be c9 94 9e 3e b6 e8 06 be
       -0.020156592 -0.21800816 0.3097289 -0.1317471
000010 e1 83 a3 3e 6b 77 62 be fe e4 4f 3e 69 eb 8b 3e
       0.31936553 -0.22115867 0.20302197 0.2732804
000020 c3 31 7e be fb ec 26 be 10 b9 80 3c a0 b0 2c 3d
       -0.2482367 -0.16301338 0.015713245 0.04216063
000030 bb 28 7b be 10 22 74 be 10 f0 50 be 18 fc 47 be
       -0.24527256 -0.23841119 -0.20404077 -0.1952976
000040 0e 6e a4 be 04 10 9c bd 60 33 11 3d 18 93 36 be
       -0.32115215 -0.07620242 0.035449386 -0.1782955
000050 52 64 74 3e a0 5e 7a be b0 97 24 3e ee 64 61 3e
       0.23866394 -0.24450159 0.16073489 0.22011158
000060 ea 87 2d 3e f3 6b 39 be 58 32 45 3d a2 06 92 be
       0.16946378 -0.18107586 0.048143715 -0.28520685
000070 c2 f4 83 be c0 2c 52 bd 61 49 89 3e ee 83 57 be
       -0.25772673 -0.05131221 0.26813796 -0.21046421

weight f4 [1, 32]
000000 a4 f3 15 3d 61 6e 9b bd 22 60 c3 3d f0 c8 24 3c
       0.036609307 -0.075894125 0.0953982 0.010057673
000010 82 f9 05 be cf a8 01 3e e6 a0 a1 3d e8 83 a5 3c
       -0.13083461 0.12662052 0.07892017 0.0202045
000020 18 28 ea bc 20 ab 9b bb 0e c8 83 3d f8 03 b7 bc
       -0.028583571 -0.0047506243 0.06434642 -0.02234076
000030 c3 74 a0 bd 0d fe c8 bd 0a 8a 0c be d3 6b 02 3e
       -0.078347705 -0.09814081 -0.13724533 0.12736444
000040 00 cd 03 bc 91 db ee bd 22 ef bc 3d c6 45 e5 bd
       -0.008044481 -0.11662973 0.092252985 -0.11194949
000050 50 4e 0e 3d f0 6e 0a be 08 97 e6 bd 30 03 24 bc
       0.034742653 -0.13518882 -0.11259276 -0.010010526
000060 0b 3e 1f 3e b1 f5 1b be 80 c6 97 bd 18 43 ad bd
       0.15551011 -0.15230443 -0.07410908 -0.08460063
000070 f0 70 6f 3d 60 c3 78 3c a0 e8 f4 bd 6e c0 8d 3d
       0.058457315 0.0151833 -0.11958432 0.06921469

weight f4 [32, 32, 3, 3]
000000 ff e0 0e 3d 4e d1 a4 3c 0d bd 18 3d 62 90 86 3c
       0.03488254 0.020119336 0.037289668 0.016426269
000010 28 61 87 3b 48 f5 8d bc 57 bc f9 bc 2e 49 cb 3c
       0.004131455 -0.017328873 -0.030485315 0.024815168
000020 70 49 3a bc 48 7c c5 bc 00 f8 3a b8 de eb 0a bd
       -0.011370048 -0.024107113 -4.4576824e-05 -0.033916347
000030 c4 de 29 bc 80 c2 66 bd d0 38 01 3b fd 24 58 3d
       -0.010368053 -0.056337833 0.00197177 0.05276965
000040 46 1a 8e 3c 29 19 1c bd 41 db 2d 3d ac b8 5d bc
       0.017346513 -0.038109932 0.042445425 -0.013532799
000050 e6 0f 32 bd a6 63 ce 3c 84 d0 a4 bc 7b 86 18 bd
       -0.043472193 0.025194 -0.02011896 -0.037237626
000060 f2 51 c1 3c d3 b3 4c 3d e9 0e 34 3d 64 a6 12 3c
       0.023598645 0.04997618 0.043959532 0.008950803
000070 c0 20 94 ba 2a 00 b8 3c 48 3e cb 3b 72 f6 4f bd
       -0.0011301264 0.022461016 0.006202493 -0.050772138
000080 cc ea 7b bc 3c f8 43 bd 6c 1b 23 3c 58 22 68 bd
       -0.015375804 -0.047844157 0.009955268 -0.056673378
000090 86 36 6d bd 4e 80 ab 3c 76 3d b7 3c 72 db 23 bd
       -0.057913326 0.020935204 0.022368174 -0.0400042
0000a0 fe c5 d3 3c 19 45 41 3d 40 94 53 bb 8b 46 24 bd
       0.025851246 0.047185037 -0.0032284409 -0.040106338
0000b0 a0 53 f1 bb 3c 5f 6a bd 80 48 00 3a a5 fd 3a 3d
       -0.007364705 -0.05721973 0.0004893616 0.04565205
0000c0 6c ce 3b bc 80 76 9f 39 88 86 b5 bc 90 15 75 bc
       -0.011462789 0.00030415133 -0.022158876 -0.014958754
0000d0 18 0d f9 3b 5a b1 bd 3c ae 39 ba 3c d1 49 f3 bc
       0.007600438 0.023155857 0.022732582 -0.029698284
0000e0 a3 fa 30 3d 9a 56 ce 3c 37 f3 20 3d 54 33 bc bc
       0.043207776 0.02518778 0.039294448 -0.022973694
0000f0 00 67 b3 3a bc ae 08 bd 31 48 31 bd 88 52 e8 bc
       0.0013687313 -0.033369765 -0.043281738 -0.028359666
000100 8c bd 0a 3c d9 49 f3 bc 8d 91 5f 3d e6 bb f5 3c
       0.008468043 -0.0296983 0.054582167 0.029996824
000110 e6 e8 30 bd b9 80 54 bd c4 6b 77 bc 1f 68 34 bd
       -0.04319086 -0.051880572 -0.015101377 -0.04404461
000120 e5 4c 56 bd 6c 82 56 3c 10 f9 4e bb cc b6 7f bc
       -0.052319426 0.013092618 -0.0031581558 -0.015607547
000130 d2 53 b9 3c 20 5e 90 ba 20 d0 ae bb 5b c9 1d 3d
       0.022622976 -0.001101438 -0.005334869 0.038522106
000140 12 24 5f bd e8 8d f6 3b 36 f0 3d bd c4 dd 47 3c
       -0.05447776 0.0075242408 -0.04637166 0.012198869
000150 f6 56 b2 3c 42 ec 91 3c 24 3c b2 bc 33 31 70 3d
       0.021769982 0.017812852 -0.021757193 0.05864067
000160 6f 65 3c 3d c0 73 ef ba c5 ac 2e bd 20 1c 08 bc
       0.045995172 -0.0018268749 -0.042645235 -0.008307487
000170 71 fd 5d 3d d2 06 c4 bc 9e 90 61 bd 39 35 0c 3d
       0.05419678 -0.023929033 -0.05506956 0.034230445
000180 b6 b4 a0 3c 84 be 39 bd 00 fa c8 3a ec 4a 35 bc
       0.01961742 -0.045347705 0.0015333295 -0.011065226
000190 fe 2f ff 3c 33 38 2a bd 52 1a 28 bd d0 d8 90 bc
       0.031150814 -0.041557502 -0.041040726 -0.01768151
0001a0 38 50 58 bd 41 cf 27 3d 12 38 1a bd 82 02 5c bd
       -0.052810878 0.040969137 -0.03765113 -0.05371333
0001b0 20 01 95 ba bf 4f 6d 3d 49 46 e7 bc 85 00 e8 bc
       -0.0011368133 0.05793738 -0.028231757 -0.02832056
0001c0 1c da ad bc 72 60 96 3c 00 32 d5 ba a0 a9 38 3b
       -0.021222167 0.018356536 -0.0016265512 0.0028177276
0001d0 c8 d7 da bb 1b f7 13 3d 64 36 75 3c f1 92 52 3d
       -0.006678555 0.03612433 0.014966581 0.051409665
0001e0 36 44 d9 3c c8 64 9c bc 0c 00 80 bc 61 4d 67 3d
       0.026521783 -0.019091025 -0.015625022 0.05647028
0001f0 7b 36 17 bd 00 3f 3c b9 78 9f ca 3b bc 99 24 3c
       -0.03691719 -0.00017952546 0.006183561 0.010046419
000200 ca eb eb bc 9b 80 28 3d 93 73 2a 3d ac 11 52 3c
       -0.028798956 0.041138273 0.041614126 0.012821596
000210 0d f2 6b 3d 34 72 41 bd fd 91 58 3d ee b7 85 3c
       0.057603884 -0.047228053 0.0528736 0.016323056
000220 0f c4 5b bd 22 41 fc bc 5c 51 26 bd 07 63 41 3d
       -0.053653773 -0.030792776 -0.040604934 0.04721358
000230 54 26 96 bc ae f3 f4 3c 44 1d 5b 3c 1b 30 14 3d
       -0.018328823 0.029901352 0.013373677 0.03617869
000240 90 60 1e bb 5c e4 35 3c 8c be 4f bd 6e 68 16 bd
       -0.0024166442 0.011101808 -0.05071883 -0.036720686
000250 c0 4b f0 ba 56 2e 1e bd 83 00 03 3d 18 59 d7 bc
       -0.0018333122 -0.03861841 0.03198291 -0.0262876
000260 d4 20 5b 3c 09 c3 03 3d fc 75 02 bd 6e 6f d1 bc
       0.013374526 0.032168422 -0.0318508 -0.02556583
000270 9e 66 a8 3c 8c 63 d4 bc 10 1f 1d bd c5 5e 53 3d
       0.020556744 -0.025926374 -0.0383597 0.05160405
000280 ae 9c fb 3c a2 d4 24 bd 97 8d 26 bd b9 cd 3e 3d
       0.03071436 -0.040241845 -0.040662374 0.04658291
000290 4a 7a 67 bd 58 3c f3 3b 1e ab 0b bd 71 1b 6e 3d
       -0.05651311 0.007422965 -0.034098737 0.05813164
0002a0 44 8d f6 bc 67 09 1a 3d 3b 88 68 3d fc a7 36 3c
       -0.030096658 0.037606623 0.056770544 0.011148449
0002b0 45 5d 6d 3d 1f a5 14 bd 27 63 f8 bc 16 9b a6 3c
       0.057950277 -0.036290284 -0.030320717 0.020337623
0002c0 ff 6a 6e bd a1 45 22 3d 3e 49 31 bd 8c 65 36 bd
       -0.05820751 0.039617185 -0.04328274 -0.044530436
0002d0 a4 a8 40 bd 60 7e 3a bd d7 34 1b 3d 22 01 a1 3c
       -0.04703583 -0.045530677 0.03789219 0.01965386
0002e0 21 d4 56 bd 0e b7 de 3c 14 7f 52 3c 46 3c 38 bd
       -0.052448396 0.027186897 0.012847681 -0.044979356
0002f0 68 d4 3b bc 15 20 51 3d 60 d1 14 3b 23 fb 3d bd
       -0.011464216 0.051055986 0.0022707805 -0.04638208
000300 fe 03 af 3c 51 2e 0f 3d c9 1e 5b 3d 20 b9 39 bb
       0.021364208 0.03495628 0.053496156 -0.0028339103
000310 24 a2 1d 3c 80 3f a9 bb ca 35 b9 3c f1 9b 12 3d
       0.009621177 -0.0051650405 0.022608656 0.03579325
000320 ac 0b 26 bc 80 a6 dd 3a 47 ab 4c 3d 86 a4 d2 bc
       -0.010134619 0.0016910583 0.04996803 -0.025713217
000330 3c 25 5c bd 66 c7 08 bd 15 ce 40 3d d0 ce 21 3b
       -0.053746447 -0.033393286 0.047071535 0.002468992
000340 79 1b 2e 3d c7 b5 27 bd e6 bc 8d 3c 3c b8 5e bc
       0.04250667 -0.04094484 0.017301988 -0.01359373
000350 90 b7 04 bb d3 a6 21 3d c0 47 7f 3a 90 b0 78 3b
       -0.0020251013 0.039465737 0.00097381696 0.0037947036
000360 af ab 0d 3d 39 c2 34 3d 80 1d a0 bb 28 eb 05 bd
       0.03458756 0.044130538 -0.004886329 -0.032694966
000370 c4 6e c2 bc 68 d4 00 bc c9 ca 3e 3d 84 4e bc bc
       -0.023734458 -0.007863142 0.04658011 -0.022986658
000380 00 98 8b 37 5c 90 75 3c 41 e1 4d 3d c7 1f 19 3d
       1.6640872e-05 0.014988031 0.050263647 0.03738382
000390 f8 4f d7 bb 46 43 e2 bc 84 7d 28 bc 93 1c 1b 3d
       -0.0065708123 -0.02761997 -0.0102838315 0.037869047
0003a0 1e 53 b5 3c 9e 43 d7 bc c4 2c 84 bc a9 a8 26 3d
       0.02213436 -0.02627736 -0.016134627 0.04068819
0003b0 70 61 5d bb 9e 20 e8 3c 98 b0 c7 bc 9a 91 e7 3c
       -0.003378 0.028335866 -0.024376199 0.02826767
0003c0 01 bc 17 3d ce ab fd bc 42 0e a9 3c 10 90 d1 bc
       0.03704453 -0.030965712 0.020636681 -0.02558139
0003d0 a0 cc 72 bc e6 cc 82 3c d2 df be 3c 7c ef 1f 3c
       -0.014819294 0.015966844 0.023300085 0.009761687
0003e0 ca e2 8f 3c 2f 33 11 3d c9 83 61 3d 88 41 0a bd
       0.017564196 0.035449203 0.05505732 -0.0337539
0003f0 a5 d4 2c bd a2 7d a9 3c 7d 67 58 bd 30 3f 04 bc
       -0.04219498 0.02068979 -0.05283307 -0.008071706

bias f4 [32]
000000 9e a5 be bc 5c 9f 13 3c 78 6d 91 3b 74 a5 28 bd
       -0.023272332 0.009010162 0.0044380985 -0.041173413
000010 29 0f 54 3d bc 17 2b 3c 45 14 54 3d c9 bd 0a 3d
       0.05177227 0.01044267 0.051777143 0.0338724
000020 1b a2 fa bc 00 a5 7e bb d0 4f ca bc b3 68 3f 3d
       -0.030594876 -0.0038855672 -0.02469626 0.04673071
000030 9a c0 0e bd 80 79 b8 39 98 0d 68 bd 03 1f 10 bd
       -0.034851648 0.0003518574 -0.05665359 -0.035185825
000040 d9 55 37 3d 0a e9 a5 3c 37 eb 38 bd 0c 00 0c 3c
       0.044759605 0.020252723 -0.045146193 0.008544933
000050 04 0b ae bc 48 5f 84 3b ba f5 82 bc 68 af 93 bc
       -0.021245487 0.0040396787 -0.015986312 -0.018027976
000060 8f 47 46 bd 1d 13 36 3d 68 b9 6a bc 5a d6 8e bc
       -0.048408087 0.04445182 -0.014326431 -0.017436195
000070 d1 4e 37 bd 30 e1 77 3b 1a cb e9 3c 51 73 26 bd
       -0.0447529 0.0037823431 0.02853923 -0.040637318

weight f4 [32, 32, 3, 3]
000000 b8 79 dd bc 73 06 50 3d e5 3c 1a bd 67 b8 03 3d
       -0.02703558 0.0507874 -0.03765573 0.03215828
000010 a5 1c 3d 3d d2 5e fc 3c a2 77 fc 3c 5b e9 0d 3d
       0.046169896 0.030806933 0.030818764 0.034646373
000020 98 25 54 bd b3 16 0c 3d 43 8a 40 3d 76 5d e1 3c
       -0.051793665 0.034201335 0.047006857 0.027510386
000030 55 8e 3a 3d e7 0d 3f 3d c1 30 48 3d c1 58 1d 3d
       0.045545895 0.046644118 0.04887462 0.03841472
000040 a3 04 59 bd 4a 13 a9 bc 2b a9 57 3d b8 92 51 bd
       -0.052982938 -0.02063908 0.052651566 -0.051165313
000050 ef 50 38 3d 3d 01 67 3d b3 14 51 3d 38 84 ca bc
       0.04499906 0.056397665 0.05104513 -0.02472125
000060 25 fb 6b bd 2c 64 f3 bc d9 ff 2e 3d 17 fb 28 3d
       -0.057612557 -0.029710852 0.042724464 0.041255083
000070 58 e9 08 bd e2 cb e6 bc c1 f3 4d bd f6 c8 96 bc
       -0.03342566 -0.02817339 -0.05028129 -0.018406373
000080 ea f3 a4 3c d4 43 3e 3c 49 ea 03 bd 02 5b 83 bc
       0.020135839 0.011612851 -0.032205854 -0.016034607
000090 7e 01 ee 3c b4 b1 18 3c 88 07 5a bd 8c 6f 52 bc
       0.029053446 0.0093197115 -0.05322984 -0.012843978
0000a0 48 50 e4 bb c2 50 a4 3c 66 56 f3 3c f9 2c 1f bd
       -0.006967578 0.02005804 0.029704284 -0.03886125
0000b0 1a 5a f7 3c ff 39 39 3d bb d7 59 bd 7c 9c 4d 3c
       0.030194331 0.045221325 -0.053184252 0.012549516
0000c0 1a 2a 6f bd ca 46 db 3c aa 4d bb 3c 76 26 d6 bc
       -0.05838976 0.026767153 0.022864182 -0.026141386
0000d0 e8 1b 19 bd 18 bb 80 3b ee 25 86 3c 82 20 39 bd
       -0.03738013 0.0039285533 0.016375508 -0.045197017
0000e0 b1 b4 38 3d 00 62 50 b9 48 88 6a bd 55 28 64 bd
       0.045094196 -0.00019872934 -0.057258874 -0.055702526
0000f0 2d 63 37 bd c5 e7 3b 3d fa e0 99 3c f0 43 40 bd
       -0.044772316 0.04587533 0.018784035 -0.04693979
000100 07 a0 69 3d e0 8c 30 bc c8 11 9f 3b a4 6c 53 bd
       0.05703738 -0.010775775 0.0048544146 -0.05161728
000110 ac 8a 09 bc 14 7a 34 bd 23 d0 01 3d e0 52 44 bc
       -0.008394878 -0.044061735 0.031692635 -0.01198265
000120 90 88 14 3b 81 13 2f 3d 00 f5 56 bc ce df 20 bd
       0.0022664405 0.04274321 -0.013119936 -0.039275937
000130 a0 32 63 bc d6 02 bf 3c 4c 37 4e bc 4f 0e 10 3d
       -0.01386705 0.023316782 -0.012586426 0.035169896
000140 b8 12 70 bc ce 64 2a bd b4 ec 6c 3c 08 fa 9a 3b
       -0.0146529 -0.04160004 0.014460731 0.004729513
000150 60 69 23 bb b2 0c 94 3c 7f 9e 47 3d ca e1 ab 3c
       -0.0024934635 0.01807246 0.048735138 0.020981688
000160 00 98 3a bd 4c 5e 0d bd 94 a5 68 3c 44 f1 29 bd
       -0.045555115 -0.034513757 0.014199633 -0.041489854
000170 e8 30 0d bc 83 55 51 3d 24 17 59 bd dc 30 a5 bc
       -0.008617617 0.05110694 -0.053000584 -0.0201649
000180 44 3d 67 bd 16 05 6a bd 12 e5 03 bd 52 38 99 bc
       -0.05645491 -0.057133757 -0.03220088 -0.018703613
000190 b0 89 49 bc e0 c4 b0 bb de fb b8 3c 48 1b 99 bc
       -0.012300894 -0.005394563 0.022581037 -0.018689767
0001a0 d2 3a 4f bd 0e e1 1a bd 24 4f 5b 3c 88 5a 80 bc
       -0.050593205 -0.037812285 0.013385568 -0.015668169
0001b0 00 0f b4 39 85 63 f1 bc ae 45 a9 3c 7f 95 33 3d
       0.0003434345 -0.0294664 0.020663109 0.043843742
0001c0 4b cd ff bc 25 f8 4a 3d 91 27 4c bd 5e a6 88 3c
       -0.031225821 0.049553055 -0.04984242 0.016680893
0001d0 b1 48 23 bd 46 70 94 bc 8c ab 01 bd e0 d9 d3 ba
       -0.039864246 -0.018119942 -0.03165774 -0.0016162954
0001e0 6a f2 cf bc 1a b7 cd 3c d0 cb b8 bc 08 5b 34 bd
       -0.025384147 0.025111724 -0.022558123 -0.044032127
0001f0 ac a5 c3 bc de 4f 8f bc 1c f8 0b bc ce 8f ad bc
       -0.02388271 -0.017494138 -0.008543041 -0.021186735
000200 0c 49 32 3c d5 77 4a 3d 18 e1 2e bd 20 b0 b1 ba
       0.010881674 0.049430687 -0.042695135 -0.0013556518
000210 d8 8f e2 bb 74 e5 44 bc 42 a7 b0 3c cc 06 15 bd
       -0.00691412 -0.0120175965 0.02156413 -0.036383435
000220 9d c1 15 3d f5 90 16 3d 80 e2 af b9 af 5f 41 3d
       0.036561597 0.036759336 -0.00033547357 0.04721039
000230 6d ff 5a bd 3a ea b4 bc c9 b1 39 3d e4 a9 48 bc
       -0.05346625 -0.022084344 0.045335565 -0.012247536
000240 94 02 75 3c 50 eb 4a bd 62 88 d8 bc b5 5e 3a 3d
       0.014954228 -0.049540818 -0.02643222 0.045500476
000250 ae d4 ff 3c d8 95 89 bc ec 68 71 bc e8 44 ec bb
       0.031229343 -0.016795084 -0.014734488 -0.0072103627
000260 e0 cc 84 bb dc 98 54 bd 28 fd 90 bc ae 32 ee bc
       -0.0040527433 -0.05190359 -0.01769884 -0.0290769
000270 d0 bc 28 3b 1d 4b 48 bd f4 c4 48 3c ed e4 4f 3d
       0.0025747307 -0.04889976 0.0122539885 0.05075543
000280 5b e2 5f 3d 65 3f 22 3d ed 48 3e bd 4d d3 07 3d
       0.05465923 0.03961124 -0.046456266 0.033160497
000290 50 b8 78 bc 6a d7 a7 bc 83 c7 05 3d 5c a8 dd bc
       -0.015180662 -0.02048846 0.032660972 -0.027057819
0002a0 56 a2 d1 3c be f8 0b bd f0 b6 0f bc b8 40 c3 3b
       0.025590103 -0.034172766 -0.008771643 0.005958643
0002b0 eb af 55 3d 53 a5 69 bd 42 26 c3 bc e8 52 b2 3b
       0.05216972 -0.05704243 -0.023821954 0.005442012
0002c0 30 85 d1 bc 9a 59 f3 3c 1e ab cb 3c be e0 d0 bc
       -0.025576204 0.029705811 0.024861868 -0.02549779
0002d0 7b a3 6a 3d cf 8a 09 3d e8 d9 fc 3b f7 eb 45 3d
       0.057284813 0.033579644 0.007716406 0.048320737
0002e0 c0 54 ed bb 41 a9 50 3d e9 0f 42 3d f0 2b a5 bc
       -0.007242769 0.050942663 0.047378454 -0.020162553
0002f0 54 6e c6 bc f4 df 37 bc 66 83 83 3c 7b 15 27 3d
       -0.02422253 -0.011222828 0.016053867 0.04079197
000300 7c 04 46 bc a6 92 f2 3c a0 65 a9 bb 78 13 b3 bc
       -0.01208603 0.029610943 -0.0051695853 -0.02185987
000310 1d 3a 58 3d 53 d1 16 3d c6 5a 97 bc 5a 75 92 bc
       0.052789796 0.03682072 -0.018475901 -0.017878223
000320 45 fc 4d 3d 60 97 52 bc 9c bd 2a bd 14 09 18 3c
       0.05028941 -0.012853473 -0.04168473 0.009279508
000330 15 f2 66 3d 62 cf 89 bc f7 c7 fa bc ea f9 d7 3c
       0.05638321 -0.01682252 -0.030612929 0.026364285
000340 ca d4 ea 3c 1c d0 a0 bc 1c 30 31 bc 36 28 99 3c
       0.028665919 -0.019630484 -0.010814693 0.018695932
000350 40 d3 1b bd f8 34 ba bc 23 f2 37 3d 9a 61 df 3c
       -0.03804326 -0.022730336 0.044908654 0.02726822
000360 6b 29 29 3d ca 93 d4 bc 81 d6 60 3d b0 9c 0a bd
       0.041299265 -0.025949378 0.054892067 -0.033840835
000370 80 1e 1e ba 2f 2b 2d 3d 0d 38 31 3d 47 cc 3c 3d
       -0.00060317665 0.04227751 0.043266345 0.04609325
000380 d2 53 85 bc cf 3e 60 3d db 6b 3f 3d 0c 09 29 bd
       -0.01627532 0.0547474 0.04673372 -0.041268393
000390 76 59 a4 bc 8a af ce 3c 79 0e 62 3d 37 4e 5b bd
       -0.02006219 0.025230188 0.055189583 -0.05354139
0003a0 f7 84 5c 3d 28 5d a3 bc 2e 79 af 3c d0 10 04 bc
       0.053837743 -0.019941881 0.021420088 -0.008060649
0003b0 d6 b0 46 bd 46 63 d9 3c 63 2a 0a 3d 62 86 a6 3c
       -0.048508488 0.026536595 0.03373183 0.02032775
0003c0 c2 a4 8b 3c c1 15 14 3d 57 08 2b 3d d1 4d 2c 3d
       0.017046336 0.03615356 0.041756 0.0420664
0003d0 0e af 9e 3c f2 18 d4 3c f8 75 85 bc fc d3 68 bd
       0.019370582 0.025890801 -0.016291603 -0.05684279
0003e0 31 03 4b bd c1 ba 0f 3d 96 19 87 3c c9 3f 2c 3d
       -0.04956359 0.03509021 0.016491693 0.042053018
0003f0 92 c9 0e bd 9b 0d 23 3d 48 c2 9b bb 89 18 2e 3d
       -0.0348602 0.039807897 -0.0047533847 0.042503867

bias f4 [32]
000000 bc d7 3b bd a0 0b 8e bb cd ba 3c bd a4 33 18 bc
       -0.045860037 -0.004334882 -0.046076585 -0.009289656
000010 96 7e d8 bc 52 39 e0 bc 00 bf b8 bb 15 60 5b 3d
       -0.026427548 -0.027371082 -0.0056380033 0.053558428
000020 32 7e a9 3c fa e0 db 3c d7 34 2a bd 12 c0 a4 3c
       0.020690057 0.026840676 -0.0415543 0.020111118
000030 33 ae 2e 3d d0 4f 4b bd 3a a7 87 3c b0 8e ee bb
       0.042646598 -0.049636662 0.016559232 -0.0072801933
000040 44 9b 20 3c 68 e8 fc bc 48 38 6c bd b2 c7 b4 3c
       0.009802643 -0.030872539 -0.05767086 0.022067878
000050 d8 6e 96 3b 90 88 3a bd f9 76 69 bd a1 a0 45 bd
       0.0045908503 -0.045540392 -0.056998227 -0.04824889
000060 a2 87 c9 bc d3 bd 60 bd 56 90 e7 3c 25 d0 60 3d
       -0.024600808 -0.05486853 0.028267067 0.054886002
000070 78 eb 79 bc ac db 08 3c 6b e8 5b bd 80 80 01 bc
       -0.015253894 0.008353155 -0.053688448 -0.007904172

weight f4 [32]
000000 00 00 80 3f 00 00 80 3f 00 00 80 3f 00 00 80 3f
       1.0 1.0 1.0 1.0
000010 00 00 80 3f 00 00 80 3f 00 00 80 3f 00 00 80 3f
       1.0 1.0 1.0 1.0
000020 00 00 80 3f 00 00 80 3f 00 00 80 3f 00 00 80 3f
       1.0 1.0 1.0 1.0
000030 00 00 80 3f 00 00 80 3f 00 00 80 3f 00 00 80 3f
       1.0 1.0 1.0 1.0
000040 00 00 80 3f 00 00 80 3f 00 00 80 3f 00 00 80 3f
       1.0 1.0 1.0 1.0
000050 00 00 80 3f 00 00 80 3f 00 00 80 3f 00 00 80 3f
       1.0 1.0 1.0 1.0
000060 00 00 80 3f 00 00 80 3f 00 00 80 3f 00 00 80 3f
       1.0 1.0 1.0 1.0
000070 00 00 80 3f 00 00 80 3f 00 00 80 3f 00 00 80 3f
       1.0 1.0 1.0 1.0

bias f4 [32]
000000 00 00 00 00 00 00 00 00 00 00 00 00 00 00 00 00
       0.0 0.0 0.0 0.0
000010 00 00 00 00 00 00 00 00 00 00 00 00 00 00 00 00
       0.0 0.0 0.0 0.0
000020 00 00 00 00 00 00 00 00 00 00 00 00 00 00 00 00
       0.0 0.0 0.0 0.0
000030 00 00 00 00 00 00 00 00 00 00 00 00 00 00 00 00
       0.0 0.0 0.0 0.0
000040 00 00 00 00 00 00 00 00 00 00 00 00 00 00 00 00
       0.0 0.0 0.0 0.0
000050 00 00 00 00 00 00 00 00 00 00 00 00 00 00 00 00
       0.0 0.0 0.0 0.0
000060 00 00 00 00 00 00 00 00 00 00 00 00 00 00 00 00
       0.0 0.0 0.0 0.0
000070 00 00 00 00 00 00 00 00 00 00 00 00 00 00 00 00
       0.0 0.0 0.0 0.0

running_mean f4 [32]
000000 18 b2 9b bd df 6d b4 3e 70 52 d0 3d 71 b3 7a bd
       -0.07602328 0.35240075 0.10171974 -0.061206285
000010 b4 ab ae 3d 69 34 12 3e 76 fe 64 3e ae 16 83 be
       0.085288435 0.14277805 0.22362694 -0.2560324
000020 28 63 78 3c 8d 08 22 bd eb 90 f4 3d 43 93 62 bd
       0.015160359 -0.039558936 0.119417034 -0.05531622
000030 62 d7 74 be 72 3c ae bd 8d 87 0c 3d 2c 46 78 be
       -0.23910287 -0.08507623 0.03430896 -0.24245518
000040 87 e7 59 3e 76 2c 2f be 5e ba 51 3e e3 2e 7d 3e
       0.21279727 -0.17106804 0.2048125 0.24724917
000050 1c b8 2c be 5b 7b f1 bd 28 df 37 be 2f 90 00 be
       -0.16867107 -0.11791106 -0.17956221 -0.12555002
000060 31 a0 63 be f3 9e ab 3e b1 f0 4c be e1 c8 84 bd
       -0.22229077 0.33519706 -0.20013691 -0.06483627
000070 5d 05 4f be 57 50 57 3d 3e 63 fe 3d 07 b2 e2 bc
       -0.2021689 0.052566852 0.12421273 -0.02767278

running_var f4 [32]
000000 3a e0 c0 3d 73 3a 01 3e cf 4c 35 3d 83 08 d4 3d
       0.09417768 0.12619953 0.044262704 0.10353186
000010 cc 6c 9e 3d d0 38 98 3d e4 0a e7 3d f8 45 f0 3d
       0.07735595 0.07432711 0.11281374 0.117320955
000020 e9 a4 89 3d 93 86 b0 3d 6a 12 01 3e be f8 27 3d
       0.06720907 0.08619418 0.1260468 0.041008703
000030 41 48 78 3d f9 3c 3e 3d c0 8b a6 3d b1 d1 8f 3d
       0.06061578 0.046444867 0.08132124 0.07022417
000040 67 db 63 3d 9a 9e f1 3c cf 7e 56 3d 76 b3 c9 3d
       0.05562916 0.029494572 0.052367028 0.098486826
000050 89 5f b7 3d 60 34 a1 3d b6 4a 59 3d eb c2 c2 3d
       0.08953769 0.07871318 0.053049766 0.09509834
000060 d2 20 6d 3d 40 d5 5f 3d 33 a2 47 3e 0f 2e 9d 3d
       0.057892628 0.05464673 0.19495468 0.076748006
000070 84 20 8a 3d 96 60 11 3d 9c 5a 96 3d 23 17 9c 3d
       0.06744483 0.035492502 0.07341501 0.076216005

weight f4 [32]
000000 00 00 80 3f 00 00 80 3f 00 00 80 3f 00 00 80 3f
       1.0 1.0 1.0 1.0
000010 00 00 80 3f 00 00 80 3f 00 00 80 3f 00 00 80 3f
       1.0 1.0 1.0 1.0
000020 00 00 80 3f 00 00 80 3f 00 00 80 3f 00 00 80 3f
       1.0 1.0 1.0 1.0
000030 00 00 80 3f 00 00 80 3f 00 00 80 3f 00 00 80 3f
       1.0 1.0 1.0 1.0
000040 00 00 80 3f 00 00 80 3f 00 00 80 3f 00 00 80 3f
       1.0 1.0 1.0 1.0
000050 00 00 80 3f 00 00 80 3f 00 00 80 3f 00 00 80 3f
       1.0 1.0 1.0 1.0
000060 00 00 80 3f 00 00 80 3f 00 00 80 3f 00 00 80 3f
       1.0 1.0 1.0 1.0
000070 00 00 80 3f 00 00 80 3f 00 00 80 3f 00 00 80 3f
       1.0 1.0 1.0 1.0
