5_cross_5_iter_40.pt (torch_old, 327252 bytes, 66 tensors)

weight f4 [32, 5, 3, 3]
-0.17872138 -0.18663226 -0.33404404 -0.5133275 -0.8665169 -0.34617043 -0.5588617 -0.82227695
-0.89441305 -0.15290593 0.41903996 0.1989989 0.13738945 0.22876483 0.19782554 -0.16710538
0.28162473 0.29626477 -0.06977859 -0.072693706 -0.19979565 -0.46604666 -0.6812286 -0.3932372
0.1382023 -0.7673221 -0.64674324 0.246636 0.5250562 0.013455713 0.059623245 0.17508774
0.083439656 0.08997367 0.38156983 0.03372176 0.13655204 0.25455526 0.11206849 0.20182666
0.22105244 0.08539567 0.14111973 0.10317868 0.21005052 -0.33878195 -0.45038202 -0.5464322
-0.34076262 -0.10409066 -0.08680187 -0.019213658 0.07879456 -0.11728941 0.37503043 0.42091012
0.5296566 0.056062814 -0.09424872 -0.21142933 -0.017178051 -0.04630802 -0.32695034 -0.48413953
-0.14977081 -0.42978862 -0.16947639 -0.0041255956 0.11931166 -0.22426692 0.094435684 -0.048657075
0.4842192 0.21765861 0.55934477 -0.03313468 -0.3886072 -0.24139388 -0.113078564 0.058243837
-0.3647837 -0.581526 -0.53950226 -0.41633797 -0.5081171 -0.61420566 -0.58514047 -0.50478184
-0.61381054 -0.5026713 -0.057523813 0.27924454 0.22611693 -0.21261473 0.043930754 0.15789483
0.043478545 0.3910684 -0.16638565 -0.092912056 -0.28394696 -0.37099117 -0.033022057 -0.10817652
-0.43796402 0.0886746 -0.20343633 0.17152247 -0.106185615 -0.018712318 0.0598179 -0.16579221
0.28284 0.33698577 -0.058701355 0.33345678 -0.07159621 -0.010757954 -0.19925545 -0.41438353
0.061378922 -0.19902709 -0.39837882 -0.0700793 -0.12903632 0.15052146 -0.57892466 -0.6313972
-0.72927886 -0.56814384 -0.677531 -0.61616987 -0.67778784 -0.64977944 -0.544607 -0.023712317
-0.2741841 0.1799749 0.15245728 -0.0032378507 -0.26175788 0.28669432 0.44283178 -0.5642903
-0.3699431 0.0112252915 -0.5275721 -0.23444307 0.15395738 -0.025451206 -0.2845396 -0.07953507
0.73335135 -0.116547085 0.07973388 0.25511435 -0.029196028 0.27163237 -0.040272165 0.063059874
0.4963186 -0.5879873 -0.31603795 0.12455614 -0.32146817 -0.2044333 0.082286336 0.0052384296
-0.1691819 0.04774457 0.67295504 -0.31905392 -0.40198836 -0.48809096 -0.5589914 -0.42950544
-0.49738544 -0.5168929 -0.33035615 -0.4174219 0.03890468 -0.6892536 -0.06554351 -0.22490747
0.3092716 0.07906698 0.5510727 -0.5574543 -0.26539493 -0.07537627 0.39463603 -0.059145957
0.37928274 0.1075539 0.34891757 -0.054926805 0.03136537 0.37320107 -0.34065777 -0.574777
-0.29573378 -0.32932663 0.09760474 -0.2574352 0.15853329 -0.3038003 0.052073855 0.10389454
0.60160846 0.1608922 0.81357723 0.14780687 0.42821422 0.12656726 0.13544424 0.4423983
0.6251805 0.636039 0.8140936 0.82493544 0.55337906 0.7704582 0.6213044 0.7228587
0.58340037 0.0031390868 -0.07986688 -0.1879778 0.58753407 0.18159738 0.038592715 -0.008706
0.21304816 -0.5536857 0.1768369 0.20906866 0.27959883 -0.3442289 -0.26351306 0.39446288
-0.30401844 0.13017194 0.180188 -0.08611373 -0.21999286 0.05675989 0.6919596 0.022031788
-0.14088982 -0.06637611 0.15179126 -0.3534847 0.1185262 0.08024832 0.16847529 -0.37068734
00000000: bd02 37be 871c 3fbe d207 abbe 6e69 03bf
00000010: 0dd4 5dbf 403d b1be 8f11 0fbf be80 52bf
00000020: 41f8 64bf 5f93 1cbe 688c d63e 5ec6 4b3e
00000030: d2af 0c3e 5441 6a3e c792 4a3e ac1d 2bbe
00000040: 1e31 903e 04b0 973e 14e8 8ebd 70e0 94bd
00000050: 3b97 4cbe ab9d eebe ff64 2ebf 6356 c9be
00000060: e784 0d3e 396f 44bf f790 25bf 268e 7c3e
00000070: 156a 063f 5a75 5c3c 8137 743d 334a 333e
00000080: 69e2 aa3d 1e44 b83d 1f5d c33e d41f 0a3d
00000090: 4cd4 0b3e 1155 823e 2a84 e53d a6ab 4e3e
000000a0: 925b 623e ede3 ae3d b181 103e 584f d33d
000000b0: 7c17 573e d474 adbe 7998 e6be fbe2 0bbf
000000c0: 7078 aebe 7c2d d5bd 2ec5 b1bd f665 9dbc
000000d0: 0b5f a13d 6e35 f0bd fd03 c03e 8881 d73e
000000e0: 9397 073f 1fa2 653d 7905 c1bd ee80 58be
000000f0: fcb8 8cbc 7aad 3dbd 0966 a7be 23e1 f7be
00000100: 855d 19be 410d dcbe 388b 2dbe 0130 87bb
00000110: ac59 f43d 3aa6 65be 7f67 c13d a44c 47bd
00000120: 94eb f73e e6e1 5e3e 3831 0f3f 3bb8 07bd
00000130: 86f7 c6be f52f 77be bc95 e7bd 1791 6e3d
00000140: eec4 babe e3de 14bf d21c 0abf 402a d5be
00000150: f613 02bf 953c 1dbf c4cb 15bf 6239 01bf
00000160: b022 1dbf 11af 00bf 179e 6bbd 24f9 8e3e
00000170: 328b 673e adb7 59be bcf0 333d 2faf 213e
00000180: 8f16 323d 1e3a c83e 0061 2abe ad48 bebd
00000190: 7f61 91be 8ef2 bdbe 2342 07bd a78b ddbd
000001a0: d23c e0be 079b b53d 9d51 50be 96a3 2f3e
000001b0: d877 d9bd 934a 99bc 9d03 753d 6fc5 29be
000001c0: 68d0 903e 6689 ac3e d570 70bd d9ba aa3e
000001d0: 09a1 92bd 2142 30bc 9f09 4cbe 142a d4be
000001e0: 7768 7b3d c2cd 4bbe 4ff8 cbbe bc85 8fbd
000001f0: 1922 04be 4c22 1a3e 6834 14bf 3fa3 21bf
00000200: 05b2 3abf e071 11bf ac72 2dbf 4fbd 1dbf
00000210: 8183 2dbf f257 26bf 5d6b 0bbf 5540 c2bc
00000220: dc61 8cbe 574b 383e c31d 1c3e 1f32 54bb
00000230: 2105 86be 99c9 923e d9ba e23e 5475 10bf
00000240: 2f69 bdbe 49ea 373c f70e 07bf d811 70be
00000250: 01a7 1d3e 0c7f d0bc 2daf 91be 48e3 a2bd
00000260: eabc 3b3f 3db0 eebd 844b a33d 599e 823e
00000270: 822c efbc 6613 8b3e 6df4 24bd 8925 813d
00000280: 791d fe3e 5686 16bf bacf a1be 4a17 ff3d
00000290: 7a97 a4be f756 51be bd85 a83d 22a7 ab3b
000002a0: 053e 2dbe cf8f 433d c846 2c3f 095b a3be
000002b0: 6bd1 cdbe 0fe7 f9be 0f1a 0fbf 23e8 dbbe
000002c0: 4ea9 febe 1853 04bf 7124 a9be 53b8 d5be
000002d0: 845a 1f3d ed72 30bf ad3b 86bd 254e 66be
000002e0: d958 9e3e deed a13d 1a13 0d3f 53b5 0ebf
000002f0: d8e1 87be e05e 9abd bc0d ca3e 0843 72bd
00000300: 5931 c23e 3845 dc3d 53a5 b23e eefa 60bd
00000310: f978 003d 3614 bf3e b26a aebe 9624 13bf
00000320: 6b6a 97be 809d a8be fee4 c73d 8cce 83be
00000330: 8d56 223e b78b 9bbe 654b 553d a9c6 d43d
00000340: 0303 1a3f edc0 243e 9946 503f af5a 173e
00000350: e53e db3e d99a 013e e5b1 0a3e 0882 e23e
00000360: d40b 203f 74d3 223f 7068 503f f82e 533f
00000370: 40aa 0d3f c03c 453f ce0d 1f3f 450d 393f
00000380: ba59 153f 23b9 4d3b 3f91 a3bd 417d 40be
00000390: a268 163f aaf4 393e 6513 1e3d 9ca3 0ebc
000003a0: 4c29 5a3e 59be 0dbf bb14 353e 1816 563e
000003b0: 9427 8f3e c53e b0be 2feb 86be 0af7 c93e
000003c0: 4ea8 9bbe cb4b 053e 3483 383e 655c b0bd
000003d0: cf45 61be 0f7d 683d 4424 313f 027c b43c
000003e0: 6c45 10be 33f0 87bd 2b6f 1b3e f2fb b4be
000003f0: ddbd f23d 3b59 a43d c984 2c3e bbca bdbe

bias f4 [32]
0.05366844 -0.07698443 -0.13181615 0.009607636 -0.066180356 -0.13205111 0.0027070958 0.08388894
0.0042290315 -0.056169584 -0.0077350074 0.061534554 -0.038798235 -0.0892748 0.0359391 -0.09178884
-0.1097498 -0.105635054 -0.016336342 -0.09291264 -0.08569834 -0.10640554 0.013612683 -0.010237361
0.052550357 -0.12200642 -0.0143940225 0.123647586 -0.041933715 -0.11602151 0.081151046 0.09584801
00000000: 70d3 5b3d 03aa 9dbd d0fa 06be 5969 1d3c
00000010: 9189 87bd 6838 07be 8869 313b f7cd ab3d
00000020: b093 8a3b 1412 66bd f275 fdbb a80b 7c3d
00000030: e6ea 1ebd b5d5 b6bd e134 133d cafb bbbd
00000040: 81c4 e0bd 3157 d8bd cbd3 85bc fb48 bebd
00000050: 9c82 afbd 26eb d9bd bb07 5f3c 9bba 27bc
00000060: 0b3f 573d 80de f9bd e8d4 6bbc f23a fd3d
00000070: b0c2 2bbd af9c edbd 8532 a63d f64b c43d

weight f4 [32]
0.030632216 1.9212469 0.88469696 1.6146383 1.8962379 0.27404094 -0.08487315 1.8101585
2.468535 -0.115316354 0.6017057 0.16265965 -0.033545528 0.5816742 1.2129678 0.2223934
0.06748199 2.3254447 -0.018520122 1.6233158 1.5272335 2.121193 0.2850471 0.15271662
0.36739936 2.1274538 1.0855817 2.388759 1.8646749 -0.10938109 0.15532783 1.4090061
00000000: 6af0 fa3c 6beb f53f 807b 623f 78ac ce3f
00000010: ecb7 f23f 184f 8c3e f9d1 adbd 46b3 e73f
00000020: 7afc 1d40 fb2a ecbd 6209 1a3f 4090 263e
00000030: 0967 09bd 9ae8 143f 8742 9b3f 18bb 633e
00000040: ff33 8a3d 16d4 1440 83b7 97bc d0c8 cf3f
00000050: 637c c33f a0c1 0740 b2f1 913e bf61 1c3e
00000060: c51b bc3e 3428 0840 57f4 8a3f 6de1 1840
00000070: abad ee3f 3103 e0bd 420e 1f3e 505a b43f

bias f4 [32]
-0.08958064 0.51613456 0.020339565 0.41597033 1.0638322 -0.8917565 -0.40927905 0.9762749
1.2981768 -0.3810608 -0.020626875 -0.6118685 0.4697314 -0.6503059 0.19831738 -0.6406317
-0.49091548 -0.05586274 -0.4131238 1.1371275 1.8870695 0.30096352 -0.77397585 -0.4145109
-1.1488166 0.30006394 0.6500895 0.38177907 0.36380562 -0.31072733 -0.87648445 0.5249993
00000000: 0e76 b7bd 6521 043f 299f a63c 10fa d43e
00000010: a72b 883f 274a 64bf 068d d1be 27ed 793f
00000020: a82a a63f 671a c3be b1f9 a8bc 6aa3 1cbf
00000030: a280 f03e 737a 26bf b613 4b3e 7000 24bf
00000040: 4659 fbbe 54d0 64bd f684 d3be 658d 913f
00000050: 7e8b f13f e417 9a3e 4823 46bf c63a d4be
00000060: 6c0c 93bf fba1 993e 446c 263f 8c78 c33e
00000070: bb44 ba3e a717 9fbe 4961 60bf 5b66 063f

running_mean f4 [32]
-0.80057865 -3.3871357 -3.4466467 -2.1239355 3.6703675 -1.1339645 1.6574583 2.574604
-2.495997 1.4517057 1.1643871 -0.7747596 -1.2913407 -1.8924663 1.3837836 1.2647328
1.2251304 4.985538 -1.2947918 2.1902618 0.12302181 -5.0598993 -0.5412142 1.3875191
-0.083882384 -2.7002459 -1.8653352 -2.9439998 0.971079 2.472365 -2.975017 -0.75195473
00000000: b9f2 4cbf d5c6 58c0 dc95 5cc0 8fee 07c0
00000010: 4de7 6a40 c025 91bf 9827 d43f 50c6 2440
00000020: 6abe 1fc0 7ed1 b93f a30a 953f a556 46bf
00000030: a74a a5bf 563c f2bf d21f b13f c4e2 a13f
00000040: 13d1 9c3f 8789 9f40 bdbb a5bf 402d 0c40
00000050: dcf2 fb3d b2ea a1c0 048d 0abf 3a9a b13f
00000060: 87ca abbd d4d0 2cc0 4ec3 eebf 7e6a 3cc0
00000070: a298 783f 3a3b 1e40 ae66 3ec0 1b80 40bf

running_var f4 [32]
6.9260154 7.615514 9.175559 5.3052444 12.565727 2.9488492 2.9133065 9.849875
16.956089 3.2392282 8.865003 5.0328155 5.789522 2.259277 5.333028 3.3675528
5.618112 19.335018 2.1965485 12.008924 6.7318234 9.240863 2.5050516 4.80868
3.5712123 8.331825 9.976899 9.458399 9.86923 4.6725755 2.0185778 6.8413444
00000000: eba1 dd40 4ab2 f340 17cf 1241 90c4 a940
00000010: 380d 4941 f2b9 3c40 9d73 3a40 1799 1d41
00000020: 12a6 8741 844f 4f40 0dd7 0d41 d30c a140
00000030: c443 b940 ff97 1040 2aa8 aa40 fc85 5740
00000040: 93c7 b340 1eae 9a41 4094 0c40 8d24 4041
00000050: 196b d740 93da 1341 c452 2040 b5e0 9940
00000060: be8e 6440 284f 0541 61a1 1f41 9a55 1741
00000070: 5ee8 1d41 bd85 9540 6130 0140 4bec da40

weight f4 [2, 32, 1, 1]
0.7016386 0.07942987 0.01680578 0.55849534 0.033011515 0.10952479 0.79923755 0.9940482
-0.66504365 -0.77301055 0.29748395 0.6243956 -0.24587224 0.4405279 -0.33220613 -0.21100911
-0.99532855 0.3667564 0.39461464 0.81812 -0.21790539 0.12978481 -0.20295538 -0.3950895
-0.7018902 0.4600522 0.24165812 -1.5024942 1.1538028 0.6137324 -0.22145025 -0.25266835
-2.5900016 -1.120696 0.13075285 -0.4389496 -1.3749756 0.35724396 -0.24323374 1.37771
1.2638015 -0.845111 -0.74106777 -0.9635777 -0.2162696 -0.34597674 0.10401796 -0.081726804
1.0733827 -0.6414787 1.5098763 -0.8556958 0.044154387 -0.31209674 0.010501418 -0.41566747
2.1361418 -0.043232 -0.21658812 1.397546 -1.1232102 2.2434003 2.2184157 0.8726181
00000000: 969e 333f 21ac a23d 46ac 893c 8df9 0e3f
00000010: 1537 073d 884e e03d d59a 4c3f f179 7e3f
00000020: 4d40 2abf 05e4 45bf d14f 983e 64d8 1f3f
00000030: efc5 7bbe df8c e13e ec16 aabe c612 58be
00000040: dacd 7ebf 7fc7 bb3e ee0a ca3e 5070 513f
00000050: 9722 5fbe 4fe6 043e 89d3 4fbe 2c49 cabe
00000060: 13af 33bf f68b eb3e 3a75 773e bb51 c0bf
00000070: cfaf 933f 911d 1d3f dbc3 62be bf5d 81be
00000080: 96c2 25c0 f772 8fbf 13e4 053e 01be e0be
00000090: 33ff afbf aee8 b63e 4412 79be cd58 b03f
000000a0: 3fc4 a13f 3259 58bf 9eb6 3dbf 07ad 76bf
000000b0: c775 5dbe dd23 b1be 5e07 d53d 6260 a7bd
000000c0: 9b64 893f f337 24bf a043 c13f e10e 5bbf
000000d0: 3bdb 343d 25cb 9fbe 240e 2c3c 5ed2 d4be
000000e0: 8cb6 0840 0a14 31bd 47c9 5dbe cae2 b23f
000000f0: 5ac5 8fbf df93 0f40 86fa 0d40 e663 5f3f

bias f4 [2]
0.14329962 -0.0002792121
00000000: 23bd 123e 3763 92b9

weight f4 [2]
-0.25253576 -0.59216607
00000000: 5e4c 81be 3298 17bf

bias f4 [2]
-1.4847107 -3.1538126
00000000: 000b bebf 11d8 49c0

running_mean f4 [2]
3.0670135 1.9549414
00000000: f349 4440 853b fa3f

running_var f4 [2]
39.110245 122.499596
00000000: e470 1c42 cbff f442

weight f4 [26, 18]
-0.08567575 -0.29377425 0.029934438 0.076414935 0.13571244 -0.16961163 -0.3804597 -0.20120844
-0.07964124 -0.5420843 -0.17344148 0.4835718 -0.29330626 0.3596118 0.2450755 0.07264942
0.23725829 0.20178583 0.27557105 -0.01488376 0.24930824 0.124480836 -0.030205289 -0.14665623
0.41657192 -0.188928 -0.18325913 -0.22971214 -0.501189 0.4261274 -0.15195176 -0.30882296
-0.06312953 -0.39356592 0.24205121 0.21201004 -0.29646194 -0.28562608 -0.2551418 -0.22999857
-0.3151284 -0.106572784 -0.34628436 -0.5060586 0.0621399 -0.009998745 0.044188548 0.046440344
-0.20943564 0.1150011 -0.18780082 -0.15221275 -0.013498772 0.18464622 -0.040591184 -0.15997703
-0.35387075 0.17013602 -0.09837883 0.021507354 0.1681344 -0.24174513 0.025486084 0.008763473
0.35032326 -0.038311742 0.06238923 -0.32905135 0.2852613 0.024183515 -0.06115012 -0.13119936
-0.1870503 0.13171971 -0.19141662 -0.15383963 0.07735569 -0.0145881465 -0.31369188 -0.025604658
0.02133253 0.366952 0.20341083 -0.10924365 0.36024043 -0.3323475 0.2304461 0.076963805
0.32120237 -0.13670929 -0.01906027 -0.043375093 0.41348773 0.13676065 -0.020648533 -0.0837054
0.24643579 -0.09933972 0.054686196 -0.5996926 -0.4461361 0.21975912 0.35827434 0.11600458
-0.024762163 0.3513011 0.32607293 0.046023343 0.34701568 0.029098071 0.18128344 0.10449904
-0.070705235 0.09179984 0.07642507 -0.16156046 0.09900166 -0.12252376 0.12875202 -0.2956766
0.106690235 0.14975238 -0.03300784 0.19612817 0.6884506 0.1541416 -0.13557246 -0.23898235
-0.1446386 0.12929481 -0.10733307 -0.16250405 -0.5749413 -0.36068764 -0.2711095 -0.2187124
-0.62353855 0.5571557 -0.0777752 0.22099446 -0.15067972 0.11427396 -0.09844053 -0.17663711
-0.1281028 -0.07921085 -0.027071813 -0.13057914 -0.07523283 -0.08518409 0.12310258 -0.15202515
0.038857896 0.03788262 -0.4568696 0.29416963 -0.008669477 0.30309153 0.23574318 -0.10007982
0.04865246 0.25220492 0.013191281 -0.014046087 -0.23370264 -0.16907573 -0.01202462 -0.21903354
-0.005966771 -0.22247708 0.20876722 0.42453584 0.118923865 -0.20022511 -0.14376982 0.025274282
-0.25976455 -0.056467026 -0.10838713 -0.11925835 0.24734095 -0.10129141 0.24477758 -0.07065199
-0.08820873 0.14096245 -0.112381965 0.052051693 -0.12539276 0.015919551 -0.13142867 -0.034025475
0.4976193 -0.086252555 0.056393016 -0.3079634 -0.4293872 0.24447647 0.22562449 -0.107947424
0.016617553 -0.120486826 0.059548095 -0.008938664 -0.22524765 -0.41347444 -0.06809089 -0.19729155
-0.3801322 0.24997291 -0.24581027 -0.08675744 0.41146657 -0.15247168 0.10542433 0.050201137
-0.15665717 -0.12905549 -0.2328216 -0.2249959 -0.29554018 0.11602843 -0.52672845 -0.1663732
0.01784777 -0.36649418 -0.041800663 -0.28925815 -0.11414881 -0.3092725 -0.6295191 0.058449004
-0.24061039 -0.45098454 0.03365055 0.14274786 -0.028866045 0.1343355 -0.11753161 0.052084886
0.23262528 0.33400893 0.012276988 -0.25795585 0.4623852 -0.48991346 0.08563645 -0.17625073
0.04436917 -0.44159603 0.27125755 0.1619244 -0.0449993 -0.23953179 -0.2580495 0.029086864
00000000: c576 afbd 9469 96be 1139 f53c 6f7f 9c3d
00000010: 34f8 0a3e acae 2dbe 9dcb c2be 9609 4ebe
00000020: f21a a3bd 09c6 0abf a59a 31be b996 f73e
00000030: 3d2c 96be 0a1f b83e 12f5 7a3e 38c9 943d
00000040: d6f3 723e f2a0 4e3e a617 8d3e 04db 73bc
00000050: a94a 7f3e cfef fe3d 1571 f7bc 0d2d 16be
00000060: ea48 d53e 5776 41be 48a8 3bbe a939 6bbe
00000070: ec4d 00bf 5f2d da3e 3e99 1bbe 0b1e 9ebe
00000080: 0e4a 81bd 7981 c9be 46dc 773e 2919 593e
00000090: dcc9 97be 953d 92be f2a1 82be bf84 6bbe
000000a0: 8258 a1be d542 dabd 2f4c b1be 0e8d 01bf
000000b0: 6886 7e3d c7d1 23bc 0dff 343d 3b38 3e3d
000000c0: 4c76 56be b285 eb3d dc4e 40be a9dd 1bbe
000000d0: f429 5dbc e613 3d3e f142 26bd 05d1 23be
000000e0: 8c2e b5be 2338 2e3e d77a c9bd 3130 b03c
000000f0: 6d2b 2c3e 098c 77be 31c8 d03c ab94 0f3c
00000100: 925d b33e c6ec 1cbd d98b 7f3d 6b79 a8be
00000110: c50d 923e 821c c63c 8c78 7abd 2059 06be
00000120: 1d8a 3fbe 88e1 063e b802 44be 2388 1dbe
00000130: a96c 9e3d 1f03 6fbc 399c a0be dcc0 d1bc
00000140: 8fc1 ae3c 22e1 bb3e ee4a 503e 23bb dfbd
00000150: 6f71 b83e 7429 aabe 10fa 6b3e 339f 9d3d
00000160: a374 a43e 85fd 0bbe 4924 9cbc 15aa 31bd
00000170: aab4 d33e fc0a 0c3e 1d27 a9bc bd6d abbd
00000180: aa59 7c3e a072 cbbd a2fe 5f3d 7485 19bf
00000190: f36b e4be 8908 613e bc6f b73e cf93 ed3d
000001a0: 05da cabc bddd b33e 08f3 a63e f982 3c3d
000001b0: 0aac b13e 145f ee3c 5ea2 393e 9803 d63d
000001c0: e8cd 90bd 8e01 bc3d bf84 9c3d 1b70 25be
000001d0: 62c1 ca3d bded fabd 92d7 033e ec62 97be
000001e0: 6980 da3d b058 193e 3b33 07bd d3d5 483e
000001f0: 4c3e 303f 4cd7 1d3e 82d3 0abe cab7 74be
00000200: 241c 14be dc65 043e 71d1 dbbd 7667 26be
00000210: 5a2f 13bf 0dac b8be ddce 8abe 25f6 5fbe
00000220: 39a0 1fbf c2a1 0e3f 9b48 9fbd 5f4c 623e
00000230: c94b 1abe 7708 ea3d 309b c9bd 5ce0 34be
00000240: 612d 03be 4c39 a2bd b5c5 ddbc 8ab6 05be
00000250: ac13 9abd ff74 aebd 351d fc3d 7bac 1bbe
00000260: 7529 1f3d ce2a 1b3d d0ea e9be 679d 963e
00000270: 6c0a 0ebc d02e 9b3e a966 713e a6f6 ccbd
00000280: cd47 473d 0121 813e 3e20 583c 8f21 66bc
00000290: bf4f 6fbe 3022 2dbe e902 45bc 544a 60be
000002a0: e784 c3bb 08d1 63be 13c7 553e c35c d93e
000002b0: 5b8e f33d d007 4dbe 6538 13be 030c cf3c
000002c0: dcff 84be f849 67bd 12fa ddbd b93d f4bd
000002d0: f246 7d3e df71 cfbd f9a6 7a3e feb1 90bd
000002e0: c7a6 b4bd 7658 103e 8428 e6bd 2834 553d
000002f0: f666 00be b869 823c 3d95 06be 4c5e 0bbd
00000300: f5c7 fe3e 2ea5 b0bd 5dfc 663d 61ad 9dbe
00000310: a4d8 dbbe 0a58 7a3e 1b0a 673e 8a13 ddbd
00000320: 8921 883c ccc1 f6bd b4e8 733d 7973 12bc
00000330: 52a7 66be ecb2 d3be 3d73 8bbd cc06 4abe
00000340: b0a0 c2be e6f8 7f3e b0b5 7bbe e2ad b1bd
00000350: bfab d23e 8921 1cbe b6e8 d73d b59f 4d3d
00000360: bd6a 20be 1f27 04be c968 6ebe 5365 66be
00000370: 0b51 97be 50a0 ed3d add7 06bf bc5d 2abe
00000380: 7d35 923c 20a5 bbbe 2c37 2bbd a519 94be
00000390: dac6 e9bd f758 9ebe 2a28 21bf 3968 6f3d
000003a0: 9262 76be 72e7 e6be 29d5 093d 7f2c 123e
000003b0: 7c78 ecbc 3f8f 093e 6ab4 f0bd f656 553d
000003c0: 5235 6e3e 3803 ab3e 6b25 493c ca12 84be
000003d0: c1bd ec3e f0d5 fabe 2a62 af3d 127b 34be
000003e0: 72bc 353d e018 e2be 45e2 8a3e 83cf 253e
000003f0: 3051 38bd d247 75be 101f 84be 9347 ee3c

bias f4 [26]
0.1242114 -0.5316119 -0.02637671 -0.03384335 0.43162224 -0.09932243 -0.31546655 0.040184267
0.19791459 0.10810268 0.19451143 -0.25225484 -0.22224173 -0.113576196 -0.3266366 -0.36229765
-0.42858055 -0.61641973 -0.4505823 0.24837378 0.14107627 0.2942248 -0.1866329 -0.16881049
-0.23580176 2.3342772
00000000: 8c62 fe3d b817 08bf f813 d8bc 539f 0abd
00000010: 97fd dc3e 8f69 cbbd d584 a1be 4298 243d
00000020: 1faa 4a3e f064 dd3d 012e 473e 8c27 81be
00000030: 5693 63be a39a e8bd ea3c a7be 147f b9be
00000040: e96e dbbe afcd 1dbf b9b2 e6be b255 7e3e
00000050: 4c76 103e a2a4 963e b21c 3fbe a8dc 2cbe
00000060: 0476 71be cc64 1540

weight f4 [1, 32, 1, 1]
0.68708557 -0.15931165 0.54112583 -0.22832282 0.33106005 0.90404654 -0.6385516 -0.17085408
0.41074517 0.47793657 0.86296827 -0.06236104 -0.0476503 0.8218176 -0.3186796 0.50669074
-0.15453887 -0.76679677 -0.893421 0.45993227 0.42220333 -0.7438772 0.12959398 -0.5690297
-0.12220266 -0.3690356 -0.30403876 -0.48868755 0.7038152 -0.48765257 -0.27703995 0.5759814
00000000: d7e4 2f3f 9822 23be 3987 0a3f 75cd 69be
00000010: b480 a93e 986f 673f 1e78 23bf 5ff4 2ebe
00000020: 314d d23e 1ab4 f43e 7deb 5c3f 4a6e 7fbd
00000030: f62c 43bd a362 523f f929 a3be 7cb6 013f
00000040: 703f 1ebe cb4c 44bf 3db7 64bf 3e7c eb3e
00000050: 092b d83e bc6e 3ebf 49b4 043e eeab 11bf
00000060: 6345 fabd 3cf2 bcbe f8aa 9bbe 4135 fabe
00000070: 3c2d 343f 99ad f9be 2ed8 8dbe 8473 133f

weight f4 [32, 9]
-0.37051314 0.09074819 -0.3035193 0.0635244 0.17483915 -0.2877435 -0.15573664 0.028007733
0.2005999 -0.13457981 -0.06645413 -0.11512422 -0.1442797 0.03933826 0.2665029 -0.44074973
0.27062237 -0.051705647 0.3412912 0.062198315 -0.23141786 0.031916484 -0.058380604 -0.20494857
-0.24045262 -0.26548326 0.15417556 -0.17675391 0.28215182 -0.2500558 -0.1601108 0.09973738
-0.29234555 -0.0792184 0.06819593 -0.15022579 -0.09480574 0.35343844 -0.14938064 0.076879606
0.04668285 0.57962453 -0.68664134 0.046201702 -0.108772114 -0.17642213 -0.50109905 0.06233982
-0.1739178 0.36177877 -0.5215626 0.4163005 0.24002111 0.0387349 0.37798005 -0.08672854
-0.26750845 -0.00871384 -0.45830157 -0.023474943 0.1814842 -0.09517857 0.0073445323 0.23790854
0.09877366 -0.03138458 -0.19421506 0.09842363 -0.4245075 0.23450871 -0.06792049 0.2863695
0.335954 0.077717826 -0.23485254 0.3045721 0.26777437 0.44094357 -0.8034692 0.08532639
0.027367974 -0.16840291 -0.17759575 0.007090852 0.25718495 -0.044268508 0.050466307 -0.019811887
-0.1207734 0.27538592 -0.029221246 0.14561532 -0.15833409 0.22612607 -0.2670994 -0.1569637
-0.16287157 -0.13100167 -0.023611145 -0.2268908 -0.16658905 -0.3158386 -0.30171943 -0.27404347
-0.24592015 -0.19314809 -0.20995633 0.20749313 -0.27874872 0.17014232 -0.138017 0.20595911
-0.13631329 0.10022974 0.050329268 -0.20515943 0.033567052 0.006967979 -0.1462328 -0.17525029
0.06017193 -0.24354687 0.1744595 -0.1924929 0.06770115 0.055837944 0.011496038 -0.0053696134
0.3102682 -0.20820022 0.1617132 -0.24443936 0.0017067747 -0.13333553 0.175343 0.13664319
-0.20149893 0.044894755 0.18218829 -0.14265822 0.16128303 -0.3285965 -0.12872797 -0.11380456
-0.15333015 -0.12702703 0.08914158 0.20764336 -0.22244194 0.21734117 -0.172462 -0.20375858
0.078834884 -0.114022136 -0.344913 -0.1543135 0.16906027 0.05670418 -0.45431834 0.24939853
0.11041262 0.17500302 0.49988645 0.08772338 0.27254307 0.21559334 -0.53543687 -0.35075483
0.15103534 -0.14020635 0.23365106 0.05589303 0.011717674 0.14172238 0.0015047173 -0.07564054
0.61524475 -0.072859034 -0.2510948 0.19395377 0.15385298 0.052647427 -0.09385646 -0.21880822
0.06334526 -0.42582774 0.25872552 -0.0029512236 -0.23151758 -0.20417403 -0.03871321 0.14955267
0.1437693 0.17639117 0.46281028 -0.40841436 -0.1363892 0.26524472 -0.030699108 -0.32129115
0.16136974 0.21080929 0.05433367 -0.06795194 -0.22561543 -0.07630667 -0.26894534 0.2087357
-0.059614517 0.32526734 -0.18095845 0.11133694 -0.22304021 0.35556135 -0.116708905 0.061670184
0.42900008 -0.6430983 0.40598494 0.20470333 -0.1720991 -0.677583 0.422726 0.011325646
-0.09289322 0.30513614 0.12815411 -0.26984572 0.2460356 0.19359097 0.1943562 -0.19345129
-0.26220638 -0.28477365 -0.07706994 -0.18111223 -0.23489906 -0.33974844 0.0645712 -0.22263862
-0.21281964 0.08830527 0.21904731 0.07379618 0.10645335 0.27253297 0.14947715 0.12595512
0.26264074 -0.006016466 -0.35051697 -0.28388312 0.26257366 -0.31885272 0.17887965 0.39490837
00000000: e6b3 bdbe 30da b93d e266 9bbe 1519 823d
00000010: 0909 333e 1e53 93be 6d79 1fbe 7970 e53c
00000020: 0f6a 4d3e 4acf 09be 1a19 88bd 3fc6 ebbd
00000030: 0fbe 13be 2821 213d 1173 883e f3a9 e1be
00000040: 048f 8a3e 4dc9 53bd b8bd ae3e a9c3 7e3d
00000050: cef8 6cbe dcba 023d 8020 6fbd 0ade 51be
00000060: 3639 76be 6ced 87be 33e0 1d3e fafe 34be
00000070: 3476 903e 5007 80be 16f4 23be 1d43 cc3d
00000080: 51ae 95be 423d a2bd 4faa 8b3d cad4 19be
00000090: 8329 c2bd e2f5 b43e 3df7 18be 0e73 9d3d
000000a0: 8436 3f3d 4662 143f bac7 2fbf ff3d 3d3d
000000b0: eac3 debd 01a8 34be 0748 00bf 0a58 7f3d
000000c0: 8217 32be 113b b93e 2085 05bf 5725 d53e
000000d0: 18c8 753e 7da8 1e3d 9a86 c13e bc9e b1bd
000000e0: def6 88be 7ec4 0ebc 81a6 eabe 864e c0bc
000000f0: fed6 393e fbec c2bd 67aa f03b 4c9e 733e
00000100: d849 ca3d 1e8d 00bd 50e0 46be 5492 c93d
00000110: 0c59 d9be 0d23 703e e619 8bbd 069f 923e
00000120: 2a02 ac3e 862a 9f3d 2f7d 70be e0f0 9b3e
00000130: b919 893e 5bc3 e13e 28b0 4dbf 9abf ae3d
00000140: cd32 e03c d071 2cbe a9db 35be 615a e83b
00000150: bfad 833e e552 35bd c2b5 4e3d 8a4c a2bc
00000160: 0b58 f7bd 62ff 8c3e 6561 efbc 2f1c 153e
00000170: 5522 22be 988d 673e 41c1 88be 18bb 20be
00000180: cec7 26be 4d25 06be 296c c1bc 1056 68be
00000190: 5296 2abe 99b5 a1be f87a 9abe 6d4f 8cbe
000001a0: 7ed2 7bbe 9dc8 45be cbfe 56be 1479 543e
000001b0: 27b8 8ebe ca39 2e3e 5454 0dbe f2e6 523e
000001c0: b695 0bbe 4045 cd3d 1026 4e3d 5015 52be
000001d0: 9b7d 093d a553 e43b 0dbe 15be d074 33be
000001e0: d776 763d 5a64 79be 83a5 323e dc1c 45be
000001f0: e7a6 8a3d 54b6 643d e159 3c3c 95f3 afbb
00000200: 79db 9e3e 7032 55be 2598 253e 504e 7abe
00000210: dbb5 df3a 1c89 08be 1e8d 333e 31ec 0b3e
00000220: bc55 4ebe 90e3 373d 918f 3a3e ff14 12be
00000230: 6127 253e cd3d a8be 44d1 03be 5d12 e9bd
00000240: 9402 1dbe 6013 02be dc8f b63d 76a0 543e
00000250: d2c7 63be af8e 5e3e e199 30be 17a6 50be
00000260: 2f74 a13d 7084 e9bd 7098 b0be 5c04 1ebe
00000270: 231e 2d3e a442 683d 6a9c e8be 5462 7f3e
00000280: 0320 e23d fe33 333e 1ef1 ff3e 51a8 b33d
00000290: c48a 8b3e 80c4 5c3e 6412 09bf 2396 b3be
000002a0: 02a9 1a3e 4192 0fbe 3942 6f3e 17f0 643d
000002b0: 7dfb 3f3c ac1f 113e ef39 c53a 6de9 9abd
000002c0: ae80 1d3f 1e37 95bd 7f8f 80be d19b 463e
000002d0: a38b 1d3e d4a4 573d d137 c0bd 430f 60be
000002e0: 29bb 813d 1806 dabe ac77 843e 5169 41bb
000002f0: f212 6dbe ff12 51be be91 1ebd 5624 193e
00000300: 4238 133e e39f 343e 78f5 ec3e b01b d1be
00000310: 9ca9 0bbe 28ce 873e b27c fbbc 4680 a4be
00000320: 1c3e 253e 64de 573e fb8c 5e3d 632a 8bbd
00000330: bb07 67be ac46 9cbd 34b3 89be d0be 553e
00000340: 5a2e 74bd 7189 a63e 2c4d 39be 9f04 e43d
00000350: a764 64be 230c b63e 1405 efbd e099 7c3d
00000360: e6a5 db3e 17a2 24bf 42dd cf3e c09d 513e
00000370: bf3a 30be 1476 2dbf 8b6f d83e 348f 393c
00000380: cd3e bebd ce3a 9c3e d53a 033e 3829 8abe
00000390: c2f0 7b3e b63c 463e 5005 473e 1818 46be
000003a0: ea3f 86be dacd 91be d8d6 9dbd 7c75 39be
000003b0: 6189 70be 82f3 adbe e83d 843d 61fb 63be
000003c0: 64ed 59be 65d9 b43d f04d 603e 7422 973d
000003d0: 3704 da3d 7189 8b3e 8a10 193e 61fa 003e
000003e0: d978 863e c625 c5bb f676 b3be 2159 91be
000003f0: 0e70 863e aa40 a3be 3a2c 373e 6e31 ca3e

bias f4 [32]
-0.1429821 -0.21442886 0.21615116 -0.12701684 0.06373645 -0.45339152 0.08070087 0.14735115
-0.45981762 -0.20655918 0.052558236 0.04450525 -0.23381715 -0.23363394 -0.18658316 -0.14944707
-0.3117391 -0.09254597 0.26909274 -0.37304145 0.16314456 -0.3086553 0.060057845 0.10605164
0.03189855 -0.32186466 0.19601147 -0.33617932 -0.032192215 -0.061174136 0.1742095 -0.032734588
00000000: e669 12be 3d93 5bbe bb56 5d3e b410 02be
00000010: 4288 823d ef22 e8be 7f46 a53d 38e3 163e
00000020: 376d ebbe 4084 53be 4e47 573d 234b 363d
00000030: c36d 6fbe bc3d 6fbe a80f 3fbe a708 19be
00000040: 449c 9fbe be88 bdbd 86c6 893e 4aff bebe
00000050: 5e0f 273e 1108 9ebe 37ff 753d 9a31 d93d
00000060: 0ea8 023d 72cb a4be 3bb7 483e b21f acbe
00000070: fcdb 03bd bb91 7abd fa63 323e b414 06bd

weight f4 [1, 32]
-0.054775782 -0.2881672 0.099708684 -0.027306529 -0.25224248 0.27054375 0.31042445 0.10403793
-0.45097503 -0.04446063 0.008848753 -0.032534793 -0.022028048 -0.094173856 0.035908774 0.16564336
-0.02926241 0.16953115 0.34951404 -0.32816383 0.040800698 -0.28926083 -0.021147365 0.14015892
0.6504076 -0.18205696 -0.27072513 -0.11995093 0.37038252 -0.053558037 0.11179048 0.30776253
00000000: 925c 60bd a78a 93be 1134 cc3d f1b1 dfbc
00000010: ed25 81be b684 8a3e f4ef 9e3e d711 d53d
00000020: 33e6 e6be 591c 36bd 5cfa 103c 3443 05bd
00000030: 2a74 b4bc 39de c0bd 1415 133d 6a9e 293e
00000040: b9b7 efbc 9399 2d3e 81f3 b23e 1705 a8be
00000050: a21e 273d ff19 94be 3d3d adbc d285 0f3e
00000060: 1d81 263f 246d 3abe 7c9c 8abe d5a8 f5bd
00000070: c7a2 bd3e ac5f 5bbd 68f2 e43d 0d93 9d3e

weight f4 [32, 32, 3, 3]
0.03488254 0.020119336 0.037289668 0.016426269 0.004131455 -0.017328873 -0.030485315 0.024815168
-0.011370048 -0.024107113 -4.4576824e-05 -0.033916347 -0.010368053 -0.056337833 0.00197177 0.05276965
0.017346513 -0.038109932 0.042445425 -0.013532799 -0.043472193 0.025194 -0.02011896 -0.037237626
0.023598645 0.04997618 0.043959532 0.008950803 -0.0011301264 0.022461016 0.006202493 -0.050772138
-0.015375804 -0.047844157 0.009955268 -0.056673378 -0.057913326 0.020935204 0.022368174 -0.0400042
0.025851246 0.047185037 -0.0032284409 -0.040106338 -0.007364705 -0.05721973 0.0004893616 0.04565205
-0.011462789 0.00030415133 -0.022158876 -0.014958754 0.007600438 0.023155857 0.022732582 -0.029698284
0.043207776 0.02518778 0.039294448 -0.022973694 0.0013687313 -0.033369765 -0.043281738 -0.028359666
0.008468043 -0.0296983 0.054582167 0.029996824 -0.04319086 -0.051880572 -0.015101377 -0.04404461
-0.052319426 0.013092618 -0.0031581558 -0.015607547 0.022622976 -0.001101438 -0.005334869 0.038522106
-0.05447776 0.0075242408 -0.04637166 0.012198869 0.021769982 0.017812852 -0.021757193 0.05864067
0.045995172 -0.0018268749 -0.042645235 -0.008307487 0.05419678 -0.023929033 -0.05506956 0.034230445
0.01961742 -0.045347705 0.0015333295 -0.011065226 0.031150814 -0.041557502 -0.041040726 -0.01768151
-0.052810878 0.040969137 -0.03765113 -0.05371333 -0.0011368133 0.05793738 -0.028231757 -0.02832056
-0.021222167 0.018356536 -0.0016265512 0.0028177276 -0.006678555 0.03612433 0.014966581 0.051409665
0.026521783 -0.019091025 -0.015625022 0.05647028 -0.03691719 -0.00017952546 0.006183561 0.010046419
-0.028798956 0.041138273 0.041614126 0.012821596 0.057603884 -0.047228053 0.0528736 0.016323056
-0.053653773 -0.030792776 -0.040604934 0.04721358 -0.018328823 0.029901352 0.013373677 0.03617869
-0.0024166442 0.011101808 -0.05071883 -0.036720686 -0.0018333122 -0.03861841 0.03198291 -0.0262876
0.013374526 0.032168422 -0.0318508 -0.02556583 0.020556744 -0.025926374 -0.0383597 0.05160405
0.03071436 -0.040241845 -0.040662374 0.04658291 -0.05651311 0.007422965 -0.034098737 0.05813164
-0.030096658 0.037606623 0.056770544 0.011148449 0.057950277 -0.036290284 -0.030320717 0.020337623
-0.05820751 0.039617185 -0.04328274 -0.044530436 -0.04703583 -0.045530677 0.03789219 0.01965386
-0.052448396 0.027186897 0.012847681 -0.044979356 -0.011464216 0.051055986 0.0022707805 -0.04638208
0.021364208 0.03495628 0.053496156 -0.0028339103 0.009621177 -0.0051650405 0.022608656 0.03579325
-0.010134619 0.0016910583 0.04996803 -0.025713217 -0.053746447 -0.033393286 0.047071535 0.002468992
0.04250667 -0.04094484 0.017301988 -0.01359373 -0.0020251013 0.039465737 0.00097381696 0.0037947036
0.03458756 0.044130538 -0.004886329 -0.032694966 -0.023734458 -0.007863142 0.04658011 -0.022986658
1.6640872e-05 0.014988031 0.050263647 0.03738382 -0.0065708123 -0.02761997 -0.0102838315 0.037869047
0.02213436 -0.02627736 -0.016134627 0.04068819 -0.003378 0.028335866 -0.024376199 0.02826767
0.03704453 -0.030965712 0.020636681 -0.02558139 -0.014819294 0.015966844 0.023300085 0.009761687
0.017564196 0.035449203 0.05505732 -0.0337539 -0.04219498 0.02068979 -0.05283307 -0.008071706
00000000: ffe0 0e3d 4ed1 a43c 0dbd 183d 6290 863c
00000010: 2861 873b 48f5 8dbc 57bc f9bc 2e49 cb3c
00000020: 7049 3abc 487c c5bc 00f8 3ab8 deeb 0abd
00000030: c4de 29bc 80c2 66bd d038 013b fd24 583d
00000040: 461a 8e3c 2919 1cbd 41db 2d3d acb8 5dbc
00000050: e60f 32bd a663 ce3c 84d0 a4bc 7b86 18bd
00000060: f251 c13c d3b3 4c3d e90e 343d 64a6 123c
00000070: c020 94ba 2a00 b83c 483e cb3b 72f6 4fbd
00000080: ccea 7bbc 3cf8 43bd 6c1b 233c 5822 68bd
00000090: 8636 6dbd 4e80 ab3c 763d b73c 72db 23bd
000000a0: fec5 d33c 1945 413d 4094 53bb 8b46 24bd
000000b0: a053 f1bb 3c5f 6abd 8048 003a a5fd 3a3d
000000c0: 6cce 3bbc 8076 9f39 8886 b5bc 9015 75bc
000000d0: 180d f93b 5ab1 bd3c ae39 ba3c d149 f3bc
000000e0: a3fa 303d 9a56 ce3c 37f3 203d 5433 bcbc
000000f0: 0067 b33a bcae 08bd 3148 31bd 8852 e8bc
00000100: 8cbd 0a3c d949 f3bc 8d91 5f3d e6bb f53c
00000110: e6e8 30bd b980 54bd c46b 77bc 1f68 34bd
00000120: e54c 56bd 6c82 563c 10f9 4ebb ccb6 7fbc
00000130: d253 b93c 205e 90ba 20d0 aebb 5bc9 1d3d
00000140: 1224 5fbd e88d f63b 36f0 3dbd c4dd 473c
00000150: f656 b23c 42ec 913c 243c b2bc 3331 703d
00000160: 6f65 3c3d c073 efba c5ac 2ebd 201c 08bc
00000170: 71fd 5d3d d206 c4bc 9e90 61bd 3935 0c3d
00000180: b6b4 a03c 84be 39bd 00fa c83a ec4a 35bc
00000190: fe2f ff3c 3338 2abd 521a 28bd d0d8 90bc
000001a0: 3850 58bd 41cf 273d 1238 1abd 8202 5cbd
000001b0: 2001 95ba bf4f 6d3d 4946 e7bc 8500 e8bc
000001c0: 1cda adbc 7260 963c 0032 d5ba a0a9 383b
000001d0: c8d7 dabb 1bf7 133d 6436 753c f192 523d
000001e0: 3644 d93c c864 9cbc 0c00 80bc 614d 673d
000001f0: 7b36 17bd 003f 3cb9 789f ca3b bc99 243c
00000200: caeb ebbc 9b80 283d 9373 2a3d ac11 523c
00000210: 0df2 6b3d 3472 41bd fd91 583d eeb7 853c
00000220: 0fc4 5bbd 2241 fcbc 5c51 26bd 0763 413d
00000230: 5426 96bc aef3 f43c 441d 5b3c 1b30 143d
00000240: 9060 1ebb 5ce4 353c 8cbe 4fbd 6e68 16bd
00000250: c04b f0ba 562e 1ebd 8300 033d 1859 d7bc
00000260: d420 5b3c 09c3 033d fc75 02bd 6e6f d1bc
00000270: 9e66 a83c 8c63 d4bc 101f 1dbd c55e 533d
00000280: ae9c fb3c a2d4 24bd 978d 26bd b9cd 3e3d
00000290: 4a7a 67bd 583c f33b 1eab 0bbd 711b 6e3d
000002a0: 448d f6bc 6709 1a3d 3b88 683d fca7 363c
000002b0: 455d 6d3d 1fa5 14bd 2763 f8bc 169b a63c
000002c0: ff6a 6ebd a145 223d 3e49 31bd 8c65 36bd
000002d0: a4a8 40bd 607e 3abd d734 1b3d 2201 a13c
000002e0: 21d4 56bd 0eb7 de3c 147f 523c 463c 38bd
000002f0: 68d4 3bbc 1520 513d 60d1 143b 23fb 3dbd
00000300: fe03 af3c 512e 0f3d c91e 5b3d 20b9 39bb
00000310: 24a2 1d3c 803f a9bb ca35 b93c f19b 123d
00000320: ac0b 26bc 80a6 dd3a 47ab 4c3d 86a4 d2bc
00000330: 3c25 5cbd 66c7 08bd 15ce 403d d0ce 213b
00000340: 791b 2e3d c7b5 27bd e6bc 8d3c 3cb8 5ebc
00000350: 90b7 04bb d3a6 213d c047 7f3a 90b0 783b
00000360: afab 0d3d 39c2 343d 801d a0bb 28eb 05bd
00000370: c46e c2bc 68d4 00bc c9ca 3e3d 844e bcbc
00000380: 0098 8b37 5c90 753c 41e1 4d3d c71f 193d
00000390: f84f d7bb 4643 e2bc 847d 28bc 931c 1b3d
000003a0: 1e53 b53c 9e43 d7bc c42c 84bc a9a8 263d
000003b0: 7061 5dbb 9e20 e83c 98b0 c7bc 9a91 e73c
000003c0: 01bc 173d ceab fdbc 420e a93c 1090 d1bc
000003d0: a0cc 72bc e6cc 823c d2df be3c 7cef 1f3c
000003e0: cae2 8f3c 2f33 113d c983 613d 8841 0abd
000003f0: a5d4 2cbd a27d a93c 7d67 58bd 303f 04bc

bias f4 [32]
-0.023272332 0.009010162 0.0044380985 -0.041173413 0.05177227 0.01044267 0.051777143 0.0338724
-0.030594876 -0.0038855672 -0.02469626 0.04673071 -0.034851648 0.0003518574 -0.05665359 -0.035185825
0.044759605 0.020252723 -0.045146193 0.008544933 -0.021245487 0.0040396787 -0.015986312 -0.018027976
-0.048408087 0.04445182 -0.014326431 -0.017436195 -0.0447529 0.0037823431 0.02853923 -0.040637318
00000000: 9ea5 bebc 5c9f 133c 786d 913b 74a5 28bd
00000010: 290f 543d bc17 2b3c 4514 543d c9bd 0a3d
00000020: 1ba2 fabc 00a5 7ebb d04f cabc b368 3f3d
00000030: 9ac0 0ebd 8079 b839 980d 68bd 031f 10bd
00000040: d955 373d 0ae9 a53c 37eb 38bd 0c00 0c3c
00000050: 040b aebc 485f 843b baf5 82bc 68af 93bc
00000060: 8f47 46bd 1d13 363d 68b9 6abc 5ad6 8ebc
00000070: d14e 37bd 30e1 773b 1acb e93c 5173 26bd

weight f4 [32, 32, 3, 3]
-0.02703558 0.0507874 -0.03765573 0.03215828 0.046169896 0.030806933 0.030818764 0.034646373
-0.051793665 0.034201335 0.047006857 0.027510386 0.045545895 0.046644118 0.04887462 0.03841472
-0.052982938 -0.02063908 0.052651566 -0.051165313 0.04499906 0.056397665 0.05104513 -0.02472125
-0.057612557 -0.029710852 0.042724464 0.041255083 -0.03342566 -0.02817339 -0.05028129 -0.018406373
0.020135839 0.011612851 -0.032205854 -0.016034607 0.029053446 0.0093197115 -0.05322984 -0.012843978
-0.006967578 0.02005804 0.029704284 -0.03886125 0.030194331 0.045221325 -0.053184252 0.012549516
-0.05838976 0.026767153 0.022864182 -0.026141386 -0.03738013 0.0039285533 0.016375508 -0.045197017
0.045094196 -0.00019872934 -0.057258874 -0.055702526 -0.044772316 0.04587533 0.018784035 -0.04693979
0.05703738 -0.010775775 0.0048544146 -0.05161728 -0.008394878 -0.044061735 0.031692635 -0.01198265
0.0022664405 0.04274321 -0.013119936 -0.039275937 -0.01386705 0.023316782 -0.012586426 0.035169896
-0.0146529 -0.04160004 0.014460731 0.004729513 -0.0024934635 0.01807246 0.048735138 0.020981688
-0.045555115 -0.034513757 0.014199633 -0.041489854 -0.008617617 0.05110694 -0.053000584 -0.0201649
-0.05645491 -0.057133757 -0.03220088 -0.018703613 -0.012300894 -0.005394563 0.022581037 -0.018689767
-0.050593205 -0.037812285 0.013385568 -0.015668169 0.0003434345 -0.0294664 0.020663109 0.043843742
-0.031225821 0.049553055 -0.04984242 0.016680893 -0.039864246 -0.018119942 -0.03165774 -0.0016162954
-0.025384147 0.025111724 -0.022558123 -0.044032127 -0.02388271 -0.017494138 -0.008543041 -0.021186735
0.010881674 0.049430687 -0.042695135 -0.0013556518 -0.00691412 -0.0120175965 0.02156413 -0.036383435
0.036561597 0.036759336 -0.00033547357 0.04721039 -0.05346625 -0.022084344 0.045335565 -0.012247536
0.014954228 -0.049540818 -0.02643222 0.045500476 0.031229343 -0.016795084 -0.014734488 -0.0072103627
-0.0040527433 -0.05190359 -0.01769884 -0.0290769 0.0025747307 -0.04889976 0.0122539885 0.05075543
0.05465923 0.03961124 -0.046456266 0.033160497 -0.015180662 -0.02048846 0.032660972 -0.027057819
0.025590103 -0.034172766 -0.008771643 0.005958643 0.05216972 -0.05704243 -0.023821954 0.005442012
-0.025576204 0.029705811 0.024861868 -0.02549779 0.057284813 0.033579644 0.007716406 0.048320737
-0.007242769 0.050942663 0.047378454 -0.020162553 -0.02422253 -0.011222828 0.016053867 0.04079197
-0.01208603 0.029610943 -0.0051695853 -0.02185987 0.052789796 0.03682072 -0.018475901 -0.017878223
0.05028941 -0.012853473 -0.04168473 0.009279508 0.05638321 -0.01682252 -0.030612929 0.026364285
0.028665919 -0.019630484 -0.010814693 0.018695932 -0.03804326 -0.022730336 0.044908654 0.02726822
0.041299265 -0.025949378 0.054892067 -0.033840835 -0.00060317665 0.04227751 0.043266345 0.04609325
-0.01627532 0.0547474 0.04673372 -0.041268393 -0.02006219 0.025230188 0.055189583 -0.05354139
0.053837743 -0.019941881 0.021420088 -0.008060649 -0.048508488 0.026536595 0.03373183 0.02032775
0.017046336 0.03615356 0.041756 0.0420664 0.019370582 0.025890801 -0.016291603 -0.05684279
-0.04956359 0.03509021 0.016491693 0.042053018 -0.0348602 0.039807897 -0.0047533847 0.042503867
00000000: b879 ddbc 7306 503d e53c 1abd 67b8 033d
00000010: a51c 3d3d d25e fc3c a277 fc3c 5be9 0d3d
00000020: 9825 54bd b316 0c3d 438a 403d 765d e13c
00000030: 558e 3a3d e70d 3f3d c130 483d c158 1d3d
00000040: a304 59bd 4a13 a9bc 2ba9 573d b892 51bd
00000050: ef50 383d 3d01 673d b314 513d 3884 cabc
00000060: 25fb 6bbd 2c64 f3bc d9ff 2e3d 17fb 283d
00000070: 58e9 08bd e2cb e6bc c1f3 4dbd f6c8 96bc
00000080: eaf3 a43c d443 3e3c 49ea 03bd 025b 83bc
00000090: 7e01 ee3c b4b1 183c 8807 5abd 8c6f 52bc
000000a0: 4850 e4bb c250 a43c 6656 f33c f92c 1fbd
000000b0: 1a5a f73c ff39 393d bbd7 59bd 7c9c 4d3c
000000c0: 1a2a 6fbd ca46 db3c aa4d bb3c 7626 d6bc
000000d0: e81b 19bd 18bb 803b ee25 863c 8220 39bd
000000e0: b1b4 383d 0062 50b9 4888 6abd 5528 64bd
000000f0: 2d63 37bd c5e7 3b3d fae0 993c f043 40bd
00000100: 07a0 693d e08c 30bc c811 9f3b a46c 53bd
00000110: ac8a 09bc 147a 34bd 23d0 013d e052 44bc
00000120: 9088 143b 8113 2f3d 00f5 56bc cedf 20bd
00000130: a032 63bc d602 bf3c 4c37 4ebc 4f0e 103d
00000140: b812 70bc ce64 2abd b4ec 6c3c 08fa 9a3b
00000150: 6069 23bb b20c 943c 7f9e 473d cae1 ab3c
00000160: 0098 3abd 4c5e 0dbd 94a5 683c 44f1 29bd
00000170: e830 0dbc 8355 513d 2417 59bd dc30 a5bc
00000180: 443d 67bd 1605 6abd 12e5 03bd 5238 99bc
00000190: b089 49bc e0c4 b0bb defb b83c 481b 99bc
000001a0: d23a 4fbd 0ee1 1abd 244f 5b3c 885a 80bc
000001b0: 000f b439 8563 f1bc ae45 a93c 7f95 333d
000001c0: 4bcd ffbc 25f8 4a3d 9127 4cbd 5ea6 883c
000001d0: b148 23bd 4670 94bc 8cab 01bd e0d9 d3ba
000001e0: 6af2 cfbc 1ab7 cd3c d0cb b8bc 085b 34bd
000001f0: aca5 c3bc de4f 8fbc 1cf8 0bbc ce8f adbc
00000200: 0c49 323c d577 4a3d 18e1 2ebd 20b0 b1ba
00000210: d88f e2bb 74e5 44bc 42a7 b03c cc06 15bd
00000220: 9dc1 153d f590 163d 80e2 afb9 af5f 413d
00000230: 6dff 5abd 3aea b4bc c9b1 393d e4a9 48bc
00000240: 9402 753c 50eb 4abd 6288 d8bc b55e 3a3d
00000250: aed4 ff3c d895 89bc ec68 71bc e844 ecbb
00000260: e0cc 84bb dc98 54bd 28fd 90bc ae32 eebc
00000270: d0bc 283b 1d4b 48bd f4c4 483c ede4 4f3d
00000280: 5be2 5f3d 653f 223d ed48 3ebd 4dd3 073d
00000290: 50b8 78bc 6ad7 a7bc 83c7 053d 5ca8 ddbc
000002a0: 56a2 d13c bef8 0bbd f0b6 0fbc b840 c33b
000002b0: ebaf 553d 53a5 69bd 4226 c3bc e852 b23b
000002c0: 3085 d1bc 9a59 f33c 1eab cb3c bee0 d0bc
000002d0: 7ba3 6a3d cf8a 093d e8d9 fc3b f7eb 453d
000002e0: c054 edbb 41a9 503d e90f 423d f02b a5bc
000002f0: 546e c6bc f4df 37bc 6683 833c 7b15 273d
00000300: 7c04 46bc a692 f23c a065 a9bb 7813 b3bc
00000310: 1d3a 583d 53d1 163d c65a 97bc 5a75 92bc
00000320: 45fc 4d3d 6097 52bc 9cbd 2abd 1409 183c
00000330: 15f2 663d 62cf 89bc f7c7 fabc eaf9 d73c
00000340: cad4 ea3c 1cd0 a0bc 1c30 31bc 3628 993c
00000350: 40d3 1bbd f834 babc 23f2 373d 9a61 df3c
00000360: 6b29 293d ca93 d4bc 81d6 603d b09c 0abd
00000370: 801e 1eba 2f2b 2d3d 0d38 313d 47cc 3c3d
00000380: d253 85bc cf3e 603d db6b 3f3d 0c09 29bd
00000390: 7659 a4bc 8aaf ce3c 790e 623d 374e 5bbd
000003a0: f784 5c3d 285d a3bc 2e79 af3c d010 04bc
000003b0: d6b0 46bd 4663 d93c 632a 0a3d 6286 a63c
000003c0: c2a4 8b3c c115 143d 5708 2b3d d14d 2c3d
000003d0: 0eaf 9e3c f218 d43c f875 85bc fcd3 68bd
000003e0: 3103 4bbd c1ba 0f3d 9619 873c c93f 2c3d
000003f0: 92c9 0ebd 9b0d 233d 48c2 9bbb 8918 2e3d

bias f4 [32]
-0.045860037 -0.004334882 -0.046076585 -0.009289656 -0.026427548 -0.027371082 -0.0056380033 0.053558428
0.020690057 0.026840676 -0.0415543 0.020111118 0.042646598 -0.049636662 0.016559232 -0.0072801933
0.009802643 -0.030872539 -0.05767086 0.022067878 0.0045908503 -0.045540392 -0.056998227 -0.04824889
-0.024600808 -0.05486853 0.028267067 0.054886002 -0.015253894 0.008353155 -0.053688448 -0.007904172
00000000: bcd7 3bbd a00b 8ebb cdba 3cbd a433 18bc
00000010: 967e d8bc 5239 e0bc 00bf b8bb 1560 5b3d
00000020: 327e a93c fae0 db3c d734 2abd 12c0 a43c
00000030: 33ae 2e3d d04f 4bbd 3aa7 873c b08e eebb
00000040: 449b 203c 68e8 fcbc 4838 6cbd b2c7 b43c
00000050: d86e 963b 9088 3abd f976 69bd a1a0 45bd
00000060: a287 c9bc d3bd 60bd 5690 e73c 25d0 603d
00000070: 78eb 79bc acdb 083c 6be8 5bbd 8080 01bc

weight f4 [32]
1.0 1.0 1.0 1.0 1.0 1.0 1.0 1.0
1.0 1.0 1.0 1.0 1.0 1.0 1.0 1.0
1.0 1.0 1.0 1.0 1.0 1.0 1.0 1.0
1.0 1.0 1.0 1.0 1.0 1.0 1.0 1.0
00000000: 0000 803f 0000 803f 0000 803f 0000 803f
00000010: 0000 803f 0000 803f 0000 803f 0000 803f
00000020: 0000 803f 0000 803f 0000 803f 0000 803f
00000030: 0000 803f 0000 803f 0000 803f 0000 803f
00000040: 0000 803f 0000 803f 0000 803f 0000 803f
00000050: 0000 803f 0000 803f 0000 803f 0000 803f
00000060: 0000 803f 0000 803f 0000 803f 0000 803f
00000070: 0000 803f 0000 803f 0000 803f 0000 803f

bias f4 [32]
0.0 0.0 0.0 0.0 0.0 0.0 0.0 0.0
0.0 0.0 0.0 0.0 0.0 0.0 0.0 0.0
0.0 0.0 0.0 0.0 0.0 0.0 0.0 0.0
0.0 0.0 0.0 0.0 0.0 0.0 0.0 0.0
00000000: 0000 0000 0000 0000 0000 0000 0000 0000
00000010: 0000 0000 0000 0000 0000 0000 0000 0000
00000020: 0000 0000 0000 0000 0000 0000 0000 0000
00000030: 0000 0000 0000 0000 0000 0000 0000 0000
00000040: 0000 0000 0000 0000 0000 0000 0000 0000
00000050: 0000 0000 0000 0000 0000 0000 0000 0000
00000060: 0000 0000 0000 0000 0000 0000 0000 0000
00000070: 0000 0000 0000 0000 0000 0000 0000 0000

running_mean f4 [32]
-0.124458514 0.72480404 -0.016904771 0.119017646 0.2429538 0.3885131 0.39651456 -0.025859583
0.19940256 -0.048713043 0.08707641 0.11072721 -0.3239692 0.45564336 0.0022412825 -0.3892596
0.15869687 -0.40919974 -0.08756595 0.19576025 -0.009911345 -0.34209847 -0.29646298 -0.5550501
-0.3686106 0.613976 -0.49591824 0.12291282 -0.46750772 0.24466911 0.05264982 -0.3744319
00000000: 1be4 febd c28c 393f e07b 8abc 86bf f33d
00000010: e2c8 783e 30eb c63e f503 cb3e 7ad7 d3bc
00000020: 2f30 4c3e 5487 47bd 1e55 b23d f3c4 e23d
00000030: 4adf a5be 164a e93e 7be2 123b 094d c7be
00000040: 6f81 223e a182 d1be c755 b3bd 6075 483e
00000050: 3263 22bc 8827 afbe ffc9 97be c317 0ebf
00000060: 87ba bcbe 882d 1d3f ffe8 fdbe b7b9 fb3d
00000070: 2c5d efbe 8a8a 7a3e 56a7 573d 8ab5 bfbe

running_var f4 [32]
0.13136227 0.10796932 0.119342044 0.3411901 0.17108239 0.27475 0.25725138 0.28753653
0.10617656 0.30520976 0.12854205 0.12698106 0.25665873 0.23736411 0.70789844 0.09615819
0.11979811 0.21776037 0.28133634 0.2807729 0.24430697 0.3389792 0.21553037 0.31472746
0.16683993 0.14083053 0.16855904 0.44605446 0.8887162 0.345486 0.1224514 0.23174733
00000000: d583 063e 051f dd3d 9a69 f43d 78b0 ae3e
00000010: 3930 2f3e 08ac 8c3e 74b6 833e fd37 933e
00000020: 1973 d93d 7444 9c3e 87a0 033e 5307 023e
00000030: c668 833e 940f 733e d538 353f 96ee c43d
00000040: b658 f53d 93fc 5e3e 510b 903e 77c1 8f3e
00000050: 9b2b 7a3e af8e ad3e feb3 5c3e f523 a13e
00000060: 16d8 2a3e e135 103e be9a 2c3e 4061 e43e
00000070: e882 633f 8ae3 b03e cdc7 fa3d 2c4f 6d3e

weight f4 [32]
1.0 1.0 1.0 1.0 1.0 1.0 1.0 1.0
1.0 1.0 1.0 1.0 1.0 1.0 1.0 1.0
1.0 1.0 1.0 1.0 1.0 1.0 1.0 1.0
1.0 1.0 1.0 1.0 1.0 1.0 1.0 1.0
00000000: 0000 803f 0000 803f 0000 803f 0000 803f
00000010: 0000 803f 0000 803f 0000 803f 0000 803f
00000020: 0000 803f 0000 803f 0000 803f 0000 803f
00000030: 0000 803f 0000 803f 0000 803f 0000 803f
00000040: 0000 803f 0000 803f 0000 803f 0000 803f
00000050: 0000 803f 0000 803f 0000 803f 0000 803f
00000060: 0000 803f 0000 803f 0000 803f 0000 803f
00000070: 0000 803f 0000 803f 0000 803f 0000 803f

bias f4 [32]
0.0 0.0 0.0 0.0 0.0 0.0 0.0 0.0
0.0 0.0 0.0 0.0 0.0 0.0 0.0 0.0
0.0 0.0 0.0 0.0 0.0 0.0 0.0 0.0
0.0 0.0 0.0 0.0 0.0 0.0 0.0 0.0
00000000: 0000 0000 0000 0000 0000 0000 0000 0000
00000010: 0000 0000 0000 0000 0000 0000 0000 0000
00000020: 0000 0000 0000 0000 0000 0000 0000 0000
00000030: 0000 0000 0000 0000 0000 0000 0000 0000
00000040: 0000 0000 0000 0000 0000 0000 0000 0000
00000050: 0000 0000 0000 0000 0000 0000 0000 0000
00000060: 0000 0000 0000 0000 0000 0000 0000 0000
00000070: 0000 0000 0000 0000 0000 0000 0000 0000

running_mean f4 [32]
0.07878803 0.22772792 -0.3133337 0.08481339 -0.020063287 -0.21158423 -0.23714384 0.27445924
0.037183866 -0.2040736 -0.17208822 -0.23929681 0.02215644 0.028103646 -0.060719073 0.12745272
-0.06657086 0.07133459 -0.4091243 -0.15452373 -0.19162418 -0.10005649 0.01283931 -0.11591558
0.03412025 -0.122247085 -0.39551777 0.0023485408 -0.102751926 -0.021414911 -0.03096236 0.17669462
00000000: 9e5b a13d 8231 693e 466d a0be a5b2 ad3d
00000010: c35b a4bc 89a9 58be d6d5 72be ec85 8c3e
00000020: 1c4e 183d abf8 50be e537 30be 390a 75be
00000030: 6c81 b53c 9e39 e63c 90b4 78bd f782 023e
00000040: 4e56 88bd df17 923d be78 d1be 783b 1ebe
00000050: 2139 44be 6bea ccbd f85b 523c 2665 edbd
00000060: adc1 0b3d ae5c fabd 4e81 cabe fae9 193b
00000070: 9a6f d2bd 536e afbc c6a4 fdbc 6fef 343e

running_var f4 [32]
0.069120884 0.047043495 0.054784287 0.06474477 0.054872192 0.07851522 0.08542934 0.10866087
0.08318214 0.059785385 0.08666937 0.07470267 0.08458041 0.05093582 0.12732449 0.116124816
0.10584978 0.05203161 0.073350266 0.13999458 0.07086118 0.14212812 0.13700293 0.050293256
0.049668495 0.10162603 0.12104751 0.049598843 0.067858286 0.0755506 0.10202635 0.16477679
00000000: 408f 8d3d aeb0 403d 7d65 603d e898 843d
00000010: aac1 603d 96cc a03d 94f5 ae3d 9789 de3d
00000020: 665b aa3d 85e1 743d b67f b13d b7fd 983d
00000030: 7e38 ad3d 14a2 503d 5a61 023e d9d2 ed3d
00000040: c5c7 d83d 191f 553d aa38 963d bd5a 0f3e
00000050: ab1f 913d 098a 113e 7f4a 0c3e 4d00 4e3d
00000060: 3171 4b3d 4f21 d03d c2e7 f73d 2828 4b3d
00000070: 49f9 8a3d 46ba 9a3d 31f3 d03d 3fbb 283e
