5_cross_5_iter_30.pt (torch_old, 327252 bytes, 66 tensors)

weight f4 [32, 5, 3, 3]
-0.18035525 -0.18833819 -0.3370982 -0.5180201 -0.8744389 -0.34933507 -0.5639702 -0.82979447
-0.90258914 -0.15430373 0.42287174 0.2008184 0.13864549 0.23085675 0.1996343 -0.16863309
0.28420052 0.29897377 -0.07041644 -0.07335848 -0.20162208 -0.47030786 -0.68745685 -0.39683202
0.1394656 -0.7743384 -0.652657 0.24889132 0.5298556 0.01357873 0.060168292 0.1766883
0.08420256 0.09079634 0.3850584 0.034030177 0.13780047 0.2568833 0.113093145 0.20367187
0.22307293 0.086176455 0.14240955 0.104122035 0.21197078 -0.39014766 -0.4452752 -0.58130026
-0.34892297 -0.10069738 -0.16027407 -0.029241638 0.10074729 -0.17323785 0.38984972 0.41948852
0.4519015 0.0659718 -0.14576595 -0.21323927 -0.008350476 -0.0493235 -0.31702644 -0.5409571
-0.13151193 -0.423503 -0.17338996 0.02241724 0.06717861 -0.24852353 0.108611375 -0.088344425
0.4938303 0.22330007 0.48777023 -0.022928592 -0.43187565 -0.2434814 -0.10618688 0.06793431
-0.35102305 -0.58004594 -0.53763855 -0.4133487 -0.50596637 -0.6130254 -0.58369464 -0.50260025
-0.61262673 -0.50047153 -0.036327127 0.25437853 0.19500276 -0.21507654 0.05751667 0.17128535
0.035707403 0.3751022 -0.16924565 -0.10916838 -0.27729928 -0.3663411 0.0020944674 -0.10000216
-0.46893886 0.11043124 -0.17834215 0.1583905 -0.088161044 -0.05481472 0.036281876 -0.17841068
0.29757273 0.34459263 -0.0694348 0.32059047 -0.073879376 -0.024734026 -0.19028488 -0.40897262
0.09899919 -0.19102964 -0.42716652 -0.046927 -0.10471106 0.13824032 -0.5870132 -0.6399662
-0.7387425 -0.5761339 -0.6865222 -0.6245995 -0.6867813 -0.658515 -0.55238223 -0.031351883
-0.31137818 0.15560055 0.10294191 -0.045283638 -0.2853345 0.30492032 0.50522745 -0.56671834
-0.3543376 0.014575668 -0.4984367 -0.16661912 0.16432662 -0.04487738 -0.27636927 -0.08109341
0.7560398 -0.11144174 0.06840461 0.22734518 -0.10091122 0.24148872 -0.056627456 0.07550479
0.54813117 -0.5712676 -0.2979566 0.13253734 -0.28949437 -0.14156453 0.09372585 -0.011503484
-0.15281998 0.04473208 0.6960883 -0.31964228 -0.40333483 -0.49022505 -0.5617746 -0.4311041
-0.49960375 -0.519291 -0.33104816 -0.4189097 0.032630987 -0.67593837 -0.061862633 -0.2446714
0.26490608 0.15304972 0.558817 -0.55111766 -0.23532628 -0.1271531 0.43493292 -0.05889937
0.38936335 0.07831724 0.32077077 -0.083091974 -0.027824681 0.45349845 -0.34454232 -0.54276395
-0.27988642 -0.34422785 0.059363168 -0.17507169 0.17052177 -0.2805468 0.086329564 0.052141197
0.6294734 0.15611613 0.80421776 0.12089219 0.40557793 0.09086403 0.08759168 0.52576375
0.6301628 0.64111984 0.8208022 0.8317418 0.5577053 0.77676797 0.6262502 0.7287329
0.588001 0.0031458852 -0.08060337 -0.18970412 0.59292513 0.1832914 0.038943823 -0.00879389
0.21497938 -0.55873674 0.17851272 0.21102853 0.2821978 -0.3473536 -0.26591793 0.39809918
-0.30679134 0.13141648 0.18187554 -0.086924545 -0.22201249 0.0572678 0.69830394 0.022264471
-0.14218211 -0.06693712 0.15315591 -0.35670793 0.119671784 0.08103245 0.17005917 -0.37404975
00000000: 0caf 38be badb 40be 2398 acbe f79c 04bf
00000010: 3adb 5fbf 0cdc b2be 5a60 10bf 696d 54bf
00000020: 1510 67bf cc01 1ebe a582 d83e 57a3 4d3e
00000030: 15f9 0d3e b665 6c3e ef6c 4c3e 27ae 2cbe
00000040: bb82 913e 1713 993e 7f36 90bd f93c 96bd
00000050: 0576 4ebe 31cc f0be 2cfd 2fbf 912d cbbe
00000060: 12d0 0e3e 0b3b 46bf 8714 27bf 5edd 7e3e
00000070: 9ea4 073f 5279 5e3c 0773 763d c7ed 343e
00000080: 6472 ac3d 6ef3 b93d 6026 c53e 3a63 0b3d
00000090: 911b 0d3e 3586 833e 619d e73d 5c8f 503e
000000a0: 3b6d 643e 487d b03d cfd3 113e ef3d d53d
000000b0: de0e 593e 6fc1 c7be 1cfb e3be 18d0 14bf
000000c0: 08a6 b2be 6e3a cebd e31e 24be 298c efbc
000000d0: 9854 ce3d 4365 31be 629a c73e 33c7 d63e
000000e0: a25f e73e 391c 873d ab43 15be 655b 5abe
000000f0: 6fd0 08bc 7007 4abd 4a51 a2be 2a7c 0abf
00000100: 10ab 06be 63d5 d8be 238d 31be 5ca4 b73c
00000110: f094 893d f47c 7ebe a46f de3d eced b4bd
00000120: 53d7 fc3e c6a8 643e 05bd f93e bed4 bbbc
00000130: ce1e ddbe 3053 79be 8278 d9bd 2521 8b3d
00000140: 4bb9 b3be e47d 14bf aea2 09bf 71a2 d3be
00000150: 0387 01bf 3cef 1cbf 036d 15bf 69aa 00bf
00000160: 1bd5 1cbf e71e 00bf c1cb 14bd e73d 823e
00000170: ceae 473e 063d 5cbe 9a96 6b3d 6d65 2f3e
00000180: ed41 123d 650d c03e bb4e 2dbe ac93 dfbd
00000190: 2cfa 8dbe 1091 bbbe 5543 093b efcd ccbd
000001a0: c118 f0be c629 e23d 539f 36be 1f31 223e
000001b0: c78d b4bd 6685 60bd 4e9c 143d 4ab1 36be
000001c0: 745b 983e 726e b03e d533 8ebd 6f24 a43e
000001d0: 124e 97bd 039f cabc 0ada 42be dc64 d1be
000001e0: 16c0 ca3d 469d 43be 92b5 dabe 8736 40bd
000001f0: c172 d6bd df8e 0d3e 7f46 16bf d3d4 23bf
00000200: 3a1e 3dbf 837d 13bf ebbf 2fbf c1e5 1fbf
00000210: e6d0 2fbf 7094 28bf ec68 0dbf d56a 00bd
00000220: f66c 9fbe c055 1f3e 35d3 d23d 567b 39bd
00000230: 5d17 92be 841e 9c3e 9656 013f 7414 11bf
00000240: bd6b b5be c8ce 6e3c 1833 ffbe 349e 2abe
00000250: 3d45 283e 58d1 37bd 4680 8dbe 4d14 a6bd
00000260: d38b 413f 913b e4bd b717 8c3d 2dcd 683e
00000270: 8baa cebd d248 773e 31f2 67bd 41a2 9a3d
00000280: 5352 0c3f 983e 12bf c48d 98be deb7 073e
00000290: 9b38 94be 4bf6 10be 57f3 bf3d 1c79 3cbc
000002a0: d77c 1cbe fc38 373d d832 323f 27a8 a3be
000002b0: e781 cebe c7fe fabe 76d0 0fbf adb9 dcbe
000002c0: 10cc ffbe 41f0 04bf 257f a9be 557b d6be
000002d0: 12a8 053d 4c0a 2dbf ac63 7dbd 248b 7abe
000002e0: c5a1 873e 11b9 1c3e a20e 0f3f 0c16 0dbf
000002f0: 5ff9 70be 6c34 02be 87af de3e 7740 71bd
00000300: a25a c73e ca64 a03d 113c a43e 202c aabd
00000310: 96f0 e3bc f330 e83e da67 b0be 94f2 0abf
00000320: 464d 8fbe a23e b0be cb26 733d fe45 33be
00000330: 429d 2e3e d5a3 8fbe 8ecd b03d 0292 553d
00000340: 2b25 213f e8dc 1f3e 37e1 4d3f 5396 f73d
00000350: e9a7 cf3e ec16 ba3d 4463 b33d 7498 063f
00000360: 5952 213f 6e20 243f 1820 523f 08ed 543f
00000370: c6c5 0e3f 44da 463f ef51 203f 3d8e 3a3f
00000380: 3c87 163f 322b 4e3b 6113 a5bd cc41 42be
00000390: f1c9 173f beb0 3b3e 8f83 1f3d 3f14 10bc
000003a0: 8e23 5c3e 5f09 0fbf 0acc 363e dd17 583e
000003b0: 3b7c 903e 55d8 b1be 6526 88be a8d3 cb3e
000003c0: c113 9dbe 0b92 063e 953d 3a3e 7f05 b2bd
000003d0: 3e57 63be a491 6a3d 0cc4 323f fb63 b63c
000003e0: 3098 11be 5416 89bd e7d4 1c3e 6ca2 b6be
000003f0: 7b16 f53d 57f4 a53d fe23 2e3e 7383 bfbe

bias f4 [32]
0.05415903 -0.077688284 -0.13302173 0.009695461 -0.06678531 -0.13325872 0.0027318418 0.084655866
0.0042677 -0.056683116 -0.007805709 0.062097088 -0.03915292 -0.09009097 0.03626775 -0.09262799
-0.11075307 -0.106600925 -0.016485656 -0.09376205 -0.08648184 -0.10737834 0.013737122 -0.010330963
0.053030737 -0.12312178 -0.014525654 0.12477793 -0.042317044 -0.1170824 0.08189303 0.09672435
00000000: dcd5 5d3d 091b 9fbd d936 08be b6d9 1e3c
00000010: bdc6 88bd f974 08be b308 333b 0e60 ad3d
00000020: 10d8 8b3b 8e2c 68bd 08c7 ffbb 8459 7e3d
00000030: d05e 20bd 9d81 b8bd 7e8d 143d beb3 bdbd
00000040: 81d2 e2bd 9651 dabd ed0c 87bc 5106 c0bd
00000050: 641d b1bd 2de9 dbbd aa11 613c 3343 29bc
00000060: c236 593d 4627 fcbd 02fd 6dbc 928b ff3d
00000070: a354 2dbd e6c8 efbd 88b7 a73d 6a17 c63d

weight f4 [32]
0.030912299 1.8613187 0.9121561 1.5198275 1.9718724 0.27786547 -0.085649066 1.7182037
2.4837148 -0.11637066 0.7094787 0.16414669 -0.014721733 0.641283 1.2915791 0.22447604
0.06809908 2.4666824 -0.018689463 1.7845169 1.5840328 1.9270955 0.28765276 0.18390763
0.37025604 2.1768882 1.0642723 2.4249983 1.9681319 -0.11047894 0.15674785 1.4929903
00000000: ca3b fd3c b13f ee3f 1083 693f b589 c23f
00000010: 5166 fc3f 6244 8e3e c768 afbd 19ee db3f
00000020: 2ff5 1e40 be53 eebd 65a0 353f 1216 283e
00000030: 6c33 71bc 1f2b 243f 7752 a53f 0cdd 653e
00000040: 8877 8b3d 20de 1d40 a51a 99bc 0d6b e43f
00000050: 96c1 ca3f 11ab f63f 3947 933e 4852 3c3e
00000060: 3392 bd3e 2352 0b40 133a 883f 2c33 1b40
00000070: bfeb fb3f c842 e2bd 8282 203e 4e1a bf3f

bias f4 [32]
-0.09039958 0.46638286 0.08325562 0.3523169 1.0782441 -0.89950943 -0.41301975 0.91659266
1.179051 -0.38454476 -0.0380526 -0.6174624 0.4558701 -0.63896525 0.14597015 -0.6464694
-0.4954038 0.08454805 -0.41690153 1.0124599 2.0276115 0.19148257 -0.78105205 -0.4083906
-1.159467 0.28617415 0.5265548 0.3633652 0.46461684 -0.31353468 -0.88449657 0.37322673
00000000: 6a23 b9bd bcc9 ee3e ec81 aa3d e162 b43e
00000010: e703 8a3f 4046 66bf 5377 d3be d1a5 6a3f
00000020: 25eb 963f 0de3 c4be 0bdd 1bbd 0412 1ebf
00000030: ce67 e93e 3a93 23bf 3379 153e 057f 25bf
00000040: 91a5 fdbe 8727 ad3d 1e74 d5be 4998 813f
00000050: 63c4 0140 0214 443e 07f3 47bf 9318 d1be
00000060: 6a69 94bf 6b85 923e 4ccc 063f 010b ba3e
00000070: 42e2 ed3e 9e87 a0be 5e6e 62bf 9317 bf3e

running_mean f4 [32]
-1.0031141 -3.3545024 -3.236919 -1.973962 3.4208357 -1.0556599 1.7166668 2.5006492
-2.2489984 1.3311542 1.4098969 -0.82585585 -1.2373435 -1.9443431 1.5136325 1.0921776
1.0695869 4.77727 -1.3923519 2.5484438 -0.4049967 -4.8688893 -0.5423136 1.2132144
-0.05015371 -2.4925435 -1.5682565 -3.0589662 1.0957417 2.3889704 -2.958618 -0.73420703
00000000: 0b66 80bf 2bb0 56c0 ae29 4fc0 c9aa fcbf
00000010: f9ee 5a40 dd1f 87bf bdbb db3f a30a 2040
00000020: 97ef 0fc0 4363 aa3f 8077 b43f 4a6b 53bf
00000030: 4661 9ebf 3ce0 f8bf b6be c13f 7acc 8b3f
00000040: 39e8 883f 65df 9840 9638 b2bf b419 2340
00000050: ba5b cfbe f1cd 9bc0 10d5 0abf 9c4a 9b3f
00000060: fa6d 4dbd d585 1fc0 a1bc c8bf 1ac6 43c0
00000070: 4441 8c3f e4e4 1840 ff59 3dc0 fef4 3bbf

running_var f4 [32]
7.2295084 7.665864 9.250716 5.212477 12.333474 2.997534 3.0409203 9.841725
16.594904 3.311888 8.792422 5.1242824 5.8216305 2.3941414 5.5078597 3.4700003
5.921482 18.395767 2.3118875 11.773841 7.250414 9.149633 2.5282996 4.9170604
3.7782996 7.910484 9.680541 9.559611 9.714233 4.6859674 1.9803324 6.8000245
00000000: 2258 e740 c24e f540 ef02 1441 9dcc a640
00000010: e955 4541 99d7 3f40 709e 4240 b577 1d41
00000020: 5dc2 8441 f9f5 5340 c3ad 0c41 1ffa a340
00000030: cc4a ba40 9d39 1940 6340 b040 7c14 5e40
00000040: c87c bd40 882a 9341 f7f5 1340 a761 3c41
00000050: 6403 e840 e664 1241 a9cf 2140 8f58 9d40
00000060: a9cf 7140 af22 fd40 7fe3 1a41 2bf4 1841
00000070: 806d 1b41 72f3 9540 887b fd3f cd99 d940

weight f4 [2, 32, 1, 1]
0.7080533 0.08015595 0.016959416 0.56359994 0.03331341 0.110526085 0.8065437 1.0031377
-0.67112416 -0.7800788 0.30020308 0.6301039 -0.24811982 0.44455573 -0.33524287 -0.21293862
-1.0044283 0.37010965 0.39822215 0.82559854 -0.21989733 0.13097155 -0.20481056 -0.39870209
-0.70830804 0.4642584 0.24386697 -1.5162318 1.1643504 0.61934274 -0.22347513 -0.2549772
-2.6136827 -1.1309414 0.13194767 -0.442962 -1.387545 0.3605105 -0.24545719 1.3903071
1.275357 -0.85283816 -0.7478418 -0.9723882 -0.21824661 -0.34914017 0.104969166 -0.08247406
1.0831939 -0.6473435 1.523681 -0.863519 0.044558145 -0.31494975 0.01059742 -0.41946787
2.1556745 -0.043627243 -0.21856798 1.4103214 -1.1334784 2.2639098 2.2386892 0.8805956
00000000: fb42 353f cd28 a43d 79ee 8a3c 1648 103f
00000010: a473 083d 805b e23d a679 4e3f d166 803f
00000020: cbce 2bbf 3fb3 47bf 38b4 993e 7d4e 213f
00000030: 1f13 7ebe cf9c e33e f4a4 abbe 950c 5abe
00000040: 1b91 80bf 037f bd3e c6e3 cb3e 6d5a 533f
00000050: c42c 61be 681d 063e dcb9 51be ae22 ccbe
00000060: ad53 35bf 47b3 ed3e 43b8 793e e213 c2bf
00000070: 6f09 953f 3f8d 1e3f aad6 64be 5f8c 82be
00000080: 9446 27c0 b0c2 90bf 4a1d 073e eacb e2be
00000090: 139b b1bf d594 b83e 2159 7bbe 95f5 b13f
000000a0: e63e a33f 9a53 5abf 8f72 3fbf 6fee 78bf
000000b0: 0a7c 5fbe 80c2 b2be 13fa d63d 29e8 a8bd
000000c0: 19a6 8a3f 4eb8 25bf fb07 c33f 950f 5dbf
000000d0: 9a82 363d 1841 a1be cda0 2d3c 7ec4 d6be
000000e0: 92f6 0940 7bb2 32bd 49d0 5fbe 6985 b43f
000000f0: d215 91bf e6e3 1040 af46 0f40 b76e 613f

bias f4 [2]
0.14460963 -0.00028176428
00000000: 8c14 143e c3b9 93b9

weight f4 [2]
-0.25484377 -0.5975804
00000000: e27a 82be 07fb 18bf

bias f4 [2]
-1.4982858 -3.1826413
00000000: d4c7 bfbf 65b0 4bc0

running_mean f4 [2]
3.091762 1.62163
00000000: 6edf 4540 9291 cf3f

running_var f4 [2]
38.767902 128.9869
00000000: 5512 1b42 a5fc 0043

weight f4 [26, 18]
-0.08645907 -0.29646054 0.03020814 0.077113636 0.1369529 -0.17116228 -0.3839381 -0.20304814
-0.08036922 -0.547039 -0.17502718 0.48799214 -0.29598853 0.36289987 0.24731624 0.073313855
0.23942716 0.20363076 0.27809128 -0.015019844 0.25158688 0.12561883 -0.030481383 -0.14799738
0.420381 -0.19065528 -0.18493451 -0.2318117 -0.50576955 0.43002322 -0.15334086 -0.31164604
-0.06370651 -0.39716372 0.24426393 0.21394779 -0.29917225 -0.28823677 -0.25747487 -0.2321011
-0.3180096 -0.10754703 -0.3494505 -0.5106836 0.06270812 -0.010090148 0.04459254 0.046864968
-0.21135065 0.11605236 -0.18951783 -0.15360436 -0.01362218 0.1863343 -0.040962268 -0.16143943
-0.3571066 0.17169143 -0.09927821 0.021703957 0.1696715 -0.24395503 0.02571908 0.00884359
0.35352623 -0.038661975 0.06295934 -0.3320596 0.28786883 0.024404613 -0.061709113 -0.13239858
-0.1887605 0.13292414 -0.1931665 -0.15524608 0.07806288 -0.014721553 -0.3165598 -0.025838712
0.021527559 0.37030655 0.20527075 -0.11024259 0.36353397 -0.33538586 0.23255344 0.077667356
0.3241386 -0.1379588 -0.019234553 -0.04377161 0.4172687 0.13801058 -0.02083728 -0.0844706
0.24868894 -0.1002476 0.055186167 -0.6051747 -0.45021585 0.22176823 0.36154976 0.117065355
-0.02498854 0.35451326 0.32905442 0.046444163 0.3501879 0.029364081 0.18294093 0.105454236
-0.07135165 0.09263907 0.07712383 -0.16303766 0.09990673 -0.12364406 0.12992944 -0.29837966
0.107665375 0.1511217 -0.033309713 0.19792138 0.69474465 0.155551 -0.13681142 -0.24116743
-0.14596117 0.13047649 -0.108314216 -0.16398971 -0.5801982 -0.36398476 -0.27358732 -0.2207121
-0.62923837 0.56224984 -0.07848617 0.22301458 -0.1520572 0.11531871 -0.09934037 -0.1782523
-0.12927361 -0.07993514 -0.027319279 -0.13177305 -0.075920634 -0.08596288 0.12422798 -0.15341467
0.039213162 0.038228903 -0.46104577 0.29685903 -0.00874872 0.305862 0.23789826 -0.1009946
0.049097322 0.25451112 0.013311898 -0.014174515 -0.23583955 -0.17062134 -0.0121345455 -0.22103603
-0.006021315 -0.22451083 0.21067557 0.4284169 0.120011285 -0.2020553 -0.14508423 0.0255054
-0.2621395 -0.05698334 -0.109378055 -0.120348535 0.24960187 -0.102217495 0.24701512 -0.0712979
-0.089015216 0.14225139 -0.113409474 0.052527666 -0.12653892 0.016065145 -0.13263036 -0.03433665
0.502169 -0.08704126 0.05690855 -0.31077912 -0.43331203 0.24671128 0.22768725 -0.108934395
0.016769487 -0.121588424 0.060092505 -0.009020374 -0.22730635 -0.4172553 -0.06871354 -0.1990951
-0.38360757 0.25225705 -0.24805744 -0.087550536 0.4152281 -0.1538658 0.10638823 0.05066019
-0.15808956 -0.13023591 -0.23495 -0.22705266 -0.29824233 0.11708935 -0.5315453 -0.16789408
0.018010909 -0.36984485 -0.042182826 -0.2919032 -0.11519208 -0.31209996 -0.6352738 0.05898334
-0.24281026 -0.45510653 0.033958267 0.14405271 -0.029129948 0.1355634 -0.118606195 0.05256109
0.23475172 0.3370622 0.012389225 -0.26031572 0.4666117 -0.49439257 0.086419344 -0.17786221
0.044774786 -0.4456323 0.27373722 0.16340476 -0.045410704 -0.24172176 -0.26040995 0.029352717
00000000: 7411 b1bd adc9 97be 1077 f73c c1ed 9d3d
00000010: 623d 0c3e 2a45 2fbe 8993 c4be daeb 4fbe
00000020: 9e98 a4bd bf0a 0cbf 533a 33be 1bda f93e
00000030: cf8b 97be 03ce b93e 7840 7d3e 9325 963d
00000040: 652c 753e 9584 503e fb61 8e3e cb15 76bc
00000050: ffcf 803e 39a2 003e 18b4 f9bc a08c 17be
00000060: 2e3c d73e 233b 43be 795f 3dbe 0c60 6dbe
00000070: 1d7a 01bf 012c dc3e 6305 1dbe 1290 9fbe
00000080: 8f78 82bd 0b59 cbbe 5320 7a3e 2115 5b3e
00000090: 1b2d 99be c593 93be bfd3 83be e9ab 6dbe
000000a0: 27d2 a2be 9e41 dcbd 2deb b2be 29bc 02bf
000000b0: 1d6d 803d 2651 25bc aba6 363d 7bf5 3f3d
000000c0: 4e6c 58be dcac ed3d f610 42be 764a 1dbe
000000d0: 902f 5fbc 6bce 3e3e 0dc8 27bd 6150 25be
000000e0: add6 b6be e1cf 2f3e 6052 cbbd 7fcc b13c
000000f0: 5ebe 2d3e 59cf 79be d2b0 d23c b4e4 103c
00000100: 6401 b53e 055c 1ebd d4f0 803d b703 aabe
00000110: 8b63 933e 2fec c73c b2c2 7cbd 7e93 07be
00000120: 6f4a 41be 441d 083e 70cd 45be d4f8 1ebe
00000130: 6edf 9f3d ab32 71bc 2014 a2be b5ab d3bc
00000140: 905a b03c d298 bd3e 7f32 523e dec6 e1bd
00000150: 2021 ba3e b2b7 abbe 7d22 6e3e 1010 9f3d
00000160: 7ff5 a53e 1245 0dbe c891 9dbc dc49 33bd
00000170: 3ea4 d53e a552 0d3e f2b2 aabc ecfe acbd
00000180: 50a8 7e3e 9d4e cdbd e40a 623d bbec 1abf
00000190: b182 e6be 3617 633e 0d1d b93e f6bf ef3d
000001a0: c4b4 ccbc c382 b53e d279 a83e 3c3c 3e3d
000001b0: d44b b33e f18c f03c de54 3b3e 64f8 d73d
000001c0: d020 92bd 8db9 bd3d 19f3 9d3d 58f3 26be
000001d0: e69b cc3d 1939 fdbd 390c 053e 38c5 98be
000001e0: aa7f dc3d a6bf 1a3e c46f 08bd e7ab 4a3e
000001f0: c9da 313f c348 1f3e 4b18 0cbe 98f4 76be
00000200: d876 15be a19b 053e d8d3 ddbd ebec 27be
00000210: df87 14bf 365c babe a313 8cbe 5a02 62be
00000220: c415 21bf 9bef 0f3f 5bbd a0bd ef5d 643e
00000230: e2b4 1bbe 372c ec3d f772 cbbd c587 36be
00000240: 4d60 04be 09b5 a3bd aecc dfbc 84ef 06be
00000250: 477c 9bbd 4e0d b0bd 3d6b fe3d bc18 1dbe
00000260: fb9d 203d e995 1c3d 310e ecbe e8fd 973e
00000270: cb56 0fbc f299 9c3e 9a9b 733e 42d6 cebd
00000280: 461a 493d 484f 823e 261a 5a3c 3a3c 68bc
00000290: ec7f 71be 5cb7 2ebe f9cf 46bc 4557 62be
000002a0: 744e c5bb 2be6 65be 56bb 573e 7659 db3e
000002b0: 7ac8 f53d 96e7 4ebe f690 14be b3f0 d03c
000002c0: 2637 86be 5d67 69bd 9a01 e0bd 4b79 f6bd
000002d0: a297 7f3e 6857 d1bd 88f1 7c3e a204 92bd
000002e0: 9c4d b6bd 59aa 113e 3a43 e8bd 4027 573d
000002f0: 6b93 01be 0d9b 833c 41d0 07be 96a4 0cbd
00000300: 268e 003f b042 b2bd f118 693d 711e 9fbe
00000310: 13db ddbe e2a1 7c3e d926 693e ff18 dfbd
00000320: 2a60 893c 5a03 f9bd 8f23 763d 31ca 13bc
00000330: ffc2 68be 7da2 d5be afb9 8cbd 96df 4bbe
00000340: 3668 c4be d627 813e c502 7ebe b24d b3bd
00000350: c798 d43e ff8e 1dbe 13e2 d93d 0f81 4f3d
00000360: 3be2 21be 905c 05be bc96 70be 7e80 68be
00000370: 38b3 98be 8bcc ef3d 5a13 08bf 6dec 2bbe
00000380: 9d8b 933c 4e5c bdbe e6c7 2cbd 5674 95be
00000390: d3e9 ebbd 91cb 9fbe 4ea1 22bf 8498 713d
000003a0: 41a3 78be b903 e9be d317 0b3d 8e82 133e
000003b0: eea1 eebc 22d1 0a3e cee7 f2bd 4c4a 573d
000003c0: c162 703e 6b93 ac3e 2dfc 4a3c 1a48 85be
000003d0: bbe7 ee3e 0621 fdbe a0fc b03d 8321 36be
000003e0: c465 373d eb29 e4be 4927 8c3e 9453 273e
000003f0: 9300 3abd e985 77be 7454 85be 1c75 f03c

bias f4 [26]
0.3820298 -0.48427373 -0.15290801 -0.30047214 0.4561965 0.04748617 -0.28871387 -0.5082025
-0.12032981 0.16423713 -0.066911355 0.11344826 -0.41242576 -0.052891955 -0.14618503 -0.30165508
-0.2640871 -0.31728217 -0.388053 -0.25329724 0.23188558 0.12128127 -0.041118752 0.2869803
-0.034210388 2.0711386
00000000: 6999 c33e baf2 f7be eb93 1cbe 7cd7 99be
00000010: 9692 e93e dc80 423d 4ed2 93be 8f19 02bf
00000020: 7a6f f6bd c72d 283e d208 89bd 9057 e83d
00000030: 7829 d3be 3ca5 58bd 87b1 15be 8972 9abe
00000040: 6d36 87be cf72 a2be e2ae c6be 2db0 81be
00000050: 6a73 6d3e 5162 f83d 236c 28bd 15ef 923e
00000060: 3120 0cbd 898d 0440

weight f4 [1, 32, 1, 1]
0.68136674 -0.105704874 0.56996614 -0.15277086 0.23750219 0.8080031 -0.61194706 -0.1983116
0.4695654 0.43543848 0.91791016 -0.07271294 -0.15245461 0.87393236 -0.3188543 0.3795478
-0.13118295 -0.70298713 -0.7781489 0.3653841 0.54921496 -0.75107646 0.10416918 -0.41909602
-0.13451995 -0.40972766 -0.2362341 -0.4745571 0.53399146 -0.58274513 -0.22615328 0.44839358
00000000: 0d6e 2e3f cc7b d8bd 4de9 113f f76f 1cbe
00000010: c633 733e 4bd9 4e3f 90a8 1cbf 3212 4bbe
00000020: e06a f03e cbf1 de3e 29fc 6a3f 86ea 94bd
00000030: 101d 1cbe 08ba 5f3f df40 a3be 1754 c23e
00000040: d354 06be f7f6 33bf c434 47bf a013 bb3e
00000050: 5a99 0c3f 8c46 40bf a756 d53d c193 d6be
00000060: 99bf 09be d3c7 d1be 5ae7 71be 26f9 f2be
00000070: aab3 083f c92e 15bf ba94 67be d893 e53e

weight f4 [32, 9]
-0.37346908 0.10991761 -0.30503896 0.08069401 0.20364325 -0.28289178 -0.12621726 0.04547712
0.20179634 -0.119715154 -0.062351894 -0.1097619 -0.13936904 0.10984793 0.25640225 -0.40115604
0.28932273 -0.046337683 0.3397657 0.070800245 -0.24904718 0.013233955 -0.044869564 -0.20698261
-0.23907615 -0.28516155 0.15011872 -0.18012527 0.29303983 -0.25368187 -0.15298694 0.105984814
-0.29145396 -0.068901256 0.080854185 -0.15098925 -0.11315709 0.30557477 -0.14804506 0.013329084
-0.011588756 0.53339714 -0.71156734 0.038495865 -0.11915789 -0.17975894 -0.4791417 0.0364425
-0.17868443 0.34275898 -0.5299142 0.37021232 0.19103222 0.019964037 0.36627284 -0.052803986
-0.28972393 -0.011061766 -0.40463287 -0.0073292293 0.2247553 -0.0817264 0.02182487 0.22492556
0.096758515 -0.05914808 -0.26460707 0.070080236 -0.4235447 0.2121737 -0.10643357 0.26314598
0.31292248 0.18035132 -0.25093538 0.29909325 0.26656914 0.43862984 -0.7049358 0.12007426
0.00012072108 -0.16682886 -0.17717557 0.008133605 0.27351177 -0.044287015 0.05796268 -0.006782216
-0.1191028 0.27571768 -0.026497813 0.14915198 -0.15899353 0.22310239 -0.2710156 -0.1592332
-0.16929974 -0.13664918 -0.024223637 -0.22897802 -0.16805474 -0.31869832 -0.30447832 -0.2765243
-0.24816824 -0.19491407 -0.21183695 0.20956145 -0.2831375 0.18139267 -0.14093502 0.21610339
-0.13912758 0.09445138 0.058148976 -0.19415854 0.035065573 0.007227709 -0.14750011 -0.17630488
0.06256167 -0.24538021 0.17928897 -0.19373211 0.07073787 0.056819405 0.012789487 -0.0050364938
0.31001133 -0.20709884 0.17650543 -0.24709867 0.0006849112 -0.13369338 0.17696024 0.14608066
-0.1915106 0.04977559 0.18077385 -0.13750073 0.17890744 -0.33263722 -0.121780686 -0.11554406
-0.15453112 -0.12830707 0.09004189 0.21069948 -0.22407693 0.21962787 -0.17405298 -0.20551278
0.07966271 -0.13427298 -0.32632026 -0.16782285 0.16249233 0.05588803 -0.4499399 0.23811674
0.08480929 0.16602176 0.46738315 0.17199032 0.23874606 0.18487036 -0.5756872 -0.30193985
0.2226909 -0.040554322 0.2298995 0.016754331 0.027303424 0.15955344 -0.0047148275 -0.08453533
0.55975175 0.0018103194 -0.2631811 0.19905925 0.15347236 0.070131764 -0.101631135 -0.22674713
0.08346031 -0.42042354 0.26831752 0.0058531747 -0.23811114 -0.22123314 -0.033713553 0.15381621
0.07533862 0.17662586 0.46788552 -0.36935356 -0.062359594 0.25638762 -0.030299883 -0.3283816
0.16620986 0.2140762 0.047936868 -0.06612415 -0.2273507 -0.0737314 -0.2713053 0.2156752
-0.0237661 0.29908445 -0.19716015 0.103018895 -0.20981428 0.3409026 -0.117409654 0.053815562
0.37860754 -0.59655523 0.37209278 0.12000715 -0.09139431 -0.6756784 0.40449217 -0.013816766
-0.11503684 0.29870015 0.16974309 -0.28133768 0.26074326 0.23126459 0.18276604 -0.12049087
-0.20715974 -0.28228533 -0.09288821 -0.17145285 -0.22448744 -0.3190654 0.012744006 -0.2324069
-0.21550123 0.092278555 0.21315378 0.06691103 0.10854219 0.27447647 0.14278132 0.115478314
0.24829443 0.011351336 -0.36208627 -0.2789824 0.2225058 -0.3444009 0.18626031 0.3399336
00000000: 5737 bfbe 7c1c e13d 112e 9cbe e742 a53d
00000010: db87 503e 31d7 90be 193f 01be 3746 3a3d
00000020: b3a3 4e3e 382d f5bd b364 7fbd d9ca e0bd
00000030: c2b6 0ebe f4f7 e03d 2847 833e 5364 cdbe
00000040: 1c22 943e 95cc 3dbd c5f5 ad3e b8ff 903d
00000050: 3906 7fbe 3bd3 583c 26c9 37bd 40f3 53be
00000060: 61d0 74be b200 92be b9b8 193e c272 38be
00000070: 5109 963e 97e2 81be 9ca8 1cbe 910e d93d
00000080: 7439 95be 1a1c 8dbd e196 a53d ed9c 1abe
00000090: e8be e7bd 4c74 9c3e 2099 17be 3b62 5a3c
000000a0: c4de 3dbc b78c 083f 4729 36bf d7ad 1d3d
000000b0: 0d09 f4bd ba12 38be 1052 f5be bb44 153d
000000c0: 0df9 36be 1b7e af3e 75a8 07bf 788c bd3e
000000d0: f39d 433e 9f8b a33c 1d88 bb3e fe48 58bd
000000e0: b256 94be 693c 35bc 0a2c cfbe 082a f0bb
000000f0: 4126 663e 2c60 a7bd 12ca b23c e352 663e
00000100: 5429 c63d 4245 72bd 947a 87be 3a86 8f3d
00000110: dada d8be 1044 593e d8f9 d9bd 12bb 863e
00000120: 6037 a03e 04ae 383e 9a7a 80be c022 993e
00000130: c07b 883e 1794 e03e ac76 34bf 7ee9 f53d
00000140: a32b fd38 2fd5 2abe 836d 35be d042 053c
00000150: bc09 8c3e 4d66 35bd 466a 6d3d 5a3d debb
00000160: 2bec f3bd de2a 8d3e f111 d9bc 4cbb 183e
00000170: 33cf 22be f474 643e 8fc2 8abe 070e 23be
00000180: e95c 2dbe c3ed 0bbe a670 c6bc 3779 6abe
00000190: 8b16 2cbe 6d2c a3be 95e4 9bbe 9894 8dbe
000001a0: d11f 7ebe 8e97 47be c9eb 58be 4797 563e
000001b0: 66f7 90be 00bf 393e 4551 10be 354a 5d3e
000001c0: 7677 0ebe ba6f c13d 9f2d 6e3d 7fd1 46be
000001d0: eba0 0f3d 6bd6 ec3b 450a 17be 4489 34be
000001e0: 5520 803d f344 7bbe 8797 373e b661 46be
000001f0: 04df 903d 77bb 683d ff8a 513c 2c09 a5bb
00000200: ceb9 9e3e b811 54be d7bd 343e 6f07 7dbe
00000210: 9d8b 333a ebe6 08be 1135 353e 2b96 153e
00000220: 5b1b 44be 7de1 4b3d c81c 393e fecc 0cbe
00000230: 8333 373e 6d4f aabe 2768 f9bd 5da2 ecbd
00000240: 683d 1ebe ee62 03be e267 b83d 9bc1 573e
00000250: 6c74 65be 21e6 603e f23a 32be f171 52be
00000260: 3426 a33d db7e 09be 7313 a7be c1d9 2bbe
00000270: 6464 263e d9ea 643d 865e e6be e0d4 733e
00000280: 7eb0 ad3d 9c01 2a3e d84c ef3e 3b1e 303e
00000290: d979 743e a84e 3d3e 3d60 13bf dc97 9abe
000002a0: 1509 643e 4a1c 26bd c66a 6b3e 6140 893c
000002b0: 6eab df3c fa61 233e d77e 9abb dc20 adbd
000002c0: e44b 0f3f 3d48 ed3a acbf 86be 30d6 4b3e
000002d0: dc27 1d3e 3ea1 8f3d fc23 d0bd 6630 68be
000002e0: 3ded aa3d c141 d7be ea60 893e fdcb bf3b
000002f0: 68d3 73be f18a 62be 3917 0abd ff81 1d3e
00000300: 224b 9a3d 69dd 343e b18e ef3e e91b bdbe
00000310: c66c 7fbd 3d45 833e 7637 f8bc a221 a8be
00000320: eb32 2a3e cb36 5b3e 7359 443d 196c 87bd
00000330: 9fce 68be 7d00 97bd 87e8 8abe f6d9 5c3e
00000340: 20b1 c2bc 9921 993e 5ae4 49be 92fb d23d
00000350: 8ed9 56be c98a ae3e 7974 f0bd b56d 5c3d
00000360: d9d8 c13e d8b7 18bf f282 be3e 4fc6 f53d
00000370: f12c bbbd 42f9 2cbf 9919 cf3e b85f 62bc
00000380: 6f98 ebbd 3aef 983e 22d1 2d3e 7e0b 90be
00000390: 2480 853e a0d0 6c3e 0527 3b3e ebc3 f6bd
000003a0: af21 54be b487 90be 2d3c bebd 5691 2fbe
000003b0: 09e0 65be 8a5c a3be 3ccc 503c 13fc 6dbe
000003c0: 5bac 5cbe 8afc bc3d fc44 5a3e a608 893d
000003d0: 5e4b de3d 2e88 8c3e 4435 123e e57f ec3d
000003e0: e540 7e3e f4fa 393c 5f63 b9be c8d6 8ebe
000003f0: 8fd8 633e 5155 b0be 06bb 3e3e c70b ae3e

bias f4 [32]
-0.12868902 -0.14696126 0.234769 -0.122844614 0.058409 -0.50442445 0.13205487 0.14300774
-0.40443632 -0.19822909 0.050695404 0.045225885 -0.23992081 -0.23374411 -0.18397225 -0.14723581
-0.31399736 -0.13497038 0.28997576 -0.39453146 0.18959059 -0.2578724 0.064037815 0.108623356
0.017655334 -0.3047858 0.12710753 -0.33832002 -0.13492955 -0.061479375 0.17770152 -0.0668254
00000000: 0ec7 03be 037d 16be 4967 703e f595 fbbd
00000010: 473e 6f3d f621 01bf 6439 073e 9f70 123e
00000020: 4712 cfbe 91fc 4abe fca5 4f3d c73e 393d
00000030: cdad 75be 9e5a 6fbe 3963 3cbe fcc4 16be
00000040: 43c4 a0be ad35 0abe b477 943e 0700 cabe
00000050: 0924 423e da07 84be 4226 833d ec75 de3d
00000060: eba1 903c e20c 9cbe 7a28 023e 4838 adbe
00000070: f92a 0abe ccd1 7bbd 63f7 353e c1db 88bd

weight f4 [1, 32]
-0.037045207 -0.28163671 0.1636311 -0.03461347 -0.32155973 0.28284064 0.2925593 0.15839984
-0.5102367 -0.04913285 0.03740373 -0.033423353 -0.07778199 -0.09625647 0.0320913 0.16604339
-0.030012136 0.15575767 0.4167949 -0.3136837 0.09051632 -0.2920124 -0.046664923 0.18444806
0.6224764 -0.20164703 -0.21277282 -0.06720069 0.36961392 -0.04503785 0.08422966 0.25144914
00000000: b7bc 17bd b032 90be e98e 273e dbc6 0dbd
00000010: 7aa3 a4be 7dd0 903e 55ca 953e 9133 223e
00000020: df9e 02bf 873f 49bd a734 193d ede6 08bd
00000030: 2a4c 9fbd 1d22 c5bd 2b72 033d 4707 2a3e
00000040: 03dc f5bc f07e 1f3e 2466 d53e 269b a0be
00000050: 9f60 b93d a682 95be b823 3fbd f4df 3c3e
00000060: 9d5a 1f3f 8f7c 4ebe 1ee1 59be 84a0 89bd
00000070: 093e bd3e 9c79 38bd 9a80 ac3d f1bd 803e

weight f4 [32, 32, 3, 3]
0.03488254 0.020119336 0.037289668 0.016426269 0.004131455 -0.017328873 -0.030485315 0.024815168
-0.011370048 -0.024107113 -4.4576824e-05 -0.033916347 -0.010368053 -0.056337833 0.00197177 0.05276965
0.017346513 -0.038109932 0.042445425 -0.013532799 -0.043472193 0.025194 -0.02011896 -0.037237626
0.023598645 0.04997618 0.043959532 0.008950803 -0.0011301264 0.022461016 0.006202493 -0.050772138
-0.015375804 -0.047844157 0.009955268 -0.056673378 -0.057913326 0.020935204 0.022368174 -0.0400042
0.025851246 0.047185037 -0.0032284409 -0.040106338 -0.007364705 -0.05721973 0.0004893616 0.04565205
-0.011462789 0.00030415133 -0.022158876 -0.014958754 0.007600438 0.023155857 0.022732582 -0.029698284
0.043207776 0.02518778 0.039294448 -0.022973694 0.0013687313 -0.033369765 -0.043281738 -0.028359666
0.008468043 -0.0296983 0.054582167 0.029996824 -0.04319086 -0.051880572 -0.015101377 -0.04404461
-0.052319426 0.013092618 -0.0031581558 -0.015607547 0.022622976 -0.001101438 -0.005334869 0.038522106
-0.05447776 0.0075242408 -0.04637166 0.012198869 0.021769982 0.017812852 -0.021757193 0.05864067
0.045995172 -0.0018268749 -0.042645235 -0.008307487 0.05419678 -0.023929033 -0.05506956 0.034230445
0.01961742 -0.045347705 0.0015333295 -0.011065226 0.031150814 -0.041557502 -0.041040726 -0.01768151
-0.052810878 0.040969137 -0.03765113 -0.05371333 -0.0011368133 0.05793738 -0.028231757 -0.02832056
-0.021222167 0.018356536 -0.0016265512 0.0028177276 -0.006678555 0.03612433 0.014966581 0.051409665
0.026521783 -0.019091025 -0.015625022 0.05647028 -0.03691719 -0.00017952546 0.006183561 0.010046419
-0.028798956 0.041138273 0.041614126 0.012821596 0.057603884 -0.047228053 0.0528736 0.016323056
-0.053653773 -0.030792776 -0.040604934 0.04721358 -0.018328823 0.029901352 0.013373677 0.03617869
-0.0024166442 0.011101808 -0.05071883 -0.036720686 -0.0018333122 -0.03861841 0.03198291 -0.0262876
0.013374526 0.032168422 -0.0318508 -0.02556583 0.020556744 -0.025926374 -0.0383597 0.05160405
0.03071436 -0.040241845 -0.040662374 0.04658291 -0.05651311 0.007422965 -0.034098737 0.05813164
-0.030096658 0.037606623 0.056770544 0.011148449 0.057950277 -0.036290284 -0.030320717 0.020337623
-0.05820751 0.039617185 -0.04328274 -0.044530436 -0.04703583 -0.045530677 0.03789219 0.01965386
-0.052448396 0.027186897 0.012847681 -0.044979356 -0.011464216 0.051055986 0.0022707805 -0.04638208
0.021364208 0.03495628 0.053496156 -0.0028339103 0.009621177 -0.0051650405 0.022608656 0.03579325
-0.010134619 0.0016910583 0.04996803 -0.025713217 -0.053746447 -0.033393286 0.047071535 0.002468992
0.04250667 -0.04094484 0.017301988 -0.01359373 -0.0020251013 0.039465737 0.00097381696 0.0037947036
0.03458756 0.044130538 -0.004886329 -0.032694966 -0.023734458 -0.007863142 0.04658011 -0.022986658
1.6640872e-05 0.014988031 0.050263647 0.03738382 -0.0065708123 -0.02761997 -0.0102838315 0.037869047
0.02213436 -0.02627736 -0.016134627 0.04068819 -0.003378 0.028335866 -0.024376199 0.02826767
0.03704453 -0.030965712 0.020636681 -0.02558139 -0.014819294 0.015966844 0.023300085 0.009761687
0.017564196 0.035449203 0.05505732 -0.0337539 -0.04219498 0.02068979 -0.05283307 -0.008071706
00000000: ffe0 0e3d 4ed1 a43c 0dbd 183d 6290 863c
00000010: 2861 873b 48f5 8dbc 57bc f9bc 2e49 cb3c
00000020: 7049 3abc 487c c5bc 00f8 3ab8 deeb 0abd
00000030: c4de 29bc 80c2 66bd d038 013b fd24 583d
00000040: 461a 8e3c 2919 1cbd 41db 2d3d acb8 5dbc
00000050: e60f 32bd a663 ce3c 84d0 a4bc 7b86 18bd
00000060: f251 c13c d3b3 4c3d e90e 343d 64a6 123c
00000070: c020 94ba 2a00 b83c 483e cb3b 72f6 4fbd
00000080: ccea 7bbc 3cf8 43bd 6c1b 233c 5822 68bd
00000090: 8636 6dbd 4e80 ab3c 763d b73c 72db 23bd
000000a0: fec5 d33c 1945 413d 4094 53bb 8b46 24bd
000000b0: a053 f1bb 3c5f 6abd 8048 003a a5fd 3a3d
000000c0: 6cce 3bbc 8076 9f39 8886 b5bc 9015 75bc
000000d0: 180d f93b 5ab1 bd3c ae39 ba3c d149 f3bc
000000e0: a3fa 303d 9a56 ce3c 37f3 203d 5433 bcbc
000000f0: 0067 b33a bcae 08bd 3148 31bd 8852 e8bc
00000100: 8cbd 0a3c d949 f3bc 8d91 5f3d e6bb f53c
00000110: e6e8 30bd b980 54bd c46b 77bc 1f68 34bd
00000120: e54c 56bd 6c82 563c 10f9 4ebb ccb6 7fbc
00000130: d253 b93c 205e 90ba 20d0 aebb 5bc9 1d3d
00000140: 1224 5fbd e88d f63b 36f0 3dbd c4dd 473c
00000150: f656 b23c 42ec 913c 243c b2bc 3331 703d
00000160: 6f65 3c3d c073 efba c5ac 2ebd 201c 08bc
00000170: 71fd 5d3d d206 c4bc 9e90 61bd 3935 0c3d
00000180: b6b4 a03c 84be 39bd 00fa c83a ec4a 35bc
00000190: fe2f ff3c 3338 2abd 521a 28bd d0d8 90bc
000001a0: 3850 58bd 41cf 273d 1238 1abd 8202 5cbd
000001b0: 2001 95ba bf4f 6d3d 4946 e7bc 8500 e8bc
000001c0: 1cda adbc 7260 963c 0032 d5ba a0a9 383b
000001d0: c8d7 dabb 1bf7 133d 6436 753c f192 523d
000001e0: 3644 d93c c864 9cbc 0c00 80bc 614d 673d
000001f0: 7b36 17bd 003f 3cb9 789f ca3b bc99 243c
00000200: caeb ebbc 9b80 283d 9373 2a3d ac11 523c
00000210: 0df2 6b3d 3472 41bd fd91 583d eeb7 853c
00000220: 0fc4 5bbd 2241 fcbc 5c51 26bd 0763 413d
00000230: 5426 96bc aef3 f43c 441d 5b3c 1b30 143d
00000240: 9060 1ebb 5ce4 353c 8cbe 4fbd 6e68 16bd
00000250: c04b f0ba 562e 1ebd 8300 033d 1859 d7bc
00000260: d420 5b3c 09c3 033d fc75 02bd 6e6f d1bc
00000270: 9e66 a83c 8c63 d4bc 101f 1dbd c55e 533d
00000280: ae9c fb3c a2d4 24bd 978d 26bd b9cd 3e3d
00000290: 4a7a 67bd 583c f33b 1eab 0bbd 711b 6e3d
000002a0: 448d f6bc 6709 1a3d 3b88 683d fca7 363c
000002b0: 455d 6d3d 1fa5 14bd 2763 f8bc 169b a63c
000002c0: ff6a 6ebd a145 223d 3e49 31bd 8c65 36bd
000002d0: a4a8 40bd 607e 3abd d734 1b3d 2201 a13c
000002e0: 21d4 56bd 0eb7 de3c 147f 523c 463c 38bd
000002f0: 68d4 3bbc 1520 513d 60d1 143b 23fb 3dbd
00000300: fe03 af3c 512e 0f3d c91e 5b3d 20b9 39bb
00000310: 24a2 1d3c 803f a9bb ca35 b93c f19b 123d
00000320: ac0b 26bc 80a6 dd3a 47ab 4c3d 86a4 d2bc
00000330: 3c25 5cbd 66c7 08bd 15ce 403d d0ce 213b
00000340: 791b 2e3d c7b5 27bd e6bc 8d3c 3cb8 5ebc
00000350: 90b7 04bb d3a6 213d c047 7f3a 90b0 783b
00000360: afab 0d3d 39c2 343d 801d a0bb 28eb 05bd
00000370: c46e c2bc 68d4 00bc c9ca 3e3d 844e bcbc
00000380: 0098 8b37 5c90 753c 41e1 4d3d c71f 193d
00000390: f84f d7bb 4643 e2bc 847d 28bc 931c 1b3d
000003a0: 1e53 b53c 9e43 d7bc c42c 84bc a9a8 263d
000003b0: 7061 5dbb 9e20 e83c 98b0 c7bc 9a91 e73c
000003c0: 01bc 173d ceab fdbc 420e a93c 1090 d1bc
000003d0: a0cc 72bc e6cc 823c d2df be3c 7cef 1f3c
000003e0: cae2 8f3c 2f33 113d c983 613d 8841 0abd
000003f0: a5d4 2cbd a27d a93c 7d67 58bd 303f 04bc

bias f4 [32]
-0.023272332 0.009010162 0.0044380985 -0.041173413 0.05177227 0.01044267 0.051777143 0.0338724
-0.030594876 -0.0038855672 -0.02469626 0.04673071 -0.034851648 0.0003518574 -0.05665359 -0.035185825
0.044759605 0.020252723 -0.045146193 0.008544933 -0.021245487 0.0040396787 -0.015986312 -0.018027976
-0.048408087 0.04445182 -0.014326431 -0.017436195 -0.0447529 0.0037823431 0.02853923 -0.040637318
00000000: 9ea5 bebc 5c9f 133c 786d 913b 74a5 28bd
00000010: 290f 543d bc17 2b3c 4514 543d c9bd 0a3d
00000020: 1ba2 fabc 00a5 7ebb d04f cabc b368 3f3d
00000030: 9ac0 0ebd 8079 b839 980d 68bd 031f 10bd
00000040: d955 373d 0ae9 a53c 37eb 38bd 0c00 0c3c
00000050: 040b aebc 485f 843b baf5 82bc 68af 93bc
00000060: 8f47 46bd 1d13 363d 68b9 6abc 5ad6 8ebc
00000070: d14e 37bd 30e1 773b 1acb e93c 5173 26bd

weight f4 [32, 32, 3, 3]
-0.02703558 0.0507874 -0.03765573 0.03215828 0.046169896 0.030806933 0.030818764 0.034646373
-0.051793665 0.034201335 0.047006857 0.027510386 0.045545895 0.046644118 0.04887462 0.03841472
-0.052982938 -0.02063908 0.052651566 -0.051165313 0.04499906 0.056397665 0.05104513 -0.02472125
-0.057612557 -0.029710852 0.042724464 0.041255083 -0.03342566 -0.02817339 -0.05028129 -0.018406373
0.020135839 0.011612851 -0.032205854 -0.016034607 0.029053446 0.0093197115 -0.05322984 -0.012843978
-0.006967578 0.02005804 0.029704284 -0.03886125 0.030194331 0.045221325 -0.053184252 0.012549516
-0.05838976 0.026767153 0.022864182 -0.026141386 -0.03738013 0.0039285533 0.016375508 -0.045197017
0.045094196 -0.00019872934 -0.057258874 -0.055702526 -0.044772316 0.04587533 0.018784035 -0.04693979
0.05703738 -0.010775775 0.0048544146 -0.05161728 -0.008394878 -0.044061735 0.031692635 -0.01198265
0.0022664405 0.04274321 -0.013119936 -0.039275937 -0.01386705 0.023316782 -0.012586426 0.035169896
-0.0146529 -0.04160004 0.014460731 0.004729513 -0.0024934635 0.01807246 0.048735138 0.020981688
-0.045555115 -0.034513757 0.014199633 -0.041489854 -0.008617617 0.05110694 -0.053000584 -0.0201649
-0.05645491 -0.057133757 -0.03220088 -0.018703613 -0.012300894 -0.005394563 0.022581037 -0.018689767
-0.050593205 -0.037812285 0.013385568 -0.015668169 0.0003434345 -0.0294664 0.020663109 0.043843742
-0.031225821 0.049553055 -0.04984242 0.016680893 -0.039864246 -0.018119942 -0.03165774 -0.0016162954
-0.025384147 0.025111724 -0.022558123 -0.044032127 -0.02388271 -0.017494138 -0.008543041 -0.021186735
0.010881674 0.049430687 -0.042695135 -0.0013556518 -0.00691412 -0.0120175965 0.02156413 -0.036383435
0.036561597 0.036759336 -0.00033547357 0.04721039 -0.05346625 -0.022084344 0.045335565 -0.012247536
0.014954228 -0.049540818 -0.02643222 0.045500476 0.031229343 -0.016795084 -0.014734488 -0.0072103627
-0.0040527433 -0.05190359 -0.01769884 -0.0290769 0.0025747307 -0.04889976 0.0122539885 0.05075543
0.05465923 0.03961124 -0.046456266 0.033160497 -0.015180662 -0.02048846 0.032660972 -0.027057819
0.025590103 -0.034172766 -0.008771643 0.005958643 0.05216972 -0.05704243 -0.023821954 0.005442012
-0.025576204 0.029705811 0.024861868 -0.02549779 0.057284813 0.033579644 0.007716406 0.048320737
-0.007242769 0.050942663 0.047378454 -0.020162553 -0.02422253 -0.011222828 0.016053867 0.04079197
-0.01208603 0.029610943 -0.0051695853 -0.02185987 0.052789796 0.03682072 -0.018475901 -0.017878223
0.05028941 -0.012853473 -0.04168473 0.009279508 0.05638321 -0.01682252 -0.030612929 0.026364285
0.028665919 -0.019630484 -0.010814693 0.018695932 -0.03804326 -0.022730336 0.044908654 0.02726822
0.041299265 -0.025949378 0.054892067 -0.033840835 -0.00060317665 0.04227751 0.043266345 0.04609325
-0.01627532 0.0547474 0.04673372 -0.041268393 -0.02006219 0.025230188 0.055189583 -0.05354139
0.053837743 -0.019941881 0.021420088 -0.008060649 -0.048508488 0.026536595 0.03373183 0.02032775
0.017046336 0.03615356 0.041756 0.0420664 0.019370582 0.025890801 -0.016291603 -0.05684279
-0.04956359 0.03509021 0.016491693 0.042053018 -0.0348602 0.039807897 -0.0047533847 0.042503867
00000000: b879 ddbc 7306 503d e53c 1abd 67b8 033d
00000010: a51c 3d3d d25e fc3c a277 fc3c 5be9 0d3d
00000020: 9825 54bd b316 0c3d 438a 403d 765d e13c
00000030: 558e 3a3d e70d 3f3d c130 483d c158 1d3d
00000040: a304 59bd 4a13 a9bc 2ba9 573d b892 51bd
00000050: ef50 383d 3d01 673d b314 513d 3884 cabc
00000060: 25fb 6bbd 2c64 f3bc d9ff 2e3d 17fb 283d
00000070: 58e9 08bd e2cb e6bc c1f3 4dbd f6c8 96bc
00000080: eaf3 a43c d443 3e3c 49ea 03bd 025b 83bc
00000090: 7e01 ee3c b4b1 183c 8807 5abd 8c6f 52bc
000000a0: 4850 e4bb c250 a43c 6656 f33c f92c 1fbd
000000b0: 1a5a f73c ff39 393d bbd7 59bd 7c9c 4d3c
000000c0: 1a2a 6fbd ca46 db3c aa4d bb3c 7626 d6bc
000000d0: e81b 19bd 18bb 803b ee25 863c 8220 39bd
000000e0: b1b4 383d 0062 50b9 4888 6abd 5528 64bd
000000f0: 2d63 37bd c5e7 3b3d fae0 993c f043 40bd
00000100: 07a0 693d e08c 30bc c811 9f3b a46c 53bd
00000110: ac8a 09bc 147a 34bd 23d0 013d e052 44bc
00000120: 9088 143b 8113 2f3d 00f5 56bc cedf 20bd
00000130: a032 63bc d602 bf3c 4c37 4ebc 4f0e 103d
00000140: b812 70bc ce64 2abd b4ec 6c3c 08fa 9a3b
00000150: 6069 23bb b20c 943c 7f9e 473d cae1 ab3c
00000160: 0098 3abd 4c5e 0dbd 94a5 683c 44f1 29bd
00000170: e830 0dbc 8355 513d 2417 59bd dc30 a5bc
00000180: 443d 67bd 1605 6abd 12e5 03bd 5238 99bc
00000190: b089 49bc e0c4 b0bb defb b83c 481b 99bc
000001a0: d23a 4fbd 0ee1 1abd 244f 5b3c 885a 80bc
000001b0: 000f b439 8563 f1bc ae45 a93c 7f95 333d
000001c0: 4bcd ffbc 25f8 4a3d 9127 4cbd 5ea6 883c
000001d0: b148 23bd 4670 94bc 8cab 01bd e0d9 d3ba
000001e0: 6af2 cfbc 1ab7 cd3c d0cb b8bc 085b 34bd
000001f0: aca5 c3bc de4f 8fbc 1cf8 0bbc ce8f adbc
00000200: 0c49 323c d577 4a3d 18e1 2ebd 20b0 b1ba
00000210: d88f e2bb 74e5 44bc 42a7 b03c cc06 15bd
00000220: 9dc1 153d f590 163d 80e2 afb9 af5f 413d
00000230: 6dff 5abd 3aea b4bc c9b1 393d e4a9 48bc
00000240: 9402 753c 50eb 4abd 6288 d8bc b55e 3a3d
00000250: aed4 ff3c d895 89bc ec68 71bc e844 ecbb
00000260: e0cc 84bb dc98 54bd 28fd 90bc ae32 eebc
00000270: d0bc 283b 1d4b 48bd f4c4 483c ede4 4f3d
00000280: 5be2 5f3d 653f 223d ed48 3ebd 4dd3 073d
00000290: 50b8 78bc 6ad7 a7bc 83c7 053d 5ca8 ddbc
000002a0: 56a2 d13c bef8 0bbd f0b6 0fbc b840 c33b
000002b0: ebaf 553d 53a5 69bd 4226 c3bc e852 b23b
000002c0: 3085 d1bc 9a59 f33c 1eab cb3c bee0 d0bc
000002d0: 7ba3 6a3d cf8a 093d e8d9 fc3b f7eb 453d
000002e0: c054 edbb 41a9 503d e90f 423d f02b a5bc
000002f0: 546e c6bc f4df 37bc 6683 833c 7b15 273d
00000300: 7c04 46bc a692 f23c a065 a9bb 7813 b3bc
00000310: 1d3a 583d 53d1 163d c65a 97bc 5a75 92bc
00000320: 45fc 4d3d 6097 52bc 9cbd 2abd 1409 183c
00000330: 15f2 663d 62cf 89bc f7c7 fabc eaf9 d73c
00000340: cad4 ea3c 1cd0 a0bc 1c30 31bc 3628 993c
00000350: 40d3 1bbd f834 babc 23f2 373d 9a61 df3c
00000360: 6b29 293d ca93 d4bc 81d6 603d b09c 0abd
00000370: 801e 1eba 2f2b 2d3d 0d38 313d 47cc 3c3d
00000380: d253 85bc cf3e 603d db6b 3f3d 0c09 29bd
00000390: 7659 a4bc 8aaf ce3c 790e 623d 374e 5bbd
000003a0: f784 5c3d 285d a3bc 2e79 af3c d010 04bc
000003b0: d6b0 46bd 4663 d93c 632a 0a3d 6286 a63c
000003c0: c2a4 8b3c c115 143d 5708 2b3d d14d 2c3d
000003d0: 0eaf 9e3c f218 d43c f875 85bc fcd3 68bd
000003e0: 3103 4bbd c1ba 0f3d 9619 873c c93f 2c3d
000003f0: 92c9 0ebd 9b0d 233d 48c2 9bbb 8918 2e3d

bias f4 [32]
-0.045860037 -0.004334882 -0.046076585 -0.009289656 -0.026427548 -0.027371082 -0.0056380033 0.053558428
0.020690057 0.026840676 -0.0415543 0.020111118 0.042646598 -0.049636662 0.016559232 -0.0072801933
0.009802643 -0.030872539 -0.05767086 0.022067878 0.0045908503 -0.045540392 -0.056998227 -0.04824889
-0.024600808 -0.05486853 0.028267067 0.054886002 -0.015253894 0.008353155 -0.053688448 -0.007904172
00000000: bcd7 3bbd a00b 8ebb cdba 3cbd a433 18bc
00000010: 967e d8bc 5239 e0bc 00bf b8bb 1560 5b3d
00000020: 327e a93c fae0 db3c d734 2abd 12c0 a43c
00000030: 33ae 2e3d d04f 4bbd 3aa7 873c b08e eebb
00000040: 449b 203c 68e8 fcbc 4838 6cbd b2c7 b43c
00000050: d86e 963b 9088 3abd f976 69bd a1a0 45bd
00000060: a287 c9bc d3bd 60bd 5690 e73c 25d0 603d
00000070: 78eb 79bc acdb 083c 6be8 5bbd 8080 01bc

weight f4 [32]
1.0 1.0 1.0 1.0 1.0 1.0 1.0 1.0
1.0 1.0 1.0 1.0 1.0 1.0 1.0 1.0
1.0 1.0 1.0 1.0 1.0 1.0 1.0 1.0
1.0 1.0 1.0 1.0 1.0 1.0 1.0 1.0
00000000: 0000 803f 0000 803f 0000 803f 0000 803f
00000010: 0000 803f 0000 803f 0000 803f 0000 803f
00000020: 0000 803f 0000 803f 0000 803f 0000 803f
00000030: 0000 803f 0000 803f 0000 803f 0000 803f
00000040: 0000 803f 0000 803f 0000 803f 0000 803f
00000050: 0000 803f 0000 803f 0000 803f 0000 803f
00000060: 0000 803f 0000 803f 0000 803f 0000 803f
00000070: 0000 803f 0000 803f 0000 803f 0000 803f

bias f4 [32]
0.0 0.0 0.0 0.0 0.0 0.0 0.0 0.0
0.0 0.0 0.0 0.0 0.0 0.0 0.0 0.0
0.0 0.0 0.0 0.0 0.0 0.0 0.0 0.0
0.0 0.0 0.0 0.0 0.0 0.0 0.0 0.0
00000000: 0000 0000 0000 0000 0000 0000 0000 0000
00000010: 0000 0000 0000 0000 0000 0000 0000 0000
00000020: 0000 0000 0000 0000 0000 0000 0000 0000
00000030: 0000 0000 0000 0000 0000 0000 0000 0000
00000040: 0000 0000 0000 0000 0000 0000 0000 0000
00000050: 0000 0000 0000 0000 0000 0000 0000 0000
00000060: 0000 0000 0000 0000 0000 0000 0000 0000
00000070: 0000 0000 0000 0000 0000 0000 0000 0000

running_mean f4 [32]
-0.14634034 0.7102903 -0.04515358 0.112240255 0.25106058 0.38617083 0.42233816 -0.003453838
0.20465104 -0.06358022 0.042765833 0.0867156 -0.30142918 0.46628284 0.049951244 -0.4093814
0.14938754 -0.38206083 -0.08105975 0.19818075 0.010052312 -0.29910606 -0.3006392 -0.5460384
-0.40309772 0.6177949 -0.4890314 0.13549317 -0.41451332 0.20431384 0.086368285 -0.36618546
00000000: 3eda 15be 96d5 353f f6f2 38bd 38de e53d
00000010: 038b 803e 2fb8 c53e b53c d83e c959 62bb
00000020: 0b90 513e 5936 82bd 3a2b 2f3d f397 b13d
00000030: ed54 9abe a0bc ee3e ad99 4c3d 709a d1be
00000040: 0cf9 183e 7a9d c3be a702 a6bd e5ef 4a3e
00000050: 74b2 243c 6e24 99be 62ed 99be 2cc9 0bbf
00000060: d362 cebe ce27 1e3f 5362 fabe b9be 0a3e
00000070: 173b d4be a637 513e dbe1 b03d a97c bbbe

running_var f4 [32]
0.1290119 0.107375704 0.11945209 0.32482257 0.18903753 0.30258754 0.26745066 0.305034
0.114664674 0.3390855 0.12521277 0.13891703 0.25448292 0.26655677 0.62448126 0.09807668
0.11298797 0.20343675 0.27793366 0.28856185 0.2375472 0.29393795 0.25804263 0.27379578
0.15628576 0.12885481 0.16891755 0.48578003 0.87117696 0.33632675 0.12989296 0.22247024
00000000: b21b 043e cbe7 db3d 4ca3 f43d 254f a63e
00000010: 0e93 413e c1ec 9a3e 4bef 883e 6b2d 9c3e
00000020: 50d5 ea3d 9d9c ad3e c737 003e 4440 0e3e
00000030: 964b 823e 217a 883e 01de 1f3f 6ddc c83d
00000040: 3d66 e73d b951 503e 524d 8e3e 61be 933e
00000050: 933f 733e 097f 963e 2a1e 843e f62e 8c3e
00000060: 6009 203e 84f2 033e b9f8 2c3e 29b8 f83e
00000070: 7405 5f3f 0533 ac3e a902 053e 3dcf 633e

weight f4 [32]
1.0 1.0 1.0 1.0 1.0 1.0 1.0 1.0
1.0 1.0 1.0 1.0 1.0 1.0 1.0 1.0
1.0 1.0 1.0 1.0 1.0 1.0 1.0 1.0
1.0 1.0 1.0 1.0 1.0 1.0 1.0 1.0
00000000: 0000 803f 0000 803f 0000 803f 0000 803f
00000010: 0000 803f 0000 803f 0000 803f 0000 803f
00000020: 0000 803f 0000 803f 0000 803f 0000 803f
00000030: 0000 803f 0000 803f 0000 803f 0000 803f
00000040: 0000 803f 0000 803f 0000 803f 0000 803f
00000050: 0000 803f 0000 803f 0000 803f 0000 803f
00000060: 0000 803f 0000 803f 0000 803f 0000 803f
00000070: 0000 803f 0000 803f 0000 803f 0000 803f

bias f4 [32]
0.0 0.0 0.0 0.0 0.0 0.0 0.0 0.0
0.0 0.0 0.0 0.0 0.0 0.0 0.0 0.0
0.0 0.0 0.0 0.0 0.0 0.0 0.0 0.0
0.0 0.0 0.0 0.0 0.0 0.0 0.0 0.0
00000000: 0000 0000 0000 0000 0000 0000 0000 0000
00000010: 0000 0000 0000 0000 0000 0000 0000 0000
00000020: 0000 0000 0000 0000 0000 0000 0000 0000
00000030: 0000 0000 0000 0000 0000 0000 0000 0000
00000040: 0000 0000 0000 0000 0000 0000 0000 0000
00000050: 0000 0000 0000 0000 0000 0000 0000 0000
00000060: 0000 0000 0000 0000 0000 0000 0000 0000
00000070: 0000 0000 0000 0000 0000 0000 0000 0000

running_mean f4 [32]
0.080843866 0.22787496 -0.31496012 0.08097671 -0.023462197 -0.2075093 -0.23891824 0.27522233
0.04019311 -0.20437942 -0.1700958 -0.238083 0.02249726 0.02888334 -0.062975034 0.12718907
-0.06339902 0.070388205 -0.412894 -0.15453416 -0.20130411 -0.09442021 0.020268057 -0.11900927
0.034400903 -0.12024161 -0.3962988 0.0051907217 -0.104375005 -0.023823725 -0.033995878 0.17901021
00000000: 7891 a53d 0e58 693e 7442 a1be 1ed7 a53d
00000010: cb33 c0bc 517d 54be fca6 74be f1e9 8c3e
00000020: 88a1 243d d748 51be 982d 2ebe 08cc 73be
00000030: 2c4c b83c c19c ec3c 0ef9 80bd da3d 023e
00000040: 58d7 81bd b127 903d d866 d3be 343e 1ebe
00000050: aa22 4ebe 625f c1bd 3209 a63c 22bb f3bd
00000060: f6e7 0c3d 3c41 f6bd ade7 cabe ee16 aa3b
00000070: 90c2 d5bd f929 c3bc 433f 0bbd 744e 373e

running_var f4 [32]
0.06841202 0.048813887 0.055979002 0.063854046 0.052813936 0.082503356 0.08603158 0.11269434
0.08094547 0.05992202 0.08922772 0.07317877 0.084507145 0.051645204 0.1287867 0.1183924
0.10779933 0.053206883 0.07807517 0.13736059 0.06996223 0.13350086 0.14301533 0.05329389
0.05031197 0.10873406 0.11823843 0.04819237 0.06419103 0.07745623 0.10789473 0.16555649
00000000: 9a1b 8c3d 12f1 473d 3d4a 653d e9c5 823d
00000010: 6d53 583d 85f7 a83d 5331 b03d 4acc e63d
00000020: bdc6 a53d cb70 753d 06bd b63d c0de 953d
00000030: 1512 ad3d ec89 533d a9e0 033e b777 f23d
00000040: e5c5 dc3d 76ef 593d e0e5 9f3d 41a8 0c3e
00000050: 5c48 8f3d 73b4 083e 9c72 123e b24a 5a3d
00000060: ed13 4e3d f6af de3d fd26 f23d 5d65 453d
00000070: 9676 833d 5fa1 9e3d eaf7 dc3d a487 293e
