5_cross_5_iter_20.pt (torch_old, 327252 bytes, 66 tensors)

weight f4 [32, 5, 3, 3]
0	0xbe3a5f3f	-0.18200396
1	0xbe429f0e	-0.19005987
2	0xbeae2c17	-0.34018013
3	0xbf05d34c	-0.5227554
4	0xbf61e740	-0.88243484
5	0xbeb47e9d	-0.35252848
6	0xbf11b246	-0.5691265
7	0xbf565e78	-0.837379
8	0xbf692cde	-0.91084087
9	0xbe1f73a9	-0.15571465
10	0x3eda7d67	0.426738
11	0x3e4f84bd	0.2026548
12	0x3e0f453c	0.13991255
13	0x3e6e8f02	0.2329674
14	0x3e4e4b54	0.20145923
15	0xbe2e4248	-0.17017472
16	0x3e92d75c	0.2867993
17	0x3e9a7962	0.30170733
18	0xbd918827	-0.07106047
19	0xbd979ca7	-0.07402926
20	0xbe50592c	-0.20346516
21	0xbef2ffd7	-0.47460815
22	0xbf31990a	-0.69374144
23	0xbecd0911	-0.4004598
24	0x3e101e5b	0.1407408
25	0xbf480b08	-0.7814183
26	0xbf289b9f	-0.6586246
27	0x3e8098f0	0.25116682
28	0x3f08e1ff	0.5346984
29	0x3c60820c	0.013702881
30	0x3d78b3ec	0.060718462
31	0x3e36954c	0.1783039
32	0x3dae0601	0.08497239
33	0x3dbba6a5	0.09162644
34	0x3ec6f3c5	0.38857856
35	0x3d0ca991	0.0343414
36	0x3e0e65ef	0.13906072
37	0x3e84ba0a	0.25923187
38	0x3de9bb76	0.114127085
39	0x3e527787	0.20553409
40	0x3e6683fc	0.22511286
41	0x3db21a69	0.086964436
42	0x3e132929	0.1437117
43	0x3dd7311f	0.10507416
44	0x3e5b0ac4	0.21390826
45	0xbee21705	-0.44158188
46	0xbef5d1fe	-0.48011774
47	0xbef101b8	-0.47071624
48	0xbea8e61a	-0.32988054
49	0xbd5d822c	-0.05407922
50	0xbe8831a4	-0.26600373
51	0xbd4535c1	-0.048146967
52	0x3db57eab	0.088620506
53	0xbe43463a	-0.19069758
54	0x3ed8b607	0.42326376
55	0x3ee90c8b	0.45517382
56	0x3ebbfe2b	0.36717352
57	0x3e27a411	0.1637118
58	0xbe4f2ca9	-0.2023188
59	0xbe2a8f1b	-0.16656153
60	0x3cd9bf7a	0.026580561
61	0xbd3caffd	-0.046066273
62	0xbe7d8a1e	-0.24759719
63	0xbf185827	-0.5950951
64	0xbe220d54	-0.15825397
65	0xbe95303e	-0.29138368
66	0xbe16d197	-0.1472839
67	0x3d8fb529	0.070169754
68	0x3c17bd52	0.009261446
69	0xbe870709	-0.26372555
70	0x3dce0afa	0.10060687
71	0xbde71c0d	-0.11284647
72	0x3f00f5ce	0.5037507
73	0x3e81fec0	0.2538967
74	0x3ec68dcb	0.38780054
75	0x3d85a002	0.0652466
76	0xbf007407	-0.50177044
77	0xbe4b715d	-0.19867463
78	0xbd99ffc6	-0.07519488
79	0x3d8e6405	0.06952671
80	0xbe962c84	-0.29330838
81	0xbf19372c	-0.5984981
82	0xbf0e4296	-0.5557035
83	0xbedc4d4b	-0.4302772
84	0xbf0613f2	-0.52374184
85	0xbf21bc50	-0.6317797
86	0xbf1a287f	-0.6021804
87	0xbf053547	-0.5203442
88	0xbf21a1ec	-0.631377
89	0xbf04a88b	-0.51819676
90	0x3c326e92	0.01089062
91	0x3e5db09d	0.21649404
92	0x3e5819de	0.21103618
93	0xbe6e3c1e	-0.2326512
94	0x3d2089f1	0.03919405
95	0x3e2d6d89	0.16936316
96	0xbc2bf1eb	-0.010494689
97	0x3eb54598	0.35404658
98	0xbe28c909	-0.16482939
99	0xbe091d35	-0.13390048
100	0xbe91dc9f	-0.28488633
101	0xbeccaa44	-0.39973652
102	0x3d43eadf	0.047831412
103	0xbdb60620	-0.08887887
104	0xbf01bb79	-0.50676686
105	0x3e1d962e	0.1538932
106	0xbe0fbd1b	-0.14036982
107	0x3e2ee9da	0.17081395
108	0xbd4a0360	-0.049319625
109	0xbdb86890	-0.09004319
110	0x3d2ffd4c	0.042966172
111	0xbe559e9c	-0.20861286
112	0x3e8e762e	0.2782454
113	0x3eafeb3b	0.34359154
114	0xbde49ac1	-0.111623295
115	0x3e987a61	0.29780868
116	0xbd93f6a0	-0.07224774
117	0xbd454b85	-0.048167724
118	0xbe431747	-0.19051848
119	0xbee0ba7a	-0.4389227
120	0x3e134575	0.14381965
121	0xbe36b960	-0.17844152
122	0xbeeb7db7	-0.4599435
123	0xbbc7afd6	-0.0060939593
124	0xbd8fabdb	-0.07015201
125	0x3e1e7397	0.15473782
126	0xbf15e085	-0.58545715
127	0xbf238ea0	-0.63889503
128	0xbf3d1329	-0.7385736
129	0xbf13111b	-0.57447976
130	0xbf2f958d	-0.6858757
131	0xbf1f965a	-0.62338793
132	0xbf2fa6ae	-0.6861371
133	0xbf285956	-0.65761316
134	0xbf0cee44	-0.55051064
135	0xbd6423f5	-0.055698354
136	0xbec456d0	-0.38347483
137	0x3df5aa8f	0.11995422
138	0x3da913fc	0.08255765
139	0xbda97e2a	-0.08276017
140	0xbe80a639	-0.25126818
141	0x3e92cc9b	0.28671727
142	0x3f1bf136	0.60914934
143	0xbf0f7755	-0.5604146
144	0xbe923d76	-0.28562516
145	0x3d71c16b	0.05902235
146	0xbedf3bf6	-0.43600434
147	0xbe0f2ee4	-0.13982731
148	0x3e3f280d	0.18667622
149	0xbd91e908	-0.07124525
150	0xbe8608c4	-0.26178563
151	0xbded8254	-0.11597124
152	0x3f39dca7	0.72602314
153	0xbe075e0a	-0.13219467
154	0x3c57cf01	0.013171912
155	0x3e4c7e79	0.1997012
156	0xbdf4216a	-0.11920436
157	0x3e406172	0.18787172
158	0xbc46f4fb	-0.012143369
159	0x3d247efc	0.040160164
160	0x3f27cbe3	0.6554548
161	0xbf10fab6	-0.56632555
162	0xbe6368e9	-0.22207989
163	0x3e39786a	0.1811234
164	0xbe66f530	-0.22554469
165	0xbde11b78	-0.109915674
166	0x3df64a50	0.12025893
167	0xbcd85baf	-0.026410906
168	0xbe09d007	-0.13458262
169	0x3c7e36a0	0.015515953
170	0x3f2b1d8a	0.6684195
171	0xbea9801b	-0.3310555
172	0xbed4be27	-0.41551325
173	0xbf00d190	-0.50319767
174	0xbf134d8e	-0.57540214
175	0xbee31720	-0.4435358
176	0xbf033dcb	-0.51266164
177	0xbf0853d0	-0.5325289
178	0xbeaf64b9	-0.34256533
179	0xbedcca3c	-0.43123043
180	0x3c3681f9	0.011139386
181	0xbf3570cd	-0.70875245
182	0xbd7fed67	-0.062482264
183	0xbe6f0ae1	-0.23343994
184	0x3e60a514	0.21937972
185	0x3e031e48	0.1280452
186	0x3f0015cc	0.5003326
187	0xbf1ba994	-0.6080563
188	0xbe31619e	-0.17322394
189	0xbe0b8d8e	-0.13628218
190	0x3effbd68	0.49949193
191	0xbdf14b4b	-0.11781939
192	0x3e957f58	0.29198718
193	0x3dc9522c	0.09830126
194	0x3e9568e4	0.29181588
195	0xbd48635a	-0.048922874
196	0x3cc073ed	0.023492778
197	0x3f0beaa3	0.546549
198	0xbeba8604	-0.3643037
199	0xbf103bbb	-0.5634114
200	0xbe85cf8c	-0.26134908
201	0xbea3e459	-0.32010153
202	0x3c9710d9	0.01844065
203	0xbe3da1a7	-0.18518697
204	0x3de3131b	0.110876285
205	0xbea4d3fc	-0.3219298
206	0x3e1fa506	0.15590295
207	0x3ca9592b	0.020672401
208	0x3f24a8de	0.6432017
209	0x3db02c8b	0.08602246
210	0x3f378317	0.716844
211	0x3dd41c0c	0.10356912
212	0x3ec142a3	0.37746152
213	0x3df733df	0.120704405
214	0x3e146980	0.1449337
215	0x3f220d52	0.63301575
216	0x3f2170bc	0.63062644
217	0x3f244546	0.641682
218	0x3f52b099	0.82300717
219	0x3f558434	0.8340485
220	0x3f0eb89f	0.5575046
221	0x3f475065	0.7785705
222	0x3f206dcc	0.62667537
223	0x3f3ae794	0.7300961
224	0x3f168c4b	0.5880782
225	0x3b4ffa5b	0.0031734917
226	0xbda6969f	-0.081341974
227	0xbe440890	-0.19143891
228	0x3f192d1e	0.5983447
229	0x3e3d66b0	0.18496203
230	0x3d20f83d	0.03929924
231	0xbc11794c	-0.008879017
232	0x3e5e253a	0.21693888
233	0xbf105824	-0.5638449
234	0x3e38768f	0.18013977
235	0x3e5a107b	0.2129535
236	0x3e91cf4b	0.28478464
237	0xbeb378e6	-0.35053176
238	0xbe8964fa	-0.26834852
239	0x3ecdb02a	0.40173465
240	0xbe9e8371	-0.30959657
241	0x3e07cd7f	0.13261984
242	0x3e3bf097	0.18353496
243	0xbdb3a65c	-0.08771965
244	0xbe656bad	-0.22404356
245	0x3d6cab82	0.05778075
246	0x3f346672	0.7046882
247	0x3cb8037a	0.022462595
248	0xbe12ed3d	-0.14348312
249	0xbd8a5960	-0.06755328
250	0x3e1e4232	0.15454939
251	0xbeb84e10	-0.35997057
252	0x3df75171	0.120760806
253	0x3da77668	0.08176881
254	0x3e2fbdb6	0.17162213
255	0xbec143f8	-0.3774717

bias f4 [32]
0	0x3d5fdd0d	0.05465417
1	0xbda08f5d	-0.078398444
2	0xbe0975b7	-0.13423811
3	0x3c204d6e	0.009784086
4	0xbd8a06d2	-0.06739582
5	0xbe09b475	-0.13447745
6	0x3b34aba6	0.002756813
7	0x3daef5d8	0.08542985
8	0x3b8d1f48	0.0043067075
9	0xbd6a4bd0	-0.057201207
10	0xbc010ea8	-0.0078770295
11	0x3d805675	0.0626649
12	0xbd21d61d	-0.039510835
13	0xbdba316b	-0.09091457
14	0x3d15e946	0.03659942
15	0xbdbf6faa	-0.0934747
16	0xbde4e566	-0.11176567
17	0xbddc5074	-0.10757533
18	0xbc884932	-0.016636465
19	0xbdc1c7cd	-0.09461937
20	0xbdb2bbf8	-0.087272584
21	0xbdddebd6	-0.10835998
22	0x3c632081	0.01386273
23	0xbc2acf54	-0.010425407
24	0x3d5b3306	0.053515457
25	0xbdfe7571	-0.12424744
26	0xbc702a0c	-0.014658462
27	0x3e00f0b1	0.12591816
28	0xbd2eea47	-0.042703893
29	0xbdf1f9ff	-0.11815261
30	0x3da9401a	0.082641795
31	0x3dc7e712	0.0976087

weight f4 [32]
0	0x3cff8c67	0.031194879
1	0x3fe2f9e7	1.7732514
2	0x3f85cdb9	1.0453407
3	0x3fafb5af	1.372732
4	0x3ff6f09a	1.9292176
5	0x3e8f80cd	0.28027955
6	0xbdb10347	-0.08643203
7	0x3fdcfb65	1.726422
8	0x401ae723	2.4203575
9	0xbdf08152	-0.11743416
10	0x3f554445	0.83307296
11	0x3e299f71	0.16564728
12	0x3cd2e5e0	0.025744379
13	0x3f3447a7	0.7042183
14	0x3fb7633f	1.4327163
15	0x3e680341	0.22657491
16	0x3d8cbe00	0.06872177
17	0x40161a92	2.3453717
18	0xbc9a8101	-0.018860342
19	0x3ff563b1	1.9171048
20	0x3fce16dd	1.6100727
21	0x3fe5d1c2	1.7954638
22	0x3e94a005	0.29028335
23	0x3e80a126	0.25122947
24	0x3ebf99f8	0.37422156
25	0x40071fe7	2.1113222
26	0x3f87198a	1.0554669
27	0x401eaf01	2.4794314
28	0x4002eb90	2.0456276
29	0xbde4543d	-0.1114888
30	0x3e21fa24	0.15818077
31	0x3fc2ffbe	1.5234296

bias f4 [32]
0	0xbdbad4a7	-0.091225915
1	0x3ebc80bd	0.3681697
2	0x3e45660c	0.19277209
3	0x3e6dc4c2	0.23219588
4	0x3f903596	1.1266353
5	0xbf68636a	-0.90776694
6	0xbed56652	-0.41679627
7	0x3f85b44c	1.0445647
8	0x3f86605d	1.0498158
9	0xbec6afe6	-0.38806075
10	0x3dd1ea4f	0.10249769
11	0xbf1f83fa	-0.62310755
12	0x3ef66fbc	0.48132122
13	0xbf16ff4d	-0.5898331
14	0x3e826159	0.25464895
15	0xbf270151	-0.65236384
16	0xbefff728	-0.49993253
17	0x3e0ef409	0.1396028
18	0xbed767bf	-0.4207134
19	0x3f89c87a	1.0764306
20	0x400753a6	2.1144805
21	0x3df6ebc7	0.1205669
22	0xbf49c70b	-0.7881934
23	0xbec1fc65	-0.37887874
24	0xbf95bed5	-1.1698862
25	0x3e4e1587	0.201254
26	0x3ede18a8	0.43378186
27	0x3ed6ba05	0.41938797
28	0x3f140992	0.57827103
29	0xbea1ff5c	-0.31640136
30	0xbf648040	-0.89258194
31	0x3e9dc71c	0.3081597

running_mean f4 [32]
0	0xbf44a742	-0.76817715
1	0xc04bcd84	-3.1844187
2	0xc0481689	-3.1263754
3	0xbfef1bda	-1.8680375
4	0x40515d3e	3.271316
5	0xbf861d4a	-1.0477688
6	0x3fc4f55e	1.538738
7	0x40090706	2.1410537
8	0xbfcb705e	-1.5893667
9	0x3fb003b0	1.3751125
10	0x3f97b5d2	1.1852362
11	0xbf1b2eba	-0.60618174
12	0xbf7b53e4	-0.9817488
13	0xbfee486a	-1.8615849
14	0x3fa3e02c	1.2802787
15	0x3f89a6bc	1.0754008
16	0x3f8eca6d	1.1155525
17	0x408c6d3a	4.3883333
18	0xbfa60bb6	-1.2972324
19	0x400466c1	2.0687716
20	0xbeaf17a6	-0.3419773
21	0xc09b520e	-4.8537664
22	0xbf25d2e0	-0.64774895
23	0x3f9f54d5	1.2447764
24	0xbdffd152	-0.124910966
25	0xc006611a	-2.0996766
26	0xbfa03536	-1.2516239
27	0xc038ac08	-2.8855
28	0x3fd507c4	1.6642995
29	0x400e05b1	2.2190974
30	0xc03709e0	-2.8599777
31	0xbf967d72	-1.1757033

running_var f4 [32]
0	0x40e23392	7.068795
1	0x40f4d7d8	7.651348
2	0x41138cc3	9.221866
3	0x40a9e98b	5.3097587
4	0x414c4f2a	12.769327
5	0x403fb5ad	2.9954636
6	0x4037bcee	2.8709064
7	0x410a0e8f	8.628554
8	0x416a6123	14.648715
9	0x4058c463	3.3869865
10	0x4106e73d	8.431455
11	0x4097be1f	4.741958
12	0x40b55d4b	5.6676383
13	0x40198153	2.3985183
14	0x40a32b55	5.0990396
15	0x405f879d	3.4926522
16	0x40c07651	6.014443
17	0x418a8b02	17.317875
18	0x400cf92e	2.2027087
19	0x4120df7e	10.0545635
20	0x40eb09f1	7.3449636
21	0x411985dd	9.595181
22	0x40278f57	2.6181238
23	0x40a1b3fa	5.05322
24	0x4065eefe	3.592712
25	0x40eb6a52	7.3567286
26	0x41113e62	9.07773
27	0x410ea79f	8.915923
28	0x411683a8	9.407143
29	0x408fb515	4.4908547
30	0x40031eb8	2.04875
31	0x40c5b6c6	6.178561

weight f4 [2, 32, 1, 1]
0	0x3f36eb3d	0.71452695
1	0x3da5a8f1	0.08088864
2	0x3c8c3392	0.017114434
3	0x3f1199dc	0.56875396
4	0x3d09b31a	0.03361807
5	0x3de46d29	0.11153633
6	0x3f505cd5	0.8139165
7	0x3f819345	1.0123068
8	0xbf2d60e7	-0.67725986
9	0xbf4986a3	-0.78721064
10	0x3e9b1be0	0.30294704
11	0x3f22c7fa	0.6358639
12	0xbe8032f5	-0.25038877
13	0x3ee5b168	0.44861913
14	0xbead369f	-0.33830735
15	0xbe5c0aed	-0.21488543
16	0xbf81bdef	-1.0136088
17	0x3ebf3a7d	0.3734931
18	0x3ecdc0f9	0.4018629
19	0x3f55492d	0.8331478
20	0xbe633beb	-0.22190826
21	0x3e07572a	0.13216844
22	0xbe53a4ab	-0.20668285
23	0xbece007f	-0.40234753
24	0xbf36fc06	-0.7147831
25	0x3eefdfb5	0.46850362
26	0x3e7c00c8	0.24609673
27	0xbfc3da19	-1.5300933
28	0x3f96662c	1.174993
29	0x3f200047	0.62500423
30	0xbe66ee49	-0.22551836
31	0xbe83be0d	-0.25730935
32	0xc028ce21	-2.637581
33	0xbf92156d	-1.1412789
34	0x3e0859ae	0.1331546
35	0xbee4dec4	-0.44701207
36	0xbfb33ac1	-1.4002305
37	0x3eba44dd	0.36380664
38	0xbe7da56b	-0.24770133
39	0x3fb39616	1.4030178
40	0x3fa4bce6	1.2870147
41	0xbf5c5277	-0.8606333
42	0xbf41329b	-0.7546784
43	0xbf7b34e3	-0.98127574
44	0xbe618722	-0.22024205
45	0xbeb464d4	-0.35233176
46	0x3dd8f142	0.10592891
47	0xbdaa7377	-0.083228044
48	0x3f8bea7e	1.0930936
49	0xbf273c3b	-0.6532628
50	0x3fc4d07a	1.5376122
51	0xbf5f1507	-0.8714146
52	0x3d382dbc	0.04496549
53	0xbea2ba7a	-0.31782895
54	0x3c2f3732	0.010694312
55	0xbed8bb37	-0.42330334
56	0x400b3991	2.1753886
57	0xbd3454ad	-0.044026066
58	0xbe61dc28	-0.22056639
59	0x3fb62bf2	1.4232161
60	0xbf926967	-1.1438416
61	0x401236f6	2.2846045
62	0x40109601	2.2591555
63	0x3f637e61	0.88864714

bias f4 [2]
0	0x3e156f1f	0.1459317
1	0xb995137a	-0.00028434006

weight f4 [2]
0	0xbe83ac71	-0.257175
1	0xbf1a6115	-0.60304385

bias f4 [2]
0	0xbfc188bd	-1.5119854
1	0xc04d8d17	-3.2117364

running_mean f4 [2]
0	0x404ff330	3.249218
1	0x3fc73297	1.5562314

running_var f4 [2]
0	0x4228a3ae	42.159843
1	0x43031350	131.07544

weight f4 [26, 18]
0	0xbdb2afe3	-0.08724954
1	0xbe992ceb	-0.29917082
2	0x3cf9ba1f	0.030484257
3	0x3d9f5f75	0.07781879
4	0x3e0d8586	0.13820466
5	0xbe30df65	-0.17272718
6	0xbec65faf	-0.38744876
7	0xbe51d267	-0.20490418
8	0xbda619d3	-0.08110394
9	0xbf0d5266	-0.55203855
10	0xbe34ddb8	-0.17662704
11	0x3efc22e9	0.49245384
12	0xbe98ee8f	-0.29869506
13	0x3ebb80e5	0.36621776
14	0x3e7f911f	0.24957703
15	0x3d978508	0.073984206
16	0x3e776a4f	0.24161647
17	0x3e526cae	0.2054927
18	0x3e8faf27	0.28063318
19	0xbc7855af	-0.015157147
20	0x3e81fd91	0.25388768
21	0x3e01cf47	0.12676726
22	0xbcfbfc96	-0.03076009
23	0xbe18ef61	-0.14935066
24	0x3ed933e3	0.424224
25	0xbe450413	-0.19239835
26	0xbe3f1aa9	-0.18662514
27	0xbe6f8bc0	-0.23393154
28	0xbf02a902	-0.51039135
29	0x3ede2f2b	0.4339536
30	0xbe1e74ce	-0.15474245
31	0xbea10581	-0.31449512
32	0xbd83aa18	-0.06428927
33	0xbecd34e2	-0.4007941
34	0x3e7c69bb	0.24649708
35	0x3e5d15f6	0.21590409
36	0xbe9a9393	-0.30190715
37	0xbe94ed20	-0.29087162
38	0xbe85085e	-0.25982946
39	0xbe6fd833	-0.23422317
40	0xbea44f29	-0.32091644
41	0xbdde4507	-0.1085301
42	0xbeb48ddd	-0.35264483
43	0xbf03ee1b	-0.51535195
44	0x3d81999a	0.06328125
45	0xbc26d418	-0.010182403
46	0x3d385226	0.045000218
47	0x3d41b6d2	0.04729349
48	0xbe5a66d2	-0.21328285
49	0x3defd926	0.1171134
50	0xbe43d726	-0.19125041
51	0xbe1eba8f	-0.15500854
52	0xbc6139d0	-0.013746694
53	0x3e408d06	0.18803796
54	0xbd2950b9	-0.04133675
55	0xbe26d352	-0.1629155
56	0xbeb88296	-0.3603713
57	0x3e316b55	0.173261
58	0xbdcd2e2c	-0.10018572
59	0x3cb36c9c	0.021902375
60	0x3e2f54fc	0.17122263
61	0xbe7c1805	-0.24618538
62	0x3cd49de3	0.025954193
63	0x3c1237c5	0.008924429
64	0x3eb6a91d	0.35675898
65	0xbd1fcea6	-0.039015435
66	0x3d821ec1	0.06353522
67	0xbeab919e	-0.33509535
68	0x3e94bc84	0.29050076
69	0x3cc9c024	0.024627753
70	0xbd7f125c	-0.06227337
71	0xbe08d0c2	-0.13360885
72	0xbe430edc	-0.19048637
73	0x3e095bdd	0.1341395
74	0xbe479c6e	-0.19493267
75	0xbe206cd7	-0.15666519
76	0x3da15592	0.07877649
77	0xbc736720	-0.01485613
78	0xbea38f85	-0.31945434
79	0xbcd59b2b	-0.026074966
80	0x3cb1f75a	0.021724392
81	0x3ebf5477	0.3736913
82	0x3e541e8d	0.20714779
83	0xbde3d746	-0.111250445
84	0x3ebbd4bb	0.36685738
85	0xbead498f	-0.33845183
86	0x3e704fc3	0.23467927
87	0x3da08452	0.07837738
88	0x3ea779e8	0.32710195
89	0xbe0e8fd0	-0.13922048
90	0xbc9f0292	-0.019410405
91	0xbd34ed6e	-0.044171743
92	0x3ed79846	0.42108363
93	0x3e0e9d76	0.13927254
94	0xbcac426a	-0.021027762
95	0xbdae93c9	-0.085242815
96	0x3e807e36	0.2509629
97	0xbdcf2f41	-0.10116435
98	0x3d641bd4	0.0556906
99	0xbf1c575e	-0.6107081
100	0xbee89e0c	-0.4543308
101	0x3e652abc	0.22379583
102	0x3ebace42	0.36485487
103	0x3df1f0fe	0.11813544
104	0xbcce93d8	-0.025216982
105	0x3eb72b9f	0.35775468
106	0x3eaa041e	0.33206266
107	0x3d3ff980	0.0468688
108	0x3eb4ef6b	0.3533891
109	0x3cf2c010	0.029632598
110	0x3e3d0b4c	0.1846134
111	0x3dd9f1e7	0.10641842
112	0xbd9376bb	-0.072003804
113	0x3dbf7583	0.093485855
114	0x3d9f64da	0.07782908
115	0xbe287a22	-0.1645284
116	0x3dce7ab9	0.10082001
117	0xbdff89b1	-0.124774344
118	0x3e0643b2	0.13111761
119	0xbe9a2aac	-0.3011068
120	0x3dde83d1	0.10864986
121	0x3e1c29e5	0.15250356
122	0xbd09af32	-0.033614345
123	0x3e4c8643	0.19973092
124	0x3f337b18	0.701097
125	0x3e20bd83	0.15697293
126	0xbe0d6007	-0.13806163
127	0xbe793692	-0.24337223
128	0xbe16d498	-0.14729536
129	0x3e06d475	0.13166983
130	0xbddfdb05	-0.109304465
131	0xbe2975ee	-0.16548893
132	0xbf15e398	-0.58550406
133	0xbebc1043	-0.36731157
134	0xbe8d5b59	-0.27608755
135	0xbe641341	-0.2227297
136	0xbf228ec9	-0.6349912
137	0x3f11408b	0.5673911
138	0xbda23591	-0.07920373
139	0x3e667485	0.22505386
140	0xbe1d2149	-0.15344729
141	0x3dee5508	0.11637312
142	0xbdcd4ef4	-0.10024825
143	0xbe38330a	-0.1798822
144	0xbe05960d	-0.13045521
145	0xbda53418	-0.08066577
146	0xbce1d887	-0.027569069
147	0xbe082b7b	-0.13297836
148	0xbd9ce81c	-0.07661459
149	0xbdb1a943	-0.08674862
150	0x3e005f6c	0.125364
151	0xbe1e8862	-0.15481713
152	0x3d2215e8	0.039571673
153	0x3d1e045c	0.038578376
154	0xbeee36c6	-0.46526164
155	0x3e99619a	0.29957277
156	0xbc10a641	-0.0088287005
157	0x3e9e0868	0.30865788
158	0x3e75d5da	0.24007359
159	0xbdd0ba78	-0.10191816
160	0x3d4af0fa	0.04954622
161	0x3e838056	0.2568385
162	0x3c5c1894	0.013433594
163	0xbc6a5b95	-0.014304061
164	0xbe73b50d	-0.23799534
165	0xbe305049	-0.17218126
166	0xbc48a134	-0.012245465
167	0xbe6468e6	-0.2230564
168	0xbbc71c2d	-0.006076357
169	0xbe68005e	-0.2265639
170	0x3e59b433	0.21260147
171	0x3edd5ae0	0.43233395
172	0x3df807a3	0.121108316
173	0xbe50cbeb	-0.20390289
174	0xbe15ecc3	-0.14641099
175	0x3cd2d9b3	0.025738573
176	0xbe87712b	-0.26453528
177	0xbd6b899e	-0.05750429
178	0xbde20de2	-0.11037804
179	0xbdf8ba43	-0.121449016
180	0x3e80f6cc	0.2518829
181	0xbdd34143	-0.10315182
182	0x3e7f4197	0.24927364
183	0xbd935a46	-0.07194953
184	0xbdb7f828	-0.08982879
185	0x3e12ff58	0.14355218
186	0xbdea62b6	-0.11444609
187	0x3d591ece	0.053007893
188	0xbe02c292	-0.12769535
189	0x3c84cf0b	0.016212007
190	0xbe090e1a	-0.13384286
191	0xbd0dedc4	-0.03465058
192	0x3f01baf8	0.50675917
193	0xbdb3e3e7	-0.08783703
194	0x3d6b3a7f	0.057428833
195	0xbea092cd	-0.31362
196	0xbedfe24c	-0.43727338
197	0x3e7ef13f	0.24896716
198	0x3e6b4894	0.22976905
199	0xbde12304	-0.10993007
200	0x3c8aa1a1	0.016922774
201	0xbdfb4a18	-0.12269992
202	0x3d78639c	0.06064187
203	0xbc152405	-0.009102826
204	0xbe6ae3e6	-0.22938499
205	0xbed79682	-0.42107016
206	0xbd8e0308	-0.06934172
207	0xbe4dbcc1	-0.20091535
208	0xbec633f7	-0.3871152
209	0x3e825625	0.25456348
210	0xbe802aa9	-0.25032547
211	0xbdb4f14e	-0.08835088
212	0x3ed68a32	0.4190231
213	0xbe1effc2	-0.15527251
214	0x3ddbe00d	0.10736094
215	0x3d5166b5	0.05112334
216	0xbe235d19	-0.15953483
217	0xbe0694bc	-0.13142675
218	0xbe72c9ef	-0.23709844
219	0xbe6aa0ad	-0.22912855
220	0xbe9a1896	-0.30096883
221	0x3df1fda6	0.11815958
222	0xbf0951dd	-0.5364054
223	0xbe2d7ed7	-0.16942917
224	0x3c94e4e1	0.018175544
225	0xbebf1779	-0.37322596
226	0xbd2e5c45	-0.042568464
227	0xbe96d20a	-0.29457122
228	0xbdee1210	-0.11624539
229	0xbea1418a	-0.31495315
230	0xbf241dea	-0.64108145
231	0x3d73cde2	0.059522517
232	0xbe7ae920	-0.24502993
233	0xbeeb252c	-0.45926797
234	0x3d0c5d4b	0.03426866
235	0x3e14dbaf	0.14536928
236	0xbcf0d07b	-0.029396286
237	0x3e0c15ea	0.13680235
238	0xbdf52034	-0.11969033
239	0x3d594215	0.053041536
240	0x3e729578	0.2368983
241	0x3eae2758	0.34014392
242	0x3c4cd743	0.012502494
243	0xbe868025	-0.26269642
244	0x3ef11705	0.47087875
245	0xbeff7177	-0.49891254
246	0x3db29aeb	0.087209545
247	0xbe37cbab	-0.17948787
248	0x3d391308	0.045184165
249	0xbee6400d	-0.44970742
250	0x3e8d6f38	0.27623916
251	0x3e28db33	0.16489868
252	0xbd3bb3df	-0.045825835
253	0xbe79c92c	-0.24393147
254	0xbe868c97	-0.26279137
255	0x3cf2a7f8	0.02962111

bias f4 [26]
0	0x3ec48473	0.383823
1	0xbcc82979	-0.024433838
2	0xbe6cc18f	-0.23120712
3	0xbcdcbac9	-0.026944535
4	0xbdca95c8	-0.0989185
5	0xbee3c266	-0.44484252
6	0xbec19f87	-0.37817022
7	0x3d808823	0.06275966
8	0xbb746c23	-0.00372959
9	0x3b4f7180	0.0031653345
10	0x3e05740e	0.13032553
11	0x3df3241b	0.11872121
12	0xbec7afe6	-0.39001387
13	0xbf067e2c	-0.52536273
14	0xbe763fe2	-0.24047807
15	0xbe99f877	-0.30072376
16	0x3ed13519	0.40860823
17	0xbdf939fd	-0.121692635
18	0xbe10be9f	-0.14135216
19	0xbe749a86	-0.23887071
20	0x3d4327c0	0.04764533
21	0x3d37bc18	0.044857115
22	0xbcac9de9	-0.021071391
23	0x3d59a170	0.053132474
24	0xbe35f624	-0.17769676
25	0x3fed05be	1.8517377

weight f4 [1, 32, 1, 1]
0	0x3f39b2be	0.72538364
1	0xbdb86745	-0.09004072
2	0x3eff4f64	0.49865258
3	0xbe3284a5	-0.17433412
4	0x3e14f0f0	0.14545035
5	0x3f43cb8b	0.76482457
6	0xbf0bb703	-0.5457613
7	0xbe74a702	-0.23891833
8	0x3f1003dd	0.56255895
9	0x3eaac01f	0.33349702
10	0x3f44c65f	0.7686519
11	0xbcbdbb09	-0.023160474
12	0xbe008766	-0.1255165
13	0x3f337ecc	0.7011535
14	0xbf020fb4	-0.5080521
15	0x3ec66396	0.38747853
16	0xbda8f1b3	-0.082492255
17	0xbee45b69	-0.4460099
18	0xbf2b93ca	-0.67022383
19	0x3e70af90	0.23504472
20	0x3eeba1a7	0.46021768
21	0xbf3d3a9e	-0.7391757
22	0x3de7486f	0.112931125
23	0xbee77c9d	-0.4521226
24	0xbe29d1c3	-0.16583924
25	0xbec28921	-0.37995246
26	0xbe5f5ab3	-0.21811943
27	0xbf07155d	-0.5276697
28	0x3f228d4c	0.6349685
29	0xbf03c589	-0.5147329
30	0xbe82fc4b	-0.2558311
31	0x3f02d293	0.5110256

weight f4 [32, 9]
0	0xbebeab2b	-0.37239966
1	0x3defe685	0.1171389
2	0xbe9c1d0c	-0.3049091
3	0x3dbc2f69	0.0918873
4	0x3e6c7a88	0.23093617
5	0xbe92676f	-0.2859454
6	0xbddbb58d	-0.107279874
7	0x3d315f49	0.04330376
8	0x3e505c70	0.20347762
9	0xbe07d798	-0.13265836
10	0xbd4f116d	-0.050553728
11	0xbdb61d9d	-0.08892367
12	0xbe35e31a	-0.17762414
13	0x3dccd8f3	0.10002317
14	0x3e470ddc	0.1943888
15	0xbeabd8e4	-0.33563912
16	0x3e6a7f6c	0.2290017
17	0xbd85afe1	-0.06527687
18	0x3ead3f7e	0.33837503
19	0x3dae1b1d	0.08501265
20	0xbe7d5373	-0.24738865
21	0x3cff4169	0.03115912
22	0xbd4d40ef	-0.050110754
23	0xbe547346	-0.20747098
24	0xbe83171f	-0.25603577
25	0xbe8c38bb	-0.27387032
26	0x3e0c261d	0.13686414
27	0xbe37d6fe	-0.17953107
28	0x3e9a4e52	0.3013788
29	0xbe824ccc	-0.25449216
30	0xbe177958	-0.14792383
31	0x3e027acb	0.12742154
32	0xbe966e6a	-0.29381114
33	0xbd86e4c3	-0.065866016
34	0x3d9f04b4	0.07764569
35	0xbe1951c1	-0.14972593
36	0xbdafd133	-0.085848235
37	0x3ebd8b3b	0.37020287
38	0xbd0fe98a	-0.03513483
39	0x3d8a8d31	0.067652114
40	0x3e0f3962	0.13986734
41	0x3f1e6708	0.61875963
42	0xbefab176	-0.48963517
43	0x3df7ca67	0.12099152
44	0xbde4e1b9	-0.11175866
45	0xbe2e025f	-0.16993092
46	0xbee5da78	-0.4489324
47	0xbd460472	-0.048344083
48	0xbdcc0bba	-0.09963174
49	0x3edb1302	0.4278794
50	0xbef94af7	-0.48690006
51	0x3ec58909	0.38581112
52	0x3e5acde7	0.21367608
53	0x3c82249a	0.015886594
54	0x3eb4bf22	0.35302073
55	0xbb8f86cb	-0.0043800822
56	0xbe9b28fb	-0.30304703
57	0xbd4bd5bf	-0.04976439
58	0xbeaad0b1	-0.33362344
59	0xbd0664f0	-0.032811105
60	0x3e6e08b2	0.23245504
61	0xbdda0888	-0.106461585
62	0x3c243e10	0.0100245625
63	0x3e53b4d5	0.2067445
64	0x3e1b53e1	0.15168716
65	0xbdef9656	-0.11698596
66	0xbe7488e9	-0.23880352
67	0x3dc15352	0.0943972
68	0xbeb3d57e	-0.3512382
69	0x3e8e5701	0.27800754
70	0xbd6ec217	-0.058290567
71	0x3e7ebd2d	0.24876852
72	0x3e968e86	0.29405612
73	0x3e653119	0.2238201
74	0xbe5799df	-0.21054791
75	0x3d154a25	0.036447663
76	0x3eb8e8f9	0.36115244
77	0x3ec4e162	0.38453203
78	0xbf04f470	-0.5193548
79	0x3d683024	0.056686535
80	0x3bd97857	0.00663666
81	0xbe2f990a	-0.17148224
82	0xbe392162	-0.18079141
83	0x3c4b2ac8	0.012400337
84	0x3e92d82a	0.28680545
85	0xbd5550b4	-0.052078918
86	0x3d7d18b8	0.06179115
87	0x3c8aa9a1	0.016926588
88	0xbdf138db	-0.117784224
89	0x3e8d7219	0.27626112
90	0xbc92ab82	-0.017904047
91	0x3e2b570b	0.16732423
92	0xbe1f132f	-0.15534662
93	0x3e67834a	0.22608677
94	0xbe862b64	-0.2620498
95	0xbe2f7862	-0.17135766
96	0xbe3aa808	-0.18228161
97	0xbe0de273	-0.13855915
98	0xbcbb80b1	-0.022888513
99	0xbe6c9647	-0.23104201
100	0xbe2daa7e	-0.16959569
101	0xbea4a925	-0.32160297
102	0xbe9d509e	-0.3072557
103	0xbe8ef7a9	-0.27923325
104	0xbe80399f	-0.2504396
105	0xbe496b06	-0.19669732
106	0xbe5aea3c	-0.21378416
107	0x3e5881a7	0.21143208
108	0xbe8e6e1f	-0.2781839
109	0x3e4901f8	0.19629657
110	0xbe0c2f0f	-0.13689826
111	0x3e862f6f	0.26208064
112	0xbe024fb3	-0.12725715
113	0x3dc27d37	0.09496539
114	0x3da96439	0.08271069
115	0xbe271ef9	-0.16320409
116	0x3d216b2c	0.039408848
117	0x3c3645c4	0.011125032
118	0xbe18a358	-0.1490606
119	0xbe35768d	-0.17721005
120	0x3d91d646	0.071209475
121	0xbe7e7fdc	-0.24853462
122	0x3e3f3446	0.18672284
123	0xbe4784fd	-0.19484325
124	0x3da18f6d	0.078886844
125	0x3d6c88c1	0.057747606
126	0x3c2aeb91	0.01043214
127	0xbbcc466b	-0.0062339804
128	0x3e9ee94b	0.31037363
129	0xbe560c9e	-0.2090325
130	0x3e35b71f	0.17745636
131	0xbe7f3995	-0.2492431
132	0x3a20bd84	0.00061317557
133	0xbe0c779e	-0.13717505
134	0x3e36bb83	0.17844968
135	0x3e232b7d	0.15934558
136	0xbe31deb7	-0.17370115
137	0x3d7ee400	0.062229156
138	0x3e390840	0.18069553
139	0xbdeccfbc	-0.1156306
140	0x3e1e4463	0.15455775
141	0xbeaceeda	-0.3377598
142	0xbdc9a6ea	-0.098462895
143	0xbdf144b6	-0.11780684
144	0xbe1f1ecd	-0.15539093
145	0xbe047bb6	-0.12937817
146	0x3dbb2c68	0.09139329
147	0x3e5cc3bf	0.21559046
148	0xbe676faa	-0.2260119
149	0x3e637d8a	0.22215858
150	0xbe33c350	-0.17554975
151	0xbe53b2da	-0.20673695
152	0x3da4ebdb	0.08052798
153	0xbe0a5cc5	-0.13511951
154	0xbe9bf220	-0.30458164
155	0xbe4e28e6	-0.20132789
156	0x3e220026	0.15820369
157	0x3e2ddf84	0.16979796
158	0xbecc3c17	-0.39889595
159	0x3e88ef76	0.26745194
160	0x3dd23454	0.10263887
161	0x3e2b445f	0.167253
162	0x3ed6f2ae	0.41982025
163	0x3eb27126	0.3485195
164	0x3e3564db	0.17714255
165	0x3df31766	0.11869697
166	0xbf108c3a	-0.5646397
167	0xbeb5a110	-0.35474443
168	0x3e3a5136	0.18195042
169	0xbe0f17fb	-0.13973992
170	0x3e32267e	0.17397496
171	0x3dbfc3a7	0.093634896
172	0xbccea7b2	-0.025226448
173	0x3e81918f	0.25306365
174	0x3d5a55db	0.053304534
175	0xbdfa546f	-0.12223136
176	0x3f1d7483	0.6150591
177	0x3ab12e33	0.0013517797
178	0xbe5f313c	-0.21796125
179	0x3e419c02	0.18907169
180	0x3e2e954a	0.17049137
181	0x3dacab38	0.08431095
182	0xbe070b8b	-0.13187997
183	0xbe5257d5	-0.20541318
184	0x3ddc410d	0.10754595
185	0xbec606e6	-0.38677138
186	0x3e95ebc2	0.2928143
187	0x3d2a45e0	0.041570544
188	0xbe7b4c67	-0.24540864
189	0xbe800ff4	-0.2501217
190	0xbda248f8	-0.07924074
191	0x3e5a99e8	0.21347773
192	0xbd3aa809	-0.045570407
193	0x3dedb15c	0.11606094
194	0x3edc1854	0.4298731
195	0xbea45799	-0.32098082
196	0xbe0eb679	-0.13936795
197	0x3e5b14d2	0.21394661
198	0xbcd72672	-0.02626345
199	0xbeab6c0d	-0.33480874
200	0x3e30b263	0.17255549
201	0x3e5c417d	0.21509357
202	0x3d2fb5ec	0.042898104
203	0xbd75aa15	-0.059976656
204	0xbe64b488	-0.22334492
205	0xbd98fbbe	-0.07469891
206	0xbe8c5394	-0.27407515
207	0x3e719432	0.23591688
208	0x3c92c3c2	0.01791561
209	0x3e745b0c	0.23862857
210	0xbe426532	-0.18983915
211	0x3d8ff427	0.0702899
212	0xbe31787f	-0.17331122
213	0x3ea26852	0.31720215
214	0xbdbc52bb	-0.09195467
215	0x3d775388	0.060382396
216	0x3ee60ab5	0.44930044
217	0xbed82310	-0.4221425
218	0x3e9dfb5a	0.3085583
219	0x3e51ab28	0.20475447
220	0xbd247267	-0.040148165
221	0xbf20a66d	-0.62753946
222	0x3e97d9fe	0.29658502
223	0x3d47f0b0	0.04881352
224	0xbe16de77	-0.14733301
225	0x3e7dfd3a	0.2480363
226	0x3e27d541	0.16389944
227	0xbe8ba2de	-0.27272695
228	0x3e4ec9ba	0.2019414
229	0x3e80765a	0.25090295
230	0x3e0e593b	0.13901226
231	0xbdc1674a	-0.09443529
232	0xbe8b976b	-0.2726396
233	0xbe933f5e	-0.28759283
234	0xbd60e7e7	-0.05490866
235	0xbe1f7f06	-0.155758
236	0xbe54c5c1	-0.20778562
237	0xbe9ab2b8	-0.30214477
238	0xbbdad55b	-0.006678266
239	0xbe8196f5	-0.25310484
240	0xbe63c4c5	-0.2224303
241	0x3db4ee6e	0.08834539
242	0x3e5dcc7d	0.21660037
243	0x3d929a8c	0.07158384
244	0x3e04a630	0.1295402
245	0x3e986297	0.29762718
246	0x3e28c02e	0.1647956
247	0x3e31e51a	0.17372552
248	0x3e857f41	0.2607365
249	0x3d65af7c	0.056075558
250	0xbeb73168	-0.3577988
251	0xbe8f663c	-0.28007686
252	0x3e80fd91	0.25193456
253	0xbe8c4074	-0.27392924
254	0x3e560bfc	0.20903009
255	0x3e9217e5	0.28533855

bias f4 [32]
0	0xbdfdeb9c	-0.123984545
1	0xbe477074	-0.19476491
2	0x3e7e952c	0.24861592
3	0xbdfedf84	-0.12444976
4	0x3e073dba	0.1320714
5	0xbef6cd05	-0.48203292
6	0x3dffc200	0.124881744
7	0x3e546968	0.20743334
8	0xbebd4570	-0.3696704
9	0xbe3eec4f	-0.18644832
10	0x3d8165d8	0.06318253
11	0x3d37d19f	0.044877645
12	0xbe655ae9	-0.2239796
13	0xbe697193	-0.22797231
14	0xbe3f6018	-0.18689
15	0xbe305d36	-0.17223057
16	0xbea18705	-0.31548324
17	0xbddad4b0	-0.10685098
18	0x3e5e05fc	0.2168197
19	0xbe7bc1b1	-0.24585606
20	0x3e813097	0.25232384
21	0xbe7bf419	-0.24604835
22	0x3d932dc4	0.071864635
23	0x3e156454	0.14589053
24	0xbcc601ad	-0.024170721
25	0xbe964ab3	-0.29353866
26	0x3db37a06	0.087635085
27	0xbe9527ed	-0.29132023
28	0xbe3d9303	-0.18513112
29	0xbd6b8ed4	-0.05750926
30	0x3e3210ea	0.17389265
31	0xbe201c49	-0.1563579

weight f4 [1, 32]
0	0xbccfa4c2	-0.025347117
1	0xbe253812	-0.1613467
2	0x3e2528b5	0.1612881
3	0xbd810535	-0.06299821
4	0xbeb6e82a	-0.35724002
5	0x3eb956d1	0.36199048
6	0x3e5b58b4	0.21420556
7	0x3e0588f2	0.13040522
8	0xbee22dc2	-0.44175535
9	0xbd952baa	-0.07283719
10	0x3db6487d	0.08900545
11	0xbd09fcb4	-0.033688262
12	0xbdbda005	-0.09259037
13	0xbdcfe211	-0.101505406
14	0xbb12d7ca	-0.0022406452
15	0x3e06b6a0	0.13155603
16	0xbd083698	-0.03325519
17	0x3e46d410	0.19416833
18	0x3f077955	0.52919513
19	0xbed00955	-0.4063212
20	0x3de1be3a	0.11022611
21	0xbe871c74	-0.26388896
22	0xbabd7c81	-0.0014456661
23	0x3df2f9d0	0.11864054
24	0x3f04a017	0.5180678
25	0xbe36d833	-0.17855911
26	0xbe2a536e	-0.16633388
27	0xbdfc2ade	-0.12312864
28	0x3e8e5716	0.27800816
29	0xbd2fd7a1	-0.04293025
30	0x3d9f7db7	0.0778765
31	0x3e100733	0.14065246

weight f4 [32, 32, 3, 3]
0	0x3d0ee0ff	0.03488254
1	0x3ca4d14e	0.020119336
2	0x3d18bd0d	0.037289668
3	0x3c869062	0.016426269
4	0x3b876128	0.004131455
5	0xbc8df548	-0.017328873
6	0xbcf9bc57	-0.030485315
7	0x3ccb492e	0.024815168
8	0xbc3a4970	-0.011370048
9	0xbcc57c48	-0.024107113
10	0xb83af800	-4.4576824e-05
11	0xbd0aebde	-0.033916347
12	0xbc29dec4	-0.010368053
13	0xbd66c280	-0.056337833
14	0x3b0138d0	0.00197177
15	0x3d5824fd	0.05276965
16	0x3c8e1a46	0.017346513
17	0xbd1c1929	-0.038109932
18	0x3d2ddb41	0.042445425
19	0xbc5db8ac	-0.013532799
20	0xbd320fe6	-0.043472193
21	0x3cce63a6	0.025194
22	0xbca4d084	-0.02011896
23	0xbd18867b	-0.037237626
24	0x3cc151f2	0.023598645
25	0x3d4cb3d3	0.04997618
26	0x3d340ee9	0.043959532
27	0x3c12a664	0.008950803
28	0xba9420c0	-0.0011301264
29	0x3cb8002a	0.022461016
30	0x3bcb3e48	0.006202493
31	0xbd4ff672	-0.050772138
32	0xbc7beacc	-0.015375804
33	0xbd43f83c	-0.047844157
34	0x3c231b6c	0.009955268
35	0xbd682258	-0.056673378
36	0xbd6d3686	-0.057913326
37	0x3cab804e	0.020935204
38	0x3cb73d76	0.022368174
39	0xbd23db72	-0.0400042
40	0x3cd3c5fe	0.025851246
41	0x3d414519	0.047185037
42	0xbb539440	-0.0032284409
43	0xbd24468b	-0.040106338
44	0xbbf153a0	-0.007364705
45	0xbd6a5f3c	-0.05721973
46	0x3a004880	0.0004893616
47	0x3d3afda5	0.04565205
48	0xbc3bce6c	-0.011462789
49	0x399f7680	0.00030415133
50	0xbcb58688	-0.022158876
51	0xbc751590	-0.014958754
52	0x3bf90d18	0.007600438
53	0x3cbdb15a	0.023155857
54	0x3cba39ae	0.022732582
55	0xbcf349d1	-0.029698284
56	0x3d30faa3	0.043207776
57	0x3cce569a	0.02518778
58	0x3d20f337	0.039294448
59	0xbcbc3354	-0.022973694
60	0x3ab36700	0.0013687313
61	0xbd08aebc	-0.033369765
62	0xbd314831	-0.043281738
63	0xbce85288	-0.028359666
64	0x3c0abd8c	0.008468043
65	0xbcf349d9	-0.0296983
66	0x3d5f918d	0.054582167
67	0x3cf5bbe6	0.029996824
68	0xbd30e8e6	-0.04319086
69	0xbd5480b9	-0.051880572
70	0xbc776bc4	-0.015101377
71	0xbd34681f	-0.04404461
72	0xbd564ce5	-0.052319426
73	0x3c56826c	0.013092618
74	0xbb4ef910	-0.0031581558
75	0xbc7fb6cc	-0.015607547
76	0x3cb953d2	0.022622976
77	0xba905e20	-0.001101438
78	0xbbaed020	-0.005334869
79	0x3d1dc95b	0.038522106
80	0xbd5f2412	-0.05447776
81	0x3bf68de8	0.0075242408
82	0xbd3df036	-0.04637166
83	0x3c47ddc4	0.012198869
84	0x3cb256f6	0.021769982
85	0x3c91ec42	0.017812852
86	0xbcb23c24	-0.021757193
87	0x3d703133	0.05864067
88	0x3d3c656f	0.045995172
89	0xbaef73c0	-0.0018268749
90	0xbd2eacc5	-0.042645235
91	0xbc081c20	-0.008307487
92	0x3d5dfd71	0.05419678
93	0xbcc406d2	-0.023929033
94	0xbd61909e	-0.05506956
95	0x3d0c3539	0.034230445
96	0x3ca0b4b6	0.01961742
97	0xbd39be84	-0.045347705
98	0x3ac8fa00	0.0015333295
99	0xbc354aec	-0.011065226
100	0x3cff2ffe	0.031150814
101	0xbd2a3833	-0.041557502
102	0xbd281a52	-0.041040726
103	0xbc90d8d0	-0.01768151
104	0xbd585038	-0.052810878
105	0x3d27cf41	0.040969137
106	0xbd1a3812	-0.03765113
107	0xbd5c0282	-0.05371333
108	0xba950120	-0.0011368133
109	0x3d6d4fbf	0.05793738
110	0xbce74649	-0.028231757
111	0xbce80085	-0.02832056
112	0xbcadda1c	-0.021222167
113	0x3c966072	0.018356536
114	0xbad53200	-0.0016265512
115	0x3b38a9a0	0.0028177276
116	0xbbdad7c8	-0.006678555
117	0x3d13f71b	0.03612433
118	0x3c753664	0.014966581
119	0x3d5292f1	0.051409665
120	0x3cd94436	0.026521783
121	0xbc9c64c8	-0.019091025
122	0xbc80000c	-0.015625022
123	0x3d674d61	0.05647028
124	0xbd17367b	-0.03691719
125	0xb93c3f00	-0.00017952546
126	0x3bca9f78	0.006183561
127	0x3c2499bc	0.010046419
128	0xbcebebca	-0.028798956
129	0x3d28809b	0.041138273
130	0x3d2a7393	0.041614126
131	0x3c5211ac	0.012821596
132	0x3d6bf20d	0.057603884
133	0xbd417234	-0.047228053
134	0x3d5891fd	0.0528736
135	0x3c85b7ee	0.016323056
136	0xbd5bc40f	-0.053653773
137	0xbcfc4122	-0.030792776
138	0xbd26515c	-0.040604934
139	0x3d416307	0.04721358
140	0xbc962654	-0.018328823
141	0x3cf4f3ae	0.029901352
142	0x3c5b1d44	0.013373677
143	0x3d14301b	0.03617869
144	0xbb1e6090	-0.0024166442
145	0x3c35e45c	0.011101808
146	0xbd4fbe8c	-0.05071883
147	0xbd16686e	-0.036720686
148	0xbaf04bc0	-0.0018333122
149	0xbd1e2e56	-0.03861841
150	0x3d030083	0.03198291
151	0xbcd75918	-0.0262876
152	0x3c5b20d4	0.013374526
153	0x3d03c309	0.032168422
154	0xbd0275fc	-0.0318508
155	0xbcd16f6e	-0.02556583
156	0x3ca8669e	0.020556744
157	0xbcd4638c	-0.025926374
158	0xbd1d1f10	-0.0383597
159	0x3d535ec5	0.05160405
160	0x3cfb9cae	0.03071436
161	0xbd24d4a2	-0.040241845
162	0xbd268d97	-0.040662374
163	0x3d3ecdb9	0.04658291
164	0xbd677a4a	-0.05651311
165	0x3bf33c58	0.007422965
166	0xbd0bab1e	-0.034098737
167	0x3d6e1b71	0.05813164
168	0xbcf68d44	-0.030096658
169	0x3d1a0967	0.037606623
170	0x3d68883b	0.056770544
171	0x3c36a7fc	0.011148449
172	0x3d6d5d45	0.057950277
173	0xbd14a51f	-0.036290284
174	0xbcf86327	-0.030320717
175	0x3ca69b16	0.020337623
176	0xbd6e6aff	-0.05820751
177	0x3d2245a1	0.039617185
178	0xbd31493e	-0.04328274
179	0xbd36658c	-0.044530436
180	0xbd40a8a4	-0.04703583
181	0xbd3a7e60	-0.045530677
182	0x3d1b34d7	0.03789219
183	0x3ca10122	0.01965386
184	0xbd56d421	-0.052448396
185	0x3cdeb70e	0.027186897
186	0x3c527f14	0.012847681
187	0xbd383c46	-0.044979356
188	0xbc3bd468	-0.011464216
189	0x3d512015	0.051055986
190	0x3b14d160	0.0022707805
191	0xbd3dfb23	-0.04638208
192	0x3caf03fe	0.021364208
193	0x3d0f2e51	0.03495628
194	0x3d5b1ec9	0.053496156
195	0xbb39b920	-0.0028339103
196	0x3c1da224	0.009621177
197	0xbba93f80	-0.0051650405
198	0x3cb935ca	0.022608656
199	0x3d129bf1	0.03579325
200	0xbc260bac	-0.010134619
201	0x3adda680	0.0016910583
202	0x3d4cab47	0.04996803
203	0xbcd2a486	-0.025713217
204	0xbd5c253c	-0.053746447
205	0xbd08c766	-0.033393286
206	0x3d40ce15	0.047071535
207	0x3b21ced0	0.002468992
208	0x3d2e1b79	0.04250667
209	0xbd27b5c7	-0.04094484
210	0x3c8dbce6	0.017301988
211	0xbc5eb83c	-0.01359373
212	0xbb04b790	-0.0020251013
213	0x3d21a6d3	0.039465737
214	0x3a7f47c0	0.00097381696
215	0x3b78b090	0.0037947036
216	0x3d0dabaf	0.03458756
217	0x3d34c239	0.044130538
218	0xbba01d80	-0.004886329
219	0xbd05eb28	-0.032694966
220	0xbcc26ec4	-0.023734458
221	0xbc00d468	-0.007863142
222	0x3d3ecac9	0.04658011
223	0xbcbc4e84	-0.022986658
224	0x378b9800	1.6640872e-05
225	0x3c75905c	0.014988031
226	0x3d4de141	0.050263647
227	0x3d191fc7	0.03738382
228	0xbbd74ff8	-0.0065708123
229	0xbce24346	-0.02761997
230	0xbc287d84	-0.0102838315
231	0x3d1b1c93	0.037869047
232	0x3cb5531e	0.02213436
233	0xbcd7439e	-0.02627736
234	0xbc842cc4	-0.016134627
235	0x3d26a8a9	0.04068819
236	0xbb5d6170	-0.003378
237	0x3ce8209e	0.028335866
238	0xbcc7b098	-0.024376199
239	0x3ce7919a	0.02826767
240	0x3d17bc01	0.03704453
241	0xbcfdabce	-0.030965712
242	0x3ca90e42	0.020636681
243	0xbcd19010	-0.02558139
244	0xbc72cca0	-0.014819294
245	0x3c82cce6	0.015966844
246	0x3cbedfd2	0.023300085
247	0x3c1fef7c	0.009761687
248	0x3c8fe2ca	0.017564196
249	0x3d11332f	0.035449203
250	0x3d6183c9	0.05505732
251	0xbd0a4188	-0.0337539
252	0xbd2cd4a5	-0.04219498
253	0x3ca97da2	0.02068979
254	0xbd58677d	-0.05283307
255	0xbc043f30	-0.008071706

bias f4 [32]
0	0xbcbea59e	-0.023272332
1	0x3c139f5c	0.009010162
2	0x3b916d78	0.0044380985
3	0xbd28a574	-0.041173413
4	0x3d540f29	0.05177227
5	0x3c2b17bc	0.01044267
6	0x3d541445	0.051777143
7	0x3d0abdc9	0.0338724
8	0xbcfaa21b	-0.030594876
9	0xbb7ea500	-0.0038855672
10	0xbcca4fd0	-0.02469626
11	0x3d3f68b3	0.04673071
12	0xbd0ec09a	-0.034851648
13	0x39b87980	0.0003518574
14	0xbd680d98	-0.05665359
15	0xbd101f03	-0.035185825
16	0x3d3755d9	0.044759605
17	0x3ca5e90a	0.020252723
18	0xbd38eb37	-0.045146193
19	0x3c0c000c	0.008544933
20	0xbcae0b04	-0.021245487
21	0x3b845f48	0.0040396787
22	0xbc82f5ba	-0.015986312
23	0xbc93af68	-0.018027976
24	0xbd46478f	-0.048408087
25	0x3d36131d	0.04445182
26	0xbc6ab968	-0.014326431
27	0xbc8ed65a	-0.017436195
28	0xbd374ed1	-0.0447529
29	0x3b77e130	0.0037823431
30	0x3ce9cb1a	0.02853923
31	0xbd267351	-0.040637318

weight f4 [32, 32, 3, 3]
0	0xbcdd79b8	-0.02703558
1	0x3d500673	0.0507874
2	0xbd1a3ce5	-0.03765573
3	0x3d03b867	0.03215828
4	0x3d3d1ca5	0.046169896
5	0x3cfc5ed2	0.030806933
6	0x3cfc77a2	0.030818764
7	0x3d0de95b	0.034646373
8	0xbd542598	-0.051793665
9	0x3d0c16b3	0.034201335
10	0x3d408a43	0.047006857
11	0x3ce15d76	0.027510386
12	0x3d3a8e55	0.045545895
13	0x3d3f0de7	0.046644118
14	0x3d4830c1	0.04887462
15	0x3d1d58c1	0.03841472
16	0xbd5904a3	-0.052982938
17	0xbca9134a	-0.02063908
18	0x3d57a92b	0.052651566
19	0xbd5192b8	-0.051165313
20	0x3d3850ef	0.04499906
21	0x3d67013d	0.056397665
22	0x3d5114b3	0.05104513
23	0xbcca8438	-0.02472125
24	0xbd6bfb25	-0.057612557
25	0xbcf3642c	-0.029710852
26	0x3d2effd9	0.042724464
27	0x3d28fb17	0.041255083
28	0xbd08e958	-0.03342566
29	0xbce6cbe2	-0.02817339
30	0xbd4df3c1	-0.05028129
31	0xbc96c8f6	-0.018406373
32	0x3ca4f3ea	0.020135839
33	0x3c3e43d4	0.011612851
34	0xbd03ea49	-0.032205854
35	0xbc835b02	-0.016034607
36	0x3cee017e	0.029053446
37	0x3c18b1b4	0.0093197115
38	0xbd5a0788	-0.05322984
39	0xbc526f8c	-0.012843978
40	0xbbe45048	-0.006967578
41	0x3ca450c2	0.02005804
42	0x3cf35666	0.029704284
43	0xbd1f2cf9	-0.03886125
44	0x3cf75a1a	0.030194331
45	0x3d3939ff	0.045221325
46	0xbd59d7bb	-0.053184252
47	0x3c4d9c7c	0.012549516
48	0xbd6f2a1a	-0.05838976
49	0x3cdb46ca	0.026767153
50	0x3cbb4daa	0.022864182
51	0xbcd62676	-0.026141386
52	0xbd191be8	-0.03738013
53	0x3b80bb18	0.0039285533
54	0x3c8625ee	0.016375508
55	0xbd392082	-0.045197017
56	0x3d38b4b1	0.045094196
57	0xb9506200	-0.00019872934
58	0xbd6a8848	-0.057258874
59	0xbd642855	-0.055702526
60	0xbd37632d	-0.044772316
61	0x3d3be7c5	0.04587533
62	0x3c99e0fa	0.018784035
63	0xbd4043f0	-0.04693979
64	0x3d69a007	0.05703738
65	0xbc308ce0	-0.010775775
66	0x3b9f11c8	0.0048544146
67	0xbd536ca4	-0.05161728
68	0xbc098aac	-0.008394878
69	0xbd347a14	-0.044061735
70	0x3d01d023	0.031692635
71	0xbc4452e0	-0.01198265
72	0x3b148890	0.0022664405
73	0x3d2f1381	0.04274321
74	0xbc56f500	-0.013119936
75	0xbd20dfce	-0.039275937
76	0xbc6332a0	-0.01386705
77	0x3cbf02d6	0.023316782
78	0xbc4e374c	-0.012586426
79	0x3d100e4f	0.035169896
80	0xbc7012b8	-0.0146529
81	0xbd2a64ce	-0.04160004
82	0x3c6cecb4	0.014460731
83	0x3b9afa08	0.004729513
84	0xbb236960	-0.0024934635
85	0x3c940cb2	0.01807246
86	0x3d479e7f	0.048735138
87	0x3cabe1ca	0.020981688
88	0xbd3a9800	-0.045555115
89	0xbd0d5e4c	-0.034513757
90	0x3c68a594	0.014199633
91	0xbd29f144	-0.041489854
92	0xbc0d30e8	-0.008617617
93	0x3d515583	0.05110694
94	0xbd591724	-0.053000584
95	0xbca530dc	-0.0201649
96	0xbd673d44	-0.05645491
97	0xbd6a0516	-0.057133757
98	0xbd03e512	-0.03220088
99	0xbc993852	-0.018703613
100	0xbc4989b0	-0.012300894
101	0xbbb0c4e0	-0.005394563
102	0x3cb8fbde	0.022581037
103	0xbc991b48	-0.018689767
104	0xbd4f3ad2	-0.050593205
105	0xbd1ae10e	-0.037812285
106	0x3c5b4f24	0.013385568
107	0xbc805a88	-0.015668169
108	0x39b40f00	0.0003434345
109	0xbcf16385	-0.0294664
110	0x3ca945ae	0.020663109
111	0x3d33957f	0.043843742
112	0xbcffcd4b	-0.031225821
113	0x3d4af825	0.049553055
114	0xbd4c2791	-0.04984242
115	0x3c88a65e	0.016680893
116	0xbd2348b1	-0.039864246
117	0xbc947046	-0.018119942
118	0xbd01ab8c	-0.03165774
119	0xbad3d9e0	-0.0016162954
120	0xbccff26a	-0.025384147
121	0x3ccdb71a	0.025111724
122	0xbcb8cbd0	-0.022558123
123	0xbd345b08	-0.044032127
124	0xbcc3a5ac	-0.02388271
125	0xbc8f4fde	-0.017494138
126	0xbc0bf81c	-0.008543041
127	0xbcad8fce	-0.021186735
128	0x3c32490c	0.010881674
129	0x3d4a77d5	0.049430687
130	0xbd2ee118	-0.042695135
131	0xbab1b020	-0.0013556518
132	0xbbe28fd8	-0.00691412
133	0xbc44e574	-0.0120175965
134	0x3cb0a742	0.02156413
135	0xbd1506cc	-0.036383435
136	0x3d15c19d	0.036561597
137	0x3d1690f5	0.036759336
138	0xb9afe280	-0.00033547357
139	0x3d415faf	0.04721039
140	0xbd5aff6d	-0.05346625
141	0xbcb4ea3a	-0.022084344
142	0x3d39b1c9	0.045335565
143	0xbc48a9e4	-0.012247536
144	0x3c750294	0.014954228
145	0xbd4aeb50	-0.049540818
146	0xbcd88862	-0.02643222
147	0x3d3a5eb5	0.045500476
148	0x3cffd4ae	0.031229343
149	0xbc8995d8	-0.016795084
150	0xbc7168ec	-0.014734488
151	0xbbec44e8	-0.0072103627
152	0xbb84cce0	-0.0040527433
153	0xbd5498dc	-0.05190359
154	0xbc90fd28	-0.01769884
155	0xbcee32ae	-0.0290769
156	0x3b28bcd0	0.0025747307
157	0xbd484b1d	-0.04889976
158	0x3c48c4f4	0.0122539885
159	0x3d4fe4ed	0.05075543
160	0x3d5fe25b	0.05465923
161	0x3d223f65	0.03961124
162	0xbd3e48ed	-0.046456266
163	0x3d07d34d	0.033160497
164	0xbc78b850	-0.015180662
165	0xbca7d76a	-0.02048846
166	0x3d05c783	0.032660972
167	0xbcdda85c	-0.027057819
168	0x3cd1a256	0.025590103
169	0xbd0bf8be	-0.034172766
170	0xbc0fb6f0	-0.008771643
171	0x3bc340b8	0.005958643
172	0x3d55afeb	0.05216972
173	0xbd69a553	-0.05704243
174	0xbcc32642	-0.023821954
175	0x3bb252e8	0.005442012
176	0xbcd18530	-0.025576204
177	0x3cf3599a	0.029705811
178	0x3ccbab1e	0.024861868
179	0xbcd0e0be	-0.02549779
180	0x3d6aa37b	0.057284813
181	0x3d098acf	0.033579644
182	0x3bfcd9e8	0.007716406
183	0x3d45ebf7	0.048320737
184	0xbbed54c0	-0.007242769
185	0x3d50a941	0.050942663
186	0x3d420fe9	0.047378454
187	0xbca52bf0	-0.020162553
188	0xbcc66e54	-0.02422253
189	0xbc37dff4	-0.011222828
190	0x3c838366	0.016053867
191	0x3d27157b	0.04079197
192	0xbc46047c	-0.01208603
193	0x3cf292a6	0.029610943
194	0xbba965a0	-0.0051695853
195	0xbcb31378	-0.02185987
196	0x3d583a1d	0.052789796
197	0x3d16d153	0.03682072
198	0xbc975ac6	-0.018475901
199	0xbc92755a	-0.017878223
200	0x3d4dfc45	0.05028941
201	0xbc529760	-0.012853473
202	0xbd2abd9c	-0.04168473
203	0x3c180914	0.009279508
204	0x3d66f215	0.05638321
205	0xbc89cf62	-0.01682252
206	0xbcfac7f7	-0.030612929
207	0x3cd7f9ea	0.026364285
208	0x3cead4ca	0.028665919
209	0xbca0d01c	-0.019630484
210	0xbc31301c	-0.010814693
211	0x3c992836	0.018695932
212	0xbd1bd340	-0.03804326
213	0xbcba34f8	-0.022730336
214	0x3d37f223	0.044908654
215	0x3cdf619a	0.02726822
216	0x3d29296b	0.041299265
217	0xbcd493ca	-0.025949378
218	0x3d60d681	0.054892067
219	0xbd0a9cb0	-0.033840835
220	0xba1e1e80	-0.00060317665
221	0x3d2d2b2f	0.04227751
222	0x3d31380d	0.043266345
223	0x3d3ccc47	0.04609325
224	0xbc8553d2	-0.01627532
225	0x3d603ecf	0.0547474
226	0x3d3f6bdb	0.04673372
227	0xbd29090c	-0.041268393
228	0xbca45976	-0.02006219
229	0x3cceaf8a	0.025230188
230	0x3d620e79	0.055189583
231	0xbd5b4e37	-0.05354139
232	0x3d5c84f7	0.053837743
233	0xbca35d28	-0.019941881
234	0x3caf792e	0.021420088
235	0xbc0410d0	-0.008060649
236	0xbd46b0d6	-0.048508488
237	0x3cd96346	0.026536595
238	0x3d0a2a63	0.03373183
239	0x3ca68662	0.02032775
240	0x3c8ba4c2	0.017046336
241	0x3d1415c1	0.03615356
242	0x3d2b0857	0.041756
243	0x3d2c4dd1	0.0420664
244	0x3c9eaf0e	0.019370582
245	0x3cd418f2	0.025890801
246	0xbc8575f8	-0.016291603
247	0xbd68d3fc	-0.05684279
248	0xbd4b0331	-0.04956359
249	0x3d0fbac1	0.03509021
250	0x3c871996	0.016491693
251	0x3d2c3fc9	0.042053018
252	0xbd0ec992	-0.0348602
253	0x3d230d9b	0.039807897
254	0xbb9bc248	-0.0047533847
255	0x3d2e1889	0.042503867

bias f4 [32]
0	0xbd3bd7bc	-0.045860037
1	0xbb8e0ba0	-0.004334882
2	0xbd3cbacd	-0.046076585
3	0xbc1833a4	-0.009289656
4	0xbcd87e96	-0.026427548
5	0xbce03952	-0.027371082
6	0xbbb8bf00	-0.0056380033
7	0x3d5b6015	0.053558428
8	0x3ca97e32	0.020690057
9	0x3cdbe0fa	0.026840676
10	0xbd2a34d7	-0.0415543
11	0x3ca4c012	0.020111118
12	0x3d2eae33	0.042646598
13	0xbd4b4fd0	-0.049636662
14	0x3c87a73a	0.016559232
15	0xbbee8eb0	-0.0072801933
16	0x3c209b44	0.009802643
17	0xbcfce868	-0.030872539
18	0xbd6c3848	-0.05767086
19	0x3cb4c7b2	0.022067878
20	0x3b966ed8	0.0045908503
21	0xbd3a8890	-0.045540392
22	0xbd6976f9	-0.056998227
23	0xbd45a0a1	-0.04824889
24	0xbcc987a2	-0.024600808
25	0xbd60bdd3	-0.05486853
26	0x3ce79056	0.028267067
27	0x3d60d025	0.054886002
28	0xbc79eb78	-0.015253894
29	0x3c08dbac	0.008353155
30	0xbd5be86b	-0.053688448
31	0xbc018080	-0.007904172

weight f4 [32]
0	0x3f800000	1.0
1	0x3f800000	1.0
2	0x3f800000	1.0
3	0x3f800000	1.0
4	0x3f800000	1.0
5	0x3f800000	1.0
6	0x3f800000	1.0
7	0x3f800000	1.0
8	0x3f800000	1.0
9	0x3f800000	1.0
10	0x3f800000	1.0
11	0x3f800000	1.0
12	0x3f800000	1.0
13	0x3f800000	1.0
14	0x3f800000	1.0
15	0x3f800000	1.0
16	0x3f800000	1.0
17	0x3f800000	1.0
18	0x3f800000	1.0
19	0x3f800000	1.0
20	0x3f800000	1.0
21	0x3f800000	1.0
22	0x3f800000	1.0
23	0x3f800000	1.0
24	0x3f800000	1.0
25	0x3f800000	1.0
26	0x3f800000	1.0
27	0x3f800000	1.0
28	0x3f800000	1.0
29	0x3f800000	1.0
30	0x3f800000	1.0
31	0x3f800000	1.0

bias f4 [32]
0	0x00000000	0.0
1	0x00000000	0.0
2	0x00000000	0.0
3	0x00000000	0.0
4	0x00000000	0.0
5	0x00000000	0.0
6	0x00000000	0.0
7	0x00000000	0.0
8	0x00000000	0.0
9	0x00000000	0.0
10	0x00000000	0.0
11	0x00000000	0.0
12	0x00000000	0.0
13	0x00000000	0.0
14	0x00000000	0.0
15	0x00000000	0.0
16	0x00000000	0.0
17	0x00000000	0.0
18	0x00000000	0.0
19	0x00000000	0.0
20	0x00000000	0.0
21	0x00000000	0.0
22	0x00000000	0.0
23	0x00000000	0.0
24	0x00000000	0.0
25	0x00000000	0.0
26	0x00000000	0.0
27	0x00000000	0.0
28	0x00000000	0.0
29	0x00000000	0.0
30	0x00000000	0.0
31	0x00000000	0.0

running_mean f4 [32]
0	0xbe137780	-0.14401054
1	0x3f349721	0.70543104
2	0xbd2debf6	-0.042461358
3	0x3dee7e6c	0.11645207
4	0x3e85b957	0.26117966
5	0x3ed0b5d2	0.40763718
6	0x3ee11119	0.43958357
7	0x3b473482	0.0030396287
8	0x3e55c2de	0.20875117
9	0xbd925e98	-0.071469486
10	0x3d054c9a	0.032543756
11	0x3d8ba2ce	0.06818162
12	0xbe8e0682	-0.2773934
13	0x3ee61386	0.4493677
14	0x3dc973d8	0.098365486
15	0xbedec2b6	-0.43507928
16	0x3e3e0c57	0.18559395
17	0xbeba2266	-0.3635437
18	0xbddddede	-0.10833524
19	0x3e402d53	0.1876729
20	0x3d56f54d	0.05248003
21	0xbe705717	-0.23470722
22	0xbea4a862	-0.32159716
23	0xbf06a4a9	-0.52595
24	0xbee0e2da	-0.43923074
25	0x3f1a2c97	0.6022429
26	0xbef68422	-0.48147684
27	0x3df3adf8	0.11898416
28	0xbeb923f0	-0.3616023
29	0x3e29c5e6	0.16579399
30	0x3d8b2e9f	0.06796002
31	0xbec84bfa	-0.39120466

running_var f4 [32]
0	0x3e1265d9	0.14296664
1	0x3dd598b4	0.104295164
2	0x3e02be43	0.12767892
3	0x3ea00398	0.31252742
4	0x3e49bad8	0.19700181
5	0x3e9aa7c3	0.30206117
6	0x3e9ef83f	0.31048772
7	0x3eb97085	0.36218658
8	0x3df38419	0.1189043
9	0x3eab7e32	0.33494717
10	0x3dff9671	0.12479866
11	0x3e1c8789	0.15286078
12	0x3e6c145e	0.23054644
13	0x3e987afa	0.29781324
14	0x3f17f477	0.593574
15	0x3dbdd013	0.09268203
16	0x3df45f9b	0.11932298
17	0x3e525e9c	0.20543903
18	0x3e83ad04	0.25717938
19	0x3e9453fb	0.28970322
20	0x3e67cd0c	0.22636813
21	0x3e7fc209	0.24976362
22	0x3e89f7ee	0.26946968
23	0x3e7e2fa5	0.24822862
24	0x3e129072	0.14312914
25	0x3e02248f	0.12709258
26	0x3e31f3e6	0.17378196
27	0x3f022d44	0.5085032
28	0x3f44d946	0.7689403
29	0x3e93d914	0.28876555
30	0x3e19e98c	0.15030497
31	0x3e57d2a1	0.21076442

weight f4 [32]
0	0x3f800000	1.0
1	0x3f800000	1.0
2	0x3f800000	1.0
3	0x3f800000	1.0
4	0x3f800000	1.0
5	0x3f800000	1.0
6	0x3f800000	1.0
7	0x3f800000	1.0
8	0x3f800000	1.0
9	0x3f800000	1.0
10	0x3f800000	1.0
11	0x3f800000	1.0
12	0x3f800000	1.0
13	0x3f800000	1.0
14	0x3f800000	1.0
15	0x3f800000	1.0
16	0x3f800000	1.0
17	0x3f800000	1.0
18	0x3f800000	1.0
19	0x3f800000	1.0
20	0x3f800000	1.0
21	0x3f800000	1.0
22	0x3f800000	1.0
23	0x3f800000	1.0
24	0x3f800000	1.0
25	0x3f800000	1.0
26	0x3f800000	1.0
27	0x3f800000	1.0
28	0x3f800000	1.0
29	0x3f800000	1.0
30	0x3f800000	1.0
31	0x3f800000	1.0

bias f4 [32]
0	0x00000000	0.0
1	0x00000000	0.0
2	0x00000000	0.0
3	0x00000000	0.0
4	0x00000000	0.0
5	0x00000000	0.0
6	0x00000000	0.0
7	0x00000000	0.0
8	0x00000000	0.0
9	0x00000000	0.0
10	0x00000000	0.0
11	0x00000000	0.0
12	0x00000000	0.0
13	0x00000000	0.0
14	0x00000000	0.0
15	0x00000000	0.0
16	0x00000000	0.0
17	0x00000000	0.0
18	0x00000000	0.0
19	0x00000000	0.0
20	0x00000000	0.0
21	0x00000000	0.0
22	0x00000000	0.0
23	0x00000000	0.0
24	0x00000000	0.0
25	0x00000000	0.0
26	0x00000000	0.0
27	0x00000000	0.0
28	0x00000000	0.0
29	0x00000000	0.0
30	0x00000000	0.0
31	0x00000000	0.0

running_mean f4 [32]
0	0x3d9c0784	0.07618621
1	0x3e69727c	0.22797579
2	0xbe9f9d23	-0.31174573
3	0x3da9cbd3	0.082908295
4	0xbcb4a3e4	-0.022050805
5	0xbe51ee4d	-0.20501061
6	0xbe762b14	-0.2403987
7	0x3e8c612a	0.2741788
8	0x3d2363c9	0.039890084
9	0xbe4981ed	-0.19678469
10	0xbe2bcf57	-0.16778313
11	0xbe71c7f4	-0.23611432
12	0x3cca240c	0.024675392
13	0x3cf9c1e6	0.030487966
14	0xbd83dfb8	-0.06439155
15	0x3e00d2d2	0.12580422
16	0xbd744d3c	-0.05964397
17	0x3d80f44f	0.06296598
18	0xbed2b5b8	-0.41154265
19	0xbe239fe9	-0.1597897
20	0xbe5703e5	-0.2099758
21	0xbdb405f1	-0.08790196
22	0x3cc18f92	0.02362803
23	0xbdf71361	-0.12064243
24	0x3d037662	0.03209532
25	0xbdee62ea	-0.1163996
26	0xbec92a3f	-0.39290044
27	0x3b4bb928	0.0031085704
28	0xbdd58952	-0.104265824
29	0xbcbecc66	-0.023290824
30	0xbcf1105b	-0.029426744
31	0x3e3783db	0.17921393

running_var f4 [32]
0	0x3d8cf53e	0.06882714
1	0x3d3fcf6c	0.046828672
2	0x3d727247	0.059191015
3	0x3d7e4a25	0.06208243
4	0x3d60e363	0.054904353
5	0x3db18f8f	0.0866996
6	0x3db43257	0.08798664
7	0x3de92f22	0.11385943
8	0x3da00520	0.078134775
9	0x3d732507	0.059361484
10	0x3db0b339	0.08627934
11	0x3d94e5a2	0.072703615
12	0x3daad748	0.08341843
13	0x3d5c4f34	0.05378647
14	0x3e094b43	0.13407616
15	0x3dec944b	0.11551722
16	0x3ddcc71f	0.10780167
17	0x3d5a08d8	0.05323109
18	0x3db08dee	0.08620821
19	0x3e06d131	0.13165738
20	0x3d8d5bcb	0.06902274
21	0x3e026516	0.12733874
22	0x3e06c88e	0.13162443
23	0x3d589f61	0.05288637
24	0x3d5445b0	0.05182427
25	0x3ddbc150	0.10730231
26	0x3df11e8f	0.11773407
27	0x3d3f6ecf	0.046736535
28	0x3d7ec69d	0.06220113
29	0x3d971944	0.07377866
30	0x3ddbacdc	0.1072633
31	0x3e2f0356	0.17091116
