models/5_cross_5_iter_0.pt (torch_old, 324948 bytes, 66 tensors)

weight f4 [32, 3, 3, 3]
0.18866433 0.12190659 0.074927524 -0.13960655 0.09493144 -0.031492233 -0.05790089 0.05215375
0.054748863 -0.015059501 -0.048836336 -0.18848489 -0.023010567 0.06260286 0.18306144 0.121827945
0.089062795 -0.17006609 -0.06854831 -0.13174748 0.11275412 0.14684327 -0.17760608 0.15710814
0.1308869 0.1301087 -0.16657858 0.15068336 0.008079007 0.09427826 -0.043987483 0.081810996
-0.118601345 -0.16353329 -0.17766772 -0.1808627 -0.13196778 -0.1152038 0.090737686 0.07177888
0.0826958 -0.18607667 -0.18596077 -0.12401943 0.020165876 -0.19024476 -0.11060515 0.14575268
-0.027117759 0.18843074 -0.14041819 0.045762792 -0.06286569 0.15911718 -0.08263409 -0.018021524
-0.0042171627 -0.108206466 0.09769364 0.119890735 0.14966099 -0.018892512 0.16480775 0.008852586
-0.099808656 -0.13578664 -0.04196407 0.18801187 -0.1361039 -0.059955448 0.11481871 0.12330793
0.17432667 -0.094693586 -0.045301557 -0.1884015 -0.040308148 -0.15473655 -0.18235247 0.19210939
-0.1133891 0.11568682 0.16949399 0.063415244 0.024652958 -0.07944096 -0.085947104 0.13514073
-0.020642698 0.03981191 0.009875357 0.13632448 -0.005135253 0.17226295 0.1313876 -0.04793933
0.084209725 0.13526566 -0.16898581 -0.14125742 0.06156753 -0.171435 0.0028093606 0.08046459
0.1442992 0.035680577 0.16572978 -0.15647563 0.155059 -0.038434044 0.10584141 -0.14360818
-0.05146058 -0.068544455 0.1572531 -0.079626076 -0.03480479 0.15178363 0.13382976 0.16763796
0.14268212 0.038178712 0.05645913 0.13766997 -0.0232092 0.110341504 0.021667212 -0.0012769252
-0.089834414 0.1441951 0.14565052 -0.18432234 0.023175701 -0.16250113 -0.10544209 0.0102842
0.16083525 0.03255254 -0.16424552 0.14351188 -0.12639222 -0.123568915 0.16334356 -0.12045101
-0.058764815 0.07569568 -0.02039069 0.018350542 -0.0974361 -0.19149382 -0.14399016 0.110009775
0.007871211 -0.03811337 -0.06046751 -0.12774345 -0.013480917 0.11095293 -0.016010582 -0.10792504
0.17463918 -0.1502174 0.17225851 -0.157568 0.12767102 0.050394982 -0.06359601 0.03348659
0.09636091 -0.07858635 -0.099251874 -0.07452044 -0.025509536 0.17504169 -0.07726674 0.15152718
-0.035089135 0.08467592 0.019931108 -0.07500715 0.045095533 -0.027769879 0.06415738 -0.15507926
0.119611785 0.17142232 -0.11070857 0.07566033 -0.06089592 -0.017352745 -0.06721975 0.13068454
0.038473323 -0.18622437 -0.18992034 -0.15743421 0.03382893 -0.06874813 0.16379188 0.05245982
-0.08865754 -0.016223282 -0.060587212 0.002925709 0.08327107 -0.05464384 0.025686964 0.006337911
-0.17917782 -0.12526754 -0.1147281 -0.1391688 0.1620344 -0.067825824 -0.057234034 -0.12468098
-0.15674187 0.15601452 -0.023301065 0.14798726 0.029204726 -0.12894015 -0.17050652 0.07275118
-0.15518433 0.04256901 0.058440164 0.035335436 -0.17046499 -0.12824786 0.07466133 0.029680908
-0.10026669 -0.10094471 -0.13910502 -0.16504297 -0.012070417 0.13626023 -0.13221288 -0.09975483
0.038986564 0.12426232 -0.10408758 -0.1257023 0.08733128 0.15213238 0.056855723 0.080081984
-0.11627959 0.007843167 -0.02517131 -0.039366037 0.012179643 0.020160899 -0.17271121 -0.03941311
00000000: 3931 413e 2aaa f93d 9a73 993d 05f5 0ebe
00000010: 6a6b c23d 00fe 00bd 7c29 6dbd 2c9f 553d
00000020: 5840 603d 20bc 76bc 9c08 48bd 2f02 41be
00000030: a880 bcbc ee35 803d 7574 3b3e ee80 f93d
00000040: 8e66 b63d ce25 2ebe 0e63 8cbd d0e8 06be
00000050: a2eb e63d 155e 163e 5ede 35be f5e0 203e
00000060: 3707 063e 373b 053e 9393 2abe bd4c 1a3e
00000070: d05d 043c f614 c13d 382c 34bd 868c a73d
00000080: 43e5 f2bd 4575 27be 87ee 35be 1234 39be
00000090: 9022 07be f8ef ebbd aed4 b93d ce00 933d
000000a0: 6a5c a93d e28a 3ebe 806c 3ebe e6fd fdbd
000000b0: e832 a53c 86cf 42be f484 e2bd 3140 153e
000000c0: 1026 debc fdf3 403e c9c9 0fbe c471 3b3d
000000d0: babf 80bd 9def 223e 103c a9bd e0a1 93bc
000000e0: 2030 8abb 5a9b ddbd 9a13 c83d 4689 f53d
000000f0: bb40 193e 78c4 9abc 5dc3 283e 700a 113c
00000100: 7b68 ccbd a70b 0bbe 84e2 2bbd 2f86 403e
00000110: d25e 0bbe d893 75bd 1226 eb3d de88 fc3d
00000120: b182 323e b6ee c1bd 208e 39bd 53ec 40be
00000130: 281a 25bd 4273 1ebe 9bba 3abe 53b8 443e
00000140: 8b38 e8bd 36ed ec3d d58f 2d3e dadf 813d
00000150: 00f5 c93c f1b1 a2bd 0905 b0bd 5562 0a3e
00000160: e01a a9bc d011 233d 40cc 213c a598 0b3e
00000170: a045 a8bb b365 303e 798a 063e 085c 44bd
00000180: 2676 ac3d 1583 0a3e 9e0a 2dbe c9a5 10be
00000190: 3c2e 7c3d a88c 2fbe 401d 383b 9eca a43d
000001a0: 2bc3 133e cc25 123d 11b5 293e 263b 20be
000001b0: c9c7 1e3e 046d 1dbd 62c3 d83d 060e 13be
000001c0: 54c8 52bd 0961 8cbd f506 213e ff12 a3bd
000001d0: 788f 0ebd 2b6d 1b3e ab0a 093e 49a9 2b3e
000001e0: 431b 123e 4861 1c3d b041 673d 5bf9 0c3e
000001f0: 3821 bebc bafa e13d 707f b13c 805e a7ba
00000200: 1bfb b7bd e1a7 133e 6925 153e ffbe 3cbe
00000210: f8da bd3c b266 26be 06f2 d7bd 107f 283c
00000220: ffb1 243e d055 053d fa2f 28be c7f4 123e
00000230: f66c 01be b311 fdbd 8943 273e 05af f6bd
00000240: 60b3 70bd 5606 9b3d 600a a7bc e053 963c
00000250: 948c c7bd f516 44be 2872 13be ce4c e13d
00000260: 40f6 003c c41c 1cbd c8ac 77bd 2ecf 02be
00000270: 10df 5cbc 4a3b e33d a028 83bc ce07 ddbd
00000280: 9dd4 323e 97d2 19be 8964 303e 8159 21be
00000290: 31bc 023e f86a 4e3d a03e 82bd 3c29 093d
000002a0: de58 c53d e1f1 a0bd 9144 cbbd 2c9e 98bd
000002b0: 60f9 d0bc 213e 333e 063e 9ebd f129 1b3e
000002c0: a0b9 0fbd 926a ad3d 9046 a33c 599d 99bd
000002d0: 18b6 383d a87d e3bc f264 833d 19cd 1ebe
000002e0: 06f7 f43d 5589 2f3e 2dbb e2bd cef3 9a3d
000002f0: 006e 79bd 5827 8ebc 82aa 89bd 2bd2 053e
00000300: 3496 1d3d 9ab1 3ebe 7a7a 42be 6f36 21be
00000310: 3490 0a3d d2cb 8cbd 0fb9 273e 1ce0 563d
00000320: 1692 b5bd b0e6 84bc 4c2a 78bd 40bd 3f3b
00000330: 068a aa3d 38d2 5fbd 786d d23c 40ae cf3b
00000340: 647a 37be 2246 00be 91f6 eabd 4482 0ebe
00000350: 59ec 253e 44e8 8abd 3c6e 6abd be58 ffbd
00000360: f180 20be 45c2 1f3e e0e1 bebc f989 173e
00000370: c03e ef3c e308 04be 4399 2ebe 92fe 943d
00000380: a4e8 1ebe d85c 2e3d f45e 6f3d e4bb 103d
00000390: 608e 2ebe 6853 03be 0ae8 983d 6025 f33c
000003a0: 9f58 cdbd 1abc cebd 8c71 0ebe 0601 29be
000003b0: 00c3 45bc cd87 0b3e d062 07be 434c ccbd
000003c0: 60b0 1f3d 3e7d fe3d df2b d5bd 1bb8 00be
000003d0: beda b23d 97c8 1b3e 8ce1 683d 0602 a43d
000003e0: fe23 eebd a080 003c 1034 cebc 483e 21bd
000003f0: 208d 473c 7828 a53c 35db 30be a46f 21bd

bias f4 [32]
-0.09542511 -0.17260619 -0.04840076 0.1353919 -0.030268654 0.038365796 -0.19224502 -0.099740654
-0.028552473 -0.07222671 -0.055540472 -0.1259107 -0.013100207 -0.08429747 -0.11527565 0.052265957
0.103357956 0.07641746 -0.054199606 -0.113207676 0.09529437 0.15936239 0.09139924 -0.13634925
0.06453924 0.19015773 -0.118611485 0.16991796 -0.05417624 0.14188494 -0.1262865 0.095758304
00000000: 3d6e c3bd adbf 30be e03f 46bd 2da4 0a3e
00000010: f8f5 f7bc 7425 1d3d e1db 44be d444 ccbd
00000020: e0e6 e9bc 99eb 93bd 687e 63bd bcee 00be
00000030: 40a2 56bc 27a4 acbd a415 ecbd d414 563d
00000040: 56ad d33d c280 9c3d 6800 5ebd 6dd9 e7bd
00000050: b229 c33d e52f 233e 862f bb3d 239f 0bbe
00000060: 262d 843d b5b8 423e 94ea f2bd f9fe 2d3e
00000070: e8e7 5dbd 494a 113e 4051 01be ee1c c43d

weight f4 [32]
1.0 1.0 1.0 1.0 1.0 1.0 1.0 1.0
1.0 1.0 1.0 1.0 1.0 1.0 1.0 1.0
1.0 1.0 1.0 1.0 1.0 1.0 1.0 1.0
1.0 1.0 1.0 1.0 1.0 1.0 1.0 1.0
00000000: 0000 803f 0000 803f 0000 803f 0000 803f
00000010: 0000 803f 0000 803f 0000 803f 0000 803f
00000020: 0000 803f 0000 803f 0000 803f 0000 803f
00000030: 0000 803f 0000 803f 0000 803f 0000 803f
00000040: 0000 803f 0000 803f 0000 803f 0000 803f
00000050: 0000 803f 0000 803f 0000 803f 0000 803f
00000060: 0000 803f 0000 803f 0000 803f 0000 803f
00000070: 0000 803f 0000 803f 0000 803f 0000 803f

bias f4 [32]
0.0 0.0 0.0 0.0 0.0 0.0 0.0 0.0
0.0 0.0 0.0 0.0 0.0 0.0 0.0 0.0
0.0 0.0 0.0 0.0 0.0 0.0 0.0 0.0
0.0 0.0 0.0 0.0 0.0 0.0 0.0 0.0
00000000: 0000 0000 0000 0000 0000 0000 0000 0000
00000010: 0000 0000 0000 0000 0000 0000 0000 0000
00000020: 0000 0000 0000 0000 0000 0000 0000 0000
00000030: 0000 0000 0000 0000 0000 0000 0000 0000
00000040: 0000 0000 0000 0000 0000 0000 0000 0000
00000050: 0000 0000 0000 0000 0000 0000 0000 0000
00000060: 0000 0000 0000 0000 0000 0000 0000 0000
00000070: 0000 0000 0000 0000 0000 0000 0000 0000

running_mean f4 [32]
0.12542433 -0.5303149 -0.19230059 0.46503922 0.2001788 -0.23528694 -0.0038241968 -0.6437804
-0.42013308 -0.04111361 -0.07894222 0.18970785 -0.042112686 0.36260697 0.1662786 -0.109601475
0.27926838 0.26961875 -0.016069613 -0.45381564 0.068268575 0.40257102 -0.038326994 0.073372506
-0.20777686 0.017416006 0.11137645 0.4874348 -0.06298128 0.026570637 -0.23300995 0.124928355
00000000: 3c6f 003e b8c2 07bf 72ea 44be 9f19 ee3e
00000010: acfb 4c3e 0fef 70be 609f 7abb cbce 24bf
00000020: af1b d7be bf66 28bd 75ac a1bd c642 423e
00000030: 5a7e 2cbd 9fa7 b93e f044 2a3e bd76 e0bd
00000040: 44fc 8e3e 780b 8a3e 6ca4 83bc 865a e8be
00000050: 65d0 8b3d ca1d ce3e c4fc 1cbd 5344 963d
00000060: 75c3 54be 03ac 8e3c 5619 e43d 0e91 f93e
00000070: 54fc 80bd aaaa d93c 299a 6ebe 70da ff3d

running_var f4 [32]
0.09552513 0.045811668 0.012286364 0.0363842 0.022144444 0.03353941 0.035839047 0.03866077
0.04606302 0.13903005 0.029783852 0.11567714 0.04423057 0.061100874 0.11043073 0.02194651
0.09012231 0.046520013 0.061970916 0.07671301 0.033543184 0.07085742 0.039810102 0.062050406
0.028795054 0.070890315 0.030180383 0.03119249 0.03480931 0.049220983 0.07892444 0.09205216
00000000: aea2 c33d 04a5 3b3d bf4c 493c 9907 153d
00000010: 4468 b53c 9f60 093d f7cb 123d c15a 1e3d
00000020: 94ac 3c3d e55d 0e3e 44fd f33c 23e8 ec3d
00000030: 1d2b 353d e944 7a3d 8229 e23d 2bc9 b33c
00000040: 0c92 b83d c58b 3e3d 37d5 7d3d b61b 9d3d
00000050: 9464 093d b21d 913d eb0f 233d 9128 7e3d
00000060: 9be3 eb3c f12e 913d da3c f73c 6587 ff3c
00000070: 3594 0e3d f19b 493d 23a3 a13d d885 bc3d

weight f4 [2, 32, 1, 1]
0.12381105 -0.12798841 0.17525233 0.0845312 -0.108152896 -0.16000274 -0.10874995 -0.123215884
0.1108069 -0.17435424 -0.0003516376 -0.15961702 0.006958008 0.16394927 0.13228624 -0.13602495
-0.16366279 -0.013156265 -0.15554383 0.009059995 -0.122329205 -0.051614583 0.029711887 0.028978765
0.06955996 -0.07843931 -0.11989061 -0.121876374 0.008326411 -0.16994327 0.0008031875 0.15292479
-0.102834076 0.15521015 0.08127783 -0.10526938 0.08215667 0.039196566 -0.14777441 -0.14120796
0.039278567 0.15648316 -0.14088084 0.10723491 0.049753636 0.05439751 -0.1609935 0.15488093
0.046704665 -0.1320934 -0.057827793 -0.14305554 0.13552262 0.122224614 0.14363308 0.13477175
-0.14485362 0.06511398 -0.1249108 0.1170667 0.03971502 -0.06586016 0.059883818 -0.08485568
00000000: a690 fd3d 650f 03be 5975 333e b21e ad3d
00000010: 447f ddbd c2d7 23be 4bb8 debd 9c58 fcbd
00000020: baee e23d eb89 32be 005c b8b9 a572 23be
00000030: 0000 e43b 51e2 273e 0b76 073e 204a 0bbe
00000040: 3897 27be 608d 57bc e246 1fbe 6070 143c
00000050: bc87 fabd d069 53bd 5866 f33c e064 ed3c
00000060: 7475 8e3d caa4 a0bd 3589 f5bd 529a f9bd
00000070: 806b 083c 9c05 2ebe 008d 523a 5198 1c3e
00000080: ac9a d2bd 69ef 1e3e fe74 a63d 7997 d7bd
00000090: c241 a83d 948c 203d 2d52 17be d298 10be
000000a0: 90e2 203d 1f3d 203e 1143 10be fa9d db3d
000000b0: 78ca 4b3d eccf 5e3d 7bdb 24be 1b99 1e3e
000000c0: 644d 3f3d 7e43 07be d6dc 6cbd 277d 12be
000000d0: 71c6 0a3e e650 fa3d 8d14 133e 9b01 0a3e
000000e0: 8254 14be 7a5a 853d 3cd1 ffbd aac0 ef3d
000000f0: 38ac 223d b1e1 86bd bc48 753d d1c8 adbd

bias f4 [2]
0.009977281 -0.0470068
00000000: c077 233c 348a 40bd

weight f4 [2]
1.0 1.0
00000000: 0000 803f 0000 803f

bias f4 [2]
0.0 0.0
00000000: 0000 0000 0000 0000

running_mean f4 [2]
-1.375664 0.32543924
00000000: c215 b0bf f99f a63e

running_var f4 [2]
0.85856223 0.74633545
00000000: bcca 5b3f d70f 3f3f

weight f4 [26, 18]
0.0084949285 -0.13435262 -0.12638596 -0.007851422 0.2254387 -0.1326952 -0.22845924 -0.004311964
-0.085904524 -0.021978736 -0.03468573 -0.16013378 -0.0058756024 0.071378216 -0.052511767 -0.08962968
0.014177024 -0.09463586 -0.07875535 -0.14283809 -0.13849446 -0.20443596 -0.11128774 -0.21483184
-0.05529155 0.22096755 -0.19130471 0.019579872 0.07818903 -0.0887344 -0.17120148 -0.010170564
-0.020897701 -0.046181872 0.12609942 -0.1813366 0.0969065 -0.039869547 0.019948736 0.12134464
-0.02954343 -0.16526544 -0.1298253 0.10349612 -0.054210827 -0.018879935 0.10829763 0.21539019
-0.0059622675 -0.15435869 0.0309162 0.112222835 -0.048861206 0.06266831 0.22618823 -0.12375503
0.05230482 0.17433767 -0.12808588 0.031180546 0.10939668 0.128709 -0.19558375 -0.16721068
-0.052569628 -0.07027057 -0.1046447 0.018075213 -0.093750045 0.016001716 0.22172396 -0.10179858
-0.17270708 -0.19391248 0.20596717 0.15376572 0.20644324 -0.22539443 -0.19580942 0.15136452
-0.014165387 0.04591997 0.016760066 0.21329413 -0.07909505 0.19087107 0.18529753 -0.047355294
-0.17810725 0.18560226 -0.18563382 0.08080368 -0.059175864 -0.024901375 -0.13901056 -0.035805717
0.1047215 0.18005596 -0.13417992 0.02486597 0.031415716 0.21517055 0.16548939 0.06626727
-0.015795156 0.12449257 0.11721356 0.10058366 -0.19095057 -0.056631237 -0.16625215 -0.07180601
-0.17909233 0.08046053 -0.01877682 0.052652046 0.14057039 -0.012755856 0.12644897 0.05619158
0.19516192 -0.031459987 -0.08299422 -0.17343995 -0.15029562 0.20629548 0.064693496 0.1011423
0.18162297 -0.16861673 -0.13476823 -0.06749967 -0.22119667 0.022995606 0.21345715 -0.054934457
0.13828756 -0.14725283 0.05754052 -0.08858132 -0.077989146 -0.12627932 -0.092166424 0.22190808
-0.0653422 0.104202166 -0.07013115 0.13168801 0.12203498 0.10821669 0.0039626956 -0.07843119
0.16095205 0.005387798 0.10604833 -0.016856775 0.19567393 -0.1976183 -0.059870273 0.1397975
0.2325205 -0.1014709 -0.11072486 0.2018954 -0.017915636 -0.1631931 0.17148511 -0.17060497
0.224117 -0.13515997 0.07603122 0.097410455 -0.010801703 -0.20861994 0.021332875 -0.20752816
0.04683228 0.19955464 0.0077519864 0.211046 0.21219094 0.16717719 0.16033886 0.17154203
-0.10248557 0.17815484 -0.18938701 0.051514342 0.09884252 0.050212637 0.104090855 -0.11935066
0.13272925 0.091227874 0.13216923 -0.0942723 -0.0206431 0.04158701 -0.20853007 0.17821975
0.047886506 0.21720572 0.18391384 0.21076904 -0.1098029 0.088305786 0.04965125 0.113342926
-0.12551779 0.056795463 0.025852934 0.11018281 0.024071619 0.18277295 -0.020787165 0.16581117
-0.05743155 0.21070974 -0.016519934 0.056841895 0.07830368 -0.030168101 -0.21437193 -0.06154993
0.15468429 0.13932703 0.08100511 -0.032280043 0.089278385 -0.2290808 0.12158422 -0.1437808
0.055031046 0.19523476 0.21287791 0.15502606 -0.07169381 -0.0921853 0.17592545 0.041657045
0.07856865 0.22242369 0.043587282 0.04571207 0.078711614 -0.23295861 0.15321727 0.08608876
-0.08784202 0.08018358 0.203447 -0.049065053 -0.071334526 -0.08749692 0.033071026 -0.06087205
00000000: 502e 0b3c bc93 09be 526b 01be 40a3 00bc
00000010: 67d9 663e 40e1 07be 38f1 69be 604b 8dbb
00000020: b6ee afbd c00c b4bc a012 0ebd 1cfa 23be
00000030: 2088 c0bb be2e 923d 9416 57bd c48f b7bd
00000040: c046 683c 72d0 c1bd 7c4a a1bd 2644 12be
00000050: 7ed1 0dbe a957 51be d4ea e3bd e1fc 5bbe
00000060: 6479 62bd 5145 623e 62e5 43be f865 a03c
00000070: 9221 a03d 62ba b5bd 714f 2fbe 70a2 26bc
00000080: a831 abbc 3429 3dbd 3520 013e 4db0 39be
00000090: ea76 c63d 404e 23bd 886b a33c 8a83 f83d
000000a0: 1005 f2bc 583b 29be ecf0 04be c6f5 d33d
000000b0: 2c0c 5ebd 18aa 9abc 26cb dd3d 3f8f 5c3e
000000c0: 205f c3bb 3410 1ebe f843 fd3c 16d5 e53d
000000d0: b022 48bd 3e58 803d e39d 673e 4773 fdbd
000000e0: 943d 563d 9385 323e f228 03be 586e ff3c
000000f0: 5e0b e03d 4bcc 033e 1b47 48be 4739 2bbe
00000100: 4053 57bd 04ea 8fbd f64f d6bd 7812 943c
00000110: 0600 c0bd 0816 833c 9b0b 633e c67b d0bd
00000120: 20da 30be fe90 46be 0fe9 523e c374 1d3e
00000130: db65 533e cccd 66be 4482 48be 4dff 1a3e
00000140: f015 68bc 9416 3c3d 684c 893c c769 5a3e
00000150: 96fc a1bd b573 433e a3be 3d3e a0f7 41bd
00000160: bf61 36be 850e 3e3e cb16 3ebe 667c a53d
00000170: 6462 72bd f8fd cbbc c958 0ebe 04a9 12bd
00000180: 3a78 d63d 9760 383e 7666 09be b8b3 cb3c
00000190: c4ad 003d ab55 5c3e 0d76 293e 22b7 873d
000001a0: d864 81bc f6f5 fe3d aa0d f03d cefe cd3d
000001b0: 8c88 43be 28f6 67bd 013e 2abe 080f 93bd
000001c0: fb63 37be 7ec8 a43d d8d1 99bc aca9 573d
000001d0: aff1 0f3e f0fd 50bc d77b 013e 2429 663d
000001e0: 87d8 473e 30dc 00bd e0f8 a9bd 3e9a 31be
000001f0: 18e7 19be 1f3f 533e 067e 843d b223 cf3d
00000200: 5ffb 393e dda9 2cbe af00 0abe 443d 8abd
00000210: 6181 62be 4861 bc3c 8394 5a3e f402 61bd
00000220: 419b 0d3e 72c9 16be 9caf 6b3d 206a b5bd
00000230: c6b8 9fbd 5e4f 01be c0c1 bcbd df3b 633e
00000240: 22d2 85bd f267 d53d eca0 8fbd 39d9 063e
00000250: 7aed f93d b6a0 dd3d 80d9 813b 88a0 a0bd
00000260: 9dd0 243e 208c b03b de2f d93d 3817 8abc
00000270: bf5e 483e 745c 4abe 883a 75bd 1327 0f3e
00000280: db19 6e3e facf cfbd b7c3 e2bd abbd 4e3e
00000290: d0c3 92bc 181c 27be cb99 2f3e 12b3 2ebe
000002a0: ed7e 653e 6067 0abe 42b6 9b3d 227f c73d
000002b0: a0f9 30bc 77a0 55be 48c2 ae3c 4382 54be
000002c0: 34d3 3f3d 0d58 4c3e 6004 fe3b 711c 583e
000002d0: 9548 593e 7f30 2b3e df2f 243e b7a8 2f3e
000002e0: f4e3 d1bd 396e 363e abee 41be b400 533d
000002f0: f26d ca3d c4ab 4d3d 962d d53d 1e6e f4bd
00000300: 2dea 073e aed5 ba3d 5f57 073e d611 c1bd
00000310: b81b a9bc 2457 2a3d e888 55be 3d7f 363e
00000320: a424 443d 2d6b 5e3e e953 3c3e d7d3 573e
00000330: 58e0 e0bd aad9 b43d 1c5f 4b3d 5620 e83d
00000340: bc87 00be 5ca2 683d 88c9 d33c 86a7 e13d
00000350: d831 c53c d528 3b3e d849 aabc 67ca 293e
00000360: 583d 6bbd 4bc4 573e d054 87bc 0cd3 683d
00000370: ae5d a03d 1823 f7bc 5184 5bbe c81b 7cbd
00000380: 8f65 1e3e bfab 0e3e 02e6 a53d 1438 04bd
00000390: 96d7 b63d 2894 6abe 2601 f93d 463b 13be
000003a0: 3c68 613d 9feb 473e abfc 593e 27bf 1e3e
000003b0: 34d4 92bd a6cb bcbd cd25 343e 94a0 2a3d
000003c0: 9ae8 a03d 09c3 633e 9488 323d 943c 3b3d
000003d0: 8e33 a13d b48c 6ebe fde4 1c3e 4e4f b03d
000003e0: 84e6 b3bd 4a37 a43d 6954 503e 70f8 48bd
000003f0: d617 92bd 9631 b3bd 7c75 073d f854 79bd

bias f4 [26]
0.04839416 -0.20670025 -0.19806546 0.10047455 0.0711572 -0.04252553 0.00022980571 0.063520834
0.19983469 0.17746757 0.16779967 0.027334943 0.10929339 0.056250557 0.07593553 0.11831336
-0.20642936 -0.21096706 -0.23290588 0.005488172 0.21243273 -0.22927627 -0.07299918 -0.09908067
-0.1503216 0.15854795
00000000: f438 463d 3ba9 53be acd1 4abe 9ac5 cd3d
00000010: deba 913d 402f 2ebd 00f8 7039 3617 823d
00000020: 77a1 4c3e 0fba 353e add3 2b3e 88ed df3c
00000030: 36d5 df3d fc66 663d 1684 9b3d 464e f23d
00000040: 3862 53be c007 58be e17e 6ebe 20d6 b33b
00000050: f787 593e 66c7 6abe 9880 95bd ceea cabd
00000060: e8ed 19be 655a 223e

weight f4 [1, 32, 1, 1]
0.038656577 -0.08032966 -0.123168156 -0.13372153 -0.019502193 -0.16760747 0.08589001 0.044645607
0.0759875 0.055398077 -0.07166307 -0.12835956 -0.08534056 -0.14610171 -0.084570706 -0.0031186491
0.039824247 0.14719974 0.09668107 0.12591766 0.07370673 -0.13354456 0.036217988 0.15042873
-0.11463918 0.104020014 0.07795073 -0.13848853 -0.08183607 0.04520218 0.054633632 -0.021703184
00000000: 5c56 1e3d e083 a4bd 963f fcbd 4cee 08be
00000010: 10c3 9fbc 4ba1 2bbe 1ae7 af3d 50de 363d
00000020: 569f 9b3d 18e9 623d 16c4 92bd b070 03be
00000030: 08c7 aebd b09b 15be 6833 adbd 4062 4cbb
00000040: c01e 233d 87bb 163e ba00 c63d 8ff0 003e
00000050: 8ef3 963d e8bf 08be 5059 143d fd09 1a3e
00000060: f2c7 eabd 7208 d53d a2a4 9f3d f0cf 0dbe
00000070: ab99 a7bd ec25 393d 84c7 5f3d e0ca b1bc

weight f4 [32, 9]
0.21057245 -0.10772058 0.045086473 0.14050853 0.2436246 -0.28812537 -0.13607693 -0.20424208
-0.2761048 0.039961576 0.04898715 -0.0766184 -0.09370434 0.23569569 0.15812504 -0.30257067
0.104477376 -0.17761645 -0.28106785 0.28707018 0.23143563 -0.18537037 0.0069200695 0.33163813
-0.26101005 -0.23717408 0.28340355 0.31242707 0.1340729 0.11560464 0.3022296 -0.10886161
0.25911942 0.2181361 -0.28949577 0.24179211 0.08892676 -0.022375554 0.031401664 0.14434206
0.26768324 -0.19323227 0.100293964 -0.28846872 0.023280114 -0.17457625 -0.26818264 0.3218867
-0.18960182 -0.20321672 -0.30577058 0.020018727 -0.13688695 -0.1804626 -0.1504496 0.23606679
0.025978476 0.17038706 0.32781193 -0.23616815 -0.21237266 0.22107103 0.24353573 -0.024782062
-0.33133948 0.041573852 -0.03215289 0.252592 0.18489513 -0.043702334 0.10119787 -0.1190099
0.106068105 0.24032417 0.19123855 -0.13784787 -0.20950794 -0.32394642 0.02018705 0.037391573
0.25449613 0.2721533 -0.3327596 0.1638242 0.21068588 0.3150083 -0.037270933 0.15023553
-0.031407386 -0.33096415 0.14765105 0.10410437 0.012814075 -0.2946913 0.27511236 0.1871297
-0.27405667 0.20272002 0.10352576 0.14530012 0.2218124 0.14400813 -0.12968919 -0.30499965
0.07069984 -0.01871562 0.26455358 0.0051439703 0.025318831 0.025027245 -0.23527233 -0.19532272
-0.133697 0.31223586 -0.19330096 -0.1570445 0.025409669 -0.012998611 -0.056081384 -0.2820159
-0.24723133 0.03469023 0.24841878 0.07510707 -0.07428622 0.20304015 0.00086531043 -0.24176013
-0.30229336 0.08794686 0.11943486 -0.15881412 0.31243208 0.3167108 -0.28734082 -0.30413836
-0.3167081 -0.10666919 0.06761631 0.032390982 -0.20117998 -0.28077337 0.090456724 -0.25170094
0.1435802 0.090284705 -0.13525856 -0.046451837 -0.102758974 0.30756572 0.085525066 -0.13976483
0.023503989 0.0020652115 -0.20706987 -0.21217227 0.19084671 0.27388456 0.19990471 0.31800458
0.031052232 0.1338068 -0.008653909 0.17908713 0.1758683 0.08832094 0.02911821 0.17030522
0.06254971 0.12348604 0.07536876 -0.28058845 -0.16350818 0.065217495 0.027739882 0.2240924
-0.20353608 -0.13004422 -0.020362496 -0.20254776 0.23593047 -0.060082227 -0.20748048 -0.002506107
0.12586677 0.21341303 -0.13152668 0.25443748 0.04978183 -0.18302636 0.10220361 -0.21911487
0.20293859 0.058579654 -0.18204436 0.2156327 0.21575114 -0.27219594 -0.32083607 0.0018531978
0.026584715 -0.02529645 -0.17001542 0.23812929 -0.13323817 0.22744283 -0.21845159 -0.24068296
0.18534997 -0.3013491 0.084867984 -0.17343375 0.07470405 -0.3293346 -0.102877736 -0.121961236
-0.12616532 0.073394746 0.05577299 -0.26660246 -0.19552311 -0.13332295 0.13162732 -0.22817425
-0.2859053 0.3246344 -0.074014425 0.119514465 -0.16546091 0.22184607 -0.041997522 0.086247176
0.04846227 -0.32756448 0.30350503 -0.13878846 -0.033854038 0.13015497 0.29738835 0.13275611
-0.23461437 0.2647368 -0.23448293 0.26210985 0.09767103 0.08798945 -0.20169453 0.113515854
0.0664444 -0.22729 -0.037548184 -0.0030632317 -0.08050534 0.05677709 0.16905525 0.051560074
00000000: 4ea0 573e 9c9c dcbd 98ac 383d 78e1 0f3e
00000010: ba78 793e 2b85 93be c057 0bbe d624 51be
00000020: 9c5d 8dbe c0ae 233d c0a6 483d 1cea 9cbd
00000030: 10e8 bfbd 365a 713e 88eb 213e 8bea 9abe
00000040: 3cf8 d53d 16e1 35be 20e8 8fbe ddfa 923e
00000050: 76fd 6c3e bbd1 3dbe c0c1 e23b 79cc a93e
00000060: 1ca3 85be c3dd 72be 451a 913e 71f6 9f3e
00000070: 684a 093e 20c2 ec3d d7bd 9a3e d6f2 debd
00000080: 4dab 843e 125f 5f3e ca38 94be 5a98 773e
00000090: 3c1f b63d f04c b7bc 089f 003d 68ce 133e
000000a0: c70d 893e aede 45be ec66 cd3d 2cb2 93be
000000b0: f0b5 be3c 1ec4 32be 3c4f 89be 55ce a43e
000000c0: fb26 42be 0b18 50be f68d 9cbe 50fe a33c
000000d0: 182c 0cbe 30cb 38be 760f 1abe 7ebb 713e
000000e0: d0d0 d43c f279 2e3e f7d6 a73e 10d6 71be
000000f0: 3878 59be 7260 623e 6e61 793e c003 cbbc
00000100: 54a5 a9be 5849 2a3d c0b2 03bd bd53 813e
00000110: 2655 3d3e 3801 33bd d440 cf3d 76bb f3bd
00000120: 3c3a d93d 8a17 763e 0ad4 433e fe27 0dbe
00000130: 4089 56be 4edc a5be 505f a53c e827 193d
00000140: 514d 823e ad57 8b3e 775f aabe 88c1 273e
00000150: 0abe 573e c548 a13e 68a9 18bd 58d7 193e
00000160: 08a5 00bd 2274 a9be d631 173e ac34 d53d
00000170: 20f2 513c c7e1 96be 87db 8c3e ee9e 3f3e
00000180: 2851 8cbe d695 4f3e 5005 d43d 8ec9 143e
00000190: ca22 633e de76 133e 3ecd 04be ea28 9cbe
000001a0: 14cb 903d 8051 99bc 9173 873e c08e a83b
000001b0: 7069 cf3c f005 cd3c 3beb 70be ae02 48be
000001c0: dee7 08be 61dd 9f3e b0f0 45be 46d0 20be
000001d0: f027 d03c 20f8 54bc 98b5 65bd 6364 90be
000001e0: 362a 7dbe 5817 0e3d 7e61 7e3e bcd1 993d
000001f0: 6023 98bd c2e9 4f3e 00d6 623a f88f 77be
00000200: 32c6 9abe 7c1d b43d 449a f43d 2ba0 22be
00000210: 19f7 9f3e eb27 a23e 561e 93be 06b8 9bbe
00000220: 9027 a2be 6075 dabd 6c7a 8a3d 68ac 043d
00000230: 2002 4ebe 87c1 8fbe 6041 b93d f2de 80be
00000240: b006 133e 30e7 b83d 3881 0abe 4844 3ebd
00000250: 4c73 d2bd 4179 9d3e c427 af3d 831e 0fbe
00000260: 708b c03c 8058 073b 200a 54be b043 59be
00000270: 526d 433e 993a 8c3e d2b3 4c3e 7fd1 a23e
00000280: 4061 fe3c a604 093e 20c9 0dbc 9e62 373e
00000290: d216 343e 9ce1 b43d 5089 ee3c 7e64 2e3e
000002a0: 101a 803d 40e6 fc3d f05a 9a3d 4aa9 8fbe
000002b0: b06e 27be c090 853d c03e e33c 7a78 653e
000002c0: c36b 50be 502a 05be 40cf a6bc ae68 4fbe
000002d0: c297 713e c818 76bd c375 54be 803d 24bb
000002e0: 38e3 003e f288 5a3e eeae 06be a145 823e
000002f0: 08e8 4b3d 436b 3bbe 2050 d13d a65f 60be
00000300: 22cf 4f3e 38f1 6f3d d669 3abe d2ce 5c3e
00000310: deed 5c3e 445d 8bbe a044 a4be 00e7 f23a
00000320: 30c8 d93c 803a cfbc 8618 2ebe 2ad8 733e
00000330: 966f 08be c6e6 683e c6b1 5fbe 9875 76be
00000340: 62cc 3d3e 6e4a 9abe 44cf ad3d 9e98 31be
00000350: 70fe 983d 8b9e a8be 90b1 d2bd d0c6 f9bd
00000360: 7b31 01be fc4f 963d 3872 643d 1e80 88be
00000370: 3637 48be d085 08be 50c9 063e 83a6 69be
00000380: 2e62 92be 7b36 a63e e094 97bd 00c4 f43d
00000390: 966e 29be 9e2b 633e 9805 2cbd 5ca2 b03d
000003a0: 6080 463d 88b6 a7be 0365 9b3e 901e 0ebe
000003b0: 88aa 0abd 5847 053e 4943 983e 38f1 073e
000003c0: c03e 70be 958b 873e 4b1c 70be 4333 863e
000003d0: c007 c83d d033 b43d 0389 4ebe 007b e83d
000003e0: 0014 883d b6be 68be 20cc 19bd 80c0 48bb
000003f0: fcdf a4bd 188f 683d d21c 2d3e a830 533d

bias f4 [32]
0.14475858 0.17634395 0.25966814 0.12491846 -0.08532199 0.30737945 -0.024613172 -0.13041691
-0.2103535 -0.22335872 0.17810151 0.16256595 0.020643324 0.08449069 0.2642891 -0.08363299
-0.11813831 -0.011926562 0.25093105 0.06672713 -0.031804442 0.090773106 0.13695848 -0.3109648
-0.011436373 0.13574871 0.23738459 -0.29631126 -0.2648215 -0.22167425 -0.2210623 -0.24359176
00000000: 983b 143e 8293 343e 39f3 843e 40d5 ff3d
00000010: 4cbd aebd d760 9d3e 90a1 c9bc 038c 05be
00000020: e866 57be 26b8 64be 3e60 363e b077 263e
00000030: 301c a93c 7409 ad3d e750 873e c647 abbd
00000040: 80f2 f1bd a067 43bc 097a 803e 3ca8 883d
00000050: 6045 02bd 40e7 b93d d83e 0c3e c736 9fbe
00000060: a05f 3bbc b601 0b3e f214 733e 1cb6 97be
00000070: af96 87be 93fe 62be 285e 62be 1e70 79be

weight f4 [1, 32]
0.034368366 0.123285964 -0.016880319 0.07341115 -0.09437309 -0.13776782 0.15424813 0.065757245
0.10585718 0.15630324 -0.042878225 -0.1718852 -0.13204293 -0.062586024 -0.14999138 -0.03825271
0.16359685 0.10671504 0.1493174 -0.17292047 -0.12130552 0.13017143 -0.10281972 -0.04372622
-0.05970832 0.038062945 0.025728777 -0.0040112585 0.019403666 0.0206462 0.1758409 0.00060486794
00000000: d8c5 0c3d 5a7d fc3d 9848 8abc 9658 963d
00000010: ae46 c1bd 0213 0dbe 39f3 1d3e bcab 863d
00000020: a6cb d83d f50d 203e 14a1 2fbd ad02 30be
00000030: 4336 07be 1a2d 80bd 5797 19be e0ae 1cbd
00000040: ef85 273e 6a8d da3d a9e6 183e 1012 31be
00000050: 076f f8bd a94b 053e 2593 d2bd 441a 33bd
00000060: b690 74bd e4e7 1b3d 28c5 d23c e070 83bb
00000070: 70f4 9e3c 3822 a93c a30f 343e 0090 1e3a

weight f4 [32, 32, 3, 3]
0.036381062 -0.0230182 -0.011576902 -0.026928015 0.057123717 -0.050808996 -0.013476126 -0.039314736
-0.056399457 0.04479653 -0.039842125 0.0013673082 -0.02963383 0.05841366 0.026622858 -0.0026977994
-0.03318487 0.024569992 0.007794801 0.033845384 -0.045620065 0.032938953 0.044459384 0.05871043
0.02032822 -0.017049477 -0.012590323 -0.058846716 0.00050037354 0.04542492 0.052419227 -0.016465686
-0.04943724 0.05260166 -0.058275774 -0.0164337 0.041515265 -0.03593895 -0.006952636 -0.0013885684
-0.025580235 -0.056349404 0.053901907 -0.026563387 -0.055047154 -0.0342261 0.02119669 -0.029896347
-0.046618257 0.039831635 0.024152096 -0.034803085 -0.042491287 -0.016351406 -0.044475652 0.048564997
0.0332856 0.036856946 -0.030395001 0.02269109 0.036737118 0.035380136 0.041926313 -0.05327247
0.035948213 0.056845125 -0.036172725 0.005122658 -0.012865931 -0.025555104 -0.019820098 0.049818415
0.017339293 0.037067857 -0.013884563 0.007517215 0.008127745 0.01653492 -0.027190015 -0.042744007
-0.027920714 -0.015123513 0.04116984 -0.055295583 0.04272634 -0.04605979 0.05357914 0.0504652
-0.028460868 -0.020593505 -0.0048741773 0.03175124 0.034460682 0.021735389 0.028645482 -0.028143285
0.04477043 -0.0041132793 0.05833644 -0.045759134 0.029769044 0.019501362 0.006905135 0.022761289
0.004991647 0.01106232 -0.03186976 -0.021018501 0.013656307 -0.045187127 -0.0371731 0.054518085
0.01654837 0.01795974 -0.038831793 -0.029489694 0.020843726 0.024262626 0.04360803 -0.001764942
0.056659136 -0.049905747 -0.037853397 -0.019888535 -0.035034664 -0.010425713 -0.0531407 -0.054167867
-0.0049407966 -0.0048883334 -0.015481155 0.044731926 -0.0011739582 0.010628011 -0.009537403 0.052234236
0.0060387813 0.02773251 0.02523652 0.0027626567 -0.021711726 0.057292957 0.040290233 0.0016977675
0.018453885 -0.0069579035 0.024131719 0.043962833 0.04882251 -0.0472897 0.011725705 0.0114232935
-0.011212096 -0.014426142 0.0036536343 -0.05527492 -0.03969545 -0.058611136 -0.018214751 0.01597901
-0.030213468 0.011475008 0.005599614 -0.031341963 -0.019381046 -0.054984525 0.05291651 0.0337372
0.030447166 0.0033766776 0.0136500485 -0.030853432 0.02418084 -0.028867768 -0.047297396 0.027284075
-0.01738941 0.026210163 0.03522848 -0.023745492 0.054045383 0.044085126 0.037168186 -0.0038001984
-0.009793866 0.012690831 0.048465956 0.026450593 0.056122888 -0.038719796 -0.04141672 -0.058461394
0.043409202 0.045750204 -0.0014746487 0.020719033 0.038363848 0.014713246 0.002436839 0.024145547
0.020450141 -0.035689138 0.013750117 -0.020685285 -0.043081097 0.041227777 -0.01658513 0.05721039
0.024818826 0.031949233 0.05646443 0.047962297 -0.036680393 -0.05307328 -0.044719316 0.039012898
0.008813899 0.058760468 -0.039699346 0.027961913 -0.038842283 0.04988857 0.006643001 -0.0044560097
-0.037488163 0.037146587 0.025901373 0.006891098 0.03678072 0.001116652 -0.048324034 -0.035130344
-0.045179848 -0.043373197 -0.042480014 0.025082204 0.015566278 0.044712458 -0.011168003 -0.050939053
-0.01831204 -0.03605424 -0.030698085 -0.012852568 -0.054317195 0.026386578 -0.038638454 0.0054713003
0.025391128 0.0029933974 -0.027546365 -0.03645034 -0.030515548 0.0148909055 -0.009428617 -0.0073523223
00000000: 4f04 153d aa90 bcbc 0cad 3dbc 2498 dcbc
00000010: 8ffa 693d 181d 50bd f8ca 5cbc 7d08 21bd
00000020: 1e03 67bd 917c 373d 7f31 23bd 4037 b33a
00000030: a5c2 f2bc 2943 6f3d 2e18 da3c 90cd 30bb
00000040: dcec 07bd 0247 c93c 886b ff3b 75a1 0a3d
00000050: 1bdc 3abd ffea 063d 0b1b 363d 597a 703d
00000060: 5e87 a63c 58ab 8bbc a447 4ebc 4109 71bd
00000070: 802b 033a 7b0f 3a3d 8bb5 563d 0ce3 86bc
00000080: b47e 4abd d774 573d 94b2 6ebd f89f 86bc
00000090: e90b 2a3d b834 13bd f0d2 e3bb a000 b6ba
000000a0: a48d d1bc a2ce 66bd 3fc8 5c3d 769b d9bc
000000b0: 2079 61bd ab30 0cbd aea4 ad3c 2fe9 f4bc
000000c0: c9f2 3ebd 7f26 233d 9eda c53c ae8d 0ebd
000000d0: 580b 2ebd 62f3 85bc 1a2c 36bd 17ec 463d
000000e0: 7b56 083d 4ff7 163d f0fe f8bc aae2 b93c
000000f0: a979 163d c3ea 103d edba 2b3d 3c34 5abd
00000100: 6f3e 133d 6fd6 683d da29 14bd f8db a73b
00000110: a0cb 52bc f058 d1bc c25d a2bc 650e 4c3d
00000120: 220b 8e3c 77d4 173d 147c 63bc f852 f63b
00000130: 3c2a 053c 3e74 873c 98bd debc 5714 2fbd
00000140: fbb9 e4bc 9cc8 77bc b5a1 283d 9f7d 62bd
00000150: d101 2f3d 31a9 3cbd cd75 5b3d 99b4 4e3d
00000160: c426 e9bc b6b3 a8bc 90b7 9fbb 970d 023d
00000170: a526 0d3d 6a0e b23c eea9 ea3c bf8c e6bc
00000180: 3361 373d b0c8 86bb 31f2 6e3d ee6d 3bbd
00000190: 36de f33c 52c1 9f3c 7844 e23b e275 ba3c
000001a0: f890 a33b bc3e 353c de89 02bd fe2e acbc
000001b0: b4be 5f3c 2316 39bd d242 18bd 5b4e 5f3d
000001c0: 7290 873c 4e20 933c 160e 1fbd 5f94 f1bc
000001d0: 76c0 aa3c 6ac2 c63c 559e 323d a055 e7ba
000001e0: 6913 683d f869 4cbd 2a0c 1bbd 48ed a2bc
000001f0: 8280 0fbd 9cd0 2abc 10aa 59bd 20df 5dbd
00000200: 68e6 a1bb 502e a0bb aca4 7dbc d338 373d
00000210: 80df 99ba 1c21 2e3c c442 1cbc 91f3 553d
00000220: f8e0 c53b 4a2f e33c d2bc ce3c b00d 353b
00000230: cadc b1bc 05ac 6a3d 5f07 253d a087 de3a
00000240: 9a2c 973c 20ff e3bb e2af c53c 5f12 343d
00000250: 1dfa 473d d8b2 41bd 2c1d 403c c428 3b3c
00000260: f0b2 37bc a05b 6cbc d071 6f3b f467 62bd
00000270: b297 22bd 3b12 70bd 1a37 95bc 6ae6 823c
00000280: 3c82 f7bc ac01 3c3c f87c b73b 6e60 00bd
00000290: 00c5 9ebc 7437 61bd fbbe 583d 0530 0a3d
000002a0: 566c f93c 404b 5d3b 74a4 5f3c 56c0 fcbc
000002b0: e616 c63c 197c ecbc eaba 41bd da82 df3c
000002c0: 3c74 8ebc b2b6 d63c bd4b 103d e885 c2bc
000002d0: b15e 5d3d 9b92 343d ab3d 183d c00c 79bb
000002e0: 7476 20bc 34ed 4f3c 3d84 463d eaae d83c
000002f0: 1de1 653d a698 1ebd 94a4 29bd 3775 6fbd
00000300: d9cd 313d 9164 3b3d 0049 c1ba f6ba a93c
00000310: 6923 1d3d d40f 713c 60b3 1f3b e2cc c53c
00000320: 0e87 a73c c62e 12bd 2c48 613c 3074 a9bc
00000330: ce75 30bd 75de 283d 8add 87bc 7155 6a3d
00000340: da50 cb3c 33dd 023d 3f47 673d 1d74 443d
00000350: 2e3e 16bd 5e63 59bd 9a2b 37bd fdcb 1f3d
00000360: 2c68 103c d1ae 703d c89b 22bd 6210 e53c
00000370: 1619 1fbd f557 4c3d 88ad d93b b803 92bb
00000380: 308d 19bd 0527 183d 1e2f d43c b8ce e13b
00000390: 61a7 163d a05c 923a 6cef 45bd d6e4 0fbd
000003a0: 810e 39bd 18a8 31bd 86ff 2dbd 3279 cd3c
000003b0: b409 7f3c 6924 373d 00fa 36bc 78a5 50bd
000003c0: 2203 96bc 9cad 13bd 8d7a fbbc 9493 52bc
000003d0: b57b 5ebd aa28 d83c 5b43 1ebd 9848 b33b
000003e0: 0e01 d03c e02c 443b eaa8 e1bc f44c 15bd
000003f0: befb f9bc fcf8 733c 7c7a 1abc c0eb f0bb

bias f4 [32]
-0.046731982 0.038855772 0.05013832 0.024570938 -0.0061209463 -0.028601239 -0.010561466 -0.049739834
-0.015541103 0.054938328 0.011051472 -0.0022960342 -0.041257437 -0.00249362 0.030496787 -0.025398996
0.012571912 -0.008026347 4.1607767e-05 0.009231348 0.034488034 0.047347914 -0.047087975 -0.005775325
0.0415773 -0.04880334 -0.007714946 -0.043710012 -0.02172885 -0.040239856 0.0269305 -0.010120422
00000000: 096a 3fbd 3b27 1f3d d75d 4d3d fe48 c93c
00000010: 3892 c8bb 254d eabc 000a 2dbc ffbb 4bbd
00000020: 1ca0 7ebc 0307 613d 3c11 353c 1079 16bb
00000030: 8ffd 28bd 006c 23bb 66d4 f93c 8e11 d0bc
00000040: 6cfa 4d3c f080 03bc 0084 2e38 143f 173c
00000050: 5343 0d3d e3ef 413d 52df 40bd f03e bdbb
00000060: f54c 2a3d 03e6 47bd a8cd fcbb 4509 33bd
00000070: b400 b2bc 8cd2 24bd 5a9d dc3c 20d0 25bc

weight f4 [32, 32, 3, 3]
0.038565997 0.0012832806 -0.020999815 0.011118349 0.00013772771 -0.008106843 0.007265616 0.043174032
-0.018789038 -0.04802106 -0.006361913 0.0065024383 0.027655099 -0.055095177 -0.005382005 0.024715591
0.024591219 -0.009835895 0.04303534 0.006638538 0.041499425 -0.051931325 0.017128173 -0.009510253
-0.03179281 -0.05054975 8.567795e-05 -0.046820708 -0.028826063 -0.015857588 0.019858684 -0.055321258
0.058467973 0.03893457 0.013321985 -0.03997101 0.0483242 0.024521608 0.012623403 -0.05449573
0.0359944 0.025758464 -0.022473115 0.020306747 -0.026718244 0.012613144 0.030791346 -0.037375577
0.023216981 -0.017059084 0.045595754 -0.008780587 0.055471253 0.035232622 -0.036144618 0.04602355
-0.0005025938 0.0142661445 -0.057187233 -0.0058646984 -0.025257658 0.012663808 -0.017192084 -0.0072898045
0.015933383 -0.023835573 -0.05257436 0.0018776208 0.023047846 -0.04310459 -0.024881061 -0.021826793
0.022025656 0.01625872 -0.036346465 0.009343196 -0.013651539 0.05019333 -0.015115287 -0.0071060136
-0.026578259 0.035413716 -0.04399346 -0.040206246 0.0032297 0.04437544 -0.0062075853 0.04540119
-0.029029718 0.00029003993 0.044015724 0.022967834 0.035146896 -0.0024272986 -0.020293392 -0.057209115
-0.043504793 0.035096344 0.042937893 0.01932526 0.030712772 -0.05211482 0.00510123 0.021136556
0.02800088 0.0014709756 0.030773047 -0.0077257566 -0.010697931 -0.022984419 0.04349378 0.04453787
0.0023987964 0.037176568 0.019061726 -0.035330206 -0.022676092 0.038791616 0.019220565 0.049868975
0.022663485 0.052915905 0.055121187 0.035694618 -0.023695976 -0.022980422 0.044500146 -0.05471
0.018579025 -0.031995505 -0.0430021 0.012681078 -0.033092834 -0.039401345 -0.023396831 0.048186574
-0.03935407 -0.027237091 -0.017360482 0.046149377 -0.040404998 0.022195268 0.057455745 0.04480723
0.034095373 0.05233891 0.04363553 -0.022609621 0.038114052 -0.035270423 -0.006685775 0.021143306
0.0074772574 0.013801698 -0.057509832 -0.017490182 0.00079608336 0.003689643 0.054319542 0.022671733
0.03537896 0.0034036264 0.0051022805 0.009842578 0.029187385 -0.027937165 -0.051844254 0.017424319
-0.042842455 -0.048541524 0.03269643 0.027732912 0.058680784 -0.005362693 -0.0050787292 -0.020447165
-0.056863237 0.016309198 -0.03972511 -0.03296499 -0.03602837 -0.058592543 -0.018489555 -0.02835187
0.017579045 0.0077377893 0.039146703 -0.017475974 0.01140276 -0.010247305 0.0451334 0.05576339
-0.040706843 0.015790593 -0.013922684 -0.045600854 -0.033867802 0.0054416545 0.055424977 -0.05003083
-0.040968556 0.0022326447 -0.0020360388 -0.034193613 -0.031467907 -0.05534322 0.039178584 -0.047539953
-0.008593988 -0.013408534 0.020291973 -0.052724913 -0.043139365 0.011827264 -0.0054766163 -0.025530543
0.037781786 0.04168805 0.036771443 -0.04563576 -0.01753559 -0.024857216 0.019356798 -0.047185246
-0.05485487 0.016341712 -0.007993538 -0.020123433 0.034496773 -0.010565359 -0.0029782355 0.054675836
0.05832159 0.04764572 -0.03750787 0.03264318 0.04167371 0.0030630715 0.010739204 0.013171513
-0.029315023 0.024416666 0.050841685 -0.03331382 0.044971164 0.049691577 0.052228276 0.046580154
-0.017909467 0.042899806 -0.037428156 0.022709098 -0.057376906 -0.011113837 -0.05518138 0.040029358
00000000: 61f7 1d3d c033 a83a ce07 acbc bc29 363c
00000010: 006b 1039 90d2 04bc 6814 ee3b 41d7 303d
00000020: 78eb 99bc bbb1 44bd 9877 d0bb 6812 d53b
00000030: f28c e23c 7bab 61bd 885b b0bb 5a78 ca3c
00000040: 8673 c93c bc26 21bc d345 303d 1888 d93b
00000050: 4dfb 293d f1b5 54bd 6250 8c3c e4d0 1bbc
00000060: 2d39 02bd 410d 4fbd 00ae b338 12c7 3fbd
00000070: a324 ecbc c6e7 81bc aeae a23c 8b98 62bd
00000080: 1d7c 6f3d db79 1f3d 7444 5a3c a4b8 23bd
00000090: 99ef 453d 8ae1 c83c 64d2 4e3c ea36 5fbd
000000a0: dd6e 133d 6a03 d33c 8a19 b8bc 565a a63c
000000b0: 38e0 dabc 5ca7 4e3c 223e fc3c 2217 19bd
000000c0: 8a31 be3c 7ebf 8bbc 9dc2 3a3d 74dc 0fbc
000000d0: d335 633d 1550 103d 610c 14bd 3183 3c3d
000000e0: 80c0 03ba 8cbc 693c 293d 6abd a82c c0bb
000000f0: 26e9 cebc dc7b 4f3c 6ad6 8cbc 50df eebb
00000100: ba86 823c d242 c3bc 3658 57bd 801a f63a
00000110: d6ce bc3c 708e 30bd 5ed3 cbbc 1ace b2bc
00000120: 266f b43c 0231 853c 08e0 14bd 3414 193c
00000130: b4aa 5fbc 8597 4d3d 1ca6 77bc 90d9 e8bb
00000140: a6ba d9bc f90d 113d 7c32 34bd 4eaf 24bd
00000150: 60a9 533b 05c3 353d 0069 cbbb 99f6 393d
00000160: bbcf edbc 8010 9839 d549 343d 0a27 bc3c
00000170: 31f6 0f3d 5013 1fbb 543e a6bc 1b54 6abd
00000180: 1532 32bd 2fc1 0f3d a5df 2f3d 0250 9e3c
00000190: 5a99 fb3c 5976 55bd 3828 a73b 9226 ad3c
000001a0: 1a62 e53c c0cd c03a c217 fc3c 5828 fdbb
000001b0: 6046 2fbc d249 bcbc 8926 323d 576d 363d
000001c0: 2035 1d3b 7546 183d 5627 9c3c 68b6 10bd
000001d0: 36c3 b9bc f5e3 1e3d 7274 9d3c 6943 4c3d
000001e0: c6a8 b93c 59be 583d c1c6 613d 8534 123d
000001f0: 101e c2bc 7041 bcbc c945 363d 9817 60bd
00000200: 0a33 983c b80d 03bd f822 30bd 4cc4 4f3c
00000210: 5a8c 07bd 4e63 21bd b6aa bfbc 495f 453d
00000220: bc31 21bd 5220 dfbc 9237 8ebc 2107 3d3d
00000230: b67f 25bd dad2 b53c b756 6b3d c987 373d
00000240: 97a7 0b3d 5361 563d 2bbb 323d d037 b9bc
00000250: 7b1d 1c3d b877 10bd 5814 dbbb ba34 ad3c
00000260: c803 f53b 8420 623c 6e8f 6bbd 9247 8fbc
00000270: 40b0 503a f0cd 713b 2b7e 5e3d 12ba b93c
00000280: 87e9 103d 600f 5f3b 0831 a73b c442 213c
00000290: 621a ef3c 7bdc e4bc a45a 54bd 72bd 8e3c
000002a0: 927b 2fbd 7ad3 46bd b1ec 053d 2230 e33c
000002b0: 435b 703d 88b9 afbb 786b a6bb d080 a7bc
000002c0: 6de9 68bd de9a 853c ccb6 22bd 4c06 07bd
000002d0: 7c92 13bd bcfe 6fbd 6877 97bc 2e42 e8bc
000002e0: ee01 903c 488d fd3b 4b58 203d c629 8fbc
000002f0: a4d2 3a3c 50e4 27bc cddd 383d 2768 643d
00000300: 38bc 26bd 465b 813c f81b 64bc f6c7 3abd
00000310: f7b8 0abd e84f b23b 4d05 633d 21ed 4cbd
00000320: a5ce 27bd 9051 123b 106f 05bb 9a0e 0cbd
00000330: 7ee4 00bd 92af 62bd b979 203d 41b9 42bd
00000340: cccd 0cbc 78af 5bbc 5a3b a63c 14f6 57bd
00000350: e7b2 30bd 24c7 413c 3075 b3bb 6e25 d1bc
00000360: 13c1 1a3d 17c1 2a3d a79d 163d 90ec 3abd
00000370: cca6 8fbc 5ca1 cbbc 2692 9e3c 5145 41bd
00000380: 80af 60bd 0edf 853c 54f7 02bc e6d9 a4bc
00000390: 7d4c 0d3d 541a 2dbc 802e 43bb c5f3 5f3d
000003a0: 9fe2 6e3d 2928 433d daa1 19bd dbb4 053d
000003b0: 0db2 2a3d d0bd 483b 7cf3 2f3c 54cd 573c
000003c0: 0f26 f0bc 7605 c83c 5f3f 503d 1274 08bd
000003d0: af33 383d 6589 4b3d 51ed 553d d5ca 3e3d
000003e0: e0b6 92bc b5b7 2f3d 444e 19bd 6e08 ba3c
000003f0: 0c04 6bbd d016 36bc df05 62bd d3f5 233d

bias f4 [32]
0.048965167 0.015026372 -0.020997737 -0.0345938 -0.051155083 0.0068089403 -0.03239405 0.02766217
0.026565108 -0.025204554 0.03010356 0.006841954 0.0072569437 0.024830166 0.035031397 0.018251415
0.03404734 -0.0040423833 -0.011196129 -0.021230303 0.02623551 -0.013120454 -0.012740158 0.018421654
-0.035638947 0.023585822 0.04257245 0.03197382 0.0026504062 0.0019633546 -0.047056 -0.058532383
00000000: b38f 483d 2c31 763c 7203 acbc 3ab2 0dbd
00000010: fe87 51bd 881d df3b a0af 04bd c69b e23c
00000020: 129f d93c c879 cebc be9b f63c 7832 e03b
00000030: a8cb ed3b a268 cb3c 157d 0f3d fe83 953c
00000040: 3975 0b3d f875 84bb f86f 37bc 2ceb adbc
00000050: daeb d63c 2cf7 56bc 18bc 50bc 02e9 963c
00000060: 25fa 11bd 0e37 c13c 7360 2e3d fbf6 023d
00000070: 70b2 2d3b a0ab 003b cbbd 40bd a7bf 6fbd

weight f4 [32]
1.0 1.0 1.0 1.0 1.0 1.0 1.0 1.0
1.0 1.0 1.0 1.0 1.0 1.0 1.0 1.0
1.0 1.0 1.0 1.0 1.0 1.0 1.0 1.0
1.0 1.0 1.0 1.0 1.0 1.0 1.0 1.0
00000000: 0000 803f 0000 803f 0000 803f 0000 803f
00000010: 0000 803f 0000 803f 0000 803f 0000 803f
00000020: 0000 803f 0000 803f 0000 803f 0000 803f
00000030: 0000 803f 0000 803f 0000 803f 0000 803f
00000040: 0000 803f 0000 803f 0000 803f 0000 803f
00000050: 0000 803f 0000 803f 0000 803f 0000 803f
00000060: 0000 803f 0000 803f 0000 803f 0000 803f
00000070: 0000 803f 0000 803f 0000 803f 0000 803f

bias f4 [32]
0.0 0.0 0.0 0.0 0.0 0.0 0.0 0.0
0.0 0.0 0.0 0.0 0.0 0.0 0.0 0.0
0.0 0.0 0.0 0.0 0.0 0.0 0.0 0.0
0.0 0.0 0.0 0.0 0.0 0.0 0.0 0.0
00000000: 0000 0000 0000 0000 0000 0000 0000 0000
00000010: 0000 0000 0000 0000 0000 0000 0000 0000
00000020: 0000 0000 0000 0000 0000 0000 0000 0000
00000030: 0000 0000 0000 0000 0000 0000 0000 0000
00000040: 0000 0000 0000 0000 0000 0000 0000 0000
00000050: 0000 0000 0000 0000 0000 0000 0000 0000
00000060: 0000 0000 0000 0000 0000 0000 0000 0000
00000070: 0000 0000 0000 0000 0000 0000 0000 0000

running_mean f4 [32]
0.017828094 0.33752877 0.12313776 0.13841009 -0.13930584 0.04766204 0.0813561 0.069195636
0.27642423 -0.07346679 0.08206698 0.015199124 0.18446504 0.11462884 0.2088977 -0.15756126
-0.036968056 -0.1572059 -0.012976834 -0.30218336 -0.11652287 -0.3776639 0.3862965 0.3452796
-0.10355957 -0.32200265 -0.07489871 -0.021177273 0.002639468 0.19266924 0.23183143 0.037445907
00000000: 390c 923c 92d0 ac3e a62f fc3d 60bb 0d3e
00000010: 31a6 0ebe 4539 433d 079e a63d 71b6 8d3d
00000020: 7a87 8d3e c275 96bd bc12 a83d bf05 793c
00000030: 67e4 3c3e 86c2 ea3d 47e9 553e bd57 21be
00000040: d16b 17bd 95fa 20be c99c 54bc c7b7 9abe
00000050: 8ba3 eebd 2a5d c1be a8c8 c53e 7dc8 b03e
00000060: 0a17 d4bd 88dd a4be 7f64 99bd f67b adbc
00000070: edfa 2c3b 164b 453e 3865 6d3e e160 193d

running_var f4 [32]
0.048905585 0.10282388 0.083170615 0.10357133 0.0351398 0.12293918 0.091118485 0.07495569
0.04041372 0.0713137 0.04929174 0.061974686 0.117564924 0.04749446 0.057259623 0.057939563
0.061529413 0.08287142 0.06066446 0.051174425 0.05839315 0.06627313 0.10146784 0.12006259
0.039929654 0.13095172 0.07722949 0.04709118 0.033122007 0.06795921 0.15761082 0.09175606
00000000: 3951 483d 5495 d23d 5b55 aa3d 351d d43d
00000010: c0ee 0f3d 89c7 fb3d 549c ba3d 5e82 993d
00000020: db88 253d eb0c 923d 23e6 493d 2bd9 7d3d
00000030: e1c5 f03d 8d89 423d 1189 6a3d 0952 6d3d
00000040: 4406 7c3d 7eb8 a93d 4c7b 783d 469c 513d
00000050: a82d 6f3d 35ba 873d 5fce cf3d 60e3 f53d
00000060: 478d 233d 3518 063e 7f2a 9e3d aee2 403d
00000070: f1aa 073d 332e 8b3d bb64 213e 9aea bb3d

weight f4 [32]
1.0 1.0 1.0 1.0 1.0 1.0 1.0 1.0
1.0 1.0 1.0 1.0 1.0 1.0 1.0 1.0
1.0 1.0 1.0 1.0 1.0 1.0 1.0 1.0
1.0 1.0 1.0 1.0 1.0 1.0 1.0 1.0
00000000: 0000 803f 0000 803f 0000 803f 0000 803f
00000010: 0000 803f 0000 803f 0000 803f 0000 803f
00000020: 0000 803f 0000 803f 0000 803f 0000 803f
00000030: 0000 803f 0000 803f 0000 803f 0000 803f
00000040: 0000 803f 0000 803f 0000 803f 0000 803f
00000050: 0000 803f 0000 803f 0000 803f 0000 803f
00000060: 0000 803f 0000 803f 0000 803f 0000 803f
00000070: 0000 803f 0000 803f 0000 803f 0000 803f

bias f4 [32]
0.0 0.0 0.0 0.0 0.0 0.0 0.0 0.0
0.0 0.0 0.0 0.0 0.0 0.0 0.0 0.0
0.0 0.0 0.0 0.0 0.0 0.0 0.0 0.0
0.0 0.0 0.0 0.0 0.0 0.0 0.0 0.0
00000000: 0000 0000 0000 0000 0000 0000 0000 0000
00000010: 0000 0000 0000 0000 0000 0000 0000 0000
00000020: 0000 0000 0000 0000 0000 0000 0000 0000
00000030: 0000 0000 0000 0000 0000 0000 0000 0000
00000040: 0000 0000 0000 0000 0000 0000 0000 0000
00000050: 0000 0000 0000 0000 0000 0000 0000 0000
00000060: 0000 0000 0000 0000 0000 0000 0000 0000
00000070: 0000 0000 0000 0000 0000 0000 0000 0000

running_mean f4 [32]
0.10711951 0.07052682 0.07427991 -0.18500447 0.030135393 0.27282354 -0.17626628 -0.18445624
-0.109649196 0.15316817 0.10320072 -0.08652334 -0.22524968 -0.05933784 0.28218126 -0.320298
-0.02002634 -0.08842721 0.100486904 0.26491016 0.101607315 0.039750542 0.26118585 -0.00029594838
-0.02822233 0.054026145 -0.07281903 0.011227243 0.10398376 0.10233338 -0.016963702 -0.012890418
00000000: 7961 db3d 5e70 903d 1120 983d d071 3dbe
00000010: 80de f63c 87af 8b3e 267f 34be 19e2 3cbe
00000020: c28f e0bd 1ed8 1c3e e65a d33d 2633 b1bd
00000030: daa7 66be 3c0c 73bd 107a 903e 19fe a3be
00000040: 470e a4bc 5319 b5bd 14cc cd3d 4ea2 873e
00000050: 7f17 d03d 77d1 223d 27ba 853e 8529 9bb9
00000060: 8432 e7bc 854a 5d3d 2522 95bd 78f2 373c
00000070: 70f5 d43d 2a94 d13d 76f7 8abc 5532 53bc

running_var f4 [32]
0.076717354 0.06290234 0.06919362 0.12976258 0.05095693 0.08160293 0.21098252 0.1076669
0.059009224 0.07174094 0.101863414 0.085754685 0.04580558 0.09779027 0.09237257 0.16596623
0.08514366 0.07130063 0.07783858 0.09887693 0.06938549 0.07363421 0.070113786 0.11344278
0.059371978 0.09916779 0.109994136 0.08185333 0.07300253 0.08661508 0.16140197 0.06952795
00000000: fd1d 9d3d f1d2 803d 62b5 8d3d 7be0 043e
00000010: 37b8 503d 701f a73d cd0b 583e 7780 dc3d
00000020: a8b3 713d eaec 923d c49d d03d 27a0 af3d
00000030: a29e 3b3d 4446 c83d d42d bd3d 0df3 293e
00000040: cd5f ae3d 1106 923d d569 9f3d fd7f ca3d
00000050: fb19 8e3d 88cd 963d d197 8f3d b054 e83d
00000060: 0830 733d 7b18 cb3d 9b44 e13d b8a2 a73d
00000070: 5a82 953d 3f63 b13d 8f46 253e ab64 8e3d
