models/5_cross_5_iter_0.pt (torch_old, 324948 bytes, 66 tensors)

weight f4 [32, 3, 3, 3]
-0.062454045 -0.16512609 -0.011627972 -0.12158897 -0.12248551 -0.09008579 0.095816925 0.15428145
0.10059343 0.031342566 -0.036536485 -0.14953203 0.13935356 0.037651867 -0.10507268 0.1747504
0.12287025 -0.041337565 -0.06416665 0.1657324 -0.15309596 0.047650352 0.04348816 -0.026046187
-0.10304449 -0.10060191 0.13538532 -0.001539588 0.08302845 0.004456401 0.14873983 -0.1282236
0.16767986 0.15603371 -0.12541163 0.1278459 0.08499901 0.007435158 0.15083288 0.073455974
0.14751588 0.0864587 0.18331943 0.023277402 0.17879649 0.07916303 -0.11221108 0.056280985
0.016675338 -0.16010171 0.021516576 0.17325522 0.062950924 0.16692434 -0.091812596 0.15258475
-0.037203953 0.086062804 0.10313137 -0.16339304 0.16535081 0.17670833 -0.054060698 0.04775615
0.059792563 -0.17986633 -0.11192211 0.13834779 -0.07442055 0.02371183 0.13991813 0.1840664
-0.12053167 0.16319935 0.18099685 -0.08448557 0.030866757 0.08626123 0.1391954 -0.04329768
-0.17518103 0.022698328 -0.079923905 -0.027618304 -0.014279872 -0.01658006 0.1753494 -0.026517302
0.1320204 0.09383316 0.16668268 -0.16072972 0.14547507 -0.13081656 0.13773115 0.1442057
0.11265226 0.027393132 0.010698512 0.15631716 0.0038945824 0.060515806 -0.0089830905 0.17951311
0.1569006 -0.17258085 0.05411932 -0.021993622 -0.16380522 -0.13426562 -0.19163255 0.06992869
0.058661237 -0.089639634 -0.19194669 0.09437041 0.018798217 0.15803136 -0.14399722 0.04476215
0.18373223 -0.13946314 0.13286851 0.17000715 0.0813563 -0.17245042 0.17911787 0.1256739
0.10167234 0.11724673 -0.088564195 -0.14787368 -0.13843605 0.18992732 -0.106360845 0.10985164
0.12387104 0.10081859 0.12380718 -0.040280104 -0.18392259 -0.10338715 0.07260837 0.13942482
0.09250857 0.011964515 -0.09082915 0.0989549 -0.02986592 -0.116344854 -0.0028698593 -0.12650079
0.11185558 0.120418206 -0.0436399 -0.0011632591 -0.14905083 -0.15677159 -0.018740773 -0.0808773
-0.035363257 -0.007279739 -0.017930284 0.14845873 0.11513911 -0.12826404 -0.056646913 0.109159306
0.038346946 -0.06428671 0.022786066 0.17862259 -0.12401546 -0.15611774 0.109581694 -0.117524296
0.04160744 0.17883964 -0.033238247 0.057401076 -0.18610975 0.061770156 -0.059366256 -0.12292028
-0.15533729 0.048564658 -0.07624151 0.051494315 0.079308376 0.0713761 -0.08744284 0.070935234
-0.10195589 0.022014007 0.058575258 -0.0672403 0.007589981 -0.09305884 -0.13372755 0.020256907
-0.17489558 0.11885674 0.03208439 -0.114044614 -0.048481226 -0.0042464137 -0.03191641 -0.113076515
0.17954402 0.024463177 -0.020588443 0.18416436 0.023309797 0.18825777 0.052507147 -0.073157966
-0.083001666 0.1856838 0.051908985 0.025851041 0.005935058 -0.0060467124 0.032768354 0.06330691
-4.4569373e-05 -0.15422714 -0.14116193 -0.19137268 0.17287298 0.019523501 0.10250421 0.02396828
0.18699293 0.10354672 0.1921537 0.054543123 -0.10002369 -0.04394436 -0.14547105 -0.08047912
-0.15354311 0.09093402 0.18097661 -0.035241917 -0.05198206 -0.10818224 -0.08453508 0.15310384
-0.16619006 0.03679736 0.11388351 0.15908347 0.052577183 0.031307265 -0.06310834 0.10496037
00000000: d0cf 7fbd d016 29be 4083 3ebc a303 f9bd
00000010: afd9 fabd e67e b8bd aa3b c43d f5fb 1d3e
00000020: ee03 ce3d 1061 003d 48a7 15bd ed1e 19be
00000030: b3b2 0e3e d838 1a3d 5830 d7bd c5f1 323e
00000040: 66a3 fb3d 9451 29bd ce69 83bd c1b5 293e
00000050: 30c5 1cbe 042d 433d a420 323d d05e d5bc
00000060: fd08 d3bd 6008 cebd 73a2 0a3e 00cc c9ba
00000070: d20a aa3d 0007 923b 414f 183e 0c4d 03be
00000080: 45b4 2b3e 4dc7 1f3e e86b 00be 09ea 023e
00000090: f613 ae3d a0a2 f33b ef73 1a3e 1670 963d
000000a0: 670e 173e 4211 b13d 17b8 3b3e 40b0 be3c
000000b0: 6d16 373e 3a20 a23d ecce e5bd e486 663d
000000c0: b89a 883c b4f1 23be 8843 b03c d169 313e
000000d0: 6aec 803d 37ee 2a3e 3e08 bcbd 2d3f 1c3e
000000e0: 2c63 18bd b241 b03d 8a36 d33d 8150 27be
000000f0: b951 293e 07f3 343e c06e 5dbd f49b 433d
00000100: 0ce9 743d e12e 38be 6b37 e5bd 0bab 0d3e
00000110: cd69 98bd 503f c23c b346 0f3e e77b 3c3e
00000120: 4fd9 f6bd bb1d 273e 3d57 393e c506 adbd
00000130: 48dc fc3c baa9 b03d 3d89 0e3e e858 31bd
00000140: a862 33be d8f1 b93c 25af a3bd c83f e2bc
00000150: 20f6 69bc e8d2 87bc cb8e 333e d03a d9bc
00000160: 5b30 073e 9a2b c03d ddae 2a3e 5596 24be
00000170: 6bf7 143e c7f4 05be 6509 0d3e a9aa 133e
00000180: 3ab6 e63d 9067 e03c d048 2f3c 9b11 203e
00000190: 403c 7f3b 6cdf 773d d02d 13bc 49d2 373e
000001a0: 8daa 203e 09b9 30be 38ac 5d3d f82b b4bc
000001b0: 8ebc 27be ed7c 09be 533b 44be c636 8f3d
000001c0: c446 703d fc94 b7bd ac8d 44be 4645 c13d
000001d0: b8fe 993c f9d2 213e 0274 13be 8458 373d
000001e0: 4d24 3c3e 6dcf 0ebe af0e 083e 5b16 2e3e
000001f0: 229e a63d d896 30be ad6a 373e a9b0 003e
00000200: 9639 d03d 0e1f f03d 2561 b5bd 336c 17be
00000210: 2ec2 0dbe 4f7c 423e b7d3 d9bd e6f9 e03d
00000220: 1ab0 fd3d fa79 ce3d 9e8e fd3d c0fc 24bd
00000230: 3456 3cbe a4bc d3bd b2b3 943d 61c5 0e3e
00000240: 2275 bd3d d006 443c a204 babd dea8 ca3d
00000250: 60a9 f4bc 3646 eebd 4014 3cbb 6c89 01be
00000260: 8a14 e53d d29d f63d c0bf 32bd 8078 98ba
00000270: c8a0 18be bb88 20be 4086 99bc ffa2 a5bd
00000280: 10d9 10bd e08a eebb 88e2 92bc 9105 183e
00000290: 0ece eb3d a657 03be 9806 68bd ea8e df3d
000002a0: b011 1d3d c0a8 83bd d8a9 ba3c d7e8 363e
000002b0: d1fb fdbd 54dd 1fbe 5e6c e03d 94b0 f0bd
000002c0: 906c 2a3d bd21 373e d424 08bd 641d 6b3d
000002d0: 8e93 3ebe b402 7d3d 082a 73bd a1bd fbbd
000002e0: bd10 1fbe bceb 463d 8224 9cbd b4eb 523d
000002f0: 6e6c a23d a22d 923d 3b15 b3bd 7e46 913d
00000300: 40ce d0bd b856 b43c 9cec 6f3d 48b5 89bd
00000310: 60b5 f83b a295 bebd e0ef 08be d0f1 a53c
00000320: d417 33be 2a6b f33d ec6a 033d 3990 e9bd
00000330: 4094 46bd 8025 8bbb c8ba 02bd a994 e7bd
00000340: 63da 373e 0067 c83c 18a9 a8bc 9595 3c3e
00000350: 30f4 be3c a5c6 403e bc11 573d d8d3 95bd
00000360: c7fc a9bd e523 3e3e 849e 543d 90c5 d33c
00000370: e07a c23b 8023 c6bb 1c38 063d 0ea7 813d
00000380: 00f0 3ab8 b8ed 1dbe c18c 10be 33f7 43be
00000390: 9d05 313e c0ef 9f3c baed d13d 2059 c43c
000003a0: 137b 3f3e 4e10 d43d f1c3 443e 9c68 5f3d
000003b0: 38d9 ccbd 00ff 33bd 5df6 14be 3dd2 a4bd
000003c0: 683a 1dbe 9e3b ba3d ef51 393e d459 10bd
000003d0: 24eb 54bd a68e ddbd ba20 adbd 41c7 1c3e
000003e0: ba2d 2abe d4b8 163d c23b e93d c7e6 223e
000003f0: 2c5b 573d 0c3c 003d f23e 81bd 76f5 d63d

bias f4 [32]
-0.05319877 0.09387557 -0.10010928 0.15745549 0.10054411 -0.01366882 0.079801306 0.02984251
-0.12797129 -0.08412403 0.019840196 -0.16263296 -0.15546322 0.08957626 -0.13195021 -0.16976462
0.025203332 -0.09882954 -0.08978633 0.18216752 -0.17117445 0.16332914 0.082347706 -0.024566263
0.14271416 0.1690007 -0.038548395 -0.0610182 0.07685919 0.16839464 -0.10542934 -0.18043274
00000000: f4e6 59bd d641 c03d 1806 cdbd 033c 213e
00000010: 12ea cd3d 30f3 5fbc de6e a33d 4878 f43c
00000020: e80a 03be 3849 acbd e887 a23c 4189 26be
00000030: c031 1fbe c273 b73d f51d 07be c7d6 2dbe
00000040: 3877 ce3c 2467 cabd e5e1 b7bd 1f8a 3a3e
00000050: 5b48 2fbe c13f 273e eaa5 a83d 303f c9bc
00000060: a923 123e 850e 2d3e ece4 1dbd 38ee 79bd
00000070: 5a68 9d3d a56f 2c3e 56eb d7bd 5cc3 38be

weight f4 [32]
1.0 1.0 1.0 1.0 1.0 1.0 1.0 1.0
1.0 1.0 1.0 1.0 1.0 1.0 1.0 1.0
1.0 1.0 1.0 1.0 1.0 1.0 1.0 1.0
1.0 1.0 1.0 1.0 1.0 1.0 1.0 1.0
00000000: 0000 803f 0000 803f 0000 803f 0000 803f
00000010: 0000 803f 0000 803f 0000 803f 0000 803f
00000020: 0000 803f 0000 803f 0000 803f 0000 803f
00000030: 0000 803f 0000 803f 0000 803f 0000 803f
00000040: 0000 803f 0000 803f 0000 803f 0000 803f
00000050: 0000 803f 0000 803f 0000 803f 0000 803f
00000060: 0000 803f 0000 803f 0000 803f 0000 803f
00000070: 0000 803f 0000 803f 0000 803f 0000 803f

bias f4 [32]
0.0 0.0 0.0 0.0 0.0 0.0 0.0 0.0
0.0 0.0 0.0 0.0 0.0 0.0 0.0 0.0
0.0 0.0 0.0 0.0 0.0 0.0 0.0 0.0
0.0 0.0 0.0 0.0 0.0 0.0 0.0 0.0
00000000: 0000 0000 0000 0000 0000 0000 0000 0000
00000010: 0000 0000 0000 0000 0000 0000 0000 0000
00000020: 0000 0000 0000 0000 0000 0000 0000 0000
00000030: 0000 0000 0000 0000 0000 0000 0000 0000
00000040: 0000 0000 0000 0000 0000 0000 0000 0000
00000050: 0000 0000 0000 0000 0000 0000 0000 0000
00000060: 0000 0000 0000 0000 0000 0000 0000 0000
00000070: 0000 0000 0000 0000 0000 0000 0000 0000

running_mean f4 [32]
0.042338103 1.053118 0.2131351 0.7539536 0.43738705 -0.24578094 -0.004901029 -0.06357807
-0.020352963 0.026400777 0.04968945 -0.17045826 -0.15485851 -0.05600369 -0.2718215 -0.40274173
-0.26135013 -0.2863922 -0.52137613 0.12119763 -0.3418533 -0.12468704 0.08044784 -0.39120865
0.12386067 -0.0056779375 -0.13920176 0.18134835 -0.115837626 0.13974097 -0.141962 -0.75022286
00000000: b86a 2d3d 92cc 863f 1640 5a3e 1a03 413f
00000010: 32f1 df3e 00ae 7bbe d098 a0bb 3835 82bd
00000020: 42bb a6bc 7146 d83c 2a87 4b3d 9c8c 2ebe
00000030: 3b93 1ebe 2064 65bd 302c 8bbe 2a34 cebe
00000040: afcf 85be 00a2 92be e878 05bf 7736 f83d
00000050: 6507 afbe eb5b ffbd d6c1 a43d 804c c8be
00000060: aaaa fd3d fe0d babb e88a 0ebe 62b3 393e
00000070: 473c edbd 4218 0f3e 7d5e 11be 9b0e 40bf

running_var f4 [32]
0.01025915 0.0056688744 0.004901668 0.0060197134 0.0151123665 0.0031497146 0.012265628 0.004417527
0.007018941 0.0034054306 0.004592927 0.0040160054 0.0038809779 0.0043112356 0.00577581 0.008655734
0.0063393074 0.002468849 0.0051609064 0.008215241 0.0014312068 0.0060475986 0.0057662157 0.00618528
0.0040784287 0.0060334327 0.0047913464 0.009185962 0.007488609 0.010849778 0.0045553525 0.008905573
00000000: fe15 283c f7c1 b93b 2c9e a03b 0441 c53b
00000010: dc99 773c 716b 4e3b c6f5 483c e7c0 903b
00000020: 25ff e53b a52d 5f3b 4480 963b b298 833b
00000030: 0158 7e3b 4445 8d3b 0243 bd3b c8d0 0d3c
00000040: f7b9 cf3b 6acc 213b d21c a93b 3899 063c
00000050: 5597 bb3a ef2a c63b 86f2 bc3b e4ad ca3b
00000060: 57a4 853b 1ab4 c53b ba00 9d3b b880 163c
00000070: 0163 f53b 44c3 313c 1145 953b aee8 113c

weight f4 [2, 32, 1, 1]
0.08115567 0.13633887 -0.028515667 0.12741368 -0.13670546 -0.039910138 0.07501085 0.03156814
-0.074025795 -0.15535867 -0.17635198 -0.16600445 0.1627254 -0.05610995 -0.09749078 0.053945035
0.02692014 -0.027546972 0.04817128 0.03872478 0.16590126 0.16426446 0.17392094 -0.038451314
-0.15410635 0.014328763 0.12042405 0.03613548 -0.11148672 0.104647115 -0.08954256 0.03593847
-0.17175785 -0.1590848 -0.03532049 -0.122472145 -0.00403817 0.09383215 -0.07439197 -0.08723047
-0.092280604 -0.121350765 -0.07541841 -0.052417234 0.15931337 0.13910244 0.075476125 0.06471044
0.12173481 -0.07586319 -0.122979425 -0.1615166 0.07968362 -0.15128829 0.08703862 -0.09094575
0.11419906 -0.109551184 -0.12647569 0.10309987 -0.16013427 -0.09468711 0.10074113 -0.06777289
00000000: f234 a63d 6b9c 0b3e b099 e9bc bb78 023e
00000010: 84fc 0bbe d078 23bd 4a9f 993d 984d 013d
00000020: d69a 97bd 5816 1fbe 9d95 34be 12fd 29be
00000030: 7da1 263e 8cd3 65bd 3fa9 c7bd 78f5 5c3d
00000040: a087 dc3c 30aa e1bc 404f 453d e09d 1e3d
00000050: 05e2 293e f134 283e 5518 323e 207f 1dbd
00000060: 0ece 1dbe 30c3 6a3c e2a0 f63d cc02 143d
00000070: 2653 e4bd 3a51 d63d 1762 b7bd 3834 133d
00000080: 4ae1 2fbe 20e7 22be 38ac 10bd add2 fabd
00000090: a052 84bb 122b c03d d15a 98bd e3a5 b2bd
000000a0: 9dfd bcbd c086 f8bd f874 9abd 74b3 56bd
000000b0: 0b23 233e df70 0e3e 3a93 9a3d e886 843d
000000c0: 1a50 f93d 295e 9bbd a3dc fbbd 9c64 25be
000000d0: 2a31 a33d 51eb 1abe 4e41 b23d c441 babd
000000e0: 32e1 e93d 5f5c e0bd d882 01be 0626 d33d
000000f0: 3dfa 23be 51eb c1bd 5e51 ce3d 83cc 8abd

bias f4 [2]
0.030730635 0.057616323
00000000: d0be fb3c 18ff 6b3d

weight f4 [2]
1.0 1.0
00000000: 0000 803f 0000 803f

bias f4 [2]
0.0 0.0
00000000: 0000 0000 0000 0000

running_mean f4 [2]
0.46996763 -1.3166816
00000000: 999f f03e 0689 a8bf

running_var f4 [2]
0.64308465 0.7969897
00000000: 32a1 243f 8407 4c3f

weight f4 [26, 18]
0.030669704 0.13152213 -0.16376032 -0.21079251 0.086742654 0.2196805 0.018085673 -0.15514174
-0.16063794 0.17481907 -0.22765331 -0.12908804 0.082985416 0.11941342 0.0017626882 -0.011096701
-0.03684309 0.18353216 0.0061560273 0.03689365 0.006338045 0.17232706 -0.08155817 -0.14639087
-0.08429241 0.10998176 0.02575101 0.07122867 -0.15575087 0.00022287667 0.16982453 0.047565684
0.020754382 -0.058325484 0.09431444 0.039022252 0.13304327 0.15129073 0.090324745 0.08624424
0.21248479 0.20358439 -0.15505895 -0.13853209 0.12588672 -0.1959159 0.2238058 0.15473948
0.12573992 0.20210142 -0.07363981 -0.07048389 0.17401294 -0.08998974 0.07974963 -0.041320518
-0.0744957 0.056837007 0.14770539 0.17858844 0.06783973 0.014835253 0.09269573 -0.15698293
0.037065014 -0.087647066 0.085280016 -0.09135759 0.08095293 0.12997027 0.21094064 0.14587457
-0.13986684 -0.21834652 0.06985463 0.07544099 0.017025277 0.14802565 -0.05404164 -0.19344252
-0.19160958 -0.21270236 0.18317561 -0.14642197 -0.0731038 -0.21642238 -0.07787743 -0.22696443
-0.13441944 -0.16442388 -0.07988292 0.19367044 0.111036524 -0.17298043 0.20767705 -0.13411225
0.096058324 -0.15231 0.013480395 0.17698659 -0.10782875 -0.10884017 -0.12552506 -0.14126849
-0.018108621 0.16860361 0.11107151 0.06722553 -0.16243027 0.13981105 0.18285339 -0.2210322
0.06638487 0.033472165 0.13969819 -0.20271063 0.1949252 -0.22933902 0.19703753 0.11300455
-0.06737599 0.024058178 -0.09532772 -0.124268465 -0.09925111 -0.007695228 0.043262705 0.006532684
0.053605482 -0.024497554 -0.108270764 0.15171678 0.0402814 -0.0014230758 0.09876238 0.05021532
-0.054528326 -0.032490775 0.144197 0.19081806 0.039062098 -0.041736618 0.17788391 0.07924543
-0.0417943 -0.06940065 -0.19881846 -0.06431036 -0.09145838 -0.0956859 -0.02035527 -0.09988916
0.16747816 0.17830475 0.19611596 0.19721968 0.13235651 0.1324635 -0.14416468 -0.10752402
0.11462055 -0.19973388 0.18608488 0.15484218 0.21040352 -0.111497946 0.015694842 -0.013974294
-0.16648313 -0.061238214 -0.06279898 -0.11450071 -0.047037885 0.092946455 -0.07635817 -0.079411715
0.04412745 -0.13418823 0.13224335 -0.14720711 -0.02448091 -0.06314781 -0.15569791 0.22027756
0.15030949 -0.0030864924 0.13624854 0.1803812 -0.18406877 0.18456416 -0.1621808 0.054111734
0.071865186 0.01003699 0.10904406 0.0345764 0.20020689 -0.20133148 0.1866666 -0.11532586
0.06516369 0.19342361 0.015948579 -0.12233468 0.14801599 0.078719005 -0.14999121 0.06451611
0.11693691 -0.055177987 0.04180862 0.07339458 -0.15843208 0.06023757 -0.037642926 -0.040115178
-0.15276712 -0.055047408 -0.17419703 0.106804326 -0.11966749 0.041180596 -0.14680463 0.1477526
0.20548256 0.16747226 0.10745071 -0.21423493 -0.20147854 -0.07292125 -0.13712114 -0.04408352
-0.14321482 -0.1274848 -0.19224192 0.18089284 0.11858253 -0.044312328 0.15563752 -0.15349899
0.22014101 0.2070917 0.18821807 0.06108947 0.19196083 0.12483148 -0.10426192 -0.07427405
-0.05012907 -0.10894294 -0.06739585 -0.15032339 -0.18142538 0.08534701 -0.1021094 0.23219068
00000000: 083f fb3c bdad 063e c9b0 27be fed9 57be
00000010: 22a6 b13d edf3 603e 6828 943c 7add 1ebe
00000020: 467e 24be c503 333e f31d 69be a82f 04be
00000030: 42f4 a93d 068f f43d 000a e73a f0ce 35bc
00000040: c8e8 16bd dbef 3b3e 80b8 c93b cc1d 173d
00000050: 60af cf3b 8176 303e f807 a7bd 7de7 15be
00000060: 80a1 acbd 1e3e e13d c8f3 d23c 56e0 913d
00000070: 287d 1fbe 00b4 6939 7be6 2d3e 3cd4 423d
00000080: 1805 aa3c b4e6 6ebd ee27 c13d ccd5 1f3d
00000090: 7f3c 083e f5eb 1a3e 2efc b83d d2a0 b03d
000000a0: 9d95 593e 6d78 503e c6c7 1ebe 5bdb 0dbe
000000b0: 73e8 003e 2d9e 48be 592d 653e 0774 1e3e
000000c0: f7c1 003e adf3 4e3e 78d0 96bd dc59 90bd
000000d0: 7330 323e 8a4c b8bd c653 a33d b43f 29bd
000000e0: 3491 98bd eccd 683d 1540 173e e3df 363e
000000f0: 8eef 8a3d 900f 733c 42d7 bd3d 22c0 20be
00000100: 7cd1 173d 4e80 b3bd 4aa7 ae3d b019 bbbd
00000110: a6ca a53d ed16 053e d300 583e 2560 153e
00000120: 4139 0fbe 3b96 5fbe f20f 8f3d ce80 9a3d
00000130: 9878 8b3c 0994 173e c45a 5dbd cc15 46be
00000140: 4d35 44be a6ce 59be 6392 3b3e a4ef 15be
00000150: 72b7 95bd d49d 5dbe 347e 9fbd 5d69 68be
00000160: 40a5 09be bc5e 28be a899 a3bd 8b51 463e
00000170: 1e67 e33d c821 31be 4ba9 543e b954 09be
00000180: 3aba c43d 27f7 1bbe e0dc 5c3c f93b 353e
00000190: 52d5 dcbd 98e7 debd a489 00be b0a8 10be
000001a0: 8858 94bc 6da6 2c3e 7679 e33d 8aad 893d
000001b0: 1f54 26be a12a 0f3e eb3d 3b3e 4456 62be
000001c0: caf4 873d 1c1a 093d 0b0d 0f3e 6093 4fbe
000001d0: 799a 473e d9d7 6abe 35c4 493e ee6e e73d
000001e0: 6cfc 89bd a815 c53c 2e3b c3bd 7780 febd
000001f0: 2a44 cbbd 4028 fcbb 3c34 313d 2010 d63b
00000200: 6c91 5b3d 18af c8bc 10bd ddbd a55b 1b3e
00000210: 1cfe 243d 8086 baba ee43 ca3d 94ae 4d3d
00000220: 1859 5fbd 0c15 05bd 61a8 133e cf65 433e
00000230: 94ff 1f3d 04f4 2abd 3327 363e 6e4b a23d
00000240: 8030 2bbd ee21 8ebd 1197 4bbe 26b5 83bd
00000250: 884e bbbd f8f6 c3bd 18c0 a6bc b092 ccbd
00000260: 657f 2b3e 8595 363e 9fd2 483e f5f3 493e
00000270: 7788 073e 83a4 073e e89f 13be 8e35 dcbd
00000280: 2ebe ea3d 0a87 4cbe 098d 3e3e f38e 1e3e
00000290: 0574 573e 0959 e4bd 7892 803c 70f4 64bc
000002a0: 8e7a 2abe ecd4 7abd c09c 80bd 597f eabd
000002b0: ccaa 40bd b65a be3d ac61 9cbd 9ca2 a2bd
000002c0: fcbe 343d a468 09be cd6a 073e 76bd 16be
000002d0: 308c c8bc a453 81bd 466f 1fbe 7190 613e
000002e0: bbea 193e c046 4abb bd84 0b3e d9b5 383e
000002f0: 867c 3cbe 63fe 3c3e b912 26be 44a4 5d3d
00000300: 0e2e 933d 3072 243c 7e52 df3d fc9f 0d3d
00000310: 0903 4d3e d729 4ebe 8725 3f3e f72f ecbd
00000320: 8a74 853d d710 463e 98a6 823c 9b8a fabd
00000330: 8191 173e 6e37 a13d 4c97 19be 0621 843d
00000340: 9e7c ef3d 5002 62bd 843f 2b3d e64f 963d
00000350: 053c 22be acbb 763d 782f 1abd d04f 24bd
00000360: fc6e 1cbe 6479 61bd b560 32be 3abc da3d
00000370: 3b14 f5bd fcac 283d f453 16be 754c 173e
00000380: 056a 523e d97d 2b3e 1e0f dc3d 6760 5bbe
00000390: 6450 4ebe bc57 95bd 7c69 0cbe ec90 34bd
000003a0: e8a6 12be 608b 02be 11db 44be f93b 393e
000003b0: 66db f23d d880 35bd 715f 1f3e d72e 1dbe
000003c0: a56c 613e d90f 543e 3dbc 403e f438 7a3d
000003d0: 6191 443e a6a7 ff3d 4687 d5bd fe1c 98bd
000003e0: 2454 4dbd 7a1d dfbd d606 8abd 60ee 19be
000003f0: 93c7 39be 6aca ae3d bc1e d1bd 65c3 6d3e

bias f4 [26]
0.1603051 -0.0235582 -0.14672866 -0.12415804 0.1370456 0.12386553 0.14779179 0.11824168
0.19538637 -0.08677746 0.15125449 0.20582514 0.16863193 -0.016180456 0.0043269694 -0.08113572
-0.030923963 -0.15592645 0.062106803 0.17674072 -0.14362146 -0.22528365 0.18654503 0.022150382
0.1379299 0.089353606
00000000: 0527 243e 20fd c0bc 0a40 16be 9246 febd
00000010: af55 0c3e 36ad fd3d bb56 173e b228 f23d
00000020: 5d13 483e 62b8 b1bd 75e2 1a3e d3c3 523e
00000030: d9ad 2c3e e08c 84bc 40c9 8d3b 7c2a a6bd
00000040: 4054 fdbc 2fab 1fbe b463 7e3d 85fb 343e
00000050: 8111 13be c2b0 66be a905 3f3e b874 b53c
00000060: 7f3d 0d3e 06ff b63d

weight f4 [1, 32, 1, 1]
0.117200896 -0.1354019 0.023411289 0.09397863 -0.022326156 -0.028666899 -0.08996801 0.17524289
-0.138919 -0.1663793 0.13725828 0.14960672 -0.16634792 0.13259412 -0.06095075 -0.15898836
-0.15250362 0.11781792 -0.0059429556 -0.14220743 -0.0477484 -0.03334716 0.17001171 0.058829546
-0.1461643 0.060400903 -0.143589 -0.12868796 0.09856294 0.16276391 0.10653262 0.062174544
00000000: 0607 f03d cca6 0abe 08c9 bf3c de77 c03d
00000010: 58e5 b6bc d8d6 eabc 2641 b8bd df72 333e
00000020: c840 0ebe 565f 2abe 6f8d 0c3e 8132 193e
00000030: 1c57 2abe c1c6 073e 7ea7 79bd d8cd 22be
00000040: e929 1cbe 864a f13d 20bd c2bb d39e 11be
00000050: d493 43bd 0897 08bd 8d17 2e3e 40f7 703d
00000060: 18ac 15be f066 773d ff08 13be c7c6 03be
00000070: 5edb c93d 95ab 263e c62d da3d bcaa 7e3d

weight f4 [32, 9]
0.09156099 -0.13627808 -0.02065143 -0.11687736 -0.23296735 0.10883629 -0.32120952 0.2495201
0.27834514 0.23973313 -0.15234348 0.019943088 -0.011767298 -0.060786635 0.022200584 -0.10212085
0.20629254 0.017966777 -0.20991814 -0.17885888 -0.04637614 -0.17863572 0.1349175 0.3128672
0.11223999 0.13343573 -0.20287383 -0.06986126 0.11056769 0.22175202 0.2067264 -0.13737667
-0.18456566 -0.32066795 0.22088036 0.168874 0.084101886 0.002465099 0.10931206 0.16465247
0.20825556 -0.22545335 -0.11885154 -0.26201314 0.17123488 0.2348772 -0.25869352 0.21088389
-0.053021103 0.28024533 -0.3288554 0.19796804 -0.04118702 -0.29010552 0.055431604 0.05133307
-0.11438231 -0.21989636 0.062375396 -0.2498667 -0.015989512 0.24303892 0.00821802 0.08341691
-0.046634912 0.038084388 -0.20661724 -0.3259769 -0.0717307 0.29967836 0.24852249 -0.069563776
-0.118697494 0.21129695 0.2055172 -0.31699848 -0.016687125 -0.25369453 0.3004816 -0.17164776
0.12742415 -0.32203788 0.0076156855 -0.0796698 0.16249034 0.24074271 0.083827615 0.033316523
0.14846739 0.23400202 -0.16354959 0.22187379 -0.27393222 -0.31466836 0.22701517 0.118843794
0.01214233 0.2941381 0.0668281 0.11839697 -0.07537493 -0.2468112 -0.010520369 -0.12351939
-0.13968241 0.15133289 -0.013615251 0.13251409 -0.03908339 -0.0068959 0.23078117 -0.08888981
0.18635151 0.14496055 0.009832114 0.052666426 0.32546327 0.08824387 -0.26160714 -0.11558752
-0.26504815 0.29379293 -0.03931722 -0.22868733 -0.019610256 0.13527119 -0.12452531 -0.2611794
-0.1428189 0.07549521 -0.24467945 -0.11990735 -0.18438184 -0.2745006 -0.2964283 -0.13093913
0.05631706 0.32288954 0.28211668 -0.06273362 -0.19400577 -0.07463196 0.100354165 0.02575612
-0.10850458 0.20965752 -0.14356422 0.13594261 -0.31725 -0.1897262 -0.08862083 -0.0023256242
0.24832812 -0.0732505 -0.0052315295 0.011025041 -0.15940885 -0.30471826 -0.3245207 -0.30313444
-0.00200513 -0.21020183 -0.09543869 0.15604892 0.22065273 -0.32558677 0.00024095178 -0.13780165
-0.119092435 -0.21970734 0.28668234 -0.20370841 -0.25584865 0.2084479 -0.20546243 0.11514521
-0.051902026 -0.1495874 0.07936728 -0.092265606 -0.046613812 -0.17737345 -0.08950615 -0.26632458
-0.04194978 -0.14128539 0.32661727 0.104843736 0.12514555 0.04066375 -0.030307055 -0.22507557
0.043472856 0.08131948 -0.2711838 -0.2693033 -0.1288577 0.10010216 -0.068938375 0.2414209
0.16134009 0.21919635 0.17245033 0.15151525 -0.2207735 0.1422826 -0.03345135 0.2854713
-0.11431071 0.19286504 0.25130758 0.13436368 -0.27018332 -0.060406655 0.23101607 -0.3258123
-0.16034631 0.17673925 -0.0013186634 -0.10587339 0.17824396 0.24572757 0.103779286 -0.20771854
0.08145735 0.10139498 0.2571157 -0.017438889 0.12588349 -0.3314893 -0.07478258 0.034800917
-0.2425354 -0.24430999 -0.17290859 -0.05887842 0.23248294 -0.20071754 0.16464424 0.18669853
0.2564793 0.2467325 -0.04776725 0.13938165 0.051353455 -0.07126129 0.20086625 0.10755837
-0.09148109 -0.30892047 -0.117382884 0.24801031 -0.016635746 -0.08487189 -0.039716452 -0.21853364
00000000: 5484 bb3d 7b8c 0bbe 302d a9bc 665d efbd
00000010: fe8e 6ebe 90e5 de3d 9375 a4be 3282 7f3e
00000020: 4183 8e3e 9a7c 753e eeff 1bbe b05f a33c
00000030: a0cb 40bc 68fb 78bd 00de b53c bc24 d1bd
00000040: 5a3e 533e 102f 933c c8f4 56be c826 37be
00000050: e8f4 3dbd 48ec 36be d027 0a3e 2130 a03e
00000060: 14de e53d 60a3 083e 28be 4fbe 6c13 8fbd
00000070: 5071 e23d f612 633e 16b0 533e 78ac 0cbe
00000080: c8fe 3cbe 972e a4be 762e 623e 4eed 2c3e
00000090: 9c3d ac3d 808d 213b 00df df3d a89a 283e
000000a0: f240 553e 3edd 66be 7068 f3bd 9626 86be
000000b0: 3258 2f3e a683 703e 7a73 84be f2f1 573e
000000c0: a82c 59bd 517c 8f3e bc5f a8be 22b8 4a3e
000000d0: b8b3 28bd b688 94be 400c 633d a042 523d
000000e0: 4641 eabd 832c 61be 587d 7f3d 0edd 7fbe
000000f0: 70fc 82bc 32df 783e e0a4 063c 7cd6 aa3d
00000100: 4004 3fbd 60fe 1b3d 7893 53be 72e6 a6be
00000110: 8ce7 92bd 716f 993e ae7c 7e3e 7477 8ebd
00000120: ac17 f3bd 3a5e 583e 1a73 523e a04d a2be
00000130: 70b3 88bc 40e4 81be b9d8 993e 6ec4 2fbe
00000140: 7a7b 023e 26e2 a4be 008d f93b ec29 a3bd
00000150: de63 263e 4285 763e d0ad ab3d e876 083d
00000160: d607 183e 3a9e 6f3e 8b79 27be e232 633e
00000170: d840 8cbe 361c a1be aa76 683e 6064 f33d
00000180: a0f0 463c 4599 963e 2cdd 883d 1c7a f23d
00000190: 2c5e 9abd 13bc 7cbe a05d 2cbc bcf7 fcbd
000001a0: e808 0fbe 02f7 1a3e 8012 5fbc c6b1 073e
000001b0: e815 20bd 00f7 e1bb e651 6c3e dc0b b6bd
000001c0: eed2 3e3e 8a70 143e e016 213c c0b8 573d
000001d0: 1fa3 a63e 34b9 b43d 5ff1 85be 26b9 ecbd
000001e0: 64b4 87be 076c 963e 180b 21bd 032d 6abe
000001f0: b0a5 a0bc 8884 0a3e 2007 ffbd 4eb9 85be
00000200: 1e3f 12be 3c9d 9a3d 408d 7abe fc91 f5bd
00000210: 98ce 3cbe 588b 8cbe 73c5 97be e814 06be
00000220: b8ac 663d c751 a53e 9971 903e 7c7a 80bd
00000230: 73a9 46be a4d8 98bd 7c86 cd3d 80fe d23c
00000240: a637 debd 76b0 563e 8002 13be 8a34 0b3e
00000250: 986e a2be 9647 42be d67e b5bd 8069 18bb
00000260: ba49 7e3e 5c04 96bd 406d abbb 60a2 343c
00000270: 133c 23be 0804 9cbe 9427 a6be 7034 9bbe
00000280: 8068 03bb 263f 57be 5c75 c3bd 4acb 1f3e
00000290: caf2 613e 4fb3 a6be 00a8 7c39 e01b 0dbe
000002a0: bce6 f3bd f6fa 60be 07c8 923e f098 50be
000002b0: 98fe 82be 5e73 553e be64 52be 40d1 eb3d
000002c0: 3897 54bd 702d 19be 508b a23d c0f5 bcbd
000002d0: 20ee 3ebd 63a1 35be 004f b7bd b25b 88be
000002e0: 88d3 2bbd 1ead 10be 613a a73e 50b8 d63d
000002f0: 2826 003e 088f 263d 8046 f8bc 367a 66be
00000300: 9810 323d d48a a63d 9ad8 8abe 1fe2 89be
00000310: 46f3 03be 5c02 cd3d 902f 8dbd 0a37 773e
00000320: 5636 253e 0275 603e d296 303e d026 1b3e
00000330: 7312 62be 88b2 113e 4804 09bd 4b29 923e
00000340: bc1b eabd 6a7e 453e 63ab 803e a296 093e
00000350: 7855 8abe f86c 77bd 7a8f 6c3e dfd0 a6be
00000360: d331 24be 22fb 343e 00d7 acba 26d4 d8bd
00000370: 9685 363e 02a0 7b3e 3c8a d43d 2bb4 54be
00000380: 1cd3 a63d 2ca8 cf3d aba4 833e 00dc 8ebc
00000390: 9ae7 003e f7b8 a9be 9c27 99bd 688b 0e3d
000003a0: 335b 78be 662c 7abe f30e 31be 802a 71bd
000003b0: 0210 6e3e e688 4dbe 8098 283e e62d 3f3e
000003c0: 4151 833e 72a7 7c3e 98a7 43bd 10ba 0e3e
000003d0: 0058 523d 70f1 91bd e2af 4d3e 9047 dc3d
000003e0: 705a bbbd d32a 9ebe 7066 f0bd 6af6 7d3e
000003f0: b047 88bc 50d1 adbd b8ad 22bd 48c7 5fbe

bias f4 [32]
0.20770708 0.100780934 0.2608792 0.06649938 -0.17658699 0.27472207 -0.14749591 -0.18451783
-0.103374645 0.19935599 -0.20427021 0.19544408 -0.019668251 -0.28825647 -0.20540091 0.2108877
-0.08025062 0.17756823 0.06334689 0.15112793 0.0796794 -0.19809675 -0.114475965 0.13800287
-0.2066921 -0.12103157 -0.025040418 -0.0059776306 -0.27071017 -0.11596303 -0.007779479 0.26765594
00000000: 2ab1 543e 3c66 ce3d f591 853e d430 883d
00000010: 38d3 34be 5fa8 8c3e 2b09 17be 3ef2 3cbe
00000020: 16b6 d3bd fa23 4c3e 362c 51be 7e22 483e
00000030: 501f a1bc 5a96 93be 9e54 52be f2f2 573e
00000040: 705a a4bd 72d4 353e 04bc 813d 48c1 1a3e
00000050: f42e a33d e0d9 4abe 6072 eabd a050 0d3e
00000060: 18a7 53be 66df f7bd 9021 cdbc 00e0 c3bb
00000070: 869a 8abe 067e edbd 00eb febb 330a 893e

weight f4 [1, 32]
0.05198458 0.14217113 -0.05484291 0.034301847 0.15565811 0.111618444 0.14077286 -0.08159756
0.096965596 0.1519747 0.049251273 -0.1575135 0.034269407 0.013025224 -0.02015026 0.14213745
0.01976788 -0.06878515 -0.13307402 0.0806763 -0.11925151 0.011764303 -0.012931481 -0.12233814
-0.00044329464 0.060962155 -0.10951346 -0.00011906028 -0.046218723 0.060066566 0.0007339865 -0.09460745
00000000: c8ed 543d 4f95 113e f6a2 60bd 1880 0c3d
00000010: d764 1f3e 3698 e43d c326 103e 9f1c a7bd
00000020: e695 c63d 419f 1b3e b4bb 493d 384b 21be
00000030: 145e 0c3d c067 553c 2812 a5bc 7b8c 113e
00000040: 40f0 a13c 3bdf 8cbd 8e44 08be 9e39 a53d
00000050: 233a f4bd 10bf 403c 90de 53bc 6b8c fabd
00000060: 006a e8b9 74b3 793d 9848 e0bd 00b0 f9b8
00000070: d84f 3dbd 5c08 763d 0069 403a 8dc1 c1bd

weight f4 [32, 32, 3, 3]
0.018748108 -0.044779286 -0.023622088 0.050085288 -0.050430033 0.01362678 -0.0573416 0.036632594
0.031805936 0.017053898 -0.039659828 -0.03892853 0.038809855 -0.010620866 0.038872745 -0.04431503
-0.02040888 -0.050245274 -0.009231634 0.025925543 -0.0436869 -0.03557647 -0.042657718 0.039740693
-0.014712382 -0.04458104 0.05410519 0.03567754 0.00064717233 -0.00437475 -0.04977302 -0.04965255
0.048094843 0.008400489 0.015433285 -0.041325785 0.05568405 -0.03775916 0.01526406 0.022717025
-0.01911477 0.0123362355 0.017852653 0.0415806 0.013089534 -0.014371056 -0.0579474 -0.038095705
-0.012826487 0.0024837777 -0.03681936 0.04108731 -0.031103075 -0.02884932 -0.034630224 -0.046890244
-0.046399023 -0.013825417 0.0116457455 -0.03748078 0.0069926195 -0.027173448 0.0045665167 -0.020932104
0.006913338 0.057962965 -0.020839754 0.03848776 -0.023297831 -0.0085398145 -0.00021796301 0.008762602
0.035861146 -0.0320687 0.05079646 -0.043497648 -0.010510664 0.028988164 -0.009730563 -0.017802928
-0.03165251 0.056567524 0.016349073 0.025247399 -0.02700945 -0.050631113 -0.02050655 -0.015398428
-0.0010373257 0.04961421 0.012872923 -0.044725392 -0.016386893 0.017745633 0.043296155 0.058104735
0.039647836 -0.045826387 0.05211473 -0.046237256 -0.01132467 -0.04871032 -0.033934854 0.020296138
0.04518039 -0.015945531 -0.045791924 0.008267719 0.0062625296 -0.05631088 -0.04952783 0.044256415
0.01519848 -0.008971456 -0.014929518 -0.0007744916 0.04004259 0.057482254 -0.0049995445 -0.015634231
0.030006316 -0.023801267 0.0073749684 0.03301609 0.024730992 -0.026439603 -0.0041991547 0.046599064
0.05480675 0.01963519 0.036965314 0.047065984 -0.0059065 -0.018154524 0.038971875 -0.05199896
0.0015172027 -0.018920261 0.054361966 -0.034169696 0.023706686 -0.020069465 0.031286668 -0.0014625713
-0.04586303 0.014271263 0.03823394 -0.003143102 -0.010763343 0.031356458 -0.01350921 0.029407147
-0.032713547 0.0032786727 0.053588796 -0.022156809 -0.009605307 0.031780142 -0.0048587583 -0.0317052
-0.041326053 -0.0042818263 0.022559505 -0.026813354 0.009744626 -0.05858082 0.009154532 -0.011518102
-0.0063344315 0.058399413 -0.040621273 0.047459286 0.03692471 0.008566897 -0.028102683 0.004671719
0.0033291169 0.010672729 0.04199009 -0.005574841 0.02594253 -0.021831132 0.010585856 -0.03426242
0.019376796 -0.02180506 0.0067852177 0.018227484 0.022774663 -0.0077513903 0.01876143 -0.0021318384
0.018548492 -0.05450271 -0.024879634 -0.003061626 -0.056299094 0.0006569624 0.011056427 -0.007474806
0.051336568 0.048790056 0.027072351 -0.027848516 0.04533134 -0.012691904 -0.002163995 -0.04803798
0.036627587 0.04029369 0.04166392 0.028165687 -0.046073616 0.045611743 -0.02289341 0.018783327
0.04680037 0.05850069 -0.015569881 -0.049992464 0.010456581 -0.04336275 0.058093425 -0.017964348
0.018689137 0.016542863 -0.03958826 0.032916155 -0.0018972419 0.035322297 0.002616357 -0.027902983
-0.019790579 0.044274706 0.017991897 -0.04922499 0.015482295 -0.016447645 -0.05532879 0.043614205
0.016644727 0.01176456 -0.048161462 0.047653813 -0.030338096 0.012111533 0.053713012 0.016981456
0.0053751953 0.013531785 0.023842406 0.02835023 0.0381993 -0.03353057 -0.0034882613 -0.025261626
00000000: a295 993c 7c6a 37bd 1c83 c1bc 3b26 4d3d
00000010: b98f 4ebd dc42 5f3c 07df 6abd 0f0c 163d
00000020: f146 023d 9eb4 8b3c 5872 22bd 8673 1fbd
00000030: 15f7 1e3d 2403 2ebc 0739 1f3d ad83 35bd
00000040: 8630 a7bc fdcd 4dbd 4840 17bc ce61 d43c
00000050: 09f1 32bd a2b8 11bd dcb9 2ebd 23c7 223d
00000060: 340c 71bc 9c9a 36bd 679d 5d3d 9d22 123d
00000070: 00a7 293a 105a 8fbb cbde 4bbd 7960 4bbd
00000080: 19ff 443d 34a2 093c e4db 7c3c 3a45 29bd
00000090: f514 643d 59a9 1abd 1c16 7a3c 0e19 ba3c
000000a0: 9496 9cbc ec1d 4a3c ba3f 923c 6b50 2a3d
000000b0: 7c75 563c 9474 6bbc 415a 6dbd 3e0a 1cbd
000000c0: 3026 52bc e0c6 223b e6cf 16bd 2b4b 283d
000000d0: e0cb febc 6955 ecbc 6cd8 0dbd fc0f 40bd
000000e0: e70c 3ebd 0084 62bc cccd 3e3c 7285 19bd
000000f0: 5822 e53b da9a debc b8a2 953b ce79 abbc
00000100: 4889 e23b 936a 6d3d 22b8 aabc 57a5 1d3d
00000110: 18db bebc 94ea 0bbc 008d 64b9 0491 0f3c
00000120: 23e3 123d 785a 03bd f30f 503d 972a 32bd
00000130: ec34 2cbc 9678 ed3c f06c 1fbc 72d7 91bc
00000140: 10a6 01bd 59b3 673d 7eee 853c a2d3 ce3c
00000150: ec42 ddbc 9262 4fbd 5afd a7bc b049 7cbc
00000160: e0f6 87ba 4538 4b3d f4e8 523c f931 37bd
00000170: ce3d 86bc 4a5f 913c 4f57 313d 3bff 6d3d
00000180: c565 223d 73b4 3bbd 4176 553d 4763 3dbd
00000190: 1c8b 39bc 7984 47bd 46ff 0abd 1644 a63c
000001a0: 130f 393d 34a0 82bc 5090 3bbd 5475 073c
000001b0: e835 cd3b 3da6 66bd b2dd 4abd 3746 353d
000001c0: 0c03 793c 04fd 12bc f09a 74bc 4007 4bba
000001d0: b303 243d 8372 6b3d 38d3 a3bb 5c13 80bc
000001e0: cecf f53c e0fa c2bc b8a9 f13b e13b 073d
000001f0: a698 ca3c de97 d8bc 1099 89bb a9de 3e3d
00000200: 0b7d 603d fad9 a03c f168 173d 43c8 403d
00000210: 508b c1bb ccb8 94bc f9a0 1f3d ddfc 54bd
00000220: e0dc c63a aafe 9abc a7aa 5e3d 86f5 0bbd
00000230: 8634 c23c b868 a4bc 7326 003d c0b3 bfba
00000240: dfda 3bbd 04d2 693c 319b 1c3d 80fc 4dbb
00000250: bc58 30bc a16f 003d bc55 5dbc 42e7 f03c
00000260: a4fe 05bd 00df 563b ed7f 5b3d 3282 b5bc
00000270: 945f 1dbc e52b 023d 3836 9fbb 50dd 01bd
00000280: 8245 29bd 904e 8cbb b6ce b83c aea7 dbbc
00000290: eca7 1f3c 71f2 6fbd e4fc 153c 6cb6 3cbc
000002a0: 1091 cfbb 3934 6f3d 7e62 26bd ab64 423d
000002b0: 5d3e 173d 2c5c 0c3c 9937 e6bc 3815 993b
000002c0: 502d 5a3b acdc 2e3c cdfd 2b3d 28ad b6bb
000002d0: 6e85 d43c 34d7 b2bc 4c70 2d3c c056 0cbd
000002e0: 16bc 9e3c 86a0 b2bc 8856 de3b ce51 953c
000002f0: ee91 ba3c 60ff fdbb 92b1 993c 50b6 0bbb
00000300: 02f3 973c 3c3e 5fbd 60d0 cbbc 90a5 48bb
00000310: e199 66bd 0038 2c3a 0426 353c 38ef f4bb
00000320: 4b46 523d 15d8 473d d6c6 dd3c 9222 e4bc
00000330: 5bad 393d b4f1 4fbc d0d1 0dbb 79c3 44bd
00000340: cf06 163d ff0a 253d c9a7 2a3d babb e63c
00000350: b0b7 3cbd 61d3 3a3d f68a bbbc 7edf 993c
00000360: bfb1 3f3d 6b9e 6f3d d018 7fbc e6c4 4cbd
00000370: 1452 2b3c 249d 31bd 5ff3 6d3d f829 93bc
00000380: f619 993c e684 873c 4d27 22bd 17d3 063d
00000390: e0ac f8ba 1dae 103d 3077 2b3b cc94 e4bc
000003a0: da1f a2bc 6559 353d be63 933c 25a0 49bd
000003b0: 74a9 7d3c 36bd 86bc 71a0 62bd cfa4 323d
000003c0: 865a 883c 24c0 403c f444 45bd a530 433d
000003d0: 9987 f8bc 746f 463c 2d02 5c3d b21c 8b3c
000003e0: 6822 b03b 6cb4 5d3c 2651 c33c be3e e83c
000003f0: df76 1c3d 5a57 09bd 509b 64bb 78f1 cebc

bias f4 [32]
-0.042492554 0.024667624 0.0075864308 -0.04980543 0.042856466 0.04567859 -0.028523983 -0.013007682
-0.053024717 0.0400392 -0.0013784841 -0.04740736 0.05745947 -0.0060981214 0.019838821 -0.0040758327
-0.015738938 -0.0021883138 -0.016526874 -0.011731688 0.054765705 -0.056194317 0.017721977 -0.015086941
0.034839895 -0.0024835467 0.02675682 0.0018850677 -0.017844647 0.010086294 -0.043405917 0.027408998
00000000: ac0c 2ebd c213 ca3c 9897 f83b c700 4cbd
00000010: 438a 2f3d 7919 3b3d 21ab e9bc 2c1e 55bc
00000020: 7230 59bd 2500 243d 40ae b4ba 382e 42bd
00000030: 9f5a 6b3d c0d2 c7bb 0685 a23c 908e 85bb
00000040: f2ee 80bc d069 0fbb 5e63 87bc 4436 40bc
00000050: 0152 603d 032c 66bd ae2d 913c 382f 77bc
00000060: 47b4 0e3d 00c3 22bb 1e31 db3c 6014 f73a
00000070: f02e 92bc fc40 253c 67ca 31bd d688 e03c

weight f4 [32, 32, 3, 3]
-0.051381636 0.019406263 -0.030891294 0.025738616 -0.0064685866 0.055788647 -0.0349264 -0.0066491514
-0.024255272 -0.025861554 -0.038745157 0.011184331 -0.047483575 0.02677251 0.046729077 0.017976496
0.052042376 -0.053980883 0.020178776 -0.024503298 0.01370972 -0.041535683 -0.024122953 -0.020788603
0.008015554 0.03549915 0.058427308 0.0018199906 -0.044202063 0.015796948 -0.014648087 -0.030496785
0.024227072 0.04451221 0.016802464 -0.0062088408 -0.03580588 -0.0401432 0.011220913 -0.045410745
-0.046262123 0.034142364 0.043933313 0.014780376 -0.000990361 0.014224101 -0.034600854 -0.043848656
0.0018746704 0.019173007 0.051492397 -0.010981195 0.03009094 -0.008535862 -0.054958086 0.038080264
-0.05821745 0.031887215 -0.02415507 -0.03161145 -0.028963905 -0.033446416 0.04014713 -0.027270135
0.043009605 -0.040664215 0.026843008 0.03613722 -0.019611336 0.022242751 -0.023933854 -0.0064242557
0.042540047 0.008965883 -0.037295375 0.0023879 -0.026697442 -0.006955605 0.020355057 -0.0002357699
0.027332108 0.02345081 -0.020699356 -0.036231913 0.013479453 0.014833096 0.016014528 -0.046918925
0.01793247 -0.037100285 -0.053617656 -0.002288714 -0.051917218 0.050916266 0.041095044 -0.029504312
0.04416452 0.016921673 0.05295251 0.047009658 -0.053827476 -0.030448085 0.016689952 0.058322918
-0.0019773878 0.014392417 -0.02441024 -0.052455243 -0.033540875 0.009625766 -0.0028562695 0.037471626
-0.015955664 -0.049271062 0.042147744 0.05465849 -0.027754389 0.054828066 -0.021541879 -0.03327313
-0.030255059 -0.027419195 -0.0041042864 0.035395768 0.005369272 0.047173705 0.04234055 -0.044394717
-0.027310293 0.046355154 0.029868629 -0.015421167 -0.049690686 -0.012857746 0.018478405 -0.004330281
-0.04460425 0.054642234 -0.005368799 -0.007119149 -0.024933733 0.0209977 -0.0100902915 0.028118614
-0.05417015 -0.019661006 -0.039391253 0.054089356 -0.056594767 0.032655593 -0.0045775324 0.014090892
-0.0062805265 -0.024794143 -0.04291112 -0.03209392 0.033158433 0.047240313 -0.047240183 -0.029650807
-0.03686128 0.027308468 0.0073389374 0.021213245 0.029398482 -0.022988211 0.029353168 0.0135601275
-0.031107325 -0.008096598 0.007716652 -0.03019689 0.058891688 0.013541091 -0.040438734 -0.039797194
0.006658938 -0.018631358 -0.016277794 0.02040663 -0.04407948 -0.004740346 0.019352783 -0.032402076
-0.02969563 -0.030500915 0.01350506 0.0336332 -0.05151135 0.0075983815 -0.048164617 -0.03665948
0.0035023838 0.045652006 0.009205509 -0.009757739 -0.031632684 0.0012845956 0.04027966 0.0404536
-0.0005186945 -0.029126886 -0.04480405 0.03005391 -0.00092339516 0.042874496 0.011989567 -0.026253652
-0.020820852 -0.006223172 0.010031428 0.013448264 0.025894899 0.038582545 0.015898865 0.029133838
0.032393556 -0.047130994 -0.032874294 0.006415408 0.02491955 0.021003019 -0.034431495 -0.0034909882
0.012080681 -0.023841333 0.017940383 -0.03587076 -0.03800617 -0.023523252 0.04389483 0.04834542
0.016852338 -0.049223002 0.00857814 -0.046549916 -0.05208811 0.021316703 -0.017532218 -0.05545851
-0.020276777 0.018774603 0.013417739 -0.03205867 -0.0056150295 0.05176766 -0.05698435 0.0026367567
0.024152648 0.03788678 -0.023442604 0.03495584 0.014780533 -0.057180397 -0.04705642 -0.048171263
00000000: 8d75 52bd e2f9 9e3c bd0f fdbc cad9 d23c
00000010: 70f6 d3bb a382 643d fc0e 0fbd 20e1 d9bb
00000020: feb2 c6bc 9cdb d3bc 3eb3 1ebd 7c3e 373c
00000030: 237e 42bd 0652 db3c fd66 3f3d 7243 933c
00000040: 632a 553d 0f1b 5dbd f64d a53c 24bb c8bc
00000050: bc9e 603c 5221 2abd 809d c5bc dc4c aabc
00000060: ac53 033c 8f67 113d 7951 6f3d c08c ee3a
00000070: 390d 35bd 9a68 813c 88fe 6fbc 65d4 f9bc
00000080: da77 c63c 6f52 363d 52a5 893c 8873 cbbb
00000090: 30a9 12bd 326d 24bd ecd7 373c 9e00 3abd
000000a0: 5a7d 3dbd ddd8 0b3d 6bf3 333d 6429 723c
000000b0: 00cf 81ba 340c 693c a0b9 0dbd a69a 33bd
000000c0: 80b7 f53a b610 9d3c b1e9 523d 78ea 33bc
000000d0: 4681 f63c 00da 0bbc bb1b 61bd 0dfa 1b3d
000000e0: 6c75 6ebd 2b9c 023d dae0 c5bc 027b 01bd
000000f0: b645 edbc 1cff 08bd 5171 243d 9e65 dfbc
00000100: d72a 303d 858f 26bd dee5 db3c 9f04 143d
00000110: f4a7 a0bc 6e36 b63c ee10 c4bc 9082 d2bb
00000120: 793e 2e3d a4e5 123c 09c3 18bd 507e 1c3b
00000130: 98b4 dabc d8eb e3bb a6bf a63c 0039 77b9
00000140: 96e7 df3c ea1b c03c b291 a9bc ea67 14bd
00000150: ecd8 5c3c 8406 733c e630 833c 0f2e 40bd
00000160: 1ee7 923c 78f6 17bd 309e 5bbd 40fe 15bb
00000170: 26a7 54bd 938d 503d 4753 283d 07b3 f1bc
00000180: dbe5 343d 529f 8a3c bbe4 583d 338d 403d
00000190: 337a 5cbd 436e f9bc 5eb9 883c 03e4 6e3d
000001a0: 1097 01bb 2cce 6b3c fcf7 c7bc 4fdb 56bd
000001b0: 2862 09bd 64b5 1d3c 4030 3bbb d97b 193d
000001c0: 74b5 82bc 74d0 49bd 1da3 2c3d 95e1 5f3d
000001d0: 2c5d e3bc 6593 603d 9878 b0bc 6849 08bd
000001e0: 75d9 f7bc 389e e0bc 407d 86bb 27fb 103d
000001f0: b8f0 af3b 3739 413d 496d 2d3d 3cd7 35bd
00000200: d6b9 dfbc e7de 3d3d 0eaf f43c 10a9 7cbc
00000210: 7688 4bbd 4ca9 52bc 0660 973c 08e5 8dbb
00000220: f2b2 36bd 89d0 5f3d c0ec afbb c047 e9bb
00000230: d441 ccbc 5e03 ac3c c051 25bc 0259 e63c
00000240: 85e1 5dbd 1e10 a1bc b958 21bd cd8c 5d3d
00000250: eacf 67bd dfc1 053d 20ff 95bb 7cdd 663c
00000260: e0cc cdbb 161d cbbc 92c3 2fbd ea74 03bd
00000270: 23d1 073d 0f7f 413d ec7e 41bd 40e6 f2bc
00000280: dbfb 16bd 02b6 df3c 787b f03b 66c7 ad3c
00000290: 16d5 f03c c651 bcbc 0e76 f03c 4c2b 5e3c
000002a0: cad4 febc 98a7 04bc f8db fc3b 785f f7bc
000002b0: 6938 713d 74db 5d3c 16a3 25bd 6202 23bd
000002c0: 3833 da3b caa0 98bc 0259 85bc ce2b a73c
000002d0: af8c 34bd e854 9bbb ba89 9e3c 0ab8 04bd
000002e0: 4044 f3bc 0edd f9bc 5444 5d3c f7c2 093d
000002f0: 91fd 52bd d8fb f83b 4348 45bd 4028 16bd
00000300: 4088 653b 99fd 3a3d b4d2 163c ecde 1fbc
00000310: 4691 01bd e05f a83a 49fc 243d adb2 253d
00000320: 00f9 07ba 829b eebc 7484 37bd 9e33 f63c
00000330: 0010 72ba 2b9d 2f3d e46f 443c e611 d7bc
00000340: 7e90 aabc c0eb cbbb dc5a 243c 1c56 5c3c
00000350: 8a21 d43c bb08 1e3d 563e 823c 16aa ee3c
00000360: 1baf 043d 6e0c 41bd 32a7 06bd 5838 d23b
00000370: 1624 cc3c 860e ac3c 0a08 0dbd 10c9 64bb
00000380: 0cee 453c e64e c3bc b6f7 923c 38ed 12bd
00000390: 5cac 1bbd d6b3 c0bc 11cb 333d d905 463d
000003a0: ea0d 8a3c 0f9e 49bd 548b 0c3c 20ab 3ebd
000003b0: 585a 55bd 5ea0 ae3c ba9f 8fbc 7628 63bd
000003c0: 7c1b a6bc 32cd 993c 14d6 5b3c f44f 03bd
000003d0: 48fe b7bb 530a 543d 6c68 69bd 70cd 2c3b
000003e0: c6db c53c 2b2f 1b3d b40a c0bc db2d 0f3d
000003f0: 0c2a 723c fe35 6abd 3cbe 40bd 3b4f 45bd

bias f4 [32]
-0.037914746 -0.017548516 -0.0378581 0.017775137 0.05085242 -0.02169349 0.0024343245 -0.037968114
0.023919497 0.032154117 -0.057663318 -0.036562476 0.03490774 -0.0031664222 0.011170175 -0.0002483651
-0.03157886 -0.04399298 -0.018217187 0.015526112 -0.037001792 0.00069174916 0.020794768 0.04105929
-0.053471185 0.011650588 -0.040999353 -0.012085412 0.009834524 -0.018134132 -0.00929746 -0.032740295
00000000: 7e4c 1bbd e8c1 8fbc 1811 1bbd 2a9d 913c
00000010: a14a 503d 8cb6 b1bc 3089 1f3b 7484 1bbd
00000020: d2f2 c33c 09b4 033d 5f30 6cbd 89c2 15bd
00000030: 6bfb 0e3d c083 4fbb 1c03 373c 0037 82b9
00000040: d658 01bd fc31 34bd 363c 95bc 3c61 7e3c
00000050: 318f 17bd 8056 353a ca59 aa3c c92d 283d
00000060: 9a04 5bbd 1ce2 3e3c f0ee 27bd e401 46bc
00000070: fc20 213c 088e 94bc 6054 18bc b01a 06bd

weight f4 [32]
1.0 1.0 1.0 1.0 1.0 1.0 1.0 1.0
1.0 1.0 1.0 1.0 1.0 1.0 1.0 1.0
1.0 1.0 1.0 1.0 1.0 1.0 1.0 1.0
1.0 1.0 1.0 1.0 1.0 1.0 1.0 1.0
00000000: 0000 803f 0000 803f 0000 803f 0000 803f
00000010: 0000 803f 0000 803f 0000 803f 0000 803f
00000020: 0000 803f 0000 803f 0000 803f 0000 803f
00000030: 0000 803f 0000 803f 0000 803f 0000 803f
00000040: 0000 803f 0000 803f 0000 803f 0000 803f
00000050: 0000 803f 0000 803f 0000 803f 0000 803f
00000060: 0000 803f 0000 803f 0000 803f 0000 803f
00000070: 0000 803f 0000 803f 0000 803f 0000 803f

bias f4 [32]
0.0 0.0 0.0 0.0 0.0 0.0 0.0 0.0
0.0 0.0 0.0 0.0 0.0 0.0 0.0 0.0
0.0 0.0 0.0 0.0 0.0 0.0 0.0 0.0
0.0 0.0 0.0 0.0 0.0 0.0 0.0 0.0
00000000: 0000 0000 0000 0000 0000 0000 0000 0000
00000010: 0000 0000 0000 0000 0000 0000 0000 0000
00000020: 0000 0000 0000 0000 0000 0000 0000 0000
00000030: 0000 0000 0000 0000 0000 0000 0000 0000
00000040: 0000 0000 0000 0000 0000 0000 0000 0000
00000050: 0000 0000 0000 0000 0000 0000 0000 0000
00000060: 0000 0000 0000 0000 0000 0000 0000 0000
00000070: 0000 0000 0000 0000 0000 0000 0000 0000

running_mean f4 [32]
-0.094094016 0.06382027 -0.023114871 -0.034007706 0.22889048 -0.18818894 -0.022225603 -0.012285081
-0.07152904 0.17736459 -0.16371779 -0.106438935 0.1482362 -0.10426982 0.09492438 -0.079735935
-0.25120005 0.02848468 0.13975154 -0.019781861 -0.08082816 0.2041834 0.12222819 0.07789092
-0.027232416 0.019420784 0.05031939 -0.06133026 0.16800919 0.082725026 -0.089738846 0.17058505
00000000: 5db4 c0bd 34b4 823d 665b bdbc aa4b 0bbd
00000010: 4462 6a3e 9ab4 40be 7812 b6bc 5d47 49bc
00000020: d17d 92bd 109f 353e a3a5 27be a8fc d9bd
00000030: 3bcb 173e 6a8b d5bd b767 c23d 984c a3bd
00000040: 4b9d 80be b458 e93c 071b 0f3e 920d a2bc
00000050: 3c89 a5bd 7415 513e c652 fa3d 4685 9f3d
00000060: 8416 dfbc 5618 9f3c b41b 4e3d 7035 7bbd
00000070: 9a0a 2c3e bd6b a93d 00c9 b7bd d9ad 2e3e

running_var f4 [32]
0.057240628 0.06483518 0.08103955 0.026051478 0.074423596 0.097969316 0.09839319 0.044437576
0.12327113 0.03766925 0.046928935 0.03090893 0.13365567 0.04709285 0.046393216 0.042831868
0.09971842 0.108533695 0.05835762 0.091578245 0.07024301 0.10738734 0.08606198 0.045112778
0.04324819 0.08157071 0.05175902 0.048896745 0.075972356 0.15120791 0.058033247 0.11066353
00000000: 2675 6a3d 4fc8 843d 10f8 a53d e969 d53c
00000010: 666b 983d 23a4 c83d 5e82 c93d 2d04 363d
00000020: 9375 fc3d 124b 1a3d 8e38 403d b934 fd3c
00000030: 08dd 083e 6fe4 403d d006 3e3d 7870 2f3d
00000040: 2c39 cc3d ea46 de3d 6608 6f3d 608d bb3d
00000050: 91db 8f3d e5ed db3d 4341 b03d 2dc8 383d
00000060: 0425 313d 8b0e a73d 4401 543d f447 483d
00000070: 6597 9b3d 3fd6 1a3e 45b4 6d3d 90a3 e23d

weight f4 [32]
1.0 1.0 1.0 1.0 1.0 1.0 1.0 1.0
1.0 1.0 1.0 1.0 1.0 1.0 1.0 1.0
1.0 1.0 1.0 1.0 1.0 1.0 1.0 1.0
1.0 1.0 1.0 1.0 1.0 1.0 1.0 1.0
00000000: 0000 803f 0000 803f 0000 803f 0000 803f
00000010: 0000 803f 0000 803f 0000 803f 0000 803f
00000020: 0000 803f 0000 803f 0000 803f 0000 803f
00000030: 0000 803f 0000 803f 0000 803f 0000 803f
00000040: 0000 803f 0000 803f 0000 803f 0000 803f
00000050: 0000 803f 0000 803f 0000 803f 0000 803f
00000060: 0000 803f 0000 803f 0000 803f 0000 803f
00000070: 0000 803f 0000 803f 0000 803f 0000 803f

bias f4 [32]
0.0 0.0 0.0 0.0 0.0 0.0 0.0 0.0
0.0 0.0 0.0 0.0 0.0 0.0 0.0 0.0
0.0 0.0 0.0 0.0 0.0 0.0 0.0 0.0
0.0 0.0 0.0 0.0 0.0 0.0 0.0 0.0
00000000: 0000 0000 0000 0000 0000 0000 0000 0000
00000010: 0000 0000 0000 0000 0000 0000 0000 0000
00000020: 0000 0000 0000 0000 0000 0000 0000 0000
00000030: 0000 0000 0000 0000 0000 0000 0000 0000
00000040: 0000 0000 0000 0000 0000 0000 0000 0000
00000050: 0000 0000 0000 0000 0000 0000 0000 0000
00000060: 0000 0000 0000 0000 0000 0000 0000 0000
00000070: 0000 0000 0000 0000 0000 0000 0000 0000

running_mean f4 [32]
-0.11503195 0.047477547 -0.11237542 0.000398584 0.20352183 0.093539596 0.25920105 -0.063510194
0.0304301 -0.23441297 -0.18571909 -0.1742713 0.08570827 0.29259843 0.08644435 -0.0096254805
-0.09101024 0.0021302274 -0.07929365 -0.17469673 -0.10366487 -0.06470805 -0.121241815 -0.018182028
0.07546161 -0.049703572 -0.09456781 -0.10312218 -0.14582926 0.0137316985 -0.07902413 0.029727794
00000000: df95 ebbd d177 423d 1625 e6bd 0af9 d039
00000010: 0768 503e b091 bf3d 00b6 843e a211 82bd
00000020: 8c48 f93c f409 70be 252d 3ebe 2d74 32be
00000030: d187 af3d 76cf 953e bc09 b13d 31b4 1dbc
00000040: 9463 babd 499b 0b3b b664 a2bd b3e3 32be
00000050: 3f4e d4bd a785 84bd a14d f8bd 7af2 94bc
00000060: 9e8b 9a3d f995 4bbd c5ac c1bd b931 d3bd
00000070: 4454 15be ebfa 603c 67d7 a1bd b487 f33c

running_var f4 [32]
0.09579617 0.055369228 0.051776677 0.14051652 0.2219029 0.109535106 0.1449096 0.07453767
0.061146338 0.09222454 0.09635366 0.11255581 0.056666262 0.10018318 0.11591122 0.097080536
0.15742579 0.049109913 0.0684646 0.10430186 0.13880962 0.065310694 0.067029536 0.07913237
0.08967905 0.043233313 0.13550857 0.10121645 0.07519783 0.11108925 0.16896315 0.060616776
00000000: c830 c43d d8ca 623d c813 543d 90e3 0f3e
00000010: 843a 633e f153 e03d 2f63 143e 35a7 983d
00000020: 9574 7a3d 38e0 bc3d 1155 c53d a983 e63d
00000030: e21a 683d d72c cd3d dd62 ed3d 29d2 c63d
00000040: 3a34 213e 7a27 493d 2b37 8c3d 379c d53d
00000050: 1c24 0e3e 9dc1 853d c846 893d 2710 a23d
00000060: a6a9 b73d 6a15 313d c2c2 0a3e 924a cf3d
00000070: 5201 9a3d c382 e33d ad04 2d3e 4c49 783d
