models/5_cross_5_iter_50.pt (torch_old, 339781 bytes, 66 tensors)

weight f4 [32, 3, 3, 3]
00000000: 3fd0 95be 7f87 c4be f4f5 0e3e 3dcc 82be
00000010: 568e 0bbd 2b23 96bd 734c 5ebd 2e0e 2cbb
00000020: 041a 903c c3d6 a23e 8dcb 013f 1414 cfbd
00000030: 08d7 e63d 121e bcbe 49a5 9c3e 8b27 0a3e
00000040: 162b 0f3e d132 873e aea8 823e 7a19 793d
00000050: b76c 043c 2322 5a3e 9f48 a43d 6e27 10bd
00000060: d295 113e 6471 fb3d 9041 4b3e bc02 a33f
00000070: b34c 66be 67d5 a7bf a9c6 553d 3c89 793f
00000080: eec0 acbe 2dc7 42be fe84 933f 3e6f 3fbf
00000090: 5ec9 d5bf 9005 ef3e faa7 49bf b586 c63e
000000a0: 19b8 773e fe57 883f e69c e3bd 39b5 98bf
000000b0: 6c68 993e 4094 08bf c990 95be 8b70 06bf
000000c0: 3aad dabe a06c 0fbf 6c6d 61be 9a14 dbbe
000000d0: d538 aebe 52a5 88be d47e 803f c307 cebf
000000e0: b02f 503f 6e3d 02c0 02d5 29c0 dfc9 1e3f
000000f0: e6ca 873d 5c1f 2640 e626 4740 08a6 253f
00000100: b904 e4c0 ec0a bc3e a053 3fc0 68fb a3bf
00000110: 6d9d 9c3f a88d 2b40 0a65 973e 5106 1540
00000120: 1691 5abe 6749 6bbe 8f5b 33be 5f91 5ebd
00000130: 4530 b2bd 2382 52be 7368 0dbe 9e96 163c
00000140: a338 2dbe 5e86 e9bd 01dd d1be 45a5 243f
00000150: 75ef 1abf bc71 9cbe 55a4 b3be f404 23bb
00000160: 9237 77bf 8fc6 843e 6e0f 87bf f6eb 063e
00000170: 8f55 c2be e1fb c83e ce4f 043e ecec 773f
00000180: a0dc 973d 99fd aa3c c92b 4fbf a174 0ebf
00000190: 3bd2 61bf 6073 0bbf 0a63 3dbf 9b5c 60bf
000001a0: 3bb4 44bf 9210 0ebf 7dcc 61bf 314c 32bf
000001b0: 4a5e b23e f96d 523c 037e 053f c27f 863f
000001c0: 409d 1b3e 1b2e bdbd bfae f13d 5c82 d43c
000001d0: 2dcd be3e e245 073f 0aae 83bf 4c26 62bf
000001e0: a664 b5be 144c b73f fe0e dcbe 3b7d 4a3e
000001f0: d43a 203e 60a1 98be bd0a fabe 42a7 c5be
00000200: 7462 03bf 05ec 0abf df51 d5be e31d 0abf
00000210: 5614 82be 8ae4 f1be d723 d5be dd5d c93e
00000220: 1819 ca3d be6e abbd 0b89 893e 23e1 3e3e
00000230: 1100 013e 816f 863e 9975 bf3e b1c7 7e3e
00000240: 6623 91be 3cf5 343e afeb 62be 0256 9cbe
00000250: ab7a 8dbe 126d 16be 7325 f5bd e5ab d4bd
00000260: a83e c53c be14 acbd 446b f43d 9524 11be
00000270: d2bd abbd ea23 24be a58d 34be 3ac9 6fbd
00000280: b342 04be 81ee e53d 40de e3be 722e 18bf
00000290: 4c60 92be 490b c5be 9c1e 1f3f 7cfc 54bf
000002a0: 98ff 8c3e 658b cebe b3ba 3fbe 1d84 b2be
000002b0: 4718 a93e 90b4 31bf c3d3 e4be 9ecd 60bf
000002c0: 54f9 edbe de87 f7be 1a35 843e e27b 7d3f
000002d0: 97be b93e 6453 293e 975f 3f3e 900d 9c3e
000002e0: db2d 823e bf18 883e b853 c73e 7cf2 d53e
000002f0: 46b9 b43e ee33 c33f 6949 2ebf fc7b 413f
00000300: 9113 dfbf 55bd b03f 2613 b03f 04a5 f3be
00000310: bdb3 ad40 3309 29c0 2376 e73f d948 afbf
00000320: e4b5 4cbf ec38 a73f a0f8 16be 3bf4 5e3f
00000330: 2a42 ff3f 843d 983f 5855 d73e cf57 bbbe
00000340: 6136 12bf 53de 99be 23ed babe 9484 e0be
00000350: 84c6 a8be 07d7 b3be bf9f 07bf 4af2 d2be
00000360: ff92 39be a5ba 9b3e 5f37 d1be 57c6 ac3c
00000370: 6daf 3ebe f74b 5dbe 2d6a 70be 09d4 80be
00000380: 75df 123e 138d cc3d 411c aabe bb94 28bd
00000390: afbc 4cbd e75c 3abe edaf c4bc 5d99 bc3e
000003a0: c9c3 85bd 834b 59be ab2e 6cbe d7f3 00be
000003b0: 00eb 5ebd 88d5 2cbe afcc 3ebe 5a65 5dbe
000003c0: 8ed1 13be 132d a1bd 2547 97bd e8b8 2a3e
000003d0: bde9 c3be c08e f6bd b751 dd3e eccf f93c
000003e0: 1417 683e 4319 7c3f 732a 56be 869a 173e
000003f0: 4331 40bd 9723 92be 8150 b13e f9e0 453e
-0.29260442 -0.38384625 0.13961011 -0.25546446 -0.03407129 -0.073309265 -0.054272126 -0.002625357
0.01759053 0.31804475 0.5070122 -0.101112515 0.11271483 -0.36741692 0.30594853 0.13491647
0.1398128 0.26405957 0.25519317 0.060815312 0.00808256 0.21302085 0.08021664 -0.035193853
0.14217308 0.12277487 0.19849229 1.273521 -0.22490196 -1.3112 0.05219141 0.9747503
-0.33740944 -0.19021292 1.1524961 -0.7477912 -1.6702077 0.4668393 -0.78771937 0.38774648
0.24191321 1.0651853 -0.111139104 -1.1930305 0.2996248 -0.5335121 -0.29212025 -0.52515477
-0.42710286 -0.56025124 -0.22014397 -0.42789155 -0.34027734 -0.2668863 1.0038705 -1.6096119
0.81322765 -2.0349994 -2.653626 0.6202678 0.06630497 2.595664 3.1117492 0.6470647
-7.1255765 0.36727083 -2.989479 -1.2811098 1.2235543 2.680521 0.29569274 2.3285105
-0.21344408 -0.2297722 -0.17515396 -0.054337855 -0.08700613 -0.20557456 -0.13809375 0.009191183
-0.16916136 -0.11402582 -0.40988925 0.6431468 -0.6052163 -0.30555522 -0.35086313 -0.0024874778
-0.9656917 0.25932738 -1.0551584 0.1317595 -0.379559 0.39254668 0.12921068 0.9684589
0.07415128 0.020872878 -0.80926186 -0.5564671 -0.8821141 -0.54472923 -0.73979247 -0.87641305
-0.7683751 -0.55494034 -0.8820265 -0.6964751 0.34837562 0.012843602 0.52145404 1.0507739
0.15196705 -0.092373095 0.11800908 0.025941066 0.37265912 0.5284101 -1.0287488 -0.88339686
-0.3542835 1.4320092 -0.42980188 0.19774334 0.15647441 -0.2981062 -0.48836318 -0.3860417
-0.513221 -0.5426639 -0.41664025 -0.53951854 -0.2540614 -0.47244674 -0.41628906 0.39329425
0.098680675 -0.08370732 0.26862368 0.1864057 0.12597682 0.26256946 0.37394407 0.24880864
-0.2834732 0.17671674 -0.22160219 -0.3053437 -0.2763265 -0.14690045 -0.119700335 -0.10384349
0.024077728 -0.08402394 0.11934522 -0.14174111 -0.08385815 -0.16029325 -0.17632158 -0.058541514
-0.12916069 0.11227132 -0.445055 -0.5944587 -0.28589094 -0.38485172 0.6215608 -0.8319776
0.27538753 -0.40340725 -0.18723564 -0.3486642 0.33026335 -0.6941614 -0.4469281 -0.87813747
-0.46479285 -0.48345846 0.25821763 0.99017155 0.3627822 0.16535717 0.18688808 0.30479097
0.2542561 0.2658138 0.3893106 0.41786563 0.35297602 1.5250223 -0.68080765 0.7557981
-1.7427846 1.380778 1.3755844 -0.47586834 5.4281907 -2.6411865 1.8082927 -1.3694106
-0.79965043 1.3064246 -0.1474328 0.87091416 1.9942067 1.1893773 0.420573 -0.3659043
-0.57114226 -0.30052432 -0.36509046 -0.4385115 -0.32963955 -0.3512499 -0.5297813 -0.41200477
-0.18122481 0.30415836 -0.40862557 0.02109067 -0.18621607 -0.2161101 -0.23478003 -0.2516177
0.14343055 0.09987845 -0.3322468 -0.041157465 -0.04998463 -0.18199502 -0.02400967 0.36835757
-0.06531484 -0.21220212 -0.23064677 -0.12593018 -0.054423332 -0.1687833 -0.18632768 -0.21620694
-0.14435408 -0.07869925 -0.073866166 0.16672099 -0.38264266 -0.12038946 0.43226406 0.030494653
0.22665054 0.98476046 -0.2091463 0.1480504 -0.04692198 -0.28542778 0.34631732 0.19324102

bias f4 [32]
00000000: 6b47 c03c ce35 afbd f574 a5bd 1048 803d
00000010: 462f 2cbe c823 a1bc d48d 023e 83b5 293e
00000020: fc42 a93d cd89 3a3d ee4d 5b3d 3799 2e3e
00000030: c824 ad3c e961 ffbd df3a 243e ac9b 043e
00000040: 7874 d4bd 035c 143c 4dd0 14be cfcf 27be
00000050: 9b61 033d 3594 c73d 7670 11bd 60d2 dabd
00000060: a288 c43d f409 0b3d 25f8 85bd 0c73 ec3d
00000070: ba1d aabc 2993 083d 241c febd 6566 a7bd
0.023471555 -0.08555184 -0.080789484 0.06263745 -0.16814908 -0.019670382 0.12749416 0.16573147
0.082647294 0.045541573 0.053541116 0.17050634 0.021135703 -0.12469847 0.16038083 0.12950009
-0.10373777 0.00905514 -0.14532585 -0.16387866 0.032075506 0.09745065 -0.03550764 -0.10684657
0.09596373 0.03394504 -0.065414704 0.11545381 -0.020766128 0.033343468 -0.12407711 -0.08173827

weight f4 [32]
00000000: a6c6 913d a6e8 b23e 41d3 5d40 7288 2e3f
00000010: 4af8 263e 97a5 debd 914a 0d3d 793f 86c0
00000020: 0f9f 923d 8811 ce3d 404b a440 a230 e140
00000030: 74d8 47c0 c3f5 4b40 333a 3640 9684 5abd
00000040: 44d1 fc3b 9a01 1640 8a39 7a3e 33dc fb3f
00000050: 8fcf 0c3d 6436 b740 01e4 01be bbd1 b9c0
00000060: c43d e040 7442 aa3f 1a63 c940 6fe3 7b40
00000070: c70f 2e3e 6f8f 4740 c55c 0640 c81b 1fbe
0.07117967 0.34943122 3.466019 0.6817695 0.16305652 -0.108714275 0.03449494 -4.195248
0.07159244 0.100619376 5.134186 7.0371866 -3.1225863 3.186875 2.8473022 -0.0533491
0.007715376 2.3438478 0.24436012 1.9676574 0.03437763 5.7253895 -0.12684633 -5.806852
7.0075397 1.330153 6.2933474 3.9357564 0.16998206 3.1181295 2.0994122 -0.15537941

bias f4 [32]
00000000: 2f75 ebbe 1d97 acbf 803d 9d3e 272d 6940
00000010: 63c4 82bf 3066 d2be d5d9 d5be 3d4c 25c0
00000020: 935e debe 1b75 20bf 5206 cebf 55d7 593f
00000030: 9ab2 593f 2149 863f 43cf 6b3f 9ab9 45bf
00000040: 524c 13bf 694f aa3e e7a1 45bf 943d 43be
00000050: cfd9 c7be 6f3b 8bbf 3903 e2be 31dc dfbf
00000060: 626c 2ac0 849c 2d3f 455b 4ebf f7ac cbbe
00000070: be4e 05bf fbf8 40be 4be5 9d3e cfc3 16bf
-0.4598784 -1.3483616 0.30710983 3.6433809 -1.0216182 -0.41093588 -0.41767755 -2.5827782
-0.4343153 -0.6267869 -1.6095679 0.85094196 0.8503815 1.0491067 0.9211313 -0.7723633
-0.5753833 0.3326371 -0.7720017 -0.19066459 -0.39033362 -1.0877513 -0.44143084 -1.7489072
-2.6628652 0.6781695 -0.80608016 -0.397804 -0.52073276 -0.18844979 0.30839 -0.5889253

running_mean f4 [32]
00000000: 877a 193f 2cf6 e3bf c117 17c0 1736 8cc0
00000010: 9966 dcbf 431b 59bd 709b f63e d709 bc3f
00000020: e850 82bf 1664 5b40 6025 873f 880c f4c0
00000030: fe0f 1dc0 af55 9d3f 3009 6241 d245 703f
00000040: 658d bebf cbc7 0f41 5296 a93f fd61 d640
00000050: dbfc 3a3f 5d53 5a40 c39d 77be 294a 9140
00000060: 4493 de3f 818e 8940 0091 02c1 b847 e1bf
00000070: a57d d53f 639d f73e 2334 813f a2a0 163e
0.59952587 -1.7809501 -2.3608248 -4.381603 -1.721881 -0.053004514 0.48165464 1.4690503
-1.0180941 3.4279838 1.0558281 -7.6265297 -2.454101 1.2291774 14.127243 0.9385654
-1.48869 8.986278 1.3248999 6.6994615 0.73042077 3.411338 -0.24181275 4.5403028
1.7388692 4.2986455 -8.1604 -1.7600012 1.6678969 0.48362264 1.0094036 0.14709714

running_var f4 [32]
00000000: dfd6 2e3f cff6 2940 8784 d040 9602 913f
00000010: f7f4 1a40 237f 063e fab9 b13f e60f 9441
00000020: a83b cd3e 026b 913e d1d5 ce41 e149 b641
00000030: 7132 fc40 9b34 e240 75df e041 36a4 ce3e
00000040: 5337 6d3f 4f2c 9141 586c 6b3f 2d53 2b41
00000050: 0f7a af3e 1640 2741 e8b8 3d3d a71f db40
00000060: 3521 9940 7174 8641 3b2b 0b42 ed66 6941
00000070: 3f06 173e 1dd5 6641 e899 4942 9d97 143e
0.6829662 2.655689 6.5161777 1.1328914 2.4212015 0.13134436 1.388488 18.507763
0.40084577 0.28401953 25.854403 22.786074 7.8811574 7.0689216 28.10911 0.40359658
0.92662543 18.146635 0.91962194 10.707807 0.3427281 10.453146 0.04631892 6.847614
4.7853036 16.806856 34.792217 14.587628 0.14748476 14.42703 50.4003 0.14510961

weight f4 [2, 32, 1, 1]
00000000: 208b 0f3f e43d 1c3f ce46 bebd 99f2 8e3f
00000010: e5c3 94be 4411 073e 4e8e b13f a8cc 7fbf
00000020: 82b8 013f 7c9f 9abf dd99 5b3f 1966 683f
00000030: 6740 f73d 18d4 50bf 0bd1 2940 c38a e53f
00000040: f0c1 20bf 08e3 3f3e 470b 523e fb90 d6be
00000050: 6f5e 8f3e 5006 89bf a8fe 18bf deca cc3e
00000060: 51f5 a4be ddd5 f3be 0e6b 5e3d fcc5 98bf
00000070: 8344 b53f 38c2 733e 8ac9 a83f 1ff2 69bf
00000080: e968 2bc0 20f5 3640 e49c 1dbf dfdb a8bf
00000090: c8c0 723d dadb 3f40 c4f5 d83e 2850 e5bf
000000a0: d33d d1bf bd0e b4bf d32c 7cbf fe85 64c0
000000b0: db39 d93f 40f0 1440 5df0 ba40 073e 57c0
000000c0: 0259 babf 8af0 5b40 e914 c5bf a89b 4040
000000d0: 861c b3be 3859 0abe 9d62 3a40 d4e1 2e3f
000000e0: e11f 113f b472 8e40 f50e 11c1 902e 25c0
000000f0: 2415 15c1 edc8 c13f 0a57 4bc0 d9bb 8940
0.5607166 0.6103194 -0.09290849 1.1167785 -0.29055706 0.1319018 1.3871553 -0.99921656
0.5067216 -1.2079921 0.8578165 0.9078079 0.12072831 -0.8157363 2.653384 1.7932972
-0.62795925 0.1873895 0.20512114 -0.41907486 0.28001735 -1.0705051 -0.59763575 0.39998525
-0.32218412 -0.47624102 0.054301314 -1.193542 1.4161533 0.23804557 1.3186505 -0.9138507
-2.6782782 2.8587112 -0.6156752 -1.3192099 0.05926588 2.9977937 0.42375004 -1.7915087
-1.6346992 -1.4066998 -0.98505896 -3.5706782 1.6970781 2.3271637 5.841841 -3.3631608
-1.4558413 3.4365563 -1.5397006 3.0095005 -0.349827 -0.13510597 2.9122689 0.68313336
0.5668927 4.451502 -9.066152 -2.580967 -9.317661 1.5139443 -3.1771874 4.3041806

bias f4 [2]
00000000: 3c05 193e c44b cfbd
0.14943403 -0.10121873

weight f4 [2]
00000000: 9fc8 2dbf f767 c33e
-0.6788425 0.38165256

bias f4 [2]
00000000: 7e4b 56c0 7cde f5bf
-3.3483577 -1.9208522

running_mean f4 [2]
00000000: 9986 2141 d963 a3c1
10.095361 -20.423754

running_var f4 [2]
00000000: 1d29 1142 ad59 6d45
36.29015 3797.6047

weight f4 [26, 18]
00000000: d343 d5be 41ef 15bd 398e e0be d9c1 f23e
00000010: 972c 73bf 67ce b1bd bebc 893f ddbf 3ebe
00000020: e179 41bd 69ea 17c0 6a2d 28bd 85d9 863f
00000030: 4f55 0c3f 85a7 d03f 077e 683e 2184 afbc
00000040: 2956 c93f 45d0 e73e a146 0fbf eeef f73e
00000050: 50f4 4d3f d55d dabe 87d2 693f fa56 9f3e
00000060: 9fcd bdbe c35c 283e a132 7cbc ac05 27c0
00000070: ff61 81bf 6156 8c3f 8a4b 753f 2dd0 be3f
00000080: 8867 d03f f33d 7d3f 1f79 083f b435 42be
00000090: 9a6d e6bd c537 56be 44d7 7cbe 4168 e1be
000000a0: 4040 a5be bd42 bdbe c64d b2be c663 3cbe
000000b0: 25fb cfbd 2784 993f 68d8 35bf 450d 15bf
000000c0: 535f 06bd 384b 76bf 4494 7a3f b12a 8e3e
000000d0: 4011 b83e 96f2 b53f 62c8 653e 7ec7 8f3e
000000e0: af23 03bf 5ebe 493f 248a 22bf 83ae 423f
000000f0: e64a 603f 873a 41be 114b 083e ab04 073f
00000100: 6849 053f 7319 08c0 5eb2 e8be be61 32bf
00000110: c7a1 9e3e f168 673f ced2 693e 057b 583f
00000120: c8eb 8a3f c4ce d9be 4953 91be 11f5 33bd
00000130: c594 63be 8816 3ebd 07b1 1fbf 6f09 cbbe
00000140: 5f01 87be 2b63 2f3f 4151 3e3e f4b8 f83b
00000150: 7149 78bf 833e 2bbf 93db 4d3f d5b1 823f
00000160: 825f 2bbf 4cee ae3e 3e6e 053d 026e ccbe
00000170: 1f4e 0a3f c3b4 fe3b 404a 1dbf ee58 8c3f
00000180: 2bfa ddbd 9831 573e 7eb6 893e b031 28c0
00000190: ae11 3cbf 8e23 db3d c415 afbf c5c2 ad3f
000001a0: 4e18 8b3f 3708 c23d c372 163f 170f 273f
000001b0: 06cf e9be 9ca7 e2be ed11 583e efbf 7ebe
000001c0: 9be0 52bf b0c8 a0be 7eaf 86bd a043 e7bc
000001d0: 6d71 e2bd 1466 91bf c3e6 bbbf fbf1 433f
000001e0: f444 29c0 0e6c 32be 9497 2a3f fe7b 7f3e
000001f0: 8201 9e3e 2aa2 b93f fa52 2a3f f553 c1be
00000200: 9fe0 03bf 6b58 7fbe dca9 b63f 68fb e6bd
00000210: d543 f7bd 597f 95be 9bf1 58be 7750 41c0
00000220: d006 4bbf b1c5 a2be 780d 803f 75c8 fbbf
00000230: d172 33c0 8675 0b40 af08 923e e97f 0140
00000240: 5fe3 a8bd dfcf 06bf a3f2 09bf e4e5 3fbe
00000250: f253 f53f 24dc 2bbe 9040 d1be 513d a0be
00000260: c452 fa3e 68ba cb3f b79a 1ac0 4b21 66bf
00000270: f704 4a3f 7453 433f 8277 e7bf 85be 963e
00000280: a028 893c fb2c 53bf 0fcd 693e 104c 1fbf
00000290: 99c1 313f e686 3c3f 1856 123e b353 2f3e
000002a0: 9ba7 293e 58ea 873e fbc2 b0be bd64 963e
000002b0: 5684 803f 7e2c c0c0 7a02 c83e 54c5 5a3e
000002c0: fab2 773e 96f3 b23f ff50 703f d493 853e
000002d0: 68a7 9fbe c777 d5be eef9 863f 583c d7bd
000002e0: 5054 69bf 05a0 cdbe ca05 5bbe e9dc 523e
000002f0: 7b81 b63e 4e26 5f3e 1859 aabc 6c86 8f3f
00000300: 9081 f8bf f83a 3dbf 5800 993f 32ad 26bf
00000310: 5ddd ab3f a210 963f 07e4 03be 0f49 e5be
00000320: 4f3a 84bf e191 77bd 2a01 07bf c4aa 743b
00000330: b2b1 9abe a675 d63b 908e 3dbe c259 c83e
00000340: 8d2d 143e a691 f4bd fcf4 5bbf bb37 11c0
00000350: ce70 b03f a93e fdbf ecb5 363f 5736 0a40
00000360: ae98 c23d ecc0 67bd fa30 213e de4d 973e
00000370: c557 893f 53bc 1dbf b1fe acbe 90a5 933e
00000380: dbae 27bd 2539 1240 c46f b3bd 9bcf f4bd
00000390: cd42 8fc0 2054 4dbf 0af9 cbbe 3c8c 893e
000003a0: b9e5 fbbe 6461 8fbf 2e23 583e 9797 97be
000003b0: 021c 793e 18d8 d3bd d044 de3e a9b7 a2be
000003c0: c449 733f cbd6 df3d 9cba 2fbe 23d5 bd3f
000003d0: f080 e53f 99d7 32bf 2959 473f 360c 8bc0
000003e0: 0a1c f2bf d6da ec3f 3e6f b9be ff6f afbf
000003f0: 5d73 553d 8378 3a3f 34a1 1e3c a1c9 71be
-0.41653308 -0.036605123 -0.43858507 0.4741352 -0.94989914 -0.08681946 1.0760725 -0.18627878
-0.047235373 -2.3736823 -0.041058935 1.0535132 0.5481767 1.6301123 0.22704326 -0.021425309
1.5729419 0.45276085 -0.55967146 0.4842524 0.80450916 -0.42649713 0.91336864 0.31121045
-0.3707094 0.16441636 -0.01539293 -2.6097212 -1.0108031 1.0963861 0.9581839 1.490728
1.6281595 0.9892265 0.53309816 -0.18965799 -0.112513736 -0.20919712 -0.24691492 -0.44024852
-0.3227558 -0.3696498 -0.3482496 -0.18397436 -0.10155324 1.1993455 -0.71033335 -0.5822337
-0.032805752 -0.96208525 0.97882485 0.27766946 0.3595066 1.4214656 0.22439721 0.28081888
-0.51226324 0.788061 -0.63492036 0.76047534 0.87614286 -0.18869983 0.13309886 0.527415
0.52065134 -2.1265533 -0.45448583 -0.6968039 0.309828 0.903945 0.22834322 0.8456271
1.0853205 -0.42540562 -0.28383854 -0.043934885 -0.2222472 -0.046408206 -0.623795 -0.39655635
-0.26368234 0.68510693 0.18585683 0.0075904075 -0.9698706 -0.6689226 0.8041317 1.021052
-0.6694261 0.3416618 0.03257584 -0.3992768 0.54025453 0.0077730133 -0.6144142 1.0964639
-0.108387314 0.21015012 0.26897043 -2.6280327 -0.7346448 0.10700141 -1.3678517 1.3575064
1.0866792 0.09474223 0.5876886 0.652574 -0.4566576 -0.442685 0.21100588 -0.24877904
-0.8237397 -0.31403112 -0.06576441 -0.028230488 -0.110567905 -1.1359277 -1.4679798 0.7654111
-2.6448336 -0.17424032 0.6663754 0.24949643 0.30860525 1.4502614 0.6653286 -0.37759367
-0.5151462 -0.24936073 1.4270587 -0.11278421 -0.12073485 -0.2919872 -0.21185915 -3.0205362
-0.7930727 -0.31791452 1.000411 -1.967055 -2.8038828 2.179048 0.2852225 2.023432
-0.082464926 -0.52660936 -0.5388586 -0.1874004 1.9166243 -0.16783196 -0.4086957 -0.3129678
0.4889127 1.5916262 -2.415693 -0.8989455 0.78913826 0.76299214 -1.8083346 0.2944223
0.016743004 -0.8249051 0.2283213 -0.6222544 0.6943603 0.7364334 0.14290655 0.17121772
0.16567843 0.26545978 -0.34523758 0.29373732 1.0040386 -6.005431 0.3906439 0.21364337
0.24189368 1.3980587 0.9387359 0.26089346 -0.31182408 -0.41692945 1.0545022 -0.105095565
-0.91144276 -0.40161148 -0.21388927 0.20592083 0.3564566 0.21791956 -0.020794436 1.1212897
-1.9414539 -0.73918104 1.195323 -0.65108025 1.342693 1.1723826 -0.12879954 -0.44782302
-1.0330294 -0.060441855 -0.5273615 0.003733323 -0.30213696 0.0065447865 -0.18511415 0.3913098
0.14470501 -0.11941843 -0.8592069 -2.2690265 1.3784425 -1.9784747 0.7137134 2.1595666
0.095017776 -0.05658047 0.1574134 0.29551595 1.072991 -0.61615485 -0.33788064 0.28837252
-0.04093824 2.2847378 -0.08761552 -0.1195366 -4.4769044 -0.8020649 -0.3983844 0.26864803
-0.49198702 -1.1201596 0.2110717 -0.2960784 0.2432709 -0.10343951 0.43411875 -0.31780747
0.9503443 0.109296404 -0.1716103 1.4830669 1.7929974 -0.69860226 0.7787042 -4.3452406
-1.8914807 1.8504283 -0.36217684 -1.3706053 0.052111972 0.72840136 0.0096819885 -0.23612072

bias f4 [26]
00000000: 7957 e33c b43e 96be 2862 9c3e c4ea d83d
00000010: 282e 823e da8a 1cbd 05d0 3e3e d4a0 b4bc
00000020: 4552 1b3d a392 70be 102d 79be cfb1 d9be
00000030: 98b4 6cbb c022 1a3e 701f 58be 110c 50be
00000040: 5d48 89be 8c95 37bf 50de a1bd 38b8 38be
00000050: eba7 97bd 9673 d1bd b7ec e1bd ea03 c1bd
00000060: 4e15 64be 2582 0040
0.027751671 -0.29344714 0.30543637 0.10591653 0.2542584 -0.038218357 0.1863404 -0.022049345
0.037920255 -0.23493437 -0.24333596 -0.4251847 -0.0036118384 0.15052319 -0.21105742 -0.20317103
-0.2681302 -0.71712565 -0.07903731 -0.18039024 -0.07405075 -0.102271244 -0.11031478 -0.09424575
-0.22273752 2.0079434

weight f4 [1, 32, 1, 1]
00000000: 18b9 433f 9783 49bf 4517 0dbd 0ac0 323f
00000010: 3b30 313c e0cd ee3d 86c8 07be 0b1f 0dbf
00000020: 4396 35bd 43e7 883f 65cd 06bd 6b07 a23f
00000030: ad12 493f 5fec fa3e 328f 18bf 13e2 3a3f
00000040: b45c 733f 757e ccbd 2b0b b33e 220b ddbf
00000050: 053b 64bf 25a0 c83e 5052 403e b473 953f
00000060: 077a 63bf cafa 1bbe 59a4 623d e06a e7bf
00000070: deb6 a63d a453 d93e 5dd6 933e de67 833f
0.76454306 -0.78716415 -0.03444602 0.6982428 0.010814722 0.11660361 -0.13260087 -0.5512549
-0.044332754 1.0695575 -0.032910723 1.2658514 0.7854412 0.49008462 -0.595935 0.7300121
0.9506333 -0.09985057 0.34969458 -1.7269022 -0.89152557 0.3918468 0.187814 1.1675935
-0.88858074 -0.15232387 0.055332515 -1.8079491 0.08140348 0.42446625 0.28874484 1.0266073

weight f4 [32, 9]
00000000: 5c5e 43be bf85 a4bf a0f3 bebe dae0 debb
00000010: 43c9 babe 7d30 56be 1d32 72be 3321 2fbd
00000020: 6852 d0bc d05f 4fbf 22df f83e d557 21bf
00000030: 4d85 9a3e c4e7 673d 80b4 3d3e 941e 343c
00000040: 1587 7fbe a4ad cf3e 6781 be3c 1375 94be
00000050: 9f3d 1bbe 8087 32be 6602 863c 7bab 0dbe
00000060: 2fd5 e9bd 1706 b73d 657c 3d3e 0d84 233f
00000070: da1e f8bd 2c7c 7abf 4ab6 01be 262d 243f
00000080: fd25 ebbc c9d0 5abe 8dc4 d8be 1ddf c83d
00000090: 010b c63e 8299 e23e d886 893d 2c17 5f3e
000000a0: 4f44 b23e fc24 093e 3202 bc3e c43f 9d3e
000000b0: b3ec 713e ba79 39bf 5681 babe 52e1 0e3e
000000c0: 0f83 f63e 5a7d ff3e 69fe 2cbf 1142 093f
000000d0: 19a1 d73e b237 a0be 50f9 373e dd71 893e
000000e0: b715 5bbd 4e68 1a3e 0ae3 c83e 81f2 e13d
000000f0: a663 213e c591 bb3d c53a 483e 23e9 e0be
00000100: c3f4 7ebe 6c01 a13e a54a 9e3d f698 5eba
00000110: 178e 43bd ebf0 87be 377c 9fbe 3b66 d6bd
00000120: 8c61 43bd 4bf3 873c af65 b13e 9729 d2be
00000130: 93b2 a1be b1c2 9f3e 274c e33e ead8 01bf
00000140: c858 9abe 7ee6 7bbe 5be3 27bf 0d5f 983e
00000150: 4412 183f 40d0 833e e7e2 58bf 5c29 26bf
00000160: df3e 22be b58a 023f 4086 94be 4343 b4be
00000170: e997 30be de1d 06be a466 b3be 4a43 9b3d
00000180: 0a65 c13d 80e1 903b e4d9 893d 1824 7a3e
00000190: dc34 3abe 15b6 563e a345 c13e 3af7 f8be
000001a0: 0210 2cbe fd04 bc3c 115f 663e b8cd 72bf
000001b0: ca07 25be 822c 17be 4a6f efbd 427e 233d
000001c0: f1b2 afbd 0f2b c83d c459 c9bd bc66 26be
000001d0: 8b6f b23a 5302 eb3e 7ea2 b0bd 427a 053f
000001e0: d5f1 31bd 98a9 303c b151 07bf d688 193e
000001f0: 6c75 993d 1c8d 29be 7ba3 27bf e75a e0be
00000200: 5001 bebe 481d 803e b683 03bf 9705 41be
00000210: 47b9 b63e bef7 1a3f 190a ab3e c2c6 ecbc
00000220: 5556 e5bd c622 9abe 7572 75be b0a9 61be
00000230: 566b 633e be04 89be faa9 8cbb dfa4 763d
00000240: 4538 a0bd 656f 47be 57a2 a9bd 8f6d f5be
00000250: 3026 bebc b06b 13bf 2a1a 603e 49c9 a9be
00000260: 5150 a93e 12e6 7f3e 75a3 123e 6368 c8bf
00000270: f2b1 59be b8cb 8fbc 6140 44bf bd83 8abf
00000280: 1b49 d3be 3c5c 74bf 475f f6bc 75e4 d9bd
00000290: 346d 1c3f 9166 32bf eac2 1dbf 19b7 2b3e
000002a0: a945 50be d77b 83bd 6948 4b3e bb77 9dbf
000002b0: 9d91 5cbf 6cad c3be 4184 8fbe 72f2 203f
000002c0: fc3c 933e 62b5 09bf f77d 91be 4696 043f
000002d0: 17ad 603e cf9f 72be 5723 aabe b64e e6bd
000002e0: 2193 2e3e d7c4 94be 5ff2 6bbe 9d04 75bd
000002f0: 4218 81be 962e 5dbe dcf7 d2bd 2f92 1ebf
00000300: ee74 1bbe 51a2 b23e 5a62 1fbe dfba 0d3f
00000310: c2e5 3ebd 971d 03be dbda 8a3e 61bb 70bd
00000320: b7db e33d 1303 163e b0c0 543e 0528 c43d
00000330: 9cce 77bf f235 2fbf e9e8 9bbe 30d9 b5be
00000340: 7fab 97be 1175 043f b9fc d9be 033a eebe
00000350: 6e4e b7be 1840 15bf 24a7 7bbe d570 a4be
00000360: 48c2 8ebe f588 e7bd a7de 48be b59b f03d
00000370: e8c7 a1be e8b5 aabe 6e16 e6bd 7194 923c
00000380: 0487 5e3c 91cb 22be 0246 963e 3d8e 91bd
00000390: de53 84bd aa34 86be 4bc7 20be e94e b8bc
000003a0: 985e 06be ae02 85be 87eb 8bbe c36e 773e
000003b0: 3357 c13e a737 513d 441d 00bf e3a7 bdbe
000003c0: 82e3 07bf f216 cdbe 88b9 8fbe 6077 733e
000003d0: 9841 063f a73a b23e 039e 51bf f057 05bf
000003e0: 18ca bc3d 3cbb e4be 37c0 6dbc e8c7 74bf
000003f0: 173a ec3e 76b6 5d3f d582 00bf ad27 e8be
-0.19078964 -1.2853316 -0.37295246 -0.0068017067 -0.36481676 -0.20916934 -0.23651929 -0.04275627
-0.02542992 -0.81005573 0.48607737 -0.63024646 0.30179825 0.056617513 0.18525887 0.0109936185
-0.24953873 0.40562165 0.023255063 -0.2899557 -0.15160225 -0.17434502 0.016358566 -0.13834946
-0.11417615 0.089367084 0.18504484 0.6387337 -0.121152595 -0.9784572 -0.12667194 0.6413139
-0.028704638 -0.21368708 -0.42337456 0.098081805 0.3868027 0.44257742 0.067151725 0.21786183
0.3481774 0.13393015 0.36720425 0.30712712 0.2362545 -0.72451365 -0.364268 0.1395314
0.48146865 0.49900323 -0.675757 0.53616434 0.42115095 -0.31292492 0.17966199 0.26844683
-0.053487506 0.15078852 0.39235717 0.11032582 0.15760669 0.09158663 0.19553669 -0.4392787
-0.24898057 0.31446397 0.07729081 -0.0008491421 -0.04774293 -0.26550993 -0.31149456 -0.10468718
-0.04770045 0.016595503 0.3464789 -0.41047356 -0.31581554 0.31203225 0.44394037 -0.5072161
-0.3014586 -0.24599645 -0.6558129 0.29760018 0.5940287 0.2574482 -0.84721226 -0.6490686
-0.15844296 0.509929 -0.29008675 -0.35207567 -0.17245449 -0.13097331 -0.35039246 0.07581194
0.094431 0.004421413 0.067310125 0.24427831 -0.18184227 0.20967896 0.3774844 -0.4862612
-0.16802981 0.022951597 0.22497202 -0.9484515 -0.16116253 -0.14763072 -0.116911486 0.03991533
-0.08579052 0.09773838 -0.098315746 -0.16250128 0.0013613565 0.4590021 -0.08624743 0.52139676
-0.04344352 0.010782622 -0.52859026 0.14993605 0.074930996 -0.16557735 -0.65483826 -0.43819353
-0.37110376 0.2502234 -0.5137285 -0.18849789 0.3568823 0.60534275 0.3340614 -0.028903369
-0.11198107 -0.30104655 -0.23969443 -0.22037387 0.22208914 -0.2676143 -0.0042927237 0.060215827
-0.078232326 -0.19476087 -0.08282917 -0.4793515 -0.023211569 -0.57586193 0.21884981 -0.3316138
0.3306909 0.24990109 0.14320166 -1.5656856 -0.21259287 -0.017553195 -0.76660734 -1.0821453
-0.41266713 -0.9545324 -0.030074729 -0.10639278 0.6110413 -0.69687754 -0.6162554 0.16769065
-0.20339073 -0.06420105 0.19851841 -1.2302164 -0.8615969 -0.38218248 -0.2803059 0.6286994
0.28757465 -0.53792393 -0.28416416 0.517918 0.21941029 -0.23693775 -0.33230087 -0.11245482
0.17048313 -0.29056427 -0.23041676 -0.059818853 -0.2521382 -0.21599802 -0.10301182 -0.6194181
-0.15181324 0.34889463 -0.15564862 0.5536327 -0.046605833 -0.12804256 0.27120098 -0.05877245
0.11125892 0.1464961 0.2077663 0.095779456 -0.96799636 -0.6844169 -0.30451134 -0.35517263
-0.2962303 0.5174113 -0.42575625 -0.46528634 -0.35802025 -0.58300924 -0.24575478 -0.32117334
-0.278826 -0.11305419 -0.19616185 0.11748449 -0.3159783 -0.33341908 -0.11234747 0.017893048
0.013581995 -0.15897967 0.29350287 -0.07107208 -0.06461309 -0.26212054 -0.15701024 -0.022498565
-0.13122022 -0.25978607 -0.2732813 0.24163346 0.3776184 0.051078465 -0.50044656 -0.3704215
-0.53081524 -0.40056568 -0.28071237 0.23776007 0.5244384 0.34810373 -0.8188173 -0.52087307
0.09218234 -0.44674098 -0.01451116 -0.9561753 0.4613807 0.8660654 -0.50199634 -0.4534277

bias f4 [32]
00000000: d19a d03f 360c 94be fe59 96be 584e ebbe
00000010: 68c5 44c0 b95f 90bc 930d f0bf 6b6b e23d
00000020: abdf af3d 9987 b1be ea6b a53d ab57 babe
00000030: c31b a4bd 3e32 3ebf 3988 acbd bb56 89bc
00000040: 3b46 a83e d95b 083f d0ca d53e 7ecc 2b3e
00000050: b0ab 6cbd c3dc dbbd ba33 183c 35ea af3e
00000060: 0dfd 52bc 3fd2 1e3e 4c46 da3d ed66 9fbe
00000070: edf0 a33d a6a5 4ebe 006f f9be d7b4 b73f
1.6297246 -0.28915566 -0.29365534 -0.4595821 -3.0745487 -0.01762377 -1.8754143 0.110556446
0.08587583 -0.34673765 0.080772236 -0.3639501 -0.08013108 -0.74295413 -0.0842442 -0.01676499
0.32866082 0.5326515 0.41756296 0.16777226 -0.05778092 -0.10735466 0.009289676 0.34358373
-0.012877715 0.1550989 0.10657939 -0.31133214 0.08004937 -0.20180377 -0.487175 1.4352063

weight f4 [1, 32]
00000000: 8a9b 663f ce17 c13e 02e7 453c c4fc 24bf
00000010: c192 b83e 1992 b23e f826 523e 57d3 d63e
00000020: 72eb 0ebe d7d2 1dbf 254c 8a3e a3d8 eabe
00000030: 2304 d8bd 9832 853e c578 0dbf 7b50 9a3e
00000040: 079f f5be 206e e13f 89e6 97be eb1d 403f
00000050: 7448 4a3e 2fd4 f5be 376a e73e f9d9 773f
00000060: 9da6 953e d879 b73e d873 303f b4cc f9be
00000070: 9792 febe c40b 933e d15b df3e bf8d 533f
0.90081084 0.37713474 0.012079002 -0.6444819 0.36049464 0.3487709 0.20522678 0.41958115
-0.13957003 -0.6164984 0.2701122 -0.45868406 -0.10547664 0.26015162 -0.55262405 0.30139527
-0.4797289 1.7611732 -0.29668072 0.7504565 0.19754201 -0.48013446 0.45198223 0.96816975
0.29228678 0.35835147 0.68926764 -0.4878899 -0.49721214 0.28719914 0.43624738 0.8263816

weight f4 [32, 32, 3, 3]
00000000: 2600 c4bc 04c5 0cbc ad21 57bd d907 6e3d
00000010: 8b59 383d b247 0ebd dadb 11bd 6ca2 1fbd
00000020: f477 3bbc 05c0 0a3d b43c 3f3c 75ee 4b3d
00000030: 73bf 3a3d 6468 48bc 3e04 40bd e464 29bc
00000040: acfd 10bd d428 703c 0d3a 123d d847 89bb
00000050: 257d edbc b95d 24bd 6f6b 193d 18b0 b8bc
00000060: a0ab 6ebd cccd 123c 74ca 47bd 81fc 313d
00000070: 162c f7bc ec6b 043c 18fa 12bc 146f 523c
00000080: 4462 763c 61a7 093d e21a c33c ae20 ef3c
00000090: 3b57 073d e539 70bd ea14 9d3c b0de 54bb
000000a0: c01b 4ebc 30e0 453b 00e0 c339 0eda c03c
000000b0: 5397 643d f69d 47bd 585c 23bd 3ef5 a63c
000000c0: c2fb ce3c ff14 713d b666 0fbd f8fa 17bd
000000d0: c0af 683b 2096 56bc 68fb 0ebc e02c dfba
000000e0: 2481 60bc d2db 4dbd 4cce 29bd 602e 8cbc
000000f0: 5bed 553d 12d2 d73c a0fc 78bb fdde 133d
00000100: 0bab 2b3d 66db 1dbd 7613 32bd 2c59 36bd
00000110: 5fd1 f1bc 3ed7 d7bc 227d e8bc 79bc 513d
00000120: 80a7 a9bb f16c 673d 1e91 acbc 62db 2ebd
00000130: 50e5 53bd 969a ee3c 1b89 263d 6c61 1bbd
00000140: 7899 08bc a060 9aba 267c d4bc c40a 06bd
00000150: 8a04 1cbd f6e7 fbbc dc80 9cbc bdb0 5d3d
00000160: d28b 05bd 98c1 95bc 48ed 71bc fed2 2abd
00000170: 04d5 28bd d0a0 3fbd 1678 05bd 294a 1b3d
00000180: 066d 34bd 2979 013d 1fac 0a3d 6c52 233c
00000190: 80e3 56bd 05c6 0bbd 1625 8f3c 0606 cabc
000001a0: cfa5 593d 2e30 f93c 404f 51bb 1652 0cbd
000001b0: 959a 6d3d de88 a33c 602b ab3a ffc6 1b3d
000001c0: a4b5 723c f610 80bc da1b 54bd 5943 5dbd
000001d0: 601e 17bc c739 62bd 2d2a 2c3d 5906 213d
000001e0: 6a83 08bd 4421 713c cfec 5a3d a327 363d
000001f0: aac6 8f3c b209 f23c 117f 213d c993 273d
00000200: 743d 613c c711 eabc 4a50 d63c 7bc5 083d
00000210: 8888 e93b 3bac 033d c4d0 86bc b3a7 53bd
00000220: 6cf5 6abd 54a9 023c 9e31 29bd 0380 363d
00000230: e29d 53bd a0c4 79bb a878 ac3b d4aa b5bc
00000240: aaaa 913c 4988 30bd bbc4 6a3d 48f5 52bc
00000250: d473 96bc 1eed dfbc 4c04 03bd ac29 92bc
00000260: 2a59 bbbc adde 1c3d ac1b 65bd 86e7 e1bc
00000270: 6248 bfbc 6c7c 50bc 6c0e 66bd e111 0a3d
00000280: 9820 66bd 8829 94bc fa09 8cbc 1a26 0bbd
00000290: 5c2e 0ebd d14c 2d3d 1adf 3cbd f10c efbc
000002a0: b2bf da3c a7f0 643d 2988 0d3d da0d b13c
000002b0: de58 ee3c a2ca 8c3c e58a 5e3d 90f3 513b
000002c0: 163a debc 4a00 02bd 1e80 f3bc 205a 26bd
000002d0: c37b 5c3d aa38 e2bc 4ec7 c33c 961c 95bc
000002e0: 3234 bb3c 323e cb3c 95a0 2c3d 9109 2a3d
000002f0: dc3a 063c a7dc 383d 6886 b5bc 40ff 39ba
00000300: f6ce 99bc 202a 95ba 147d 073c ca3d 2dbd
00000310: 281d d1bc abde eebc 58b4 c53b c32c 713d
00000320: db3e 163d 481c ffbc 1c41 0f3c 250a 5e3d
00000330: 6911 403d bb3e 693d ed7f 4cbd 947b 49bd
00000340: 1cb3 68bd 00b2 9138 6f01 573d 0e5b f53c
00000350: f00a 4cbd 7c58 363c c5c1 413d 7099 793b
00000360: 2682 17bd 5809 fb3b 8033 603b 839c 673d
00000370: eb05 393d e7ea eabc 1a5a 2fbd 2772 00bd
00000380: a7b0 623d 70df 80bb 8ca6 2b3c 8a23 15bd
00000390: 52bc 843c 182a 20bc e97b 6c3d e8fc 45bc
000003a0: 5897 ddbc e039 ec3a a429 b4bc 54f2 4ebd
000003b0: 4b20 0cbd 0c5e 6e3c 70fa 53bc 59bb 0d3d
000003c0: 7860 6abd a06e 95bc 880d 903b 48e2 48bc
000003d0: a83d ed3b 561f e23c 0801 e93b 4879 67bc
000003e0: 47a1 093d 63d2 1c3d 6846 31bc e059 90bb
000003f0: d9d6 5abd 4664 debc ec6d 68bd 50c5 233b
-0.023925852 -0.008591894 -0.05252235 0.058112953 0.04500727 -0.034736343 -0.035610057 -0.038973257
-0.011442173 0.03387453 0.011672188 0.049787957 0.045592736 -0.01223192 -0.046879046 -0.010338996
-0.03539817 0.014658172 0.035699893 -0.0041894726 -0.028990338 -0.040128443 0.037455972 -0.022544906
-0.058269143 0.008960199 -0.04877706 0.043453697 -0.030172389 0.008082371 -0.00897076 0.012843866
0.015038077 0.03360689 0.02381653 0.029190388 0.033042174 -0.058648963 0.019175012 -0.0032481365
-0.012579858 0.003019344 0.0003736019 0.023541477 0.055808377 -0.048734628 -0.039882988 0.020380612
0.025266532 0.058857914 -0.035010062 -0.037104577 0.0035505146 -0.013097316 -0.008726932 -0.0017026924
-0.0137026645 -0.050258465 -0.041456506 -0.017111957 0.052228313 0.026345287 -0.0037992373 0.03610133
0.041911166 -0.038539313 -0.04347559 -0.044518635 -0.029518781 -0.026347753 -0.02837998 0.051205132
-0.0051774383 0.05650038 -0.021065291 -0.04268969 -0.05173236 0.029126447 0.040658098 -0.037934706
-0.008337371 -0.0011778064 -0.025938105 -0.03272511 -0.038090266 -0.030750256 -0.019104414 0.05412363
-0.032604046 -0.01828079 -0.014766045 -0.041705124 -0.041218773 -0.046784222 -0.032585226 0.03791252
-0.044049285 0.031609688 0.033855554 0.009968381 -0.052463055 -0.034124393 0.017473739 -0.024661075
0.053136643 0.030418482 -0.0031938106 -0.03425797 0.05800875 0.019962724 0.0013059191 0.038031574
0.014813814 -0.015633088 -0.051784374 -0.054019306 -0.009223551 -0.055230882 0.04203241 0.039312694
-0.03332845 0.014717404 0.053448495 0.044471394 0.017550785 0.029545639 0.03942782 0.040912423
0.013747562 -0.02857293 0.026161332 0.033391457 0.0071268715 0.032146674 -0.01645697 -0.051673602
-0.05736296 0.007974941 -0.041307084 0.044555675 -0.05166424 -0.0038111582 0.005263407 -0.022176184
0.017781574 -0.04309872 0.057316523 -0.012875862 -0.018365778 -0.027334746 -0.03198652 -0.017842136
-0.022869665 0.038298298 -0.055934593 -0.02757622 -0.023349945 -0.012724977 -0.056166098 0.033708457
-0.056183428 -0.01808621 -0.017094601 -0.033971883 -0.03471218 0.042309586 -0.046111204 -0.029180976
0.026702736 0.055893566 0.03455368 0.02161305 0.02909511 0.017186467 0.05433168 0.0032036044
-0.027127307 -0.031738557 -0.029724177 -0.040613294 0.053828966 -0.02761491 0.023898747 -0.018202107
0.022852037 0.02480993 0.04214533 0.04151303 0.008192744 0.045132305 -0.022158816 -0.0007095225
-0.018775444 -0.0011380352 0.008269567 -0.042295255 -0.025526598 -0.02915891 0.0060334615 0.05888058
0.036681037 -0.031141415 0.008743551 0.054208893 0.046891604 0.05694459 -0.049926687 -0.04919012
-0.056811437 6.947294e-05 0.0524916 0.029950645 -0.04981512 0.011129495 0.047303934 0.003808584
-0.036989354 0.007661026 0.0034210384 0.056545746 0.04517166 -0.028676463 -0.042810537 -0.031358864
0.05534425 -0.003932886 0.01047672 -0.036410846 0.01620308 -0.009775661 0.057735357 -0.012084223
-0.027049705 0.0018022619 -0.021992512 -0.05052407 -0.034210484 0.01454879 -0.012938127 0.034602497
-0.057220906 -0.018241227 0.0043961443 -0.012260981 0.007240016 0.027602833 0.0071107186 -0.014128037
0.03360107 0.038286578 -0.010820009 -0.004405245 -0.05342755 -0.027147423 -0.056745455 0.0024989434

bias f4 [32]
00000000: f88b 09bd 2686 c83c e8c6 d3bc d09e 8ebc
00000010: fb09 293d c9cb 2c3d 44f5 87bc 3918 48bd
00000020: 8961 383d c986 5b3d 84d8 1abd 106c 88bb
00000030: 3ff3 223d cfbf 54bd 576e 093d 268d ee3c
00000040: 54e4 2cbd 4af2 20bd c029 36bc c160 053d
00000050: 0f68 17bd eca7 99bc 5afd 943c 853c 2d3d
00000060: 9c12 633c b2c2 45bd 107c 023b 4d45 5e3d
00000070: b6d3 d3bc 62f3 f6bc f876 28bc 6604 dbbc
-0.03358075 0.02447803 -0.025851682 -0.017409712 0.041269284 0.042186532 -0.016596444 -0.048851226
0.04501489 0.053595338 -0.03780414 -0.0041632727 0.03978276 -0.051940735 0.033552494 0.02912004
-0.04220994 -0.039293565 -0.011118352 0.032562975 -0.036964472 -0.01875683 0.018187214 0.042294044
0.013859417 -0.04828138 0.0019910373 0.05426531 -0.025857788 -0.03014535 -0.010282271 -0.026735496

weight f4 [32, 32, 3, 3]
00000000: 0d17 5c3d 482d 9fbb 72c3 39bd 70ca 8bbb
00000010: 0394 5d3d 6289 3ebd d6ee f33c 0789 3d3d
00000020: 1d1f 453d 90b4 bcbc acf4 3ebc c03b 04bd
00000030: ca6d 52bd 2862 0bbd 5752 2f3d 8625 bcbc
00000040: c060 16bb 9c7a 3b3c cd93 0b3d e848 c43b
00000050: c00c f1bb 3652 66bd e883 01bc eafc a63c
00000060: f0d8 0fbc 0982 4abd 9905 3c3d 5e77 85bc
00000070: 2db0 053d 0304 4a3d 772b 503d 24c9 563c
00000080: 7d38 20bd 9c03 173c aced d0bc aff9 303d
00000090: 8b00 5e3d 0e71 e53c e526 29bd 036d 4c3d
000000a0: 10a6 01bc 6b93 673d f8eb 8abc 9c04 14bd
000000b0: 141a 183c 45cc 213d 0691 35bd 75ae f8bc
000000c0: 5a58 02bd 4889 fbbb 59bd 57bd 1633 5abd
000000d0: a046 d3ba c0e6 9c3a 9a83 cd3c a09f c1bc
000000e0: 8845 f3bc 3998 3f3d 785d 8cbb 00de c9bb
000000f0: 7008 81bc f04a 4fbd 2034 1fbb 9c7a 653c
00000100: 741d 6f3c fca4 39bd 6993 463d 287a 33bc
00000110: fd32 4a3d 29b4 5f3d c0ec ee3a 1ba9 6abd
00000120: de21 92bc e9b0 433d 36d3 8c3c a485 50bc
00000130: 829a cc3c 9834 19bd 002a c739 2359 663d
00000140: 0c86 29bd d06a 48bc a8a7 ebbc 9881 e7bc
00000150: afe0 183d 71ae 133d f161 0d3d b16d 343d
00000160: fac5 f13c 04e4 28bc 9ad7 903c 11b4 533d
00000170: b47b 17bd b516 363d 5ad2 4ebd eb69 15bd
00000180: c0a5 07bc 615f 3e3d d0c1 51bb 1f23 5f3d
00000190: c014 523a e212 9d3c b1be 4c3d 00a3 603a
000001a0: 09bc 61bd 6c2a 82bc b979 6c3d 60f4 63bd
000001b0: 6768 3fbd dc75 bebc 2e02 a93c 3e91 8a3c
000001c0: 1f84 0cbd ece8 733c 4898 3ebd afca 553d
000001d0: ce73 58bd 5be1 353d 1ff8 353d d898 ad3b
000001e0: 37a7 04bd 988f 903b 3ee0 8abc ccb5 59bd
000001f0: 2e23 06bd 664f a93c 1372 683d 9458 193c
00000200: 2d0e 673d 8e00 d83c 64e7 34bd 407a 01bc
00000210: b789 53bd 42df f83c 81e0 6d3d aa41 b53c
00000220: bdff 003d 65de 2b3d 2e39 a33c 2e92 f73c
00000230: dd29 173d ec30 3cbc 6f49 50bd 7ead fa3c
00000240: 6ee4 2fbd 85a0 273d 4df5 2c3d c887 b73b
00000250: 6cba 33bd 4ec1 cf3c 1779 613d 36ab d9bc
00000260: d2e1 4cbd ee56 903c b81a 26bc 423b a3bc
00000270: a6d9 d4bc fdf5 643d 4028 23bd 287b 95bb
00000280: 5479 7dbc b1d7 4c3d c448 0e3c 140f 0abc
00000290: 7af3 4ebd 9acc f63c d2ba 34bd dec3 d93c
000002a0: 84c8 6fbd f862 fc3b dbc1 153d be9a 80bc
000002b0: 2401 783c 84e9 2f3c c677 823c 6c0c 5cbc
000002c0: d0d7 30bd f879 ad3b 183b 14bd 367c 64bd
000002d0: 808f fbbb bbff 55bd 9b2f 593d 769f b2bc
000002e0: 54be 23bc f61b de3c 2170 3fbd cc8f 14bc
000002f0: fcae 6f3c 2447 52bd 7c15 1bbc 0045 67bb
00000300: a4fa 40bc 80aa 13bb 89aa 003d 4ef6 833c
00000310: bb18 533d cc49 27bd d8d0 d7bc c938 44bd
00000320: a075 e3bc 5462 593c 7ae6 ff3c 19c6 583d
00000330: 50e3 20bd b8f9 fa3b 77c4 6fbd 275b 093d
00000340: cf58 1b3d 916e 453d 6890 fe3b be59 8b3c
00000350: 374b 0b3d a69e 8fbc 0e62 21bd 2b59 4cbd
00000360: 0874 1fbc 9018 2ebd 44ca 213c dd4d 663d
00000370: c25e 37bd b05e 47bd 9b07 eebc 9047 5dbc
00000380: 8b36 483d e793 673d 4de3 183d 83d4 043d
00000390: d4ea 2dbc fca5 1cbd c0a6 783a 17b3 2c3d
000003a0: 46d1 8e3c e2a9 01bd 5ed3 8bbc 5f45 3e3d
000003b0: 7b7d 62bd 73b6 523d b3b5 463d a0fa b23a
000003c0: 9b28 37bd 2afb fd3c fc8c 533c ed98 673d
000003d0: 16f0 f8bc fa07 913c c68e 34bd c5b7 60bd
000003e0: 7455 36bd 4a88 d5bc 80e9 9ebc 5158 0c3d
000003f0: c0aa 13bb 2473 7a3c 76b3 1bbd 9262 6bbd
0.05373292 -0.004857693 -0.045352407 -0.004266076 0.054096233 -0.046517737 0.029776972 0.046273258
0.048125375 -0.023035318 -0.011655014 -0.032283545 -0.051374234 -0.034029156 0.042803135 -0.022967111
-0.002294585 0.011442807 0.0340765 0.0059901364 -0.0073562562 -0.056230746 -0.007904984 0.02038427
-0.008779749 -0.049440417 0.045903776 -0.01629227 0.032638717 0.049320232 0.0508227 0.013109479
-0.03911637 0.009217169 -0.025503956 0.043206867 0.054199737 0.02800801 -0.04129686 0.04990865
-0.007913128 0.056537073 -0.016958222 -0.03613721 0.009283561 0.039501447 -0.04432776 -0.030356625
-0.03182254 -0.0076762773 -0.05267081 -0.053271376 -0.001611907 0.0011970624 0.025087167 -0.023635685
-0.029696241 0.04677603 -0.0042836033 -0.0061604977 -0.015751094 -0.050608575 -0.0024292544 0.014006283
0.0145944245 -0.045323357 0.048480425 -0.010954417 0.049365032 0.054615173 0.0018228516 -0.057290178
-0.017838415 0.047776137 0.017190557 -0.012727175 0.024976019 -0.037403673 0.0003798753 0.05623735
-0.041387603 -0.012232497 -0.028766468 -0.028260037 0.03732365 0.036055032 0.034517232 0.044049922
0.029513348 -0.010308269 0.017680932 0.051685397 -0.036983207 0.04445525 -0.050493576 -0.036477964
-0.008279264 0.04647768 -0.003200639 0.054476853 0.0008013956 0.019174043 0.049986545 0.0008569211
-0.055110965 -0.015889369 0.05773327 -0.055652976 -0.046730425 -0.02324956 0.020630922 0.01691496
-0.034305688 0.014887076 -0.046531945 0.052195247 -0.052844815 0.04440437 0.04442608 0.0052977614
-0.03238603 0.004411649 -0.01695263 -0.05315189 -0.032748394 0.020667743 0.056749415 0.009359498
0.056410003 0.026367452 -0.044165984 -0.007902682 -0.051645007 0.030379895 0.05807543 0.022126038
0.03149389 0.04196014 0.019924726 0.030221071 0.03690516 -0.011486273 -0.05085128 0.030600306
-0.042942457 0.040924568 0.042226125 0.005600903 -0.043878958 0.02536073 0.05504712 -0.026570898
-0.050020047 0.017619576 -0.010138206 -0.019925717 -0.02598269 0.055898655 -0.039833307 -0.0045618005
-0.015470821 0.050010387 0.008684341 -0.0084264465 -0.050525166 0.030126859 -0.04412348 0.026582655
-0.058540836 0.0077022277 0.036561828 -0.015698787 0.015136991 0.010736827 0.015926253 -0.013430696
-0.043174565 0.005294081 -0.03618917 -0.05578252 -0.0076770186 -0.052245837 0.053023916 -0.021804553
-0.009994108 0.027112942 -0.046737794 -0.009067487 0.014629122 -0.051337376 -0.0094655715 -0.003528893
-0.011778507 -0.0022532046 0.031412635 0.016108658 0.051537257 -0.040841863 -0.026344702 -0.047905717
-0.027766049 0.013268072 0.03123783 0.052923296 -0.039279282 0.0076591633 -0.058536973 0.033534195
0.03792649 0.048201147 0.0077686794 0.017010566 0.034007277 -0.017531704 -0.039400153 -0.049889725
-0.009732254 -0.042503893 0.009874884 0.0562266 -0.044768102 -0.048674285 -0.029056361 -0.013505831
0.04888014 0.056537535 0.037326146 0.03242923 -0.010615069 -0.038244233 0.0009485297 0.04216298
0.017433774 -0.031656154 -0.017068561 0.046452876 -0.05529545 0.05144353 0.048513126 0.0013655014
-0.04471646 0.031003553 0.012912031 0.056542326 -0.03038792 0.017703999 -0.04408147 -0.054862756
-0.04451509 -0.026065964 -0.01939845 0.034263913 -0.0022532195 0.015286241 -0.038012944 -0.05746705

bias f4 [32]
00000000: 9d5c 5dbd 0a4f f6bc e8c6 d8bb 6f23 30bd
00000010: 0964 143d 6d16 663d eeb0 b23c 9d13 70bd
00000020: 5e5c ba3c 299f 653d a581 4abd 2cbb 383c
00000030: 5417 2d3c b6ad 46bd 0227 ff3c a694 babc
00000040: e803 57bc 6abf a03c e8fd a43b a561 103d
00000050: a84d b1bc 68e5 1fbc 8eb5 913c 7c1d 58bd
00000060: dc22 033c 0c53 2a3c 6618 5abd 66d0 31bd
00000070: 889e aabc b224 fabc 81b2 203d 9152 33bd
-0.0540434 -0.030066986 -0.0066155083 -0.043002542 0.036228213 0.05617373 0.021812882 -0.058612455
0.022749122 0.05605999 -0.049440045 0.011275094 0.010564644 -0.048505507 0.03114653 -0.02277596
-0.01312349 0.019622523 0.005035151 0.03524937 -0.021643475 -0.009759285 0.017786767 -0.052762493
0.008003917 0.0103957765 -0.053245924 -0.043411635 -0.020827547 -0.030535076 0.039232735 -0.043779913

weight f4 [32]
00000000: f82b 5f3f 1e79 6a3f 68c7 e83e 2281 513f
00000010: 5e28 113f c067 0a3e 1209 093f 3350 083f
00000020: 9a6f f73e b19b 3d3f 5c69 123e 7d23 4c3f
00000030: 2207 923e 426f 073f 8856 ac3e 00ae 053b
00000040: 2d0a 753f 1e3f 763f db1f 703f 0c13 573f
00000050: 4ddb 143f 28a1 d03d d279 9a3e a130 773f
00000060: 8890 e83e 91ab 4c3f 38ef 783f 80c5 a83c
00000070: 6045 b73e 0255 363f 3c99 233e 40ba 223f
0.87176466 0.9159106 0.45464635 0.81837666 0.5670222 0.1351614 0.53529465 0.53247374
0.48327333 0.7406569 0.14298004 0.7974165 0.28521067 0.5290414 0.33659768 0.0020397902
0.9571865 0.9619006 0.9379861 0.8401344 0.58147126 0.10186988 0.30171067 0.96558577
0.4542277 0.7994929 0.9724002 0.020601988 0.35795116 0.7122346 0.15976423 0.63565445

bias f4 [32]
00000000: 0000 0000 0000 0000 0000 0000 0000 0000
00000010: 0000 0000 0000 0000 0000 0000 0000 0000
00000020: 0000 0000 0000 0000 0000 0000 0000 0000
00000030: 0000 0000 0000 0000 0000 0000 0000 0000
00000040: 0000 0000 0000 0000 0000 0000 0000 0000
00000050: 0000 0000 0000 0000 0000 0000 0000 0000
00000060: 0000 0000 0000 0000 0000 0000 0000 0000
00000070: 0000 0000 0000 0000 0000 0000 0000 0000
0.0 0.0 0.0 0.0 0.0 0.0 0.0 0.0
0.0 0.0 0.0 0.0 0.0 0.0 0.0 0.0
0.0 0.0 0.0 0.0 0.0 0.0 0.0 0.0
0.0 0.0 0.0 0.0 0.0 0.0 0.0 0.0

running_mean f4 [32]
00000000: 9dc2 74be 74f3 57bf 4bdc b8be 96d1 123e
00000010: 7120 a8bd fe73 e83c f02b c53e 3291 54be
00000020: a39d 323d 7fc7 8b3e 96f5 223f efae ca3f
00000030: d639 82be 2e44 dcbe 65b5 d3bd 2825 9dbe
00000040: 5726 90bd 5a38 53bd a1fd 7f3e 1ba6 a9be
00000050: f8a4 86be 8c74 883e 998c b03d 0d64 513e
00000060: 6eef 5dbf c410 0fbe 7688 22bf 878d cfbe
00000070: 881e f9be 620c c93d 0d1c 0e3f 60c5 d6be
-0.23902364 -0.84355855 -0.3610557 0.14337763 -0.08209313 0.028375622 0.38510084 -0.20758513
0.043607365 0.2730064 0.63655984 1.5834635 -0.2543475 -0.43020767 -0.10337333 -0.3069241
-0.07038563 -0.051567413 0.24999095 -0.3313454 -0.26297736 0.26651418 0.08620567 0.20448323
-0.86693466 -0.1397124 -0.6348947 -0.40537664 -0.48656106 0.09816815 0.5551155 -0.4194746

running_var f4 [32]
00000000: 2c85 c43e e196 a53e 705f 7c3f 30fc 823f
00000010: c4ba a83f 208c bb3e dd1b 113f 5cbe aa3e
00000020: b282 543f 3917 893f bfa3 233f c63a c03e
00000030: b598 213f a1d9 403f 80df 313f 7653 a23f
00000040: 2e87 ed3e b7c8 723f d3ff c53e d48b 923f
00000050: 13f8 553f fbcb de3f 99bc 693f 5a73 1f3f
00000060: 1861 643f 9ddf 253f ef9b 3f3f 0ef4 223f
00000070: aa69 f23e 418a 1f3f add1 333f 6c5f bb3e
0.38382852 0.32341674 0.98583126 1.0233212 1.3181996 0.36630344 0.5668314 0.33348358
0.83011925 1.0710212 0.6392173 0.3754484 0.6312364 0.75332075 0.6948166 1.268172
0.46392196 0.94837517 0.3867174 1.1448922 0.83581656 1.7406 0.913034 0.6228539
0.89210653 0.6479433 0.7484731 0.6365365 0.4734624 0.62320334 0.70241815 0.3659624

weight f4 [32]
00000000: 60fc 8f3d 4be3 573f d86c fb3d 5e2b b13e
00000010: 12ad a83e e41a 603f 70c7 433e 3435 613e
00000020: d87e 8c3e e07a 3c3f afae 1b3f 9ecd 513f
00000030: ca04 743f 4084 553d 8403 793f e404 403e
00000040: 6d13 453f 000a ea3d 18da a73e e1e6 133f
00000050: 7873 dd3e 2d8c 023f 7a1d ae3e 4b3a 373f
00000060: 5b1b 6a3f 5117 0f3f 6df1 5a3f 988e 8f3e
00000070: b611 473f 3edc 153f 7031 b43d cb4f 403f
0.070305586 0.84331197 0.1227662 0.346034 0.32944542 0.8754103 0.19119048 0.21992952
0.27440524 0.7362499 0.6081342 0.8195437 0.9531981 0.052128077 0.9727099 0.18751866
0.76982766 0.114276886 0.3278358 0.5777417 0.43252158 0.5099514 0.34006864 0.71573323
0.9144799 0.55894953 0.85524637 0.28038478 0.777614 0.5853919 0.08798492 0.75121754

bias f4 [32]
00000000: 0000 0000 0000 0000 0000 0000 0000 0000
00000010: 0000 0000 0000 0000 0000 0000 0000 0000
00000020: 0000 0000 0000 0000 0000 0000 0000 0000
00000030: 0000 0000 0000 0000 0000 0000 0000 0000
00000040: 0000 0000 0000 0000 0000 0000 0000 0000
00000050: 0000 0000 0000 0000 0000 0000 0000 0000
00000060: 0000 0000 0000 0000 0000 0000 0000 0000
00000070: 0000 0000 0000 0000 0000 0000 0000 0000
0.0 0.0 0.0 0.0 0.0 0.0 0.0 0.0
0.0 0.0 0.0 0.0 0.0 0.0 0.0 0.0
0.0 0.0 0.0 0.0 0.0 0.0 0.0 0.0
0.0 0.0 0.0 0.0 0.0 0.0 0.0 0.0

running_mean f4 [32]
00000000: b796 163d 62ff be3d bd54 143c c9fc 87be
00000010: c033 2f3d abcf a3bb ee92 c9bc d3c1 1dbc
00000020: fea6 a83c d211 aebd 3864 d3bd 63fb 9b3d
00000030: c349 023d faf4 88bc 5b6a bc3d 9b49 96bc
00000040: a74d 763b b17c 813d 6a44 e5bc 556e b33d
00000050: 6626 04be 43b0 763e 0676 1f3e 8e63 5a3c
00000060: c701 d8bd f7f8 353d 88cf 5e3c cb82 fe3d
00000070: 62a9 c03c bf75 9bbd fdcb 543e b756 b8ba
0.036764827 0.09326054 0.009053406 -0.26560047 0.042773962 -0.004999121 -0.024606194 -0.009628731
0.02058744 -0.08499493 -0.103218496 0.076163076 0.031808626 -0.016718376 0.09199973 -0.018345645
0.0037582905 0.06322611 -0.027986724 0.087612785 -0.12905273 0.24090676 0.15572366 0.0133294
-0.10547214 0.044426885 0.013599284 0.124272905 0.023518268 -0.07590818 0.2078094 -0.0014063929

running_var f4 [32]
00000000: 9438 013d 9c40 653d c394 5b3c 1d45 8a3d
00000010: 9eaa 093d 41e3 403d 3ca4 e33c 702b f63c
00000020: e958 e63c 76da ff3c 008d 053d 2a0b 913d
00000030: dba9 1f3d 6032 433d d087 a33c f8d5 c43d
00000040: 8316 c43c 918f 163d c65b af3c 0359 a03c
00000050: 3838 bb3c 8d47 063d 0035 2e3d 994f 313c
00000060: 17e4 0c3d e98a 9f3c 8ff5 793d bb32 063d
00000070: 52b8 463d b9ee 8a3d 9236 5c3d 6f80 593d
0.031548098 0.05596982 0.013402167 0.067514636 0.03360998 0.047091726 0.027788274 0.03005001
0.028118568 0.0312321 0.03260517 0.070822075 0.038980346 0.047655463 0.019962221 0.09611124
0.023936516 0.03675801 0.021406066 0.019573694 0.022853956 0.03278308 0.042531013 0.0108222
0.03439721 0.019475417 0.0610252 0.032763224 0.048515625 0.06783814 0.05376298 0.053101
