models/5_cross_5_iter_0.pt (torch_old, 339781 bytes, 66 tensors)

weight f4 [32, 3, 3, 3]
0.12514673 -0.061221004 0.13242523 -0.14500196 -0.18596609 0.18398167 0.03306517 -0.008827031
0.13750793 0.0153814405 0.17623816 0.12625466 0.010826141 -0.14867894 0.13222875 -0.018052638
0.106355324 0.12796496 0.17340319 -0.040458485 -0.098475754 0.12700082 -0.019112408 -0.1460891
0.04905188 0.02771014 0.1110165 -0.15238015 0.15964459 -0.039344594 -0.17972483 0.04185161
-0.089266166 0.037566364 0.10980789 0.10085927 -0.1282249 -0.03627649 0.069946125 -0.13232087
-0.13409159 0.15752147 0.117166504 0.091954485 0.16134124 -0.16253212 0.10305895 -0.1533281
-0.045454368 -0.19194755 0.18224607 -0.046323135 0.050071687 0.13081743 0.1016808 -0.09428781
-0.009608641 0.08049075 -0.12047074 -0.13359487 0.054083318 -0.14767712 -0.12605155 -0.0406681
-0.13343407 -0.045077518 -0.13468614 -0.016428053 -0.13944907 0.0023871511 -0.041199684 -0.030675054
-0.1562252 -0.17418967 -0.11409717 0.018827632 -0.01711528 -0.14756581 -0.07332239 0.08872257
-0.10750378 -0.14599785 0.16000976 0.005547434 -0.068947546 -0.1322574 0.10914011 0.081886426
-0.0218613 0.07090466 0.032035574 -0.13107902 0.06776704 -0.026768103 -0.1199985 -0.09185681
0.04869011 0.0988747 -0.09513937 0.16767247 -0.19060998 0.18058823 -0.03402242 -0.18433824
-0.065469325 0.1693521 -0.190515 0.013631195 -0.09320975 -0.15548316 0.092106745 0.12342204
0.05386725 -0.033245414 0.14628695 0.05001615 0.14434375 0.105922684 0.046084985 0.120380476
0.16066314 0.18046077 -0.15072197 0.07114978 -0.13255122 0.014800787 -0.11750663 -0.004927501
-0.14484942 -0.17724456 -0.03859067 -0.17378989 0.14028482 -0.0999895 -0.038208008 0.1497824
0.04292418 0.124820754 -0.012693971 -0.1752004 0.14665301 0.01342307 0.18515705 0.08438726
-0.16008253 0.13347556 -0.17997685 -0.05601169 0.10816546 -0.08074559 0.020914152 -0.07906088
0.09368478 -0.057831883 0.16592015 -0.12133244 -0.057649493 -0.14174551 -0.15938029 -0.029795468
-0.107492015 0.158136 0.013983235 0.15113868 -0.12250237 -0.071701095 -0.007870242 -0.0525143
-0.18450804 -0.16344166 -0.003031969 0.090909794 0.17809083 -0.07045386 -0.03570071 -0.10232994
-0.112498514 0.03454958 0.019582972 0.19230227 0.10329257 -0.11391873 -0.090232044 0.039491087
-0.01610893 -0.0033962429 0.13247935 0.16389726 0.09250237 -0.1286009 0.008543566 0.055940226
0.17042933 -0.17042515 0.08100696 0.18586873 -0.06786285 -0.031199336 0.15855058 0.12445302
-0.0274553 -0.05666235 0.1590044 0.054757237 0.11033903 0.047338188 0.067914054 0.052820414
-0.17298645 0.12475188 0.053714737 -0.027063176 0.092721 0.06894268 -0.12747575 0.0020997971
0.15597688 0.023494437 -0.076612115 0.18984093 -0.15477034 0.19173838 -0.0487231 -0.13689306
0.13530166 0.05561255 0.15288843 -0.14731242 -0.098549195 -0.041348264 0.033950508 0.08940245
0.18081667 -0.12814756 -0.14814472 -0.032935143 0.045740664 -0.08007991 -0.099384226 -0.13225585
-0.053200543 0.019031242 0.024349391 0.12174152 0.1656688 0.015205875 -0.18945646 -0.010906637
0.19239827 0.16720779 0.04950179 -0.05667831 0.1432523 -0.18306363 0.006605983 0.09929858
00000000: 7726 003e e0c2 7abd 7b9a 073e 657b 14be
00000010: e56d 3ebe b165 3c3e 586f 073d 409f 10bc
00000020: e1ce 0c3e 7002 7c3c c777 343e e748 013e
00000030: 2060 313c 4b3f 18be f966 073e 20e3 93bc
00000040: d2d0 d93d 3f09 033e 9b90 313e ccb7 25bd
00000050: a8ad c9bd 810c 023e a091 9cbc 6298 15be
00000060: a0ea 483d 6000 e33c 9e5c e33d 8b09 1cbe
00000070: df79 233e cc27 21bd c909 38be 986c 2b3d
00000080: 2ed1 b6bd 30df 193d f6e2 e03d 4e8f ce3d
00000090: 634d 03be a896 14bd ea3f 8f3d 1f7f 07be
000000a0: 4e4f 09be 4f4d 213e fef4 ef3d a252 bc3d
000000b0: a336 253e d26e 26be 9210 d33d 0b02 1dbe
000000c0: 5c2e 3abd e68d 44be b79e 3a3e 54bd 3dbd
000000d0: f817 4d3d 01f5 053e 063e d03d f819 c1bd
000000e0: 906d 1dbc 56d8 a43d 5db9 f6bd 18cd 08be
000000f0: 7886 5d3d ac38 17be a813 01be 9893 26bd
00000100: f1a2 08be 34a3 38bd 2aeb 09be 2094 86bc
00000110: bdcb 0ebe c071 1c3b 00c1 28bd 404a fbbc
00000120: 80f9 1fbe c75e 32be c7ab e9bd 683c 9a3c
00000130: 5835 8cbc 7e1b 17be 0d2a 96bd 2eb4 b53d
00000140: f12a dcbd 7680 15be 99d9 233e 40c7 b53b
00000150: 5f34 8dbd 7c6e 07be da84 df3d 12b4 a73d
00000160: 7816 b3bc 7636 913d bc37 033d 9439 06be
00000170: 72c9 8a3d c848 dbbc c6c1 f5bd 6c1f bcbd
00000180: 486f 473d d27e ca3d 6ed8 c2bd 55b2 2b3e
00000190: 432f 43be 1fec 383e 185b 0bbd 2ac3 3cbe
000001a0: c814 86bd a36a 2d3e 5d16 43be 6055 5f3c
000001b0: c1e4 bebd fa36 1fbe 76a2 bc3d b2c4 fc3d
000001c0: e8a3 5c3d 582c 08bd 3fcc 153e bcdd 4c3d
000001d0: d9ce 133e feed d83d 9cc3 3c3d 0a8a f63d
000001e0: e184 243e b5ca 383e dc56 1abe fab6 913d
000001f0: 82bb 07be 007f 723c 51a7 f0bd e076 a1bb
00000200: 6853 14be 997f 35be 4011 1ebd faf5 31be
00000210: d3a6 0f3e 4cc7 ccbd 0080 1cbd 8f60 193e
00000220: 44d1 2f3d 06a2 ff3d 60fa 4fbc bc67 33be
00000230: 352c 163e 70ec 5b3c cf99 3d3e 3ad3 ac3d
00000240: adec 23be d1ad 083e da4b 38be 846c 65bd
00000250: da85 dd3d f25d a5bd 2854 ab3c acea a1bd
00000260: cedd bf3d 20e1 6cbd f9e6 293e 247d f8bd
00000270: e021 6cbd bc25 11be 9634 23be a015 f4bc
00000280: c624 dcbd 67ee 213e f019 653c 19c4 1a3e
00000290: 86e2 fabd 06d8 92bd 30f2 00bc 3c19 57bd
000002a0: adef 3cbe 405d 27be 00b4 46bb ea2e ba3d
000002b0: 715d 363e 1d4a 90bd e83a 12bd 5c92 d1bd
000002c0: 9f65 e6bd dc83 0d3d 786c a03c e3ea 443e
000002d0: 0e8b d33d 394e e9bd 94cb b8bd 68c1 213d
000002e0: e0f6 83bc 8093 5ebb aba8 073e afd4 273e
000002f0: e271 bd3d f4af 03be 50fa 0b3c 9421 653d
00000300: 0785 2e3e ee83 2ebe fae6 a53d 5f54 3e3e
00000310: aefb 8abd c095 ffbc 155b 223e 3ae1 fe3d
00000320: f0e9 e0bc c816 68bd 0dd2 223e 2049 603d
00000330: 6ef9 e13d b0e5 413d 8616 8b3d 385a 583d
00000340: 5c23 31be ea7d ff3d fc03 5c3d 98b3 ddbc
00000350: 82e4 bd3d d231 8d3d 0189 02be c09c 093b
00000360: 67b8 1f3e 6877 c03c d0e6 9cbd a965 423e
00000370: 1e7c 1ebe 1157 443e e091 47bd b22d 0cbe
00000380: 858c 0a3e fcc9 633d c98e 1c3e 11d9 16be
00000390: 29d4 c9bd cc5c 29bd b00f 0b3d a218 b73d
000003a0: 0128 393e 1d39 03be 40b3 17be 00e7 06bd
000003b0: 905a 3b3d f000 a4bd f589 cbbd 146e 07be
000003c0: d0e8 59bd 68e7 9b3c 6078 c73c 9e53 f93d
000003d0: 15a5 293e 1022 793c e000 42be c0b1 32bc
000003e0: 0d04 453e 8538 2b3e 64c2 4a3d 8427 68bd
000003f0: bbb0 123e 0875 3bbe 0077 d83b 0e5d cb3d

bias f4 [32]
0.02582395 -0.0941258 -0.08888483 0.06891464 -0.18500073 -0.02164188 0.14027141 0.18234219
0.09092949 0.050105646 0.058906183 0.18759482 0.023253322 -0.13719776 0.17645378 0.14247714
-0.11413397 0.0099616945 -0.1598925 -0.1803028 0.03528987 0.10721673 -0.039066553 -0.1175538
0.10558055 0.037346497 -0.0719705 0.12702514 -0.022847384 0.03668572 -0.13651216 -0.08992999
00000000: c08c d33c 07c5 c0bd 4009 b6bd 1e23 8d3d
00000010: d570 3dbe 504a b1bc 4fa3 0f3e e9b7 3a3e
00000020: 3e39 ba3d 943b 4d3d 9c47 713d db18 403e
00000030: c07d be3c 927d 0cbe 4db0 343e 87e5 113e
00000040: 12bf e9bd 6036 233c dcba 23be 4ca1 38be
00000050: 1c8c 103d 7294 db3d 4004 20bd 0cc0 f0bd
00000060: 9e3a d83d a4f8 183d 4565 93bd e112 023e
00000070: 702a bbbc c443 163d d8c9 0bbe 372d b8bd

weight f4 [32]
0.12787211 0.09805751 0.97290105 0.26724988 0.51102436 0.45004672 0.40064842 0.3632918
0.6031155 0.63470685 0.6532217 0.84594303 0.026243985 0.8308881 0.4971341 0.53139055
0.34218317 0.58936405 0.0013180971 0.38300937 0.49834996 0.13692749 0.13203359 0.35940045
0.73494995 0.1314196 0.76477855 0.40342003 0.7588588 0.45596898 0.36203152 0.18753052
00000000: e8f0 023e 60d2 c83d 0b10 793f fad4 883e
00000010: 7ed2 023f 866c e63e ca21 cd3e 6201 ba3e
00000020: c765 1a3f 267c 223f 8a39 273f b98f 583f
00000030: a0fd d63c 15b5 543f 5c88 fe3e 3609 083f
00000040: a232 af3e 90e0 163f 00c4 ac3a ce19 c43e
00000050: ba27 ff3e b836 0c3e d033 073e 5603 b83e
00000060: ae25 3c3f dc92 063e 87c8 433f 128d ce3e
00000070: 9244 423f c474 e93e 325c b93e 0008 403e

bias f4 [32]
0.0 0.0 0.0 0.0 0.0 0.0 0.0 0.0
0.0 0.0 0.0 0.0 0.0 0.0 0.0 0.0
0.0 0.0 0.0 0.0 0.0 0.0 0.0 0.0
0.0 0.0 0.0 0.0 0.0 0.0 0.0 0.0
00000000: 0000 0000 0000 0000 0000 0000 0000 0000
00000010: 0000 0000 0000 0000 0000 0000 0000 0000
00000020: 0000 0000 0000 0000 0000 0000 0000 0000
00000030: 0000 0000 0000 0000 0000 0000 0000 0000
00000040: 0000 0000 0000 0000 0000 0000 0000 0000
00000050: 0000 0000 0000 0000 0000 0000 0000 0000
00000060: 0000 0000 0000 0000 0000 0000 0000 0000
00000070: 0000 0000 0000 0000 0000 0000 0000 0000

running_mean f4 [32]
0.23598824 -0.14290665 -0.6931002 0.03143867 -0.39893365 0.14893904 0.11114405 0.21371408
0.033420257 0.40015352 -0.13071017 0.16546515 0.3163677 0.030366391 0.4499457 -0.4260264
-0.40673694 0.182683 -0.0012870558 -0.25527292 0.3183734 -0.06356078 0.23955648 0.13852847
0.4568216 0.2185533 -0.021440193 0.2699901 -0.29638144 0.33520395 -0.17555481 -0.22763488
00000000: e7a6 713e 1f56 12be 046f 31bf d6c5 003d
00000010: 0841 ccbe 7a83 183e 7e9f e33d ddd7 5a3e
00000020: aee3 083d ece0 cc3e e3d8 05be b26f 293e
00000030: f2fa a13e f0c2 f83c 485f e63e 2220 dabe
00000040: d33f d0be 4111 3b3e 6db2 a8ba 22b3 82be
00000050: d701 a33e 272c 82bd 4b4e 753e 68da 0d3e
00000060: 85e4 e93e 70cc 5f3e 58a3 afbc 243c 8a3e
00000070: 4fbf 97be da9f ab3e a4c4 33be 1e19 69be

running_var f4 [32]
0.026233433 0.02309962 0.019128472 0.019438222 0.045766547 0.03244869 0.049502585 0.035206664
0.04152221 0.025953876 0.02464865 0.011559051 0.03423824 0.02522314 0.013685072 0.04887645
0.035845507 0.022744149 0.017375307 0.018612478 0.016563714 0.01557501 0.029865477 0.035354473
0.033120096 0.028583102 0.027644582 0.017455481 0.018370619 0.021251688 0.038643096 0.03573735
00000000: 7fe7 d63c 6a3b bd3c 50b3 9c3c e83c 9f3c
00000010: b475 3b3d ebe8 043d 39c3 4a3d dd34 103d
00000020: 3113 2a3d 399d d43c f7eb c93c 2d62 3d3c
00000030: 663d 0c3d c2a0 ce3c 5a37 603c ac32 483d
00000040: bdd2 123d f051 ba3c a956 8e3c 3279 983c
00000050: a0b0 873c 542e 7f3c 72a8 f43c dacf 103d
00000060: f0a8 073d 1c27 ea3c e476 e23c ccfe 8e3c
00000070: fb7d 963c 0518 ae3c 3948 1e3d 5461 123d

weight f4 [2, 32, 1, 1]
0.085075215 -0.15643479 -0.08961039 -0.08150901 -0.07905389 -0.011815831 0.13666181 -0.114364654
0.055834398 0.034865856 0.11734776 0.032181084 0.1448329 0.028493688 0.040344253 0.17512794
0.016846731 -0.06382887 0.035991296 0.048497856 -0.15252225 0.15317287 -0.17523119 0.1355627
0.06650585 0.14266388 0.06388728 0.05506216 0.0961469 -0.02507545 -0.05232723 0.13341095
0.06281552 0.04088527 0.1441017 0.09284447 0.004844323 0.10996698 -0.048762783 0.08797638
-0.007383913 0.16550519 -0.16901265 -0.10016498 -0.1553841 0.12388702 0.058584437 0.027412355
0.10983904 0.15892781 0.14475013 0.16465075 0.10939936 0.043809757 0.17265837 0.046803996
0.056913644 -0.12501001 0.082937375 -0.12184115 0.00072416663 0.010618731 0.14814241 0.107051924
00000000: ea3b ae3d 7130 20be a785 b7bd 32ee a6bd
00000010: 02e7 a1bd 3097 41bc 13f1 0b3e 0438 eabd
00000020: 9cb2 643d 80cf 0e3d 0654 f03d 50d0 033d
00000030: 134f 143e 986b e93c 0440 253d bd54 333e
00000040: 2802 8a3c b6b8 82bd 9c6b 133d b0a5 463d
00000050: cb2e 1cbe 59d9 1c3e ce6f 33be f3d0 0a3e
00000060: 3834 883d 7b16 123e 56d7 823d dc88 613d
00000070: aae8 c43d 086b cdbc 1455 56bd e19c 083e
00000080: 6ca5 803d 5077 273d 658f 133e 3e25 be3d
00000090: 20bd 9e3b 5e36 e13d 7cbb 47bd f62c b43d
000000a0: c0f4 f1bb 317a 293e a711 2dbe 4c23 cdbd
000000b0: 021d 1fbe 7ab8 fd3d 3cf6 6f3d e08f e03c
000000c0: 4af3 e03d f9bd 223e 6139 143e 359a 283e
000000d0: c60c e03d dc71 333d 5bcd 303e 8cb5 3f3d
000000e0: 481e 693d a002 00be 12db a93d da87 f9bd
000000f0: 00d6 3d3a 30fa 2d3c a5b2 173e 0a3e db3d

bias f4 [2]
0.16441007 -0.11136234
00000000: 1d5b 283e f011 e4bd

weight f4 [2]
0.1627459 0.09341836
00000000: dca6 263e 2052 bf3d

bias f4 [2]
0.0 0.0
00000000: 0000 0000 0000 0000

running_mean f4 [2]
0.6911949 1.0115706
00000000: 26f2 303f 257b 813f

running_var f4 [2]
0.096254565 0.17051119
00000000: 1d21 c53d 7c9a 2e3e

weight f4 [26, 18]
-0.1549283 -0.14712328 -0.11557484 0.08352654 -0.2077689 -0.0037929118 0.20838858 0.02057062
0.017546281 -0.037909344 -0.0705255 -0.082445055 0.143777 -0.22645828 -0.031617388 -0.07310873
0.23333718 -0.014228076 -0.12123875 -0.11779772 0.038480952 -0.06374486 -0.053532094 -0.00799647
0.013247281 0.08920957 -0.09374398 -0.09035723 0.08193891 -0.20721167 -0.018027619 -0.15251613
0.11994471 0.22817631 -0.08403458 0.07019372 0.13832916 -0.039740145 -0.07775462 -0.21410416
0.023116782 -0.17805015 -0.11193034 -0.0008967519 -0.01498501 -0.0006288588 0.09503399 -0.114550695
0.12296601 -0.122160815 0.15991773 0.018449053 -0.010571718 0.18509881 0.11686279 -0.22704615
0.04045616 0.016247407 -0.14292017 0.22934 -0.18039526 -0.015042767 0.1982482 0.0500644
0.13570724 0.07640909 0.11700426 0.08812411 0.0028569698 0.060726 -0.05136037 0.19244711
-0.10098854 -0.13785762 0.030674055 0.029480323 -0.09842135 0.1986501 -0.17201483 -0.032947958
-0.21607408 -0.19264346 -0.06852734 0.19331776 0.017925635 -0.08252005 0.12575065 0.051128015
-0.17195067 -0.02214083 -0.19971529 0.22640006 -0.16706449 0.14958774 -0.18118903 0.1976621
0.13432552 -0.23417975 0.16707106 -0.2126115 -0.08533192 0.09238197 -0.10655327 0.22921298
0.03043668 0.06463702 -0.14424181 0.16623028 0.07439439 -0.09189862 -0.023320243 -0.23318382
-0.18453768 -0.08441986 0.14039983 0.11404349 -0.09008007 0.034648135 0.07180025 -0.05560793
-0.14154544 0.0755005 0.03213887 0.13236271 0.120544896 0.14893796 0.23045792 -0.1177572
-0.15202644 -0.12033125 0.15159132 0.053471014 0.0152551085 0.031135306 -0.14583683 -0.14099598
-0.109433085 -0.18279442 -0.15012275 0.06016241 -0.15971293 0.13460414 -0.14542627 0.107819244
0.06408121 -0.20366594 -0.17347135 0.07244362 0.17313053 0.20442162 -0.05908522 9.572506e-05
-0.014091775 0.23268597 0.19405554 0.037839487 0.18651049 0.10181399 -0.17381178 -0.13674721
-0.011911288 0.20143612 0.009618163 0.18385573 0.19192143 0.18405895 0.23026292 -0.093533754
-0.13320819 -0.015478179 -0.2135709 -0.20877427 -0.100571424 0.024562791 -0.021161452 0.17962398
0.13494228 0.059890196 -0.1454848 0.0727434 -0.042038247 -0.15704425 0.089041635 0.030523404
-0.12305688 -0.18996526 0.009006634 0.13795193 0.11021115 -0.09650044 0.005627051 0.039350823
-0.012913436 0.20172353 -0.17228213 -0.09360829 0.08803485 0.21250637 0.15565778 -0.06538519
0.06743924 0.1081364 -0.06814046 0.14010958 0.09211393 0.19850288 -0.15391418 0.12169553
-0.15983436 0.08184503 0.19742693 -0.013056502 -0.1025652 -0.064321324 0.17028324 -0.069921315
0.021879539 0.1998293 -0.056653097 0.023895934 0.20605744 -0.18338077 -0.17848985 0.15496378
0.15633808 -0.09070969 -0.1600025 0.077538505 0.21755292 0.1651388 -0.07348707 0.009954557
-0.02810885 0.19351487 0.089961484 -0.1534059 0.17529188 -0.037159324 0.08214663 0.102204815
0.15418385 0.07453887 -0.17271551 -0.17831065 -0.16180712 -0.10665318 -0.056928813 0.12189637
0.032864198 0.12138848 0.13021882 -0.07692607 -0.044764787 0.11890565 -0.10935615 -0.12718056
00000000: 86a5 1ebe 7ca7 16be 80b2 ecbd f60f ab3d
00000010: 5fc1 54be 8092 78bb d163 553e b883 a83c
00000020: 38bd 8f3c d446 1bbd ac6f 90bd f4d8 a8bd
00000030: 473a 133e aee4 67be 3c81 01bd 08ba 95bd
00000040: f1ef 6e3e e01c 69bc 064c f8bd ee3f f1bd
00000050: 349e 1d3d aa8c 82bd 7844 5bbd a003 03bc
00000060: 200b 593c 82b3 b63d d8fc bfbd 360d b9bd
00000070: 96cf a73d 4c2f 54be a8ae 93bc 302d 1cbe
00000080: 92a5 f53d 0da7 693e 521a acbd bac1 8f3d
00000090: 29a6 0d3e 90c6 22bd d03d 9fbd 1f3e 5bbe
000000a0: 685f bd3c c752 36be bc3b e5bd 0014 6bba
000000b0: b083 75bc 00da 24ba 2ea1 c23d 8e99 eabd
000000c0: 9ad5 fb3d 732f fabd 79c1 233e 7822 973c
000000d0: 0035 2dbc 8b8a 3d3e c255 ef3d c97e 68be
000000e0: 5cb5 253d 4819 853c aa59 12be 1bd8 6a3e
000000f0: 89b9 38be f075 76bc 9301 4b3e 5410 4d3d
00000100: d7f6 0a3e 5e7c 9c3d ee9f ef3d 6a7a b43d
00000110: 003c 3b3b d4bb 783d 405f 52bd db10 453e
00000120: 14d3 cebd 8c2a 0dbe 2848 fb3c b880 f13c
00000130: 2291 c9bd ef6a 4b3e a824 30be 70f4 06bd
00000140: 8642 5dbe 5444 45be 1058 8cbd 17f5 453e
00000150: c8d8 923c 4600 a9bd c7c4 003e 9c6b 513d
00000160: d613 30be b060 b5bc 2a82 4cbe 6bd5 673e
00000170: f412 2bbe 872d 193e 9e89 39be ef67 4a3e
00000180: a18c 093e d1cc 6fbe ad14 2b3e d4b6 59be
00000190: 80c2 aebd c232 bd3d 9a38 dabd cfb6 6a3e
000001a0: 5856 f93c 6a60 843d 20b4 13be 4538 2a3e
000001b0: 165c 983d 5835 bcbd 180a bfbc bdc7 6ebe
000001c0: 72f7 3cbe 52e4 acbd f9c4 0f3e a28f e93d
000001d0: e67b b8bd 34eb 0d3d 020c 933d 24c5 63bd
000001e0: 4af1 10be 02a0 9a3d 0ca4 033d 178a 073e
000001f0: 3ee0 f63d 3183 183e 29fd 6b3e b02a f1bd
00000200: d2ac 1bbe 3b70 f6bd c13a 1b3e 6c04 5b3d
00000210: 90f0 793c 780f ff3c 4056 15be 4061 10be
00000220: 741e e0bd 762e 3bbe c7b9 19be dc6c 763d
00000230: c98b 23be abd5 093e a0ea 14be 56d0 dc3d
00000240: 023d 833d ce8d 50be 79a2 31be 525d 943d
00000250: 2149 313e e753 513e 5803 72bd 00c0 c838
00000260: 30e1 66bc 3b45 6e3e 7fb6 463e 94fd 1a3d
00000270: 9bfc 3e3e da83 d03d b7fb 31be 7607 0cbe
00000280: 9027 43bc 4545 4e3e 8095 1d3c ad44 3c3e
00000290: 0d87 443e f379 3c3e 0bca 6b3e a08e bfbd
000002a0: ba67 08be 3098 7dbc 54b2 5abe ecc8 55be
000002b0: 64f8 cdbd e837 c93c c85a adbc 59ef 373e
000002c0: 4f2e 0a3e 6c4f 753d f8f9 14be 7efa 943d
000002d0: 4c30 2cbd 35d0 20be 765b b63d 380c fa3c
000002e0: 3f05 fcbd 4186 42be 9090 133c 4543 0d3e
000002f0: 62b6 e13d 06a2 c5bd 2063 b83b 542e 213d
00000300: e092 53bc 9d90 4e3e ba6a 30be b4b5 bfbd
00000310: 9e4b b43d 459b 593e c164 1f3e ace8 85bd
00000320: 961d 8a3d 9e76 dd3d 3a8d 8bbd e378 0f3e
00000330: 3aa6 bc3d 5744 4b3e ae9b 1dbe 823b f93d
00000340: 9eab 23be 5e9e a73d 492a 4a3e f0ea 55bc
00000350: b40d d2bd e6ba 83bd bb5e 2e3e e832 8fbd
00000360: b83c b33c 0da0 4c3e 140d 68bd 68c1 c33c
00000370: b900 533e 2bc8 3bbe 0bc6 36be d3ae 1e3e
00000380: 1717 203e 00c6 b9bd b2d7 23be 82cc 9e3d
00000390: 31c6 5e3e 251a 293e 6480 96bd 7018 233c
000003a0: 8844 e6bc c328 463e ba3d b83d 7016 1dbe
000003b0: b77f 333e 6034 18bd 7e3c a83d c250 d13d
000003c0: 5fe2 1d3e d6a7 983d 56dc 30be 1197 36be
000003d0: c4b0 25be fc6c dabd 302e 69bd cea4 f93d
000003e0: 9c9c 063d 869a f83d 1558 053e 6a8b 9dbd
000003f0: 485b 37bd ce84 f33d 1ef6 dfbd 9f3b 02be

bias f4 [26]
0.06793548 -0.1873906 0.071343586 -0.19249186 -0.23147462 -0.027661145 -0.027681917 0.13912077
-0.123695046 0.07368262 0.12080963 0.19546579 0.030924603 0.12251218 0.13639401 -0.05825284
0.0663221 -0.18893789 0.19507386 -0.18210195 -0.0027675927 0.20053144 -0.20937815 -0.07633564
-0.23168601 -0.17256777
00000000: c221 8b3d 52e3 3fbe 961c 923d 961c 45be
00000010: af07 6dbe a099 e2bc 30c5 e2bc ad75 0e3e
00000020: d453 fdbd eae6 963d 0a6b f73d 2f28 483e
00000030: 9855 fd3c aae7 fa3d dfaa 0b3e 889a 6ebd
00000040: e2d3 873d ef78 41be 71c1 473e ef78 3abe
00000050: 8060 35bb 1d58 4d3e 3a67 56be dc55 9cbd
00000060: 193f 6dbe 9bb5 30be

weight f4 [1, 32, 1, 1]
0.12860973 0.017192706 -0.104034476 -0.12980007 0.092726484 -0.118272945 0.046074793 0.14814653
-0.03940378 0.020967335 -0.1107848 0.11718021 -0.054912433 0.067450404 -0.1215863 -0.0017204136
-0.015642613 0.17240898 -0.0106330365 0.025991723 0.040576503 0.17396678 -0.039792463 -0.022234187
-0.10086628 0.14642368 0.037773922 -0.1213688 -0.049928427 0.023935512 -0.02350831 -0.0035102367
00000000: 45b2 033e b8d7 8c3c 0710 d5bd 4fea 04be
00000010: 62e7 bd3d 1639 f2bd ecb8 3c3d b9b3 173e
00000020: dc65 21bd b0c3 ab3c 24e3 e2bd 2efc ef3d
00000030: dceb 60bd 7023 8a3d 3d02 f9bd 807f e1ba
00000040: f024 80bc fb8b 303e 3036 2ebc 98ec d43c
00000050: 8c33 263d 5924 323e 6cfd 22bd 7824 b6bc
00000060: fb92 cebd 17f0 153e d4b8 1a3d 3590 f8bd
00000070: c081 4cbd 6814 c43c 8094 c0bc 000c 66bb

weight f4 [32, 9]
-0.110789225 -0.26549262 -0.19146845 -0.29230806 0.08941519 0.071856886 0.05588913 0.14134511
-0.24975781 -0.23849449 0.12780395 0.26433095 0.28927603 -0.27982745 -0.07689214 0.16947976
-0.058222145 -0.15957753 0.033358574 -0.31446838 -0.16061124 -0.19090037 0.04306388 -0.14796337
-0.12109804 0.12078002 0.2469829 0.21943966 0.2657335 -0.109414265 0.16832903 -0.087760895
0.27545026 0.021086425 0.2222999 0.16190162 0.27748063 0.048669696 0.15968204 0.121920794
-0.04492876 0.12181839 -0.14592633 0.21317855 -0.22672725 -0.20728254 -0.15371442 -0.3133659
-0.17255215 0.25109187 -0.29316604 -0.24235313 0.28627923 -0.25999779 0.3000069 0.020771593
0.18404695 -0.22964716 0.18685427 0.012852788 0.17149952 -0.2190094 -0.0588665 -0.3279363
-0.20467484 0.13806415 0.23500773 0.1925818 0.017880201 -0.29387292 -0.1572319 -0.19440004
0.29015622 -0.018882781 0.040916592 0.11216366 0.15841374 0.25154236 0.26408258 -0.24094777
0.04773757 -0.15410785 0.032158047 0.29812387 -0.07703233 0.29859152 -0.18567109 -0.16224079
0.32304266 0.17964175 -0.095744014 -0.27194214 0.011435658 -0.0998687 -0.25812572 0.24773464
0.003883034 0.22133663 0.10041356 0.059233904 0.28767988 0.045011193 -0.00037017465 -0.12611482
-0.16177568 0.32860425 0.048247784 -0.26348636 -0.181863 -0.16384503 -0.13292918 0.0244129
-0.09233479 0.07971561 -0.09754002 -0.18084824 -0.0026371777 0.14684501 -0.08146095 -0.2063522
-0.03149113 0.2382895 -0.13240752 0.19696233 -0.2591535 -0.28403383 -0.3265741 0.27871367
-0.080675036 -0.01957953 -0.295495 -0.23291552 -0.11946139 0.13106987 0.24972054 0.05430439
-0.07829717 -0.22188084 -0.123294115 -0.20330453 0.22017708 -0.26564392 -0.03701982 0.01275298
0.1874105 0.06259522 0.16833708 0.19435874 -0.1759113 -0.24943575 0.300114 -0.21600509
0.24783167 0.0029028356 0.19223419 -0.30458874 0.024530798 0.13885447 -0.077313334 0.2687172
-0.3313087 -0.26861906 -0.06289521 0.025924116 0.32446375 -0.21441424 -0.16697618 0.30149105
-0.26337463 0.30043283 0.21397427 0.104174644 0.046976 -0.30794343 -0.15396993 0.23124483
-0.19484422 0.25435892 0.06077826 0.27662387 0.30360773 -0.16356266 -0.28745198 -0.141844
0.22923735 -0.31615543 -0.20651937 -0.07666138 -0.30796498 -0.32139665 -0.030053109 -0.24560253
-0.0062328875 0.08661309 -0.07507196 0.28821334 -0.13154146 -0.0925868 0.1025064 0.1844537
0.32221422 0.24664763 0.30315986 0.09737387 -0.0013041496 0.19167748 -0.022532016 0.3278996
0.12494898 0.3003613 -0.22824661 0.040795356 0.090465635 -0.08783476 0.1643106 -0.20758784
-0.14546792 0.023190588 0.0049233735 0.10254836 -0.3239109 -0.26989564 -0.016642451 0.26026323
0.08845103 -0.027236432 0.23387292 0.04768741 -0.16031384 -0.25846443 -0.047589034 0.002480179
0.0004709959 -0.20870833 0.11046982 0.3095118 0.056784034 -0.28063506 -0.3151545 -0.22524445
-0.22255358 -0.052653402 -0.29534894 0.2762002 -0.25537348 0.019447565 -0.26005107 0.0839071
0.28326955 -0.22974941 -0.022422582 -0.19254415 0.2986547 0.2654325 0.15149936 -0.16404209
00000000: 76e5 e2bd a6ee 87be 4e10 44be 67a9 95be
00000010: 501f b73d b429 933d 00ec 643d c6bc 103e
00000020: 83c0 7fbe e637 74be 0adf 023e 6356 873e
00000030: fd1b 943e 8b45 8fbe a079 9dbd 1a8c 2d3e
00000040: 587a 6ebd 4b68 23be 00a3 083d 0002 a1be
00000050: 4677 24be 637b 43be c063 303d b683 17be
00000060: 4002 f8bd 845b f73d 16e9 7c3e cab4 603e
00000070: 390e 883e 9614 e0bd 725e 2c3e fcbb b3bd
00000080: d107 8d3e 70bd ac3c 96a2 633e 8ac9 253e
00000090: f111 8e3e e059 473d b083 233e 9cb1 f93d
000000a0: 3807 38bd ec7b f93d b66d 15be 7a4b 5a3e
000000b0: 302b 68be e041 54be 5067 1dbe 7f71 a0be
000000c0: 83b1 30be 1d8f 803e dc19 96be 6b2b 78be
000000d0: 3193 923e 6e1e 85be 819a 993e 3029 aa3c
000000e0: ce76 3c3e a028 6bbe ba56 3f3e 8094 523c
000000f0: 929d 2f3e 0044 60be 001e 71bd 44e7 a7be
00000100: 4896 51be b060 0d3e dea5 703e 2a34 453e
00000110: 8079 923c 8376 96be 6601 21be ce10 47be
00000120: 5b8f 943e 10b0 9abc 2898 273d 10b6 e53d
00000130: 3637 223e 29ca 803e d535 873e 03bb 76be
00000140: 7888 433d 73ce 1dbe 28b8 033d b1a3 983e
00000150: 20c3 9dbd fde0 983e 9020 3ebe 7322 26be
00000160: d965 a53e 02f4 373e 7015 c4bd 003c 8bbe
00000170: a05c 3b3c f687 ccbd 0e29 84be 26ae 7d3e
00000180: 807a 7e3b 12a6 623e a0a5 cd3d 409f 723d
00000190: c74a 933e a85d 383d 0014 c2b9 3e24 01be
000001a0: 86a8 25be d13e a83e 789f 453d afe7 86be
000001b0: 4b3a 3abe fec6 27be 961e 08be 90fd c73c
000001c0: 061a bdbd f041 a33d 10c3 c7bd 4830 39be
000001d0: 80d4 2cbb 8a5e 163e 00d5 a6bd fe4d 53be
000001e0: d8fc 00bd 2a02 743e d695 07be 7eb0 493e
000001f0: c4af 84be e26c 91be b834 a7be 8fb3 8e3e
00000200: f438 a5bd 4065 a0bc 1f4b 97be 6881 6ebe
00000210: 2ca8 f4bd 2e37 063e beb6 7f3e 486e 5e3d
00000220: 445a a0bd bb34 63be a081 fcbd 102f 50be
00000230: 1a76 613e 7b02 88be 18a2 17bd e0f1 503c
00000240: 8ae8 3f3e ec31 803d 8e60 2c3e fa05 473e
00000250: 1822 34be 166c 7fbe 8ba8 993e 7030 5dbe
00000260: 96c7 7d3e 803d 3e3b 0ad9 443e 0ef3 9bbe
00000270: d0f4 c83c de2f 0e3e 7456 9ebd 4d95 893e
00000280: 4ba1 a9be 7088 89be 34cf 80bd d05e d43c
00000290: 1d20 a63e 688f 5bbe cefb 2abe 095d 9a3e
000002a0: 0ad9 86be 55d2 993e 121c 5b3e 8459 d53d
000002b0: e869 403d c3aa 9dbe 4baa 1dbe 72cb 6c3e
000002c0: 3e85 47be 553b 823e a0f2 783d a5a1 8d3e
000002d0: 7972 9b3e f87c 27be e82c 93be 8e3f 11be
000002e0: 32bd 6a3e 20df a1be d079 53be a400 9dbd
000002f0: 96ad 9dbe 1a8e a4be f031 f6bc 3b7f 7bbe
00000300: 403d ccbb 3462 b13d 54bf 99bd b390 933e
00000310: ceb2 06be 269e bdbd e0ee d13d 6ee1 3c3e
00000320: 43f9 a43e 3291 7c3e c537 9b3e f46b c73d
00000330: 00f0 aaba 1a47 443e 1095 b8bc 75e2 a73e
00000340: 40e5 ff3d f5c8 993e 7bb9 69be 0819 273d
00000350: 0c46 b93d b6e2 b3bd 0a41 283e e891 54be
00000360: 8bf5 14be 30fa bd3c 4054 a13b e004 d23d
00000370: a6d7 a5be c32f 8abe c055 88bc 3941 853e
00000380: d025 b53d f01e dfbc 627c 6f3e e053 433d
00000390: 5029 24be 7355 84be b8ec 42bd 808a 223b
000003a0: 00f0 f639 a3b7 55be 003e e23d 5578 9e3e
000003b0: 6096 683d 66af 8fbe ee5b a1be 7ba6 66be
000003c0: 16e5 63be 18ab 57bd fa37 97be 1d6a 8d3e
000003d0: 50c0 82be 8050 9f3c 6a25 85be 7cd7 ab3d
000003e0: b508 913e 6e43 6bbe 90af b7bc 4b2a 45be
000003f0: 45e9 983e c5e6 873e a622 1b3e a6fa 27be

bias f4 [32]
0.32807627 0.19917491 -0.30189478 -0.12732399 -0.23703103 -0.24921381 -0.119348526 -0.10258496
0.31893423 -0.07289362 -0.046391368 -0.22648513 -0.10247442 -0.141061 -0.25791153 -0.18976736
0.29684088 0.05507171 0.23404995 0.26125923 -0.042189837 -0.0970916 0.18570492 -0.00077834725
0.10375586 0.0015394986 -0.013465881 0.19769326 0.1918303 -0.18904114 -0.013343781 0.31969228
00000000: 9df9 a73e 82f4 4b3e f491 9abe 3861 02be
00000010: 43b8 72be e831 7fbe 006d f4bd 1018 d2bd
00000020: 594b a33e 4049 95bd e004 3ebd b8eb 67be
00000030: 1cde d1bd 4b72 10be fb0c 84be 6052 42be
00000040: 87fb 973e e092 613d caaa 6f3e c5c3 853e
00000050: 40cf 2cbd f6d7 c6bd 6e29 3e3e 000a 4cba
00000060: f47d d43d 00c9 c93a 00a0 5cbc 1a70 4a3e
00000070: 2a6f 443e 0094 41be e09f 5abc b5ae a33e

weight f4 [1, 32]
0.03215815 0.04343781 -0.07403317 0.12170108 0.15270214 0.0012611002 -0.05312425 0.073813304
0.026671916 -0.11935572 0.17343412 -0.027685508 -0.10735894 0.1232508 -0.17506701 0.104481205
-0.15636271 0.13031022 -0.13333133 0.013965279 -0.106821775 -0.07784145 -0.09639817 0.08452539
0.06612019 0.05952148 0.06587279 -0.051534697 -0.027692646 -0.14092904 -0.009926528 -0.08709867
00000000: 44b8 033d d8eb 313d b49e 97bd 6a3e f93d
00000010: f35d 1c3e 804b a53a d098 59bd 6e2b 973d
00000020: 107f da3c c670 f4bd b798 313e b8cc e2bc
00000030: 01df dbbd ea6a fc3d c444 33be 3efa d53d
00000040: 8c1d 20be 0b70 053e 0288 08be a0ce 643c
00000050: 60c5 dabd 576b 9fbd 676c c5bd a61b ad3d
00000060: 066a 873d cccc 733d 50e8 863d 0c16 53bd
00000070: b0db e2bc b44f 10be e0a2 22bc ca60 b2bd

weight f4 [32, 32, 3, 3]
-0.023925852 -0.008591894 -0.05252235 0.058112953 0.04500727 -0.034736343 -0.035610057 -0.038973257
-0.011442173 0.03387453 0.011672188 0.049787957 0.045592736 -0.01223192 -0.046879046 -0.010338996
-0.03539817 0.014658172 0.035699893 -0.0041894726 -0.028990338 -0.040128443 0.037455972 -0.022544906
-0.058269143 0.008960199 -0.04877706 0.043453697 -0.030172389 0.008082371 -0.00897076 0.012843866
0.015038077 0.03360689 0.02381653 0.029190388 0.033042174 -0.058648963 0.019175012 -0.0032481365
-0.012579858 0.003019344 0.0003736019 0.023541477 0.055808377 -0.048734628 -0.039882988 0.020380612
0.025266532 0.058857914 -0.035010062 -0.037104577 0.0035505146 -0.013097316 -0.008726932 -0.0017026924
-0.0137026645 -0.050258465 -0.041456506 -0.017111957 0.052228313 0.026345287 -0.0037992373 0.03610133
0.041911166 -0.038539313 -0.04347559 -0.044518635 -0.029518781 -0.026347753 -0.02837998 0.051205132
-0.0051774383 0.05650038 -0.021065291 -0.04268969 -0.05173236 0.029126447 0.040658098 -0.037934706
-0.008337371 -0.0011778064 -0.025938105 -0.03272511 -0.038090266 -0.030750256 -0.019104414 0.05412363
-0.032604046 -0.01828079 -0.014766045 -0.041705124 -0.041218773 -0.046784222 -0.032585226 0.03791252
-0.044049285 0.031609688 0.033855554 0.009968381 -0.052463055 -0.034124393 0.017473739 -0.024661075
0.053136643 0.030418482 -0.0031938106 -0.03425797 0.05800875 0.019962724 0.0013059191 0.038031574
0.014813814 -0.015633088 -0.051784374 -0.054019306 -0.009223551 -0.055230882 0.04203241 0.039312694
-0.03332845 0.014717404 0.053448495 0.044471394 0.017550785 0.029545639 0.03942782 0.040912423
0.013747562 -0.02857293 0.026161332 0.033391457 0.0071268715 0.032146674 -0.01645697 -0.051673602
-0.05736296 0.007974941 -0.041307084 0.044555675 -0.05166424 -0.0038111582 0.005263407 -0.022176184
0.017781574 -0.04309872 0.057316523 -0.012875862 -0.018365778 -0.027334746 -0.03198652 -0.017842136
-0.022869665 0.038298298 -0.055934593 -0.02757622 -0.023349945 -0.012724977 -0.056166098 0.033708457
-0.056183428 -0.01808621 -0.017094601 -0.033971883 -0.03471218 0.042309586 -0.046111204 -0.029180976
0.026702736 0.055893566 0.03455368 0.02161305 0.02909511 0.017186467 0.05433168 0.0032036044
-0.027127307 -0.031738557 -0.029724177 -0.040613294 0.053828966 -0.02761491 0.023898747 -0.018202107
0.022852037 0.02480993 0.04214533 0.04151303 0.008192744 0.045132305 -0.022158816 -0.0007095225
-0.018775444 -0.0011380352 0.008269567 -0.042295255 -0.025526598 -0.02915891 0.0060334615 0.05888058
0.036681037 -0.031141415 0.008743551 0.054208893 0.046891604 0.05694459 -0.049926687 -0.04919012
-0.056811437 6.947294e-05 0.0524916 0.029950645 -0.04981512 0.011129495 0.047303934 0.003808584
-0.036989354 0.007661026 0.0034210384 0.056545746 0.04517166 -0.028676463 -0.042810537 -0.031358864
0.05534425 -0.003932886 0.01047672 -0.036410846 0.01620308 -0.009775661 0.057735357 -0.012084223
-0.027049705 0.0018022619 -0.021992512 -0.05052407 -0.034210484 0.01454879 -0.012938127 0.034602497
-0.057220906 -0.018241227 0.0043961443 -0.012260981 0.007240016 0.027602833 0.0071107186 -0.014128037
0.03360107 0.038286578 -0.010820009 -0.004405245 -0.05342755 -0.027147423 -0.056745455 0.0024989434
00000000: 2600 c4bc 04c5 0cbc ad21 57bd d907 6e3d
00000010: 8b59 383d b247 0ebd dadb 11bd 6ca2 1fbd
00000020: f477 3bbc 05c0 0a3d b43c 3f3c 75ee 4b3d
00000030: 73bf 3a3d 6468 48bc 3e04 40bd e464 29bc
00000040: acfd 10bd d428 703c 0d3a 123d d847 89bb
00000050: 257d edbc b95d 24bd 6f6b 193d 18b0 b8bc
00000060: a0ab 6ebd cccd 123c 74ca 47bd 81fc 313d
00000070: 162c f7bc ec6b 043c 18fa 12bc 146f 523c
00000080: 4462 763c 61a7 093d e21a c33c ae20 ef3c
00000090: 3b57 073d e539 70bd ea14 9d3c b0de 54bb
000000a0: c01b 4ebc 30e0 453b 00e0 c339 0eda c03c
000000b0: 5397 643d f69d 47bd 585c 23bd 3ef5 a63c
000000c0: c2fb ce3c ff14 713d b666 0fbd f8fa 17bd
000000d0: c0af 683b 2096 56bc 68fb 0ebc e02c dfba
000000e0: 2481 60bc d2db 4dbd 4cce 29bd 602e 8cbc
000000f0: 5bed 553d 12d2 d73c a0fc 78bb fdde 133d
00000100: 0bab 2b3d 66db 1dbd 7613 32bd 2c59 36bd
00000110: 5fd1 f1bc 3ed7 d7bc 227d e8bc 79bc 513d
00000120: 80a7 a9bb f16c 673d 1e91 acbc 62db 2ebd
00000130: 50e5 53bd 969a ee3c 1b89 263d 6c61 1bbd
00000140: 7899 08bc a060 9aba 267c d4bc c40a 06bd
00000150: 8a04 1cbd f6e7 fbbc dc80 9cbc bdb0 5d3d
00000160: d28b 05bd 98c1 95bc 48ed 71bc fed2 2abd
00000170: 04d5 28bd d0a0 3fbd 1678 05bd 294a 1b3d
00000180: 066d 34bd 2979 013d 1fac 0a3d 6c52 233c
00000190: 80e3 56bd 05c6 0bbd 1625 8f3c 0606 cabc
000001a0: cfa5 593d 2e30 f93c 404f 51bb 1652 0cbd
000001b0: 959a 6d3d de88 a33c 602b ab3a ffc6 1b3d
000001c0: a4b5 723c f610 80bc da1b 54bd 5943 5dbd
000001d0: 601e 17bc c739 62bd 2d2a 2c3d 5906 213d
000001e0: 6a83 08bd 4421 713c cfec 5a3d a327 363d
000001f0: aac6 8f3c b209 f23c 117f 213d c993 273d
00000200: 743d 613c c711 eabc 4a50 d63c 7bc5 083d
00000210: 8888 e93b 3bac 033d c4d0 86bc b3a7 53bd
00000220: 6cf5 6abd 54a9 023c 9e31 29bd 0380 363d
00000230: e29d 53bd a0c4 79bb a878 ac3b d4aa b5bc
00000240: aaaa 913c 4988 30bd bbc4 6a3d 48f5 52bc
00000250: d473 96bc 1eed dfbc 4c04 03bd ac29 92bc
00000260: 2a59 bbbc adde 1c3d ac1b 65bd 86e7 e1bc
00000270: 6248 bfbc 6c7c 50bc 6c0e 66bd e111 0a3d
00000280: 9820 66bd 8829 94bc fa09 8cbc 1a26 0bbd
00000290: 5c2e 0ebd d14c 2d3d 1adf 3cbd f10c efbc
000002a0: b2bf da3c a7f0 643d 2988 0d3d da0d b13c
000002b0: de58 ee3c a2ca 8c3c e58a 5e3d 90f3 513b
000002c0: 163a debc 4a00 02bd 1e80 f3bc 205a 26bd
000002d0: c37b 5c3d aa38 e2bc 4ec7 c33c 961c 95bc
000002e0: 3234 bb3c 323e cb3c 95a0 2c3d 9109 2a3d
000002f0: dc3a 063c a7dc 383d 6886 b5bc 40ff 39ba
00000300: f6ce 99bc 202a 95ba 147d 073c ca3d 2dbd
00000310: 281d d1bc abde eebc 58b4 c53b c32c 713d
00000320: db3e 163d 481c ffbc 1c41 0f3c 250a 5e3d
00000330: 6911 403d bb3e 693d ed7f 4cbd 947b 49bd
00000340: 1cb3 68bd 00b2 9138 6f01 573d 0e5b f53c
00000350: f00a 4cbd 7c58 363c c5c1 413d 7099 793b
00000360: 2682 17bd 5809 fb3b 8033 603b 839c 673d
00000370: eb05 393d e7ea eabc 1a5a 2fbd 2772 00bd
00000380: a7b0 623d 70df 80bb 8ca6 2b3c 8a23 15bd
00000390: 52bc 843c 182a 20bc e97b 6c3d e8fc 45bc
000003a0: 5897 ddbc e039 ec3a a429 b4bc 54f2 4ebd
000003b0: 4b20 0cbd 0c5e 6e3c 70fa 53bc 59bb 0d3d
000003c0: 7860 6abd a06e 95bc 880d 903b 48e2 48bc
000003d0: a83d ed3b 561f e23c 0801 e93b 4879 67bc
000003e0: 47a1 093d 63d2 1c3d 6846 31bc e059 90bb
000003f0: d9d6 5abd 4664 debc ec6d 68bd 50c5 233b

bias f4 [32]
-0.03358075 0.02447803 -0.025851682 -0.017409712 0.041269284 0.042186532 -0.016596444 -0.048851226
0.04501489 0.053595338 -0.03780414 -0.0041632727 0.03978276 -0.051940735 0.033552494 0.02912004
-0.04220994 -0.039293565 -0.011118352 0.032562975 -0.036964472 -0.01875683 0.018187214 0.042294044
0.013859417 -0.04828138 0.0019910373 0.05426531 -0.025857788 -0.03014535 -0.010282271 -0.026735496
00000000: f88b 09bd 2686 c83c e8c6 d3bc d09e 8ebc
00000010: fb09 293d c9cb 2c3d 44f5 87bc 3918 48bd
00000020: 8961 383d c986 5b3d 84d8 1abd 106c 88bb
00000030: 3ff3 223d cfbf 54bd 576e 093d 268d ee3c
00000040: 54e4 2cbd 4af2 20bd c029 36bc c160 053d
00000050: 0f68 17bd eca7 99bc 5afd 943c 853c 2d3d
00000060: 9c12 633c b2c2 45bd 107c 023b 4d45 5e3d
00000070: b6d3 d3bc 62f3 f6bc f876 28bc 6604 dbbc

weight f4 [32, 32, 3, 3]
0.05373292 -0.004857693 -0.045352407 -0.004266076 0.054096233 -0.046517737 0.029776972 0.046273258
0.048125375 -0.023035318 -0.011655014 -0.032283545 -0.051374234 -0.034029156 0.042803135 -0.022967111
-0.002294585 0.011442807 0.0340765 0.0059901364 -0.0073562562 -0.056230746 -0.007904984 0.02038427
-0.008779749 -0.049440417 0.045903776 -0.01629227 0.032638717 0.049320232 0.0508227 0.013109479
-0.03911637 0.009217169 -0.025503956 0.043206867 0.054199737 0.02800801 -0.04129686 0.04990865
-0.007913128 0.056537073 -0.016958222 -0.03613721 0.009283561 0.039501447 -0.04432776 -0.030356625
-0.03182254 -0.0076762773 -0.05267081 -0.053271376 -0.001611907 0.0011970624 0.025087167 -0.023635685
-0.029696241 0.04677603 -0.0042836033 -0.0061604977 -0.015751094 -0.050608575 -0.0024292544 0.014006283
0.0145944245 -0.045323357 0.048480425 -0.010954417 0.049365032 0.054615173 0.0018228516 -0.057290178
-0.017838415 0.047776137 0.017190557 -0.012727175 0.024976019 -0.037403673 0.0003798753 0.05623735
-0.041387603 -0.012232497 -0.028766468 -0.028260037 0.03732365 0.036055032 0.034517232 0.044049922
0.029513348 -0.010308269 0.017680932 0.051685397 -0.036983207 0.04445525 -0.050493576 -0.036477964
-0.008279264 0.04647768 -0.003200639 0.054476853 0.0008013956 0.019174043 0.049986545 0.0008569211
-0.055110965 -0.015889369 0.05773327 -0.055652976 -0.046730425 -0.02324956 0.020630922 0.01691496
-0.034305688 0.014887076 -0.046531945 0.052195247 -0.052844815 0.04440437 0.04442608 0.0052977614
-0.03238603 0.004411649 -0.01695263 -0.05315189 -0.032748394 0.020667743 0.056749415 0.009359498
0.056410003 0.026367452 -0.044165984 -0.007902682 -0.051645007 0.030379895 0.05807543 0.022126038
0.03149389 0.04196014 0.019924726 0.030221071 0.03690516 -0.011486273 -0.05085128 0.030600306
-0.042942457 0.040924568 0.042226125 0.005600903 -0.043878958 0.02536073 0.05504712 -0.026570898
-0.050020047 0.017619576 -0.010138206 -0.019925717 -0.02598269 0.055898655 -0.039833307 -0.0045618005
-0.015470821 0.050010387 0.008684341 -0.0084264465 -0.050525166 0.030126859 -0.04412348 0.026582655
-0.058540836 0.0077022277 0.036561828 -0.015698787 0.015136991 0.010736827 0.015926253 -0.013430696
-0.043174565 0.005294081 -0.03618917 -0.05578252 -0.0076770186 -0.052245837 0.053023916 -0.021804553
-0.009994108 0.027112942 -0.046737794 -0.009067487 0.014629122 -0.051337376 -0.0094655715 -0.003528893
-0.011778507 -0.0022532046 0.031412635 0.016108658 0.051537257 -0.040841863 -0.026344702 -0.047905717
-0.027766049 0.013268072 0.03123783 0.052923296 -0.039279282 0.0076591633 -0.058536973 0.033534195
0.03792649 0.048201147 0.0077686794 0.017010566 0.034007277 -0.017531704 -0.039400153 -0.049889725
-0.009732254 -0.042503893 0.009874884 0.0562266 -0.044768102 -0.048674285 -0.029056361 -0.013505831
0.04888014 0.056537535 0.037326146 0.03242923 -0.010615069 -0.038244233 0.0009485297 0.04216298
0.017433774 -0.031656154 -0.017068561 0.046452876 -0.05529545 0.05144353 0.048513126 0.0013655014
-0.04471646 0.031003553 0.012912031 0.056542326 -0.03038792 0.017703999 -0.04408147 -0.054862756
-0.04451509 -0.026065964 -0.01939845 0.034263913 -0.0022532195 0.015286241 -0.038012944 -0.05746705
00000000: 0d17 5c3d 482d 9fbb 72c3 39bd 70ca 8bbb
00000010: 0394 5d3d 6289 3ebd d6ee f33c 0789 3d3d
00000020: 1d1f 453d 90b4 bcbc acf4 3ebc c03b 04bd
00000030: ca6d 52bd 2862 0bbd 5752 2f3d 8625 bcbc
00000040: c060 16bb 9c7a 3b3c cd93 0b3d e848 c43b
00000050: c00c f1bb 3652 66bd e883 01bc eafc a63c
00000060: f0d8 0fbc 0982 4abd 9905 3c3d 5e77 85bc
00000070: 2db0 053d 0304 4a3d 772b 503d 24c9 563c
00000080: 7d38 20bd 9c03 173c aced d0bc aff9 303d
00000090: 8b00 5e3d 0e71 e53c e526 29bd 036d 4c3d
000000a0: 10a6 01bc 6b93 673d f8eb 8abc 9c04 14bd
000000b0: 141a 183c 45cc 213d 0691 35bd 75ae f8bc
000000c0: 5a58 02bd 4889 fbbb 59bd 57bd 1633 5abd
000000d0: a046 d3ba c0e6 9c3a 9a83 cd3c a09f c1bc
000000e0: 8845 f3bc 3998 3f3d 785d 8cbb 00de c9bb
000000f0: 7008 81bc f04a 4fbd 2034 1fbb 9c7a 653c
00000100: 741d 6f3c fca4 39bd 6993 463d 287a 33bc
00000110: fd32 4a3d 29b4 5f3d c0ec ee3a 1ba9 6abd
00000120: de21 92bc e9b0 433d 36d3 8c3c a485 50bc
00000130: 829a cc3c 9834 19bd 002a c739 2359 663d
00000140: 0c86 29bd d06a 48bc a8a7 ebbc 9881 e7bc
00000150: afe0 183d 71ae 133d f161 0d3d b16d 343d
00000160: fac5 f13c 04e4 28bc 9ad7 903c 11b4 533d
00000170: b47b 17bd b516 363d 5ad2 4ebd eb69 15bd
00000180: c0a5 07bc 615f 3e3d d0c1 51bb 1f23 5f3d
00000190: c014 523a e212 9d3c b1be 4c3d 00a3 603a
000001a0: 09bc 61bd 6c2a 82bc b979 6c3d 60f4 63bd
000001b0: 6768 3fbd dc75 bebc 2e02 a93c 3e91 8a3c
000001c0: 1f84 0cbd ece8 733c 4898 3ebd afca 553d
000001d0: ce73 58bd 5be1 353d 1ff8 353d d898 ad3b
000001e0: 37a7 04bd 988f 903b 3ee0 8abc ccb5 59bd
000001f0: 2e23 06bd 664f a93c 1372 683d 9458 193c
00000200: 2d0e 673d 8e00 d83c 64e7 34bd 407a 01bc
00000210: b789 53bd 42df f83c 81e0 6d3d aa41 b53c
00000220: bdff 003d 65de 2b3d 2e39 a33c 2e92 f73c
00000230: dd29 173d ec30 3cbc 6f49 50bd 7ead fa3c
00000240: 6ee4 2fbd 85a0 273d 4df5 2c3d c887 b73b
00000250: 6cba 33bd 4ec1 cf3c 1779 613d 36ab d9bc
00000260: d2e1 4cbd ee56 903c b81a 26bc 423b a3bc
00000270: a6d9 d4bc fdf5 643d 4028 23bd 287b 95bb
00000280: 5479 7dbc b1d7 4c3d c448 0e3c 140f 0abc
00000290: 7af3 4ebd 9acc f63c d2ba 34bd dec3 d93c
000002a0: 84c8 6fbd f862 fc3b dbc1 153d be9a 80bc
000002b0: 2401 783c 84e9 2f3c c677 823c 6c0c 5cbc
000002c0: d0d7 30bd f879 ad3b 183b 14bd 367c 64bd
000002d0: 808f fbbb bbff 55bd 9b2f 593d 769f b2bc
000002e0: 54be 23bc f61b de3c 2170 3fbd cc8f 14bc
000002f0: fcae 6f3c 2447 52bd 7c15 1bbc 0045 67bb
00000300: a4fa 40bc 80aa 13bb 89aa 003d 4ef6 833c
00000310: bb18 533d cc49 27bd d8d0 d7bc c938 44bd
00000320: a075 e3bc 5462 593c 7ae6 ff3c 19c6 583d
00000330: 50e3 20bd b8f9 fa3b 77c4 6fbd 275b 093d
00000340: cf58 1b3d 916e 453d 6890 fe3b be59 8b3c
00000350: 374b 0b3d a69e 8fbc 0e62 21bd 2b59 4cbd
00000360: 0874 1fbc 9018 2ebd 44ca 213c dd4d 663d
00000370: c25e 37bd b05e 47bd 9b07 eebc 9047 5dbc
00000380: 8b36 483d e793 673d 4de3 183d 83d4 043d
00000390: d4ea 2dbc fca5 1cbd c0a6 783a 17b3 2c3d
000003a0: 46d1 8e3c e2a9 01bd 5ed3 8bbc 5f45 3e3d
000003b0: 7b7d 62bd 73b6 523d b3b5 463d a0fa b23a
000003c0: 9b28 37bd 2afb fd3c fc8c 533c ed98 673d
000003d0: 16f0 f8bc fa07 913c c68e 34bd c5b7 60bd
000003e0: 7455 36bd 4a88 d5bc 80e9 9ebc 5158 0c3d
000003f0: c0aa 13bb 2473 7a3c 76b3 1bbd 9262 6bbd

bias f4 [32]
-0.0540434 -0.030066986 -0.0066155083 -0.043002542 0.036228213 0.05617373 0.021812882 -0.058612455
0.022749122 0.05605999 -0.049440045 0.011275094 0.010564644 -0.048505507 0.03114653 -0.02277596
-0.01312349 0.019622523 0.005035151 0.03524937 -0.021643475 -0.009759285 0.017786767 -0.052762493
0.008003917 0.0103957765 -0.053245924 -0.043411635 -0.020827547 -0.030535076 0.039232735 -0.043779913
00000000: 9d5c 5dbd 0a4f f6bc e8c6 d8bb 6f23 30bd
00000010: 0964 143d 6d16 663d eeb0 b23c 9d13 70bd
00000020: 5e5c ba3c 299f 653d a581 4abd 2cbb 383c
00000030: 5417 2d3c b6ad 46bd 0227 ff3c a694 babc
00000040: e803 57bc 6abf a03c e8fd a43b a561 103d
00000050: a84d b1bc 68e5 1fbc 8eb5 913c 7c1d 58bd
00000060: dc22 033c 0c53 2a3c 6618 5abd 66d0 31bd
00000070: 889e aabc b224 fabc 81b2 203d 9152 33bd

weight f4 [32]
0.87176466 0.9159106 0.45464635 0.81837666 0.5670222 0.1351614 0.53529465 0.53247374
0.48327333 0.7406569 0.14298004 0.7974165 0.28521067 0.5290414 0.33659768 0.0020397902
0.9571865 0.9619006 0.9379861 0.8401344 0.58147126 0.10186988 0.30171067 0.96558577
0.4542277 0.7994929 0.9724002 0.020601988 0.35795116 0.7122346 0.15976423 0.63565445
00000000: f82b 5f3f 1e79 6a3f 68c7 e83e 2281 513f
00000010: 5e28 113f c067 0a3e 1209 093f 3350 083f
00000020: 9a6f f73e b19b 3d3f 5c69 123e 7d23 4c3f
00000030: 2207 923e 426f 073f 8856 ac3e 00ae 053b
00000040: 2d0a 753f 1e3f 763f db1f 703f 0c13 573f
00000050: 4ddb 143f 28a1 d03d d279 9a3e a130 773f
00000060: 8890 e83e 91ab 4c3f 38ef 783f 80c5 a83c
00000070: 6045 b73e 0255 363f 3c99 233e 40ba 223f

bias f4 [32]
0.0 0.0 0.0 0.0 0.0 0.0 0.0 0.0
0.0 0.0 0.0 0.0 0.0 0.0 0.0 0.0
0.0 0.0 0.0 0.0 0.0 0.0 0.0 0.0
0.0 0.0 0.0 0.0 0.0 0.0 0.0 0.0
00000000: 0000 0000 0000 0000 0000 0000 0000 0000
00000010: 0000 0000 0000 0000 0000 0000 0000 0000
00000020: 0000 0000 0000 0000 0000 0000 0000 0000
00000030: 0000 0000 0000 0000 0000 0000 0000 0000
00000040: 0000 0000 0000 0000 0000 0000 0000 0000
00000050: 0000 0000 0000 0000 0000 0000 0000 0000
00000060: 0000 0000 0000 0000 0000 0000 0000 0000
00000070: 0000 0000 0000 0000 0000 0000 0000 0000

running_mean f4 [32]
-0.14253767 -0.1701279 -0.10998954 -0.01961256 0.04119038 -0.03956584 -0.115983225 -0.11141994
-0.034533966 0.08159531 -0.0026634447 0.17452139 -0.03453659 -0.082844056 0.033633262 -0.07270606
0.012050433 -0.12238308 -0.07227599 0.08030066 0.06337882 -0.049191277 -0.07555156 -0.0027310902
-0.0625439 -0.07349392 -0.06853708 0.05390658 0.00770953 -0.08028989 0.08028778 -0.030723237
00000000: 65f5 11be 0236 2ebe 3242 e1bd 85aa a0bc
00000010: 3eb7 283d ca0f 22bd 9d88 edbd 2330 e4bd
00000020: 7d73 0dbd 711b a73d 308d 2ebb bcb5 323e
00000030: 3d76 0dbd 25aa a9bd 08c3 093d eae6 94bd
00000040: 2e6f 453c fba3 fabd 6f05 94bd ac74 a43d
00000050: c1cc 813d cb7c 49bd c7ba 9abd 17fc 32bb
00000060: 0417 80bd fb83 96bd 2b5d 8cbd 25cd 5c3d
00000070: 3aa0 fc3b 076f a4bd eb6d a43d 4caf fbbc

running_var f4 [32]
0.058045655 0.024579056 0.03138535 0.016997874 0.02557154 0.020144468 0.01725298 0.00939281
0.020222204 0.017480772 0.027045963 0.023393026 0.01878338 0.016747253 0.027721051 0.035134062
0.03071952 0.017417124 0.016965264 0.008808459 0.029609194 0.028734257 0.027644757 0.03321544
0.04700597 0.028535463 0.020000113 0.009948722 0.037505604 0.017170757 0.022458937 0.016555253
00000000: 48c1 6d3d 045a c93c ed8d 003d 203f 8b3c
00000010: 687b d13c 0306 a53c 1f56 8d3c 4de4 193c
00000020: 09a9 a53c d633 8f3c 7f8f dd3c bba2 bf3c
00000030: 9adf 993c 8931 893c 4217 e33c bce8 0f3d
00000040: 81a7 fb3c 5bae 8e3c bdfa 8a3c 5b51 103c
00000050: fb8e f23c 1b64 eb3c 4277 e23c ea0c 083d
00000060: 5589 403d 34c3 e93c 47d7 a33c f7ff 223c
00000070: 7a9f 193d b0a9 8c3c cefb b73c e29e 873c

weight f4 [32]
0.070305586 0.84331197 0.1227662 0.346034 0.32944542 0.8754103 0.19119048 0.21992952
0.27440524 0.7362499 0.6081342 0.8195437 0.9531981 0.052128077 0.9727099 0.18751866
0.76982766 0.114276886 0.3278358 0.5777417 0.43252158 0.5099514 0.34006864 0.71573323
0.9144799 0.55894953 0.85524637 0.28038478 0.777614 0.5853919 0.08798492 0.75121754
00000000: 60fc 8f3d 4be3 573f d86c fb3d 5e2b b13e
00000010: 12ad a83e e41a 603f 70c7 433e 3435 613e
00000020: d87e 8c3e e07a 3c3f afae 1b3f 9ecd 513f
00000030: ca04 743f 4084 553d 8403 793f e404 403e
00000040: 6d13 453f 000a ea3d 18da a73e e1e6 133f
00000050: 7873 dd3e 2d8c 023f 7a1d ae3e 4b3a 373f
00000060: 5b1b 6a3f 5117 0f3f 6df1 5a3f 988e 8f3e
00000070: b611 473f 3edc 153f 7031 b43d cb4f 403f

bias f4 [32]
0.0 0.0 0.0 0.0 0.0 0.0 0.0 0.0
0.0 0.0 0.0 0.0 0.0 0.0 0.0 0.0
0.0 0.0 0.0 0.0 0.0 0.0 0.0 0.0
0.0 0.0 0.0 0.0 0.0 0.0 0.0 0.0
00000000: 0000 0000 0000 0000 0000 0000 0000 0000
00000010: 0000 0000 0000 0000 0000 0000 0000 0000
00000020: 0000 0000 0000 0000 0000 0000 0000 0000
00000030: 0000 0000 0000 0000 0000 0000 0000 0000
00000040: 0000 0000 0000 0000 0000 0000 0000 0000
00000050: 0000 0000 0000 0000 0000 0000 0000 0000
00000060: 0000 0000 0000 0000 0000 0000 0000 0000
00000070: 0000 0000 0000 0000 0000 0000 0000 0000

running_mean f4 [32]
0.0066454983 0.09814948 -0.027268257 -0.30966532 0.021782873 0.05406034 -0.014415 -0.021757917
0.064832024 -0.053579528 -0.101909645 0.12208841 0.030995796 -0.046198227 0.12692393 -0.0499276
0.06493609 0.068943135 -0.048228912 0.0956042 -0.14294128 0.20910606 0.19341415 0.02502245
-0.12734936 0.027122222 -0.049211025 0.17725818 0.052862506 -0.07505976 0.20231369 -0.01548691
00000000: 7bc2 d93b 9802 c93d ae61 dfbc 748c 9ebe
00000010: ff71 b23c 606e 5d3d e42c 6cbc a93d b2bc
00000020: a7c6 843d 3576 5bbd 01b6 d0bd 7d09 fa3d
00000030: e5ea fd3c 5a3a 3dbd 59f8 013e e280 4cbd
00000040: 36fd 843d 0f32 8d3d ae8b 45bd 23cc c33d
00000050: 335f 12be e61f 563e 5c0e 463e e2fb cc3c
00000060: df67 02be 6c2f de3c 8091 49bd 2b83 353e
00000070: 5b86 583d eeb8 99bd 522b 4f3e cfbc 7dbc

running_var f4 [32]
0.054743327 0.03884929 0.038239002 0.025476249 0.027321365 0.025313279 0.050051954 0.043535
0.03814398 0.029660238 0.015335441 0.03431801 0.032556582 0.033673666 0.017351035 0.044604212
0.017203273 0.03515372 0.02861743 0.021634573 0.044210665 0.030353744 0.025017696 0.028008064
0.009588195 0.01622791 0.020548644 0.049996816 0.009153712 0.04559579 0.017682848 0.028377255
00000000: 8a3a 603d 6f20 1f3d 80a0 1c3d 91b3 d03c
00000010: 0ed1 df3c cb5d cf3c 4703 4d3d c251 323d
00000020: dd3c 1c3d 07fa f23c 8041 7b3c 0b91 0c3d
00000030: 0d5a 053d 66ed 093d c223 8e3c e8b2 363d
00000040: e1ed 8c3c 59fd 0f3d 1a6f ea3c fd3a b13c
00000050: 3e16 353d 6aa8 f83c e9f1 cc3c 2b71 e53c
00000060: ce17 1d3c 65f0 843c a155 a83c 76c9 4c3d
00000070: 73f9 153c a7c2 3a3d 9fdb 903c 6b77 e83c
