models/5_cross_5_iter_10.pt (torch_old, 339781 bytes, 66 tensors)

weight f4 [32, 3, 3, 3]
000000 10 b5 a1 be 3e 22 d4 be 07 50 1a 3e 68 2e 8d be
       -0.31583452 -0.41432375 0.1506959 -0.27574468
000010 39 a3 16 bd 00 0f a2 bd 4b f3 6f bd 94 b7 39 bb
       -0.036776755 -0.07913017 -0.05858163 -0.002833818
000020 51 8b 9b 3c ad c4 af 3e 78 19 0c 3f 3d 85 df bd
       0.01898733 0.3432974 0.5472636 -0.10914085
000030 39 2b f9 3d a0 0d cb be b3 15 a9 3e fd 1f 15 3e
       0.12166447 -0.39658833 0.33024368 0.14562984
000040 29 89 1a 3e 25 ef 91 3e b8 08 8d 3e a4 70 86 3d
       0.15091385 0.28502765 0.27545714 0.06564453
000050 91 f0 0e 3c 12 74 6b 3e 0e 54 b1 3d ec 99 1b bd
       0.008724348 0.22993496 0.0865861 -0.03798859
000060 50 25 1d 3e 31 b4 07 3e 23 65 5b 3e 49 f4 af 3f
       0.15346265 0.13252331 0.214253 1.3746425
000070 d5 95 78 be dc 28 b5 bf 11 c0 66 3d dc ac 86 3f
       -0.24275906 -1.4153094 0.056335513 1.0521502
000080 83 78 ba be 52 3e 52 be 7a 3b 9f 3f ef a1 4e bf
       -0.36420068 -0.20531586 1.2440026 -0.8071584
000090 ff c2 e6 bf b6 ff 00 3f 03 ab 59 bf a8 49 d6 3e
       -1.8028258 0.50390184 -0.8502657 0.4185307
0000a0 c0 b1 85 3e 2e 2b 93 3f a9 af f5 bd be d4 a4 bf
       0.26112175 1.1497552 -0.11996395 -1.2877424
0000b0 34 97 a5 3e 92 6c 13 bf be 70 a1 be 51 1d 11 bf
       0.3234192 -0.5758754 -0.31531328 -0.5668536
0000c0 17 0a ec be ba cf 1a bf 73 53 73 be 05 7a ec be
       -0.46101448 -0.60473216 -0.23762302 -0.46186844
0000d0 32 0e bc be fc 7e 93 be 2d 8c d1 3e 76 cd 08 c0
       -0.3672958 -0.2880782 0.40927258 -2.1375403
0000e0 fa e3 8a 3e 1b 79 3e c0 31 35 0b c0 01 6b f6 3f
       0.27127057 -2.9761417 -2.1751215 1.9251405
0000f0 fe 3f a3 3e 1e 45 21 40 7c 27 48 40 c3 df c9 3f
       0.3188476 2.5198436 3.12741 1.5771412
000100 33 1d d6 c0 78 e1 c9 3f 6e 55 3f c0 2e 3e 18 be
       -6.6910644 1.5771933 -2.9895892 -0.1486747
000110 b4 58 29 3f 5b c4 c1 3f d4 09 f6 be 78 b9 0d 40
       0.66150975 1.5138048 -0.48054373 2.214445
000120 85 74 8d be a7 7a 96 be 5e 96 70 be 93 18 d6 bd
       -0.2762796 -0.2939045 -0.2349486 -0.10453906
000130 2b 28 0f be 0d 1b 89 be df 9f 47 be 78 51 13 bd
       -0.13980167 -0.2677845 -0.1949458 -0.035966367
000140 c7 f6 69 be d7 be 51 be fa a6 34 bf 67 aa 3d 3f
       -0.22848044 -0.20482956 -0.70567286 0.7408814
000150 7a f8 16 bf 61 12 18 bf cd e9 1a be 75 0e 38 bd
       -0.58972895 -0.59403044 -0.1512825 -0.044935662
000160 39 ae 85 bf 48 e3 81 be 3a ef 83 bf db 38 66 3e
       -1.0443794 -0.25368714 -1.0307381 0.22482626
000170 9f 9b 85 be 18 66 b8 3e fb ab 82 3e f9 63 5f 3f
       -0.26095292 0.3601539 0.25521836 0.8726192
000180 a0 a5 ef 3d 8c af d6 3b ae a1 0a bf 3c f7 1b bf
       0.11701512 0.0065516885 -0.54152954 -0.60924125
000190 57 f3 75 bf d7 b8 18 bf 6f 9f 4e bf 20 60 74 bf
       -0.9607443 -0.59657043 -0.80712026 -0.95459175
0001a0 64 85 56 bf 5b 8b 1b bf 32 ed 75 bf 79 a7 42 bf
       -0.8379729 -0.60759515 -0.96065056 -0.76036793
0001b0 f6 87 c0 3e 5e 23 63 3c b5 17 10 3f bc 2d 91 3f
       0.3760373 0.013863413 0.56286174 1.1342082
0001c0 d6 f7 27 3e 28 33 cc bd 78 6f 02 3e dc 61 e5 3c
       0.16403136 -0.09970695 0.12737834 0.028000765
0001d0 eb f3 cd 3e a2 03 12 3f f0 22 8e bf 64 1b 74 bf
       0.40225157 0.57036793 -1.1104412 -0.95354295
0001e0 a4 cb c3 be dd d9 c5 3f f0 87 ed be 47 91 5a 3e
       -0.38241303 1.5457112 -0.46392775 0.21344481
0001f0 cc f3 2c 3e 91 bf a4 be 91 f2 06 bf fa 58 d5 be
       0.16889876 -0.32177404 -0.52713877 -0.41669446
000200 1f d1 0d bf b3 f3 15 bf ca 41 e6 be 91 15 15 bf
       -0.5539722 -0.5857498 -0.44972068 -0.5823603
000210 23 68 8c be 50 8c 02 bf 8e 10 e6 be f9 5a d9 3e
       -0.274232 -0.5099535 -0.44934505 0.4245222
000220 58 25 da 3d 6c 0b b9 bd 8e 74 94 3e 9d 09 4e 3e
       0.10651654 -0.09035382 0.28995174 0.20120855
000230 a6 3e 0b 3e 36 1c 91 3e 3b a9 ce 3e e7 80 89 3e
       0.13598117 0.28341836 0.40363488 0.26856157
000240 83 a9 9c be b4 53 43 3e 03 f0 74 be 0a c0 a8 be
       -0.30598077 0.19074899 -0.23919682 -0.32959014
000250 ad b6 98 be d9 5e 22 be e2 4d 04 be b3 8e e5 bd
       -0.2982687 -0.15856494 -0.12920335 -0.11208858
000260 eb e7 d4 3c b6 be b9 bd b5 e9 03 3e cd aa 1c be
       0.025989493 -0.09069578 0.12882121 -0.1529953
000270 e2 60 b9 bd ad 2c 31 be bd e3 42 be bb 69 81 bd
       -0.09051682 -0.17302199 -0.19032188 -0.063189946
000280 df c2 0e be 4d 30 f8 3d 1f f6 f5 be e7 43 24 bf
       -0.13941525 0.12118588 -0.48039338 -0.6416611
000290 43 ff 9d be 59 b0 d4 be ff c0 2b 3f 02 e6 65 bf
       -0.30858812 -0.41540793 0.67091364 -0.8980409
0002a0 a7 31 98 3e db f1 de be 54 f3 4e be a1 b0 c0 be
       0.29725382 -0.43543896 -0.2021001 -0.37634757
0002b0 4b 85 b6 3e ed d0 3f bf eb fe f6 be 0f a7 72 bf
       0.3564857 -0.7492817 -0.48241362 -0.9478616
0002c0 59 6f 00 bf fc 96 05 bf 87 b4 8e 3e 6e ce 88 3f
       -0.50169903 -0.5218351 0.27872106 1.0687997
0002d0 3c 7e c8 3e 22 c5 36 3e 01 91 4e 3e d4 71 a8 3e
       0.3915881 0.17848638 0.20172502 0.32899344
0002e0 51 84 8c 3e e9 e6 92 3e ac 27 d7 3e 76 ef e6 3e
       0.274447 0.28691795 0.42022455 0.4510457
0002f0 d4 12 c3 3e e7 0e 12 40 1a eb 4a bf fe 5f 81 be
       0.38100302 2.2821596 -0.79264987 -0.2526855
000300 22 2e 8d bf 2e 46 ce 3f 47 5d 06 40 53 b0 d1 be
       -1.1029704 1.6115167 2.0994432 -0.40954837
000310 52 1b 9c 40 f5 36 39 c0 85 3d e4 3f c9 28 ac bf
       4.878335 -2.8939793 1.7831274 -1.3449947
000320 6c 30 a7 bf 57 40 3b 3f d5 39 a7 3c f0 13 8e 3e
       -1.3061652 0.7314505 0.020413319 0.27749586
000330 c1 97 92 3f 62 a1 09 40 8f ce bd 3e b3 89 20 bf
       1.1452562 2.150475 0.37071654 -0.6271011
000340 1b 40 59 bf bd 78 0e bf 2c 50 20 bf e0 99 34 bf
       -0.8486344 -0.5565298 -0.6262233 -0.70547295
000350 47 84 16 bf 0f 7d 1c bf 19 d2 4d bf cb 46 2d bf
       -0.5879559 -0.61128324 -0.8039871 -0.67686146
000360 2a 4f 48 be 57 18 a8 3e 22 d4 e1 be 53 7e ba 3c
       -0.19561449 0.3283107 -0.44107157 0.022765314
000370 b4 d2 4d be f5 dd 6e be 8c c0 81 be 74 0e 8b be
       -0.20099908 -0.23326857 -0.25342214 -0.27159464
000380 e7 88 1e 3e 96 ca dc 3d 58 9e b7 be 9d f7 35 bd
       0.15481912 0.10780828 -0.35862994 -0.044425596
000390 63 fe 5c bd 8f 28 49 be ec 4d d4 bc 2d 93 cb 3e
       -0.05395354 -0.19644378 -0.025916062 0.39760724
0003a0 b9 62 90 bd 86 8c 6a be a7 ef 7e be cd 31 0b be
       -0.0705008 -0.22905168 -0.24896108 -0.13593216
0003b0 3b 9e 70 bd a4 8e 3a be 60 f3 4d be 48 f9 6e be
       -0.05874465 -0.18218476 -0.20112371 -0.23337281
0003c0 b6 8d 1f be 86 f9 ad bd 00 4a a3 bd 08 47 38 3e
       -0.15581402 -0.084948584 -0.07973099 0.17995846
0003d0 d0 77 d3 be 10 11 05 be 19 e4 ee 3e 95 d2 06 3d
       -0.41302347 -0.1299479 0.466584 0.03291567
0003e0 93 84 7a 3e 40 0f 88 3f 9d 2b 67 be 51 a4 23 3e
       0.24464636 1.0629654 -0.22575231 0.1598065
0003f0 ad 73 4f bd 14 be 9d be 85 64 bf 3e 90 97 55 3e
       -0.050647426 -0.3080908 0.37381378 0.20858598

bias f4 [32]
000000 55 8c cf 3c 65 1f bd bd 4d 98 b2 bd 6e 77 8a 3d
       0.02533547 -0.09234504 -0.08720455 0.06761061
000010 18 db 39 be 98 ef ad bc 88 eb 0c 3e 36 2f 37 3e
       -0.18149984 -0.021232411 0.13761723 0.17889103
000020 44 b3 b6 3d ec 59 49 3d a2 b7 6c 3d 0d 76 3c 3e
       0.08920911 0.04915802 0.057792313 0.18404408
000030 dc e3 ba 3c a7 d4 09 be 84 45 31 3e fd 22 0f 3e
       0.02281373 -0.13460027 0.17311674 0.1397819
000040 fe 52 e5 bd 44 23 20 3c b9 a1 20 be b7 22 35 be
       -0.1119747 0.009774033 -0.15686692 -0.17689024
000050 32 d0 0d 3d f1 6c d7 3d fc fc 1c bd fe 31 ec bd
       0.03462238 0.10518826 -0.038327202 -0.11532973
000060 3a 23 d4 3d 25 13 16 3d c5 9b 90 bd d7 39 ff 3d
       0.103582814 0.03663935 -0.07060961 0.12462204
000070 f2 9f b7 bc f2 6b 13 3d d4 24 09 be 0b b1 b4 bd
       -0.022415135 0.035991617 -0.13392955 -0.08822831

weight f4 [32]
000000 07 5a 9d 3d f1 1c c1 3e 50 d0 96 40 e0 c4 81 3f
       0.07683187 0.37717393 4.712929 1.0138206
000010 88 3a 34 3e 02 53 f0 bd c7 82 18 3d 42 f9 87 c0
       0.17600453 -0.117345825 0.037234094 -4.249177
000020 17 43 9e 3d 13 6e de 3d 3e 01 8b 40 b9 36 9c 40
       0.0772764 0.10860839 4.3439016 4.88168
000030 7d 5b 05 c0 98 05 29 40 aa 47 5a 40 3c de 6b bd
       -2.083709 2.6409664 3.410624 -0.057584986
000040 6e 71 08 3c 67 fe 1b 40 c3 8e 86 3e 19 9d bf 3f
       0.008327825 2.4374025 0.26280794 1.4969817
000050 bd fd 17 3d dd f3 98 40 60 34 0c be bd aa b4 c0
       0.037107218 4.7797685 -0.13691854 -5.645842
000060 e8 5e bc 40 18 d5 33 40 18 f0 8f 40 70 d0 81 40
       5.886585 2.8098812 4.4980583 4.056694
000070 2d 51 3d 3e c1 a5 35 40 09 6c 56 40 cf b6 2b be
       0.18487997 2.8382418 3.350344 -0.16768955

bias f4 [32]
000000 f9 26 fe be 57 4b ba bf f6 1b 8c be 02 b2 f3 3f
       -0.4963911 -1.4554242 -0.27365083 1.9038699
000010 30 26 8d bf f9 1a e3 be ba d4 e6 be b5 7f f7 bf
       -1.1027279 -0.44356516 -0.45084172 -1.9335848
000020 9a 06 f0 be 26 32 2d bf ff 28 63 bf eb 73 5e 3e
       -0.46880037 -0.67654645 -0.8873443 0.21723907
000030 b8 f4 97 3f 81 a0 68 3f f1 1d 36 40 73 6c 55 bf
       1.1871557 0.9086991 2.8455775 -0.83368605
000040 d5 fe 1e bf c5 e5 f9 bf 1d 64 55 bf 01 a1 e8 ba
       -0.6210759 -1.9523245 -0.83355886 -0.0017748178
000050 33 b8 d7 be 4b ed ec bd 49 f5 f3 be e5 5b be bf
       -0.4213272 -0.115686975 -0.47648075 -1.4871794
000060 67 7a d5 bf d5 cf d7 3f aa af b9 bf 9e 45 19 bf
       -1.6677979 1.68603 -1.4506733 -0.5987185
000070 95 c6 0f bf 34 bf 3a bf 87 ac a9 bf d6 bc 22 bf
       -0.5616239 -0.72948 -1.3255776 -0.6356939

running_mean f4 [32]
000000 12 be d7 be 61 ed 84 bf df d8 17 3f 08 66 b9 c0
       -0.421372 -1.0384942 0.59315294 -5.793705
000010 bf 4f b0 3e f7 2c c8 3f 81 c9 71 bf 9a 9a 49 40
       0.3443584 1.5638722 -0.94448096 3.1500611
000020 27 f2 bd bf 72 50 7e 40 a6 16 a1 be 56 d9 19 c1
       -1.4839524 3.97366 -0.31462592 -9.615561
000030 ea b3 cd c0 ef 29 1b 41 a7 3c 0c 41 7c 86 fa 3c
       -6.428212 9.697738 8.764808 0.030581705
000040 38 6c 79 bf 4a a8 55 41 36 18 da 3f 54 d7 11 41
       -0.97430754 13.353586 1.7038639 9.11507
000050 dc ca e0 3e e8 af ba 3f f1 ad ca bb 14 d7 0f 40
       0.4390477 1.4584932 -0.006185286 2.2475023
000060 27 a4 19 41 a7 1c 14 41 dd 5c 38 c1 b4 13 e0 3f
       9.602576 9.256995 -11.522672 1.7506013
000070 35 06 10 40 00 82 80 3f 20 f4 0e c0 ae 89 d3 be
       2.2503788 1.0039673 -2.2336502 -0.4131598

running_var f4 [32]
000000 76 93 3e 3d 69 db 1d 3f 9b c4 e8 3f d6 c7 40 3e
       0.04652735 0.6166292 1.8184999 0.18826231
000010 93 68 85 3e 4a b4 ae 3d c8 75 c5 3d 58 06 ac 3f
       0.26056346 0.08530481 0.096416056 1.3439436
000020 40 1d 18 3d 43 62 92 3e c0 7d 29 40 8a c2 ea 3f
       0.03713727 0.28590593 2.6483002 1.8340619
000030 b0 6c e9 3f c1 a2 8d 3f 58 2c 55 3f 6b 54 2c 3e
       1.8236294 1.1065294 0.8327079 0.16829078
000040 f9 8c 37 3d 7c 2c 08 40 12 c0 ab 3d 4d bd 36 40
       0.044812176 2.127715 0.08386244 2.855304
000050 4a 97 de 3d 19 c0 b2 3f ee ce a2 3c cf 01 93 3f
       0.108687 1.3964874 0.019874062 1.1484927
000060 4b cc 88 3f 42 fe 9b 3f 6c f7 95 3f ad 84 a9 40
       1.0687345 1.2186968 1.1716132 5.297446
000070 86 70 df 3d 37 f9 32 40 ff a1 a7 3f 0f a4 07 3d
       0.10910134 2.7964609 1.3096312 0.033115443

weight f4 [2, 32, 1, 1]
000000 7a f0 1a 3f 28 a5 28 3f d4 61 cd bd 60 4c 9a 3f
       0.6052319 0.6587701 -0.10028425 1.2054558
000010 4a 94 a0 be 9e ca 11 3e 35 a7 bf 3f dc 0d 8a bf
       -0.31363136 0.14237449 1.4972903 -1.078548
000020 82 05 0c 3f e4 e6 a6 bf b0 09 6d 3f f2 d9 7a 3f
       0.54695904 -1.3039212 0.92592907 0.9798881
000030 0c 71 05 3e ea 68 61 bf ef 4c 37 40 b0 c4 f7 3f
       0.13031405 -0.8805071 2.8640707 1.9356899
000040 72 85 2d bf d9 1f 4f 3e bc b8 62 3e a2 9a e7 be
       -0.67781746 0.20226993 0.22140783 -0.45235163
000050 a0 c0 9a 3e 9a e7 93 bf 01 24 25 bf a8 0d dd 3e
       0.30225086 -1.1555054 -0.6450806 0.4317448
000060 3f 0e b2 be 07 99 03 bf ff 13 70 3d 95 e7 a4 bf
       -0.34776494 -0.51405376 0.05861282 -1.2883173
000070 41 a9 c3 3f 4c 8e 83 3e 91 30 b6 3f 3e 85 7c bf
       1.5286027 0.256945 1.4233571 -0.9864081
000080 a0 52 43 c0 41 2c 27 40 ec 0c 0e 3e b3 1e be be
       -3.051918 2.612076 0.13872117 -0.37132797
000090 d4 dc aa be 04 4a 51 40 96 ad a6 3e 13 1b 43 3e
       -0.33371603 3.2701426 0.3255431 0.19053297
0000a0 e1 2b f4 bf 5c d1 01 c0 55 88 06 bf 75 70 6a c0
       -1.9075891 -2.0284033 -0.52551776 -3.6631138
0000b0 80 2f eb 3f cc ac 36 40 aa d3 ac 40 15 12 23 c0
       1.8373871 2.8542967 5.400838 -2.5479786
0000c0 4d c7 0b c0 05 eb 73 40 25 e2 91 bf a6 7f 64 40
       -2.1840394 3.8112195 -1.1397139 3.570291
0000d0 da ec 16 bf bc fd 33 bf 63 96 26 40 56 47 e8 3f
       -0.58955157 -0.7030904 2.6029289 1.814677
0000e0 87 91 17 3e db fb 98 40 20 55 04 c1 0d 42 1a c0
       0.14801608 4.780744 -8.270782 -2.4102814
0000f0 0a 4f 09 c1 5b 0e 39 40 cd 58 29 c0 e4 78 7d 40
       -8.581797 2.8915012 -2.646045 3.9605036

bias f4 [2]
000000 82 2b 25 3e 36 c1 df bd
       0.16129878 -0.10925524

weight f4 [2]
000000 18 95 3b bf 14 78 68 3f
       -0.73274374 0.90808225

bias f4 [2]
000000 4d 4f 67 c0 0a d6 ee 3d
       -3.6142151 0.116619185

running_mean f4 [2]
000000 41 fb 33 41 8f 5c 36 41
       11.248841 11.397597

running_var f4 [2]
000000 fc 51 d8 42 8c 35 66 44
       108.160126 920.8367

weight f4 [26, 18]
000000 bf 32 e6 be 33 d7 21 bd 9e 62 f2 be e2 03 03 3f
       -0.4496059 -0.03951187 -0.47340864 0.511778
000010 b7 3d 83 bf c1 ec bf bd 70 ac 94 3f 36 e5 4d be
       -1.0253209 -0.09371329 1.1615124 -0.20106968
000020 07 d7 50 bd 8d 27 0d c0 7b 59 bf 3e 69 29 02 3f
       -0.050986316 -2.205539 0.37372956 0.50844437
000030 47 2a 20 3f 2c da e4 3f 6c a0 79 bf 02 4a 57 bf
       0.6256451 1.7879081 -0.9751041 -0.840973
000040 29 70 1c 3f 60 fd 0c bf d6 a6 1a bf 8b cf 05 3f
       0.6110864 -0.5507412 -0.6041082 0.5226981
000050 aa 4e 5e 3f 4d b4 eb be 59 63 7c 3f 11 fe ab 3e
       0.8683878 -0.46035996 0.9858909 0.33592275
000060 2e e0 cc be 20 bb 35 3e 61 1c 88 bc 9e b0 27 c0
       -0.40014786 0.17747164 -0.016615095 -2.6201549
000070 3c d1 8f bf 82 bd a6 3f 5f 54 53 3f 02 8c 94 3f
       -1.1235728 1.3026583 0.82550615 1.1605227
000080 b7 fa 83 3f 7b 9c bc 3f 2f 1f 46 3f df e8 0a bf
       1.0310887 1.4735254 0.7739133 -0.54261583
000090 6a b9 f8 bd 23 3a 67 be cd 74 88 be de 4d f3 be
       -0.1214474 -0.22580771 -0.26651612 -0.47520345
0000a0 56 5f b2 be 5a 49 cc be 3b 76 c0 be 8e 59 4b be
       -0.3483836 -0.39899713 -0.37590203 -0.19858381
0000b0 8d 7e e0 bd f7 af e4 3e fe ef 96 bf fc 38 8f bf
       -0.10961638 0.446655 -1.179199 -1.1189265
0000c0 12 84 2c 3f 3a 61 02 bf 2a b4 ce 3f b8 07 cd 3f
       0.67389023 -0.50929606 1.6148732 1.601798
0000d0 aa 2b 18 be 0e b4 d7 3e 06 07 78 3e f6 31 9b 3e
       -0.14860407 0.42129558 0.24221429 0.30311555
0000e0 4b 8d 0d bf 41 c3 59 3f 32 72 2f bf 84 23 52 3f
       -0.5529372 0.8506356 -0.68533623 0.8208544
0000f0 ea 19 72 3f a8 91 50 be 6b 1d 13 3e 94 79 a3 bc
       0.9457079 -0.20368063 0.14366691 -0.019955434
000100 1c 89 90 3f 3c 75 17 c0 dc 4d cf be 46 29 b2 be
       1.1291842 -2.3665304 -0.4048909 -0.34797114
000110 7f a4 18 3e 3d c8 8b 3f 6a 15 43 3d 50 6c 43 3f
       0.149065 1.0920483 0.047627844 0.76337147
000120 71 f3 95 3f 16 1a eb be 3e dd 9c be ce 3e 42 bd
       1.1714917 -0.4591834 -0.30637544 -0.047423176
000130 ce a6 75 be d1 2e 4d bd 6c 5f 2c bf 27 28 db be
       -0.23989412 -0.050093476 -0.673331 -0.4280407
000140 a0 b9 91 be df 19 9c 3f 2b 31 09 3e 9a 40 a7 be
       -0.28461933 1.2195395 0.13397662 -0.32666475
000150 31 88 4a bf e0 65 16 bf f5 6a 91 3f bc fe 8e 3f
       -0.7911406 -0.587492 1.1360766 1.1171489
000160 f0 50 ac 3d dc 19 36 3f b5 06 10 3d 11 a9 dc be
       0.08413875 0.7113321 0.035162646 -0.43097737
000170 97 49 15 3f 97 76 09 3c a6 c7 29 bf 89 7d 97 3f
       0.58315414 0.00839009 -0.66320264 1.1835185
000180 72 9a ef bd c6 47 68 3e a2 a5 94 3e ec e6 08 c0
       -0.1169938 0.2268363 0.29032618 -2.1390944
000190 40 f9 42 bf 74 0d 72 3e 42 35 7f bf a6 4c e6 3f
       -0.76161575 0.23637944 -0.9969064 1.7992141
0001a0 72 4e 85 3d 6f c7 97 3f 97 ef 3f 3f 85 54 4e 3f
       0.06509103 1.1857737 0.7497496 0.80597717
0001b0 97 5f fc be db a6 f4 be 14 3a 69 3e 91 7c 89 be
       -0.4929168 -0.4778355 0.22776061 -0.2685285
0001c0 04 9f 63 bf b4 8c ad be 45 61 91 bd 80 a0 f9 bc
       -0.88914514 -0.3389641 -0.07098631 -0.03047204
0001d0 61 6c f4 bd f3 44 cb bf b8 7b 38 bf 8e 7c f0 3e
       -0.11934734 -1.5880417 -0.7206378 0.46970028
0001e0 60 f1 38 c0 fb c2 32 3e 59 e2 17 3f b5 13 ea 3e
       -2.8897324 0.17457192 0.59329754 0.4571816
0001f0 8f b7 ed 3e db f8 0e 40 0d d9 37 3f df ad d0 be
       0.46429107 2.233939 0.7181557 -0.40757653
000200 75 59 0e bf 62 cf 89 be 00 2b c5 3f 96 52 f9 bd
       -0.5560525 -0.26916033 1.5403748 -0.12173955
000210 e4 72 05 be c0 5d a1 be 2b 2b 6a be da c3 6e c0
       -0.13032109 -0.31516838 -0.2286803 -3.7307038
000220 98 45 81 bf bc 9f dd be eb d9 e1 3e 48 93 b3 bf
       -1.0099363 -0.4328593 0.4411157 -1.4029322
000230 64 e0 24 c0 02 64 08 40 f3 c8 c7 be 14 77 c8 3f
       -2.5761957 2.131104 -0.390205 1.566134
000240 2b 4c b6 bd ff 83 11 bf 76 e6 14 bf ff 22 4f be
       -0.08901247 -0.56842035 -0.58164155 -0.20228194
000250 65 67 04 40 53 81 39 be 0e de e1 be 79 f6 ac be
       2.0688107 -0.1811574 -0.44114727 -0.33781794
000260 d0 18 07 3f 30 03 c0 3f 25 02 28 c0 2d c3 82 bf
       0.52772236 1.5000973 -2.625131 -1.0215813
000270 b3 4e 55 3c 18 4a 93 3f 57 11 31 c0 7a 8c 09 3f
       0.013019252 1.1506987 -2.7666833 0.53729975
000280 7a 53 71 3f cb 36 31 bf 80 5d 7c 3e 20 f2 2b bf
       0.94268 -0.6922423 0.24645042 -0.6716633
000290 0a df 3f 3f ca 7e 4b 3f 2c f4 1d 3e 6d 3f 3d 3e
       0.74949706 0.7949034 0.15425175 0.18481226
0002a0 24 20 37 3e 13 b5 92 3e f9 cb be be b7 84 9a 3e
       0.17883354 0.28653774 -0.37264994 0.30179378
0002b0 d9 63 33 3f af 86 bb c0 bd d9 35 3f c9 8c 43 be
       0.7007423 -5.860191 0.7103537 -0.19096674
0002c0 5c 47 a2 3f 8b a7 b3 3f 35 b0 fa 3e 96 1a 74 3f
       1.2678027 1.4035505 0.4896256 0.95353067
0002d0 0b 55 ac be ec 6a e6 be 95 b1 91 3f 3f 53 e8 bd
       -0.33658633 -0.4500345 1.1382319 -0.11344003
0002e0 46 db 7b bf 87 f3 dd be f7 69 6c be 0e 9b 63 3e
       -0.9838146 -0.4334986 -0.23087297 0.22227117
0002f0 76 ff c4 3e 99 60 5c 3e b5 e0 1e bf ee 70 a1 3f
       0.3847615 0.21521224 -0.62061626 1.2612588
000300 75 73 03 c0 ba da 1f bf 39 d0 8f 3f c9 d6 ed bf
       -2.053922 -0.62443125 1.123542 -1.8581172
000310 48 b3 9a 3f c1 16 b9 3f 3c 5d 0e be 8d 7d f7 be
       1.2085962 1.4460069 -0.13902754 -0.48337975
000320 17 ba 8e bf 76 9c 85 bd 60 b9 11 bf 69 0b 84 3b
       -1.115054 -0.06523983 -0.56923485 0.0040296805
000330 b1 f9 a6 be 0d 7d e7 3b 3b 9b 4c be e8 57 a9 3e
       -0.32612374 0.0070644678 -0.1998109 0.3307488
000340 d9 ba 1e bf 0f 61 19 3f fe d4 fa bf 90 23 03 c0
       -0.62003857 0.59913725 -1.959625 -2.0490456
000350 e9 8d 9b 3f 0e 4b 22 c0 5f 63 81 3f 3c fb c7 3f
       1.2152683 -2.535831 1.0108451 1.5623546
000360 a6 0c d2 3d a5 27 7a bd be fd 2d 3e 76 51 a3 3e
       0.10256319 -0.061072964 0.16991326 0.31898087
000370 5a 3f 94 3f ea 41 2a bf 13 bb ba be c7 5e 9f 3e
       1.1581833 -0.66506827 -0.3647085 0.31126997
000380 13 ff 34 bd 78 c6 26 40 e5 be c1 3e f8 be 4a 3e
       -0.04418857 2.6058636 0.37840953 0.19799411
000390 a3 9d 85 c0 1f e5 8d bf d4 08 56 3e 2d e2 c0 3e
       -4.175493 -1.1085547 0.20901805 0.37672558
0003a0 30 73 83 be 6b 66 a7 bf a2 4c 69 3e 1c a1 a3 be
       -0.2567382 -1.307813 0.2278314 -0.31958854
0003b0 03 72 86 3e 21 aa e4 bd f5 ea ef 3e 72 a3 af be
       0.2625886 -0.11165262 0.46858945 -0.34304386
0003c0 69 4d 83 3f d8 9c f1 3d 89 ae 3d be ed 0e 5f 3f
       1.0257999 0.11797494 -0.18523611 0.8713215
0003d0 4a 29 f6 3f 80 6b 85 bf 5f 0a 18 3f 47 51 81 c0
       1.923135 -1.0423431 0.59390825 -4.0411716
0003e0 ce f8 e6 bf 26 56 bd 3f c9 74 d2 3e b4 41 26 c0
       -1.8044679 1.4791915 0.41104725 -2.5977602
0003f0 24 66 66 3d fe 46 49 3f 38 39 2b 3c ca 7d 82 be
       0.056249753 0.7862395 0.010450654 -0.25486594

bias f4 [26]
000000 74 aa f0 be 04 81 9c be 73 93 bd be 91 9f c5 3d
       -0.47005045 -0.3056718 -0.37026557 0.096495755
000010 2a a0 ab bd 33 ba f6 3d ae c0 b1 be 2e 4f b4 3e
       -0.08380158 0.120472334 -0.34717315 0.3521666
000020 ae f8 d6 3e 11 51 37 3d 36 a1 a7 bc 52 ca 0f be
       0.41986603 0.044755045 -0.020462614 -0.14042023
000030 e0 40 0d be 87 61 50 3c 9e 68 36 bd c3 a1 6a 3e
       -0.13794279 0.012718565 -0.044533364 0.2291327
000040 d5 9c a9 3d 11 c6 71 be 92 89 02 3e a7 3b 1a 3e
       0.082818665 -0.23610713 0.12747791 0.15061818
000050 f2 a7 c5 bc 1d db 8a be 3f 6b f5 bd e2 92 55 be
       -0.024127934 -0.27120295 -0.11983346 -0.20856813
000060 00 72 d6 3c cb 6f 22 3f
       0.026177406 0.6345183

weight f4 [1, 32, 1, 1]
000000 06 60 83 3d 81 58 53 3f a6 25 1f be 89 99 c4 bc
       0.064147994 0.8255692 -0.15541705 -0.023998993
000010 2a f3 61 be eb ff 2b bf 65 4e da be 2f d9 58 bf
       -0.22065416 -0.67187375 -0.42637935 -0.84706396
000020 83 6b ea 3e 6b da af 3d b1 00 a8 3e 0b 26 50 3f
       0.4578515 0.08586582 0.32813028 0.8130805
000030 a8 33 b7 3e 96 19 f4 3e dc 12 1d be 01 4d 24 bf
       0.35781598 0.4767577 -0.15339226 -0.6418
000040 8a 08 15 be 6e 97 e7 be 3c 43 42 3e fa f3 85 bf
       -0.14554039 -0.4523272 0.1897096 -1.0465081
000050 2a e6 61 be 8d ad 98 3e f6 90 c4 3e d0 46 4f 3f
       -0.22060457 0.2981991 0.38391846 0.80967426
000060 84 d0 b5 bf 75 56 ca be 91 0c 33 3e 07 fe 62 bf
       -1.4204259 -0.39519086 0.17485262 -0.88668865
000070 01 05 2d 3e c3 f3 67 3f 44 d0 02 3f dd 81 7a be
       0.1689644 0.90606326 0.5109904 -0.24463601

weight f4 [32, 9]
000000 f2 00 cc bd f8 67 d0 be 95 5b 9e be c9 90 11 3b
       -0.09961118 -0.40704322 -0.30929247 0.0022211543
000010 f0 7b 71 3d b9 87 1b 3e 35 0e 06 be 76 dc 0d 3d
       0.058956087 0.15188493 -0.13091357 0.034634076
000020 b7 09 bc be 02 f7 c0 be de 03 3a 3d d9 64 6d bd
       -0.36726162 -0.37688452 0.045413844 -0.057957504
000030 5d d9 ce 3e 20 fc 8b be 2c b6 89 bc df f9 91 bc
       0.4040021 -0.27340794 -0.0168105 -0.017819343
000040 8e 0f 54 be d6 11 48 be 17 77 ec 3c 18 37 a0 be
       -0.20709059 -0.19538054 0.02886538 -0.31292033
000050 b0 48 22 be b4 1b 41 be d8 b7 a3 3c ad da 16 be
       -0.1584804 -0.18858224 0.019985124 -0.14731856
000060 80 29 ff bd de c7 c6 3d c8 6a 57 3e ac 41 57 3e
       -0.12459087 0.097060904 0.21036828 0.21021146
000070 b5 60 11 3e 3d 5d e9 be 97 6e f9 3d e8 bd 28 be
       0.14197047 -0.45578948 0.121792965 -0.16478693
000080 78 de 10 3e 58 c7 11 be 34 87 30 3d cb af 8a 3d
       0.14147365 -0.142362 0.04309769 0.06771811
000090 bc 20 6e 3f 5b c0 4f 3e 2d e8 39 3f 9b b3 2e be
       0.930187 0.20288222 0.726199 -0.17060702
0000a0 7e ce 13 bc 36 82 e9 bd bb 14 91 3e 60 f3 1e 3f
       -0.0090214 -0.11401789 0.2833613 0.6209011
0000b0 9a 6d ac be f3 c3 54 be 86 30 22 be 6f 64 9f be
       -0.3367737 -0.20777874 -0.15838823 -0.31131312
0000c0 9b cf d9 3c e9 cc ee 3e 38 b8 98 be ee 26 5c be
       0.026588252 0.4664071 -0.29828048 -0.21499225
0000d0 de e2 e3 3e 8c 68 2d be d4 2c a2 3e 1d db 06 3d
       0.44509023 -0.16934413 0.31674826 0.032923806
0000e0 91 2a db 3e fe ab 3c be a8 ec 7c 3e 86 1e 93 bd
       0.42805913 -0.18424985 0.24699652 -0.07183556
0000f0 28 f9 24 3e ac b0 9d 3e 09 99 1f bd 41 b7 ab be
       0.1611067 0.30798852 -0.038964305 -0.3353825
000100 17 8b 4e be e8 3b e7 3d 60 d7 64 3e 3e 64 34 3e
       -0.20170246 0.11290723 0.22347784 0.17616364
000110 a0 f3 24 3c ca 73 92 be 3d 47 25 be e8 b5 46 be
       0.01006785 -0.28603965 -0.16140456 -0.19405329
000120 2b dd 67 3e 59 ca 79 3d 5e 10 26 3e 76 d8 df be
       0.22642963 0.06098399 0.16217181 -0.43719834
000130 91 f4 c5 bd 95 3f 2c 3e 05 2e 16 3f fa 93 f5 be
       -0.09665788 0.1682113 0.5866397 -0.4796446
000140 d8 e8 cc be 2d 34 8b be d4 4a cd be 0c 1c 5d bd
       -0.40021396 -0.27188244 -0.40096152 -0.053981826
000150 62 b4 10 3f de 55 7b 3e be 04 6c be 0e 74 b1 be
       0.5652524 0.24544474 -0.23048684 -0.34658855
000160 29 30 2b 3e d3 6a 98 3e a7 21 06 be 43 12 8e be
       0.1671759 0.29769 -0.13098775 -0.27748308
000170 2b 4f 78 bd 8b fb c5 bd 96 f4 91 be b7 f3 80 3e
       -0.060622375 -0.09667119 -0.28506917 0.2518594
000180 60 60 96 bd 2e 11 ea 3d 36 7e fd 3d 2c 78 a5 bb
       -0.07342601 0.11429058 0.123775885 -0.005049726
000190 df 07 6c 3e 34 f4 bb 3c b2 78 77 bd 71 80 03 be
       0.23049878 0.022943594 -0.06041784 -0.12841965
0001a0 29 76 3b be 5d 24 d4 3e ee b8 14 bc d3 10 ad be
       -0.18306793 0.41433993 -0.009077294 -0.33801898
0001b0 40 b4 36 be 3b 9a 24 be eb 8a 05 be d0 34 c4 3c
       -0.17842197 -0.16074459 -0.13041274 0.023950964
0001c0 d6 79 b9 bd 09 fe a0 3d 41 fb c3 bd d8 af 35 be
       -0.090564415 0.07860953 -0.09569407 -0.1774286
0001d0 77 5d 27 bb e3 f2 e9 3e 4a b6 33 be a8 30 f1 3d
       -0.0025537887 0.4569312 -0.17550007 0.117768586
0001e0 8e 41 1f be b6 84 83 3e 47 3d 46 be f4 47 2a 3e
       -0.15552351 0.25687188 -0.19359313 0.1662901
0001f0 f8 7b 37 3e 61 bf 9d be db 7e a3 be 83 4a 93 3e
       0.17918384 -0.30810073 -0.3193272 0.28767785
000200 72 97 df be 85 9d e7 b9 b3 11 ce be 05 46 40 be
       -0.4367023 -0.00044177115 -0.40247878 -0.1877671
000210 c3 46 1c 3c 9c 52 93 3e 9c d5 64 3e 91 08 72 3d
       0.009538355 0.28773963 0.2234711 0.0590902
000220 6c e5 a1 bd 9b 47 5e be 61 97 ef bd 04 b7 4c be
       -0.07905087 -0.21707003 -0.11698795 -0.1999169
000230 a4 ec 76 3e 3a ea 85 be 71 a7 06 bd 42 6b 05 3d
       0.24113709 -0.26155263 -0.03287453 0.032572992
000240 69 e5 82 3c 51 1e b7 bd 4c d8 99 3e 04 5a 3f be
       0.015978532 -0.08941329 0.30047834 -0.18686682
000250 dd d9 36 be f9 4c bc be 39 13 3a 3e 50 34 95 be
       -0.17856546 -0.36777475 0.18171395 -0.29141474
000260 a7 3d 4a bc 3a 77 18 3e c8 7e 9f be db 82 2b bf
       -0.012343801 0.14889231 -0.31151414 -0.66996545
000270 ff 4d 9e 3d 8a 73 19 3e 68 99 89 be 1b d7 a9 3c
       0.0772972 0.14985481 -0.26874852 0.020732453
000280 c5 e3 be be 0a 8f 1f bf 3e 9f 24 be d4 d1 58 be
       -0.3728315 -0.62327635 -0.16076371 -0.21173793
000290 f0 14 3c 3e db db 9f 3e 7e d8 b4 be 2f 20 0b 3f
       0.18367362 0.31222424 -0.3532142 0.54345983
0002a0 ae 84 ff be 94 3e 46 3e 88 7b 5b 3e a0 1a 74 bf
       -0.49905914 0.19359809 0.21433842 -0.95353127
0002b0 33 83 6b be 49 e8 21 bf 6f cf 0b bf 4d 3e d2 3e
       -0.22999267 -0.63245064 -0.54613394 0.41063157
0002c0 7b 8a b2 3d ab 7d fd be 1e 8a 23 bf f5 ef 1d 3f
       0.08717819 -0.4950994 -0.63882625 0.6169427
0002d0 0d f9 6c 3e fb 91 42 be a8 89 8f be c4 af 3a be
       0.2314188 -0.19001 -0.2803471 -0.18231112
0002e0 38 db 40 3e ac 33 9c be 27 ab 5e be b3 5e e6 bd
       0.18833625 -0.30508173 -0.21744977 -0.11248531
0002f0 8e 46 98 be 47 dc a2 be d8 cb d5 bc 08 68 75 be
       -0.2974133 -0.31808683 -0.026098177 -0.23965466
000300 6a ca 42 bc a5 95 aa 3d 3b 64 9b bd 39 39 92 3e
       -0.01188908 0.08329324 -0.07587477 0.28559282
000310 6e ff e2 bd 5f 66 c0 bd 4d 1e 3e be 66 4e be bc
       -0.110838756 -0.09394526 -0.18566246 -0.023230743
000320 87 d2 36 3e 87 51 bf 3e 15 78 07 3e 76 78 3f 3e
       0.17853747 0.37366888 0.13229401 0.18698296
000330 38 fe 2a be 9b b6 06 3d d5 fa 23 be 7f b5 5c 3e
       -0.1669854 0.03288899 -0.16013654 0.2155361
000340 64 f3 11 be 3f 8c 02 3e ee f2 0c be 23 4f 19 bd
       -0.14253002 0.12748812 -0.13764545 -0.037428986
000350 3b 04 a5 3a d1 84 92 be f0 3a 81 3e cf b0 e0 be
       0.0012589762 -0.28616956 0.25240278 -0.43884894
000360 69 46 8b be a2 8d a1 bd 8a 4e 27 be 63 68 bf 3d
       -0.27202156 -0.078883424 -0.16338554 0.09346082
000370 c1 57 a4 be 7e 92 ae be a8 17 0c be 77 b3 b4 3c
       -0.320982 -0.3409614 -0.13680899 0.022058232
000380 ac 74 07 3c bb fa 32 bd c7 e3 52 3e 6e 0f d4 3b
       0.008267563 -0.043696146 0.20594703 0.006471566
000390 c8 b6 1d be d9 07 84 be e2 3e 91 bd 49 87 5c bc
       -0.15401757 -0.25787237 -0.07092072 -0.013459989
0003a0 b1 ac d9 bc 45 eb 59 be e0 95 de 3d e4 91 a5 3e
       -0.026571603 -0.21281154 0.1086843 0.32337868
0003b0 4e fc 44 3d 9a 34 83 be a0 80 9a be a9 67 67 be
       0.04809218 -0.2562607 -0.30176258 -0.22598137
0003c0 a9 1a 63 be c6 74 6b bd a2 f9 95 be f8 32 b5 3d
       -0.22178139 -0.05748441 -0.29292017 0.08847612
0003d0 b1 b3 ca be e9 60 e6 3e 36 91 bf be 4b b6 0c 3e
       -0.3959022 0.44995812 -0.37415475 0.13741414
0003e0 a2 9c b7 3e 70 82 29 be 74 d6 bd be 2c d4 22 be
       0.3586169 -0.16553664 -0.37077677 -0.1590125
0003f0 f2 26 4f 3e 56 a8 a6 3e a4 b2 0f 3e b1 aa 9d be
       0.202297 0.32550305 0.1403299 -0.3079429

bias f4 [32]
000000 a3 f7 29 3f 8b 22 9b 3e 7b 32 a0 be e3 99 80 bd
       0.6639349 0.30299792 -0.31288514 -0.062793516
000010 8c fd ec bf df c9 d3 bd dd 28 86 bf a3 57 db bd
       -1.8514876 -0.10341238 -1.048122 -0.10710075
000020 28 4c 49 3d 79 e0 02 bd 45 79 9d bd 33 b5 5c be
       0.049144894 -0.031952355 -0.07689146 -0.21553497
000030 15 52 cd bd 5e 76 a1 be e3 00 47 bd 71 1c 29 be
       -0.100254215 -0.3153562 -0.04858483 -0.16514756
000040 a2 09 0a 3e 17 bc 1a 3f 9f cc 94 3e d2 28 3b 3f
       0.13480237 0.6044325 0.29062364 0.7310916
000050 ff 31 d5 bd 6d d7 cd bd 2f 35 06 3e bc 4e e3 bd
       -0.104099266 -0.10050855 0.13106225 -0.11099002
000060 69 5a ef 3d 55 a9 a8 ba dc 9f d2 3c 57 25 85 3c
       0.11687166 -0.0012867848 0.025710993 0.016253157
000070 07 11 86 3e 09 ef 60 be 94 db 9f be f2 3a 28 3f
       0.26184866 -0.21966185 -0.31222212 0.65714943

weight f4 [1, 32]
000000 8a b8 29 3f df 75 c1 3e 7f d0 96 bc 22 a7 6b be
       0.6629721 0.3778524 -0.018409966 -0.23012975
000010 18 7c 3c 3f 0d a5 c9 3e f9 93 fe 3e dc 54 8e 3d
       0.7362685 0.39383736 0.4972227 0.069497794
000020 0c 45 df be 0e 57 df be 89 35 46 3e 0b 1b 80 be
       -0.43607366 -0.43621105 0.1935636 -0.25020632
000030 b8 bc d7 bd 69 c2 76 3e 04 d8 8a be 83 ed fe 3d
       -0.10534042 0.24097599 -0.27117932 0.124476455
000040 75 42 62 be 49 04 77 3f 40 f9 3b be 44 61 aa 3f
       -0.22095664 0.96490914 -0.183568 1.3310933
000050 3f 6b 13 bc 27 c7 9a bd 0f 8d 6c bd 30 de a3 3e
       -0.008997737 -0.075575165 -0.05775171 0.32005453
000060 60 f5 7e 3e a0 45 d6 bc dc a4 cb bd cf 10 b3 be
       0.2489829 -0.026156247 -0.09943554 -0.3497376
000070 2a ef d6 be d3 82 8c 3e d9 80 69 3e 52 69 23 3f
       -0.41979343 0.2744356 0.22803058 0.6383258

weight f4 [32, 32, 3, 3]
000000 26 00 c4 bc 04 c5 0c bc ad 21 57 bd d9 07 6e 3d
       -0.023925852 -0.008591894 -0.05252235 0.058112953
000010 8b 59 38 3d b2 47 0e bd da db 11 bd 6c a2 1f bd
       0.04500727 -0.034736343 -0.035610057 -0.038973257
000020 f4 77 3b bc 05 c0 0a 3d b4 3c 3f 3c 75 ee 4b 3d
       -0.011442173 0.03387453 0.011672188 0.049787957
000030 73 bf 3a 3d 64 68 48 bc 3e 04 40 bd e4 64 29 bc
       0.045592736 -0.01223192 -0.046879046 -0.010338996
000040 ac fd 10 bd d4 28 70 3c 0d 3a 12 3d d8 47 89 bb
       -0.03539817 0.014658172 0.035699893 -0.0041894726
000050 25 7d ed bc b9 5d 24 bd 6f 6b 19 3d 18 b0 b8 bc
       -0.028990338 -0.040128443 0.037455972 -0.022544906
000060 a0 ab 6e bd cc cd 12 3c 74 ca 47 bd 81 fc 31 3d
       -0.058269143 0.008960199 -0.04877706 0.043453697
000070 16 2c f7 bc ec 6b 04 3c 18 fa 12 bc 14 6f 52 3c
       -0.030172389 0.008082371 -0.00897076 0.012843866
000080 44 62 76 3c 61 a7 09 3d e2 1a c3 3c ae 20 ef 3c
       0.015038077 0.03360689 0.02381653 0.029190388
000090 3b 57 07 3d e5 39 70 bd ea 14 9d 3c b0 de 54 bb
       0.033042174 -0.058648963 0.019175012 -0.0032481365
0000a0 c0 1b 4e bc 30 e0 45 3b 00 e0 c3 39 0e da c0 3c
       -0.012579858 0.003019344 0.0003736019 0.023541477
0000b0 53 97 64 3d f6 9d 47 bd 58 5c 23 bd 3e f5 a6 3c
       0.055808377 -0.048734628 -0.039882988 0.020380612
0000c0 c2 fb ce 3c ff 14 71 3d b6 66 0f bd f8 fa 17 bd
       0.025266532 0.058857914 -0.035010062 -0.037104577
0000d0 c0 af 68 3b 20 96 56 bc 68 fb 0e bc e0 2c df ba
       0.0035505146 -0.013097316 -0.008726932 -0.0017026924
0000e0 24 81 60 bc d2 db 4d bd 4c ce 29 bd 60 2e 8c bc
       -0.0137026645 -0.050258465 -0.041456506 -0.017111957
0000f0 5b ed 55 3d 12 d2 d7 3c a0 fc 78 bb fd de 13 3d
       0.052228313 0.026345287 -0.0037992373 0.03610133
000100 0b ab 2b 3d 66 db 1d bd 76 13 32 bd 2c 59 36 bd
       0.041911166 -0.038539313 -0.04347559 -0.044518635
000110 5f d1 f1 bc 3e d7 d7 bc 22 7d e8 bc 79 bc 51 3d
       -0.029518781 -0.026347753 -0.02837998 0.051205132
000120 80 a7 a9 bb f1 6c 67 3d 1e 91 ac bc 62 db 2e bd
       -0.0051774383 0.05650038 -0.021065291 -0.04268969
000130 50 e5 53 bd 96 9a ee 3c 1b 89 26 3d 6c 61 1b bd
       -0.05173236 0.029126447 0.040658098 -0.037934706
000140 78 99 08 bc a0 60 9a ba 26 7c d4 bc c4 0a 06 bd
       -0.008337371 -0.0011778064 -0.025938105 -0.03272511
000150 8a 04 1c bd f6 e7 fb bc dc 80 9c bc bd b0 5d 3d
       -0.038090266 -0.030750256 -0.019104414 0.05412363
000160 d2 8b 05 bd 98 c1 95 bc 48 ed 71 bc fe d2 2a bd
       -0.032604046 -0.01828079 -0.014766045 -0.041705124
000170 04 d5 28 bd d0 a0 3f bd 16 78 05 bd 29 4a 1b 3d
       -0.041218773 -0.046784222 -0.032585226 0.03791252
000180 06 6d 34 bd 29 79 01 3d 1f ac 0a 3d 6c 52 23 3c
       -0.044049285 0.031609688 0.033855554 0.009968381
000190 80 e3 56 bd 05 c6 0b bd 16 25 8f 3c 06 06 ca bc
       -0.052463055 -0.034124393 0.017473739 -0.024661075
0001a0 cf a5 59 3d 2e 30 f9 3c 40 4f 51 bb 16 52 0c bd
       0.053136643 0.030418482 -0.0031938106 -0.03425797
0001b0 95 9a 6d 3d de 88 a3 3c 60 2b ab 3a ff c6 1b 3d
       0.05800875 0.019962724 0.0013059191 0.038031574
0001c0 a4 b5 72 3c f6 10 80 bc da 1b 54 bd 59 43 5d bd
       0.014813814 -0.015633088 -0.051784374 -0.054019306
0001d0 60 1e 17 bc c7 39 62 bd 2d 2a 2c 3d 59 06 21 3d
       -0.009223551 -0.055230882 0.04203241 0.039312694
0001e0 6a 83 08 bd 44 21 71 3c cf ec 5a 3d a3 27 36 3d
       -0.03332845 0.014717404 0.053448495 0.044471394
0001f0 aa c6 8f 3c b2 09 f2 3c 11 7f 21 3d c9 93 27 3d
       0.017550785 0.029545639 0.03942782 0.040912423
000200 74 3d 61 3c c7 11 ea bc 4a 50 d6 3c 7b c5 08 3d
       0.013747562 -0.02857293 0.026161332 0.033391457
000210 88 88 e9 3b 3b ac 03 3d c4 d0 86 bc b3 a7 53 bd
       0.0071268715 0.032146674 -0.01645697 -0.051673602
000220 6c f5 6a bd 54 a9 02 3c 9e 31 29 bd 03 80 36 3d
       -0.05736296 0.007974941 -0.041307084 0.044555675
000230 e2 9d 53 bd a0 c4 79 bb a8 78 ac 3b d4 aa b5 bc
       -0.05166424 -0.0038111582 0.005263407 -0.022176184
000240 aa aa 91 3c 49 88 30 bd bb c4 6a 3d 48 f5 52 bc
       0.017781574 -0.04309872 0.057316523 -0.012875862
000250 d4 73 96 bc 1e ed df bc 4c 04 03 bd ac 29 92 bc
       -0.018365778 -0.027334746 -0.03198652 -0.017842136
000260 2a 59 bb bc ad de 1c 3d ac 1b 65 bd 86 e7 e1 bc
       -0.022869665 0.038298298 -0.055934593 -0.02757622
000270 62 48 bf bc 6c 7c 50 bc 6c 0e 66 bd e1 11 0a 3d
       -0.023349945 -0.012724977 -0.056166098 0.033708457
000280 98 20 66 bd 88 29 94 bc fa 09 8c bc 1a 26 0b bd
       -0.056183428 -0.01808621 -0.017094601 -0.033971883
000290 5c 2e 0e bd d1 4c 2d 3d 1a df 3c bd f1 0c ef bc
       -0.03471218 0.042309586 -0.046111204 -0.029180976
0002a0 b2 bf da 3c a7 f0 64 3d 29 88 0d 3d da 0d b1 3c
       0.026702736 0.055893566 0.03455368 0.02161305
0002b0 de 58 ee 3c a2 ca 8c 3c e5 8a 5e 3d 90 f3 51 3b
       0.02909511 0.017186467 0.05433168 0.0032036044
0002c0 16 3a de bc 4a 00 02 bd 1e 80 f3 bc 20 5a 26 bd
       -0.027127307 -0.031738557 -0.029724177 -0.040613294
0002d0 c3 7b 5c 3d aa 38 e2 bc 4e c7 c3 3c 96 1c 95 bc
       0.053828966 -0.02761491 0.023898747 -0.018202107
0002e0 32 34 bb 3c 32 3e cb 3c 95 a0 2c 3d 91 09 2a 3d
       0.022852037 0.02480993 0.04214533 0.04151303
0002f0 dc 3a 06 3c a7 dc 38 3d 68 86 b5 bc 40 ff 39 ba
       0.008192744 0.045132305 -0.022158816 -0.0007095225
000300 f6 ce 99 bc 20 2a 95 ba 14 7d 07 3c ca 3d 2d bd
       -0.018775444 -0.0011380352 0.008269567 -0.042295255
000310 28 1d d1 bc ab de ee bc 58 b4 c5 3b c3 2c 71 3d
       -0.025526598 -0.02915891 0.0060334615 0.05888058
000320 db 3e 16 3d 48 1c ff bc 1c 41 0f 3c 25 0a 5e 3d
       0.036681037 -0.031141415 0.008743551 0.054208893
000330 69 11 40 3d bb 3e 69 3d ed 7f 4c bd 94 7b 49 bd
       0.046891604 0.05694459 -0.049926687 -0.04919012
000340 1c b3 68 bd 00 b2 91 38 6f 01 57 3d 0e 5b f5 3c
       -0.056811437 6.947294e-05 0.0524916 0.029950645
000350 f0 0a 4c bd 7c 58 36 3c c5 c1 41 3d 70 99 79 3b
       -0.04981512 0.011129495 0.047303934 0.003808584
000360 26 82 17 bd 58 09 fb 3b 80 33 60 3b 83 9c 67 3d
       -0.036989354 0.007661026 0.0034210384 0.056545746
000370 eb 05 39 3d e7 ea ea bc 1a 5a 2f bd 27 72 00 bd
       0.04517166 -0.028676463 -0.042810537 -0.031358864
000380 a7 b0 62 3d 70 df 80 bb 8c a6 2b 3c 8a 23 15 bd
       0.05534425 -0.003932886 0.01047672 -0.036410846
000390 52 bc 84 3c 18 2a 20 bc e9 7b 6c 3d e8 fc 45 bc
       0.01620308 -0.009775661 0.057735357 -0.012084223
0003a0 58 97 dd bc e0 39 ec 3a a4 29 b4 bc 54 f2 4e bd
       -0.027049705 0.0018022619 -0.021992512 -0.05052407
0003b0 4b 20 0c bd 0c 5e 6e 3c 70 fa 53 bc 59 bb 0d 3d
       -0.034210484 0.01454879 -0.012938127 0.034602497
0003c0 78 60 6a bd a0 6e 95 bc 88 0d 90 3b 48 e2 48 bc
       -0.057220906 -0.018241227 0.0043961443 -0.012260981
0003d0 a8 3d ed 3b 56 1f e2 3c 08 01 e9 3b 48 79 67 bc
       0.007240016 0.027602833 0.0071107186 -0.014128037
0003e0 47 a1 09 3d 63 d2 1c 3d 68 46 31 bc e0 59 90 bb
       0.03360107 0.038286578 -0.010820009 -0.004405245
0003f0 d9 d6 5a bd 46 64 de bc ec 6d 68 bd 50 c5 23 3b
       -0.05342755 -0.027147423 -0.056745455 0.0024989434

bias f4 [32]
000000 f8 8b 09 bd 26 86 c8 3c e8 c6 d3 bc d0 9e 8e bc
       -0.03358075 0.02447803 -0.025851682 -0.017409712
000010 fb 09 29 3d c9 cb 2c 3d 44 f5 87 bc 39 18 48 bd
       0.041269284 0.042186532 -0.016596444 -0.048851226
000020 89 61 38 3d c9 86 5b 3d 84 d8 1a bd 10 6c 88 bb
       0.04501489 0.053595338 -0.03780414 -0.0041632727
000030 3f f3 22 3d cf bf 54 bd 57 6e 09 3d 26 8d ee 3c
       0.03978276 -0.051940735 0.033552494 0.02912004
000040 54 e4 2c bd 4a f2 20 bd c0 29 36 bc c1 60 05 3d
       -0.04220994 -0.039293565 -0.011118352 0.032562975
000050 0f 68 17 bd ec a7 99 bc 5a fd 94 3c 85 3c 2d 3d
       -0.036964472 -0.01875683 0.018187214 0.042294044
000060 9c 12 63 3c b2 c2 45 bd 10 7c 02 3b 4d 45 5e 3d
       0.013859417 -0.04828138 0.0019910373 0.05426531
000070 b6 d3 d3 bc 62 f3 f6 bc f8 76 28 bc 66 04 db bc
       -0.025857788 -0.03014535 -0.010282271 -0.026735496

weight f4 [32, 32, 3, 3]
000000 0d 17 5c 3d 48 2d 9f bb 72 c3 39 bd 70 ca 8b bb
       0.05373292 -0.004857693 -0.045352407 -0.004266076
000010 03 94 5d 3d 62 89 3e bd d6 ee f3 3c 07 89 3d 3d
       0.054096233 -0.046517737 0.029776972 0.046273258
000020 1d 1f 45 3d 90 b4 bc bc ac f4 3e bc c0 3b 04 bd
       0.048125375 -0.023035318 -0.011655014 -0.032283545
000030 ca 6d 52 bd 28 62 0b bd 57 52 2f 3d 86 25 bc bc
       -0.051374234 -0.034029156 0.042803135 -0.022967111
000040 c0 60 16 bb 9c 7a 3b 3c cd 93 0b 3d e8 48 c4 3b
       -0.002294585 0.011442807 0.0340765 0.0059901364
000050 c0 0c f1 bb 36 52 66 bd e8 83 01 bc ea fc a6 3c
       -0.0073562562 -0.056230746 -0.007904984 0.02038427
000060 f0 d8 0f bc 09 82 4a bd 99 05 3c 3d 5e 77 85 bc
       -0.008779749 -0.049440417 0.045903776 -0.01629227
000070 2d b0 05 3d 03 04 4a 3d 77 2b 50 3d 24 c9 56 3c
       0.032638717 0.049320232 0.0508227 0.013109479
000080 7d 38 20 bd 9c 03 17 3c ac ed d0 bc af f9 30 3d
       -0.03911637 0.009217169 -0.025503956 0.043206867
000090 8b 00 5e 3d 0e 71 e5 3c e5 26 29 bd 03 6d 4c 3d
       0.054199737 0.02800801 -0.04129686 0.04990865
0000a0 10 a6 01 bc 6b 93 67 3d f8 eb 8a bc 9c 04 14 bd
       -0.007913128 0.056537073 -0.016958222 -0.03613721
0000b0 14 1a 18 3c 45 cc 21 3d 06 91 35 bd 75 ae f8 bc
       0.009283561 0.039501447 -0.04432776 -0.030356625
0000c0 5a 58 02 bd 48 89 fb bb 59 bd 57 bd 16 33 5a bd
       -0.03182254 -0.0076762773 -0.05267081 -0.053271376
0000d0 a0 46 d3 ba c0 e6 9c 3a 9a 83 cd 3c a0 9f c1 bc
       -0.001611907 0.0011970624 0.025087167 -0.023635685
0000e0 88 45 f3 bc 39 98 3f 3d 78 5d 8c bb 00 de c9 bb
       -0.029696241 0.04677603 -0.0042836033 -0.0061604977
0000f0 70 08 81 bc f0 4a 4f bd 20 34 1f bb 9c 7a 65 3c
       -0.015751094 -0.050608575 -0.0024292544 0.014006283
000100 74 1d 6f 3c fc a4 39 bd 69 93 46 3d 28 7a 33 bc
       0.0145944245 -0.045323357 0.048480425 -0.010954417
000110 fd 32 4a 3d 29 b4 5f 3d c0 ec ee 3a 1b a9 6a bd
       0.049365032 0.054615173 0.0018228516 -0.057290178
000120 de 21 92 bc e9 b0 43 3d 36 d3 8c 3c a4 85 50 bc
       -0.017838415 0.047776137 0.017190557 -0.012727175
000130 82 9a cc 3c 98 34 19 bd 00 2a c7 39 23 59 66 3d
       0.024976019 -0.037403673 0.0003798753 0.05623735
000140 0c 86 29 bd d0 6a 48 bc a8 a7 eb bc 98 81 e7 bc
       -0.041387603 -0.012232497 -0.028766468 -0.028260037
000150 af e0 18 3d 71 ae 13 3d f1 61 0d 3d b1 6d 34 3d
       0.03732365 0.036055032 0.034517232 0.044049922
000160 fa c5 f1 3c 04 e4 28 bc 9a d7 90 3c 11 b4 53 3d
       0.029513348 -0.010308269 0.017680932 0.051685397
000170 b4 7b 17 bd b5 16 36 3d 5a d2 4e bd eb 69 15 bd
       -0.036983207 0.04445525 -0.050493576 -0.036477964
000180 c0 a5 07 bc 61 5f 3e 3d d0 c1 51 bb 1f 23 5f 3d
       -0.008279264 0.04647768 -0.003200639 0.054476853
000190 c0 14 52 3a e2 12 9d 3c b1 be 4c 3d 00 a3 60 3a
       0.0008013956 0.019174043 0.049986545 0.0008569211
0001a0 09 bc 61 bd 6c 2a 82 bc b9 79 6c 3d 60 f4 63 bd
       -0.055110965 -0.015889369 0.05773327 -0.055652976
0001b0 67 68 3f bd dc 75 be bc 2e 02 a9 3c 3e 91 8a 3c
       -0.046730425 -0.02324956 0.020630922 0.01691496
0001c0 1f 84 0c bd ec e8 73 3c 48 98 3e bd af ca 55 3d
       -0.034305688 0.014887076 -0.046531945 0.052195247
0001d0 ce 73 58 bd 5b e1 35 3d 1f f8 35 3d d8 98 ad 3b
       -0.052844815 0.04440437 0.04442608 0.0052977614
0001e0 37 a7 04 bd 98 8f 90 3b 3e e0 8a bc cc b5 59 bd
       -0.03238603 0.004411649 -0.01695263 -0.05315189
0001f0 2e 23 06 bd 66 4f a9 3c 13 72 68 3d 94 58 19 3c
       -0.032748394 0.020667743 0.056749415 0.009359498
000200 2d 0e 67 3d 8e 00 d8 3c 64 e7 34 bd 40 7a 01 bc
       0.056410003 0.026367452 -0.044165984 -0.007902682
000210 b7 89 53 bd 42 df f8 3c 81 e0 6d 3d aa 41 b5 3c
       -0.051645007 0.030379895 0.05807543 0.022126038
000220 bd ff 00 3d 65 de 2b 3d 2e 39 a3 3c 2e 92 f7 3c
       0.03149389 0.04196014 0.019924726 0.030221071
000230 dd 29 17 3d ec 30 3c bc 6f 49 50 bd 7e ad fa 3c
       0.03690516 -0.011486273 -0.05085128 0.030600306
000240 6e e4 2f bd 85 a0 27 3d 4d f5 2c 3d c8 87 b7 3b
       -0.042942457 0.040924568 0.042226125 0.005600903
000250 6c ba 33 bd 4e c1 cf 3c 17 79 61 3d 36 ab d9 bc
       -0.043878958 0.02536073 0.05504712 -0.026570898
000260 d2 e1 4c bd ee 56 90 3c b8 1a 26 bc 42 3b a3 bc
       -0.050020047 0.017619576 -0.010138206 -0.019925717
000270 a6 d9 d4 bc fd f5 64 3d 40 28 23 bd 28 7b 95 bb
       -0.02598269 0.055898655 -0.039833307 -0.0045618005
000280 54 79 7d bc b1 d7 4c 3d c4 48 0e 3c 14 0f 0a bc
       -0.015470821 0.050010387 0.008684341 -0.0084264465
000290 7a f3 4e bd 9a cc f6 3c d2 ba 34 bd de c3 d9 3c
       -0.050525166 0.030126859 -0.04412348 0.026582655
0002a0 84 c8 6f bd f8 62 fc 3b db c1 15 3d be 9a 80 bc
       -0.058540836 0.0077022277 0.036561828 -0.015698787
0002b0 24 01 78 3c 84 e9 2f 3c c6 77 82 3c 6c 0c 5c bc
       0.015136991 0.010736827 0.015926253 -0.013430696
0002c0 d0 d7 30 bd f8 79 ad 3b 18 3b 14 bd 36 7c 64 bd
       -0.043174565 0.005294081 -0.03618917 -0.05578252
0002d0 80 8f fb bb bb ff 55 bd 9b 2f 59 3d 76 9f b2 bc
       -0.0076770186 -0.052245837 0.053023916 -0.021804553
0002e0 54 be 23 bc f6 1b de 3c 21 70 3f bd cc 8f 14 bc
       -0.009994108 0.027112942 -0.046737794 -0.009067487
0002f0 fc ae 6f 3c 24 47 52 bd 7c 15 1b bc 00 45 67 bb
       0.014629122 -0.051337376 -0.0094655715 -0.003528893
000300 a4 fa 40 bc 80 aa 13 bb 89 aa 00 3d 4e f6 83 3c
       -0.011778507 -0.0022532046 0.031412635 0.016108658
000310 bb 18 53 3d cc 49 27 bd d8 d0 d7 bc c9 38 44 bd
       0.051537257 -0.040841863 -0.026344702 -0.047905717
000320 a0 75 e3 bc 54 62 59 3c 7a e6 ff 3c 19 c6 58 3d
       -0.027766049 0.013268072 0.03123783 0.052923296
000330 50 e3 20 bd b8 f9 fa 3b 77 c4 6f bd 27 5b 09 3d
       -0.039279282 0.0076591633 -0.058536973 0.033534195
000340 cf 58 1b 3d 91 6e 45 3d 68 90 fe 3b be 59 8b 3c
       0.03792649 0.048201147 0.0077686794 0.017010566
000350 37 4b 0b 3d a6 9e 8f bc 0e 62 21 bd 2b 59 4c bd
       0.034007277 -0.017531704 -0.039400153 -0.049889725
000360 08 74 1f bc 90 18 2e bd 44 ca 21 3c dd 4d 66 3d
       -0.009732254 -0.042503893 0.009874884 0.0562266
000370 c2 5e 37 bd b0 5e 47 bd 9b 07 ee bc 90 47 5d bc
       -0.044768102 -0.048674285 -0.029056361 -0.013505831
000380 8b 36 48 3d e7 93 67 3d 4d e3 18 3d 83 d4 04 3d
       0.04888014 0.056537535 0.037326146 0.03242923
000390 d4 ea 2d bc fc a5 1c bd c0 a6 78 3a 17 b3 2c 3d
       -0.010615069 -0.038244233 0.0009485297 0.04216298
0003a0 46 d1 8e 3c e2 a9 01 bd 5e d3 8b bc 5f 45 3e 3d
       0.017433774 -0.031656154 -0.017068561 0.046452876
0003b0 7b 7d 62 bd 73 b6 52 3d b3 b5 46 3d a0 fa b2 3a
       -0.05529545 0.05144353 0.048513126 0.0013655014
0003c0 9b 28 37 bd 2a fb fd 3c fc 8c 53 3c ed 98 67 3d
       -0.04471646 0.031003553 0.012912031 0.056542326
0003d0 16 f0 f8 bc fa 07 91 3c c6 8e 34 bd c5 b7 60 bd
       -0.03038792 0.017703999 -0.04408147 -0.054862756
0003e0 74 55 36 bd 4a 88 d5 bc 80 e9 9e bc 51 58 0c 3d
       -0.04451509 -0.026065964 -0.01939845 0.034263913
0003f0 c0 aa 13 bb 24 73 7a 3c 76 b3 1b bd 92 62 6b bd
       -0.0022532195 0.015286241 -0.038012944 -0.05746705

bias f4 [32]
000000 9d 5c 5d bd 0a 4f f6 bc e8 c6 d8 bb 6f 23 30 bd
       -0.0540434 -0.030066986 -0.0066155083 -0.043002542
000010 09 64 14 3d 6d 16 66 3d ee b0 b2 3c 9d 13 70 bd
       0.036228213 0.05617373 0.021812882 -0.058612455
000020 5e 5c ba 3c 29 9f 65 3d a5 81 4a bd 2c bb 38 3c
       0.022749122 0.05605999 -0.049440045 0.011275094
000030 54 17 2d 3c b6 ad 46 bd 02 27 ff 3c a6 94 ba bc
       0.010564644 -0.048505507 0.03114653 -0.02277596
000040 e8 03 57 bc 6a bf a0 3c e8 fd a4 3b a5 61 10 3d
       -0.01312349 0.019622523 0.005035151 0.03524937
000050 a8 4d b1 bc 68 e5 1f bc 8e b5 91 3c 7c 1d 58 bd
       -0.021643475 -0.009759285 0.017786767 -0.052762493
000060 dc 22 03 3c 0c 53 2a 3c 66 18 5a bd 66 d0 31 bd
       0.008003917 0.0103957765 -0.053245924 -0.043411635
000070 88 9e aa bc b2 24 fa bc 81 b2 20 3d 91 52 33 bd
       -0.020827547 -0.030535076 0.039232735 -0.043779913

weight f4 [32]
000000 f8 2b 5f 3f 1e 79 6a 3f 68 c7 e8 3e 22 81 51 3f
       0.87176466 0.9159106 0.45464635 0.81837666
000010 5e 28 11 3f c0 67 0a 3e 12 09 09 3f 33 50 08 3f
       0.5670222 0.1351614 0.53529465 0.53247374
000020 9a 6f f7 3e b1 9b 3d 3f 5c 69 12 3e 7d 23 4c 3f
       0.48327333 0.7406569 0.14298004 0.7974165
000030 22 07 92 3e 42 6f 07 3f 88 56 ac 3e 00 ae 05 3b
       0.28521067 0.5290414 0.33659768 0.0020397902
000040 2d 0a 75 3f 1e 3f 76 3f db 1f 70 3f 0c 13 57 3f
       0.9571865 0.9619006 0.9379861 0.8401344
000050 4d db 14 3f 28 a1 d0 3d d2 79 9a 3e a1 30 77 3f
       0.58147126 0.10186988 0.30171067 0.96558577
000060 88 90 e8 3e 91 ab 4c 3f 38 ef 78 3f 80 c5 a8 3c
       0.4542277 0.7994929 0.9724002 0.020601988
000070 60 45 b7 3e 02 55 36 3f 3c 99 23 3e 40 ba 22 3f
       0.35795116 0.7122346 0.15976423 0.63565445

bias f4 [32]
000000 00 00 00 00 00 00 00 00 00 00 00 00 00 00 00 00
       0.0 0.0 0.0 0.0
000010 00 00 00 00 00 00 00 00 00 00 00 00 00 00 00 00
       0.0 0.0 0.0 0.0
000020 00 00 00 00 00 00 00 00 00 00 00 00 00 00 00 00
       0.0 0.0 0.0 0.0
000030 00 00 00 00 00 00 00 00 00 00 00 00 00 00 00 00
       0.0 0.0 0.0 0.0
000040 00 00 00 00 00 00 00 00 00 00 00 00 00 00 00 00
       0.0 0.0 0.0 0.0
000050 00 00 00 00 00 00 00 00 00 00 00 00 00 00 00 00
       0.0 0.0 0.0 0.0
000060 00 00 00 00 00 00 00 00 00 00 00 00 00 00 00 00
       0.0 0.0 0.0 0.0
000070 00 00 00 00 00 00 00 00 00 00 00 00 00 00 00 00
       0.0 0.0 0.0 0.0

running_mean f4 [32]
000000 e0 00 78 3e 88 2e 1c bf a9 f4 0b be fd 0d 15 be
       0.24219084 -0.610085 -0.13667549 -0.14556117
000010 40 d3 84 3e f5 7e cd 3d 99 61 02 3f 3c 8a b3 be
       0.2594242 0.10033981 0.5093017 -0.35066402
000020 e2 31 2e be 9a b7 f0 3e e4 b8 c6 3e 0c ec 85 3f
       -0.17011216 0.47015077 0.38812935 1.0462661
000030 f0 17 f7 3c ec 98 b6 be c4 26 81 3e 10 e8 e7 be
       0.030162781 -0.35663545 0.25224888 -0.45294237
000040 ca 0d 59 be 3e 3a ba be b2 ee 30 3e ac 93 00 3e
       -0.21196666 -0.3637256 0.17278555 0.12556332
000050 be 45 99 be 2f d5 c5 3e c6 6c 1c 3e 22 9e 0a bc
       -0.29936022 0.3863921 0.15275869 -0.008460553
000060 49 60 1a bf 5f e7 cc bd 9e 6b f4 be c3 88 31 bf
       -0.6030317 -0.10005068 -0.47738355 -0.69349307
000070 00 77 11 bf c6 a9 f9 3d e2 ad 67 3e a3 5c 41 be
       -0.56822205 0.12190585 0.22624925 -0.18882994

running_var f4 [32]
000000 22 f4 08 3f 54 54 0a 3f 0c 0e 2d 3f 54 60 15 3f
       0.5349752 0.54034925 0.6759956 0.5835011
000010 48 df 50 3f 6f 87 0e 3f 84 23 34 3f db c2 d3 3e
       0.815907 0.55675405 0.7036669 0.413596
000020 e3 fe d2 3e 06 c3 c9 3e 3c 23 6c 3f 68 c7 39 3f
       0.41210088 0.39406604 0.92241263 0.72569895
000030 b5 f7 e4 3e 79 f8 c9 3e 5c e6 b5 3e 92 2e 3d 3f
       0.44720235 0.39447382 0.35527313 0.73899186
000040 d2 26 38 3f 43 a4 32 3f 33 84 98 3e 7e 91 c6 3e
       0.71934235 0.69781893 0.2978836 0.38782877
000050 a4 6b 3f 3f b7 dd 71 3e d2 be c0 3e 7a 17 c0 3e
       0.7477362 0.23619734 0.37645584 0.3751791
000060 88 10 f4 3e f9 b6 60 3f 25 8b b4 3e 71 5b ed 3e
       0.47668862 0.87779194 0.3526241 0.46358827
000070 10 de 4f 3f e7 af ef 3e 00 50 12 3f ce a4 cb 3e
       0.81198215 0.4681389 0.5715332 0.39774173
