models/5_cross_5_iter_20.pt (torch_old, 339781 bytes, 66 tensors)

weight f4 [32, 3, 3, 3]
00000000: 0da6 9ebe 831e d0be ae64 173e d182 8abe
00000010: b8c9 13bd 2afe 9ebd 0c69 6bbd f833 36bb
00000020: 1c9a 983c 5271 ac3e ee72 093f b54a dbbd
00000030: 4674 f43d fd35 c7be c0e2 a53e d04d 123e
00000040: 9d9c 173e 742c 8f3e ba5d 8a3e 28e5 833d
00000050: 513c 0c3c 92ff 663e 2cf9 ad3d 56a8 18bd
00000060: 3a2c 1a3e e122 053e 9d3e 573e 25a0 ac3f
00000070: d4e1 73be 30bb b1bf 4d62 623d 4f20 843f
00000080: 63f1 b6be dd43 4ebe 6638 9c3f 47b9 4abf
00000090: 2d65 e2bf 861e fd3e d58c 55bf e73b d23e
000000a0: 5d2a 833e 5e62 903f 9709 f1bd 78b6 a1bf
000000b0: 0c75 a23e 9ca2 10bf df62 9ebe 5c5e 0ebf
000000c0: d992 e7be bbe1 17bf deb8 6ebe a600 e8be
000000d0: 737f b8be b9b4 90be 0f22 973f c6ec e0bf
000000e0: a61e 0e3f 22b1 0bc0 b420 32c0 7568 303f
000000f0: 065e 8b3d afe5 3940 807e 4d40 8184 143f
00000100: 83e5 eec0 0b8a ff3e becd 56c0 4382 c1bf
00000110: d3d1 aa3f 00d5 2640 331d 3e3e ab02 2540
00000120: 87b8 edbc a5af 3dbd 76e9 3c3c c0d1 0e3e
00000130: c8c9 d63d 6772 a9bc b0fa 4f3d b4b5 533e
00000140: 4871 923c fbef 2abe 6f1c f0be c9c1 343f
00000150: 0234 31bf 8696 adbe ac97 aabe ddc6 95bc
00000160: 86f3 79bf 3ea8 7e3e 60b6 89bf a081 263e
00000170: a9f5 d3be 65ca da3e 1a22 203e a0d9 7c3f
00000180: 7faf 4e3d 562f 943c 6368 4fbf a457 1abf
00000190: d99f 72bf 0229 17bf 880a 4cbf 4a14 71bf
000001a0: 3bca 53bf d4ed 19bf d499 72bf 7a4c 40bf
000001b0: 36e3 bc3e 53d7 5e3c d85d 0d3f 766e 8e3f
000001c0: 3aca 243e 3556 c8bd dcef ff3d aa0a e13c
000001d0: 1c0e ca3e 7d40 0f3f 6372 8bbf f67c 6fbf
000001e0: 7d17 c0be 8c1b c23f 8209 e9be 826e 563e
000001f0: 17ae 293e aca1 a1be 1365 04bf 8b4f d1be
00000200: 4122 0bbf 441d 13bf b0e6 e1be 9343 12bf
00000210: d8bf 89be 7a14 00bf 28b6 e1be 5d3e d53e
00000220: ca04 d63d 458b b5bd 60a5 913e 3a23 4a3e
00000230: 079c 083e 455d 8e3e 64c0 ca3e bde6 863e
00000240: 9eb2 99be 68a1 3f3e a84d 70be a78e a5be
00000250: 02d3 95be 7d4c 1fbe 67cd 01be cd36 e1bd
00000260: cfe0 d03c f53a b6bd f26a 013e e5b3 19be
00000270: 41df b5bd 8dd2 2dbe ad33 3fbe a2ed 7dbd
00000280: a60f 0cbe 087e f33d d04e f1be 2828 21bf
00000290: 2f02 9bbe 51aa d0be 2881 283f 858c 61bf
000002a0: a050 953e fcb9 dabe 5709 4bbe 7a0b bdbe
000002b0: 5e11 b33e d02f 3cbf 9952 f2be c90f 6ebf
000002c0: 6502 fcbe 6910 03bf 8601 8c3e dc37 863f
000002d0: 3bb3 c43e af4f 333e c4a8 4a3e 0642 a53e
000002e0: abdb 893e 2f1f 903e 7d15 d33e b390 e23e
000002f0: f761 bf3e 713c c53f 37dd 00bf 4b86 4a3f
00000300: 2ed0 00c0 a908 b13f 3eab d43f 0c79 77be
00000310: 8af4 b940 ad3d 2dc0 50cd ed3f 2764 bcbf
00000320: 9d09 5abf d190 a93f bf9c 71be e9ca 793f
00000330: b01b ed3f b811 cf3f edef 5b3e 9b1c b2be
00000340: 01b2 10bf b1a9 8ebe abab b1be 917a d9be
00000350: cd72 9ebe 872a aabe 7a7b 05bf 711b cbbe
00000360: e284 44be 10ea a43e 3a8e ddbe 1cf7 b63c
00000370: 00ee 49be f658 6abe 3b98 7ebe c76c 88be
00000380: f588 1b3e 4e9d d83d 0325 b4be 5786 32bd
00000390: 10d0 58bd 765a 45be 7d49 d0bc 45b9 c73e
000003a0: 9ba7 8dbd 7a1c 66be ab1c 7abe 3f8f 08be
000003b0: c310 6cbd 2407 37be 940d 4abe e773 6abe
000003c0: 2089 1cbe deae aabd 2a33 a0bd 3fca 343e
000003d0: bf77 cfbe 4c8c 02be fb5e ea3e 7d45 043d
000003e0: 52c7 753e bf7b 853f e5cb 62be b08b 203e
000003f0: b686 4bbd 11c2 9abe 97c5 bb3e fc8c 513e
-0.30986062 -0.4064828 0.147845 -0.2705293 -0.036081046 -0.07763322 -0.057473227 -0.0027801972
0.018628173 0.33680207 0.53690994 -0.107076086 0.1193624 -0.38908377 0.3239956 0.14287496
0.14805837 0.27963603 0.27024633 0.064401925 0.008559302 0.2255843 0.084947914 -0.037269913
0.15055934 0.13001586 0.21019979 1.3486372 -0.23816615 -1.388525 0.05526953 1.032236
-0.35731038 -0.20143075 1.2204711 -0.7918896 -1.7687126 0.4943735 -0.8341802 0.41061327
0.25618258 1.1280019 -0.11769407 -1.263381 0.31729925 -0.5649812 -0.30934808 -0.5561273
-0.45229223 -0.5932881 -0.23312709 -0.45312995 -0.36034736 -0.2826288 1.1807269 -1.7572258
0.55515516 -2.1826863 -2.783246 0.6890939 0.06805043 2.9046438 3.210846 0.58014685
-7.4655166 0.49910006 -3.3563075 -1.5117878 1.3345283 2.6067505 0.18565826 2.5782878
-0.029018654 -0.046310086 0.011530271 0.13947201 0.104877055 -0.020684434 0.050776184 0.20674783
0.017876282 -0.16693108 -0.46896693 0.7060819 -0.6921998 -0.33903903 -0.3331884 -0.018283302
-0.9763721 0.24868867 -1.0758781 0.16260386 -0.4139836 0.4273254 0.15638009 0.9876957
0.050460335 0.018088978 -0.81018656 -0.6028998 -0.9477516 -0.5904695 -0.7970357 -0.94171584
-0.82730454 -0.6012852 -0.94765973 -0.75116694 0.36892098 0.013601142 0.5522132 1.112746
0.16092768 -0.09782068 0.124969214 0.027470905 0.3946389 0.55957776 -1.0894283 -0.9355005
-0.3751792 1.5164657 -0.45515066 0.20940593 0.16570316 -0.31568658 -0.51716727 -0.40881
-0.5434914 -0.5746653 -0.44121313 -0.5713436 -0.26904178 -0.50031245 -0.44084287 0.41649142
0.10450132 -0.08864454 0.28446484 0.1974 0.1334077 0.27805534 0.39599907 0.26347914
-0.30019087 0.18713915 -0.23467124 -0.32335398 -0.2926255 -0.15556522 -0.12676011 -0.109967805
0.025497822 -0.08897964 0.12638453 -0.1501003 -0.08880473 -0.1697485 -0.18672056 -0.061994202
-0.13677844 0.11889273 -0.47130442 -0.629519 -0.30275103 -0.4075494 0.65822077 -0.8810504
0.29163074 -0.4272002 -0.19827782 -0.36922818 0.34974188 -0.73510456 -0.47328642 -0.92992836
-0.49220577 -0.51196915 0.27344912 1.0485797 0.38417992 0.17510866 0.19790941 0.32276934
0.26925406 0.2814879 0.41227332 0.44251022 0.3737943 1.540907 -0.5033755 0.79111165
-2.0127063 1.3830768 1.6614759 -0.2416727 5.811101 -2.7068894 1.8578281 -1.4718064
-0.8517092 1.324732 -0.2359495 0.9757524 1.8524075 1.6177282 0.21478243 -0.3478745
-0.5652161 -0.2786384 -0.34701285 -0.42476323 -0.3094696 -0.3323557 -0.52141535 -0.39669374
-0.19191316 0.32209826 -0.43272573 0.022334628 -0.19719696 -0.22885498 -0.24862759 -0.2664549
0.15188964 0.105768785 -0.35184488 -0.043585148 -0.0529328 -0.1927279 -0.025425667 0.39008537
-0.06916734 -0.224718 -0.24424998 -0.13335894 -0.057633173 -0.17873818 -0.19731742 -0.22895776
-0.15286684 -0.083341345 -0.07822259 0.17655276 -0.40521047 -0.12748832 0.4577559 0.03229283
0.24001816 1.0428389 -0.22148092 0.15678287 -0.049689017 -0.30226186 0.36674187 0.20463938

bias f4 [32]
00000000: ae9e cb3c 188b b9bd 4237 afbd e3d8 873d
00000010: b056 36be 0ba5 aabc ca40 0a3e c5b7 333e
00000020: 2e3e b33d 488a 453d 0c3d 683d 9fe5 383e
00000030: 2e5b b73c e138 07be d8ea 2d3e dc6d 0c3e
00000040: 18fc e0bd 1a1c 1d3c 8a97 1dbe 4eb5 31be
00000050: 5621 0b3d 3a59 d33d 8404 1abd 47ba e7bd
00000060: a11f d03d f93c 133d fade 8dbd 3965 fa3d
00000070: 9526 b4bc 81a1 103d 8c8c 06be fe45 b1bd
0.024855938 -0.09059733 -0.085554615 0.06633165 -0.17806506 -0.020830652 0.13501278 0.17550571
0.08752094 0.04822758 0.056698844 0.18056343 0.022382345 -0.13205291 0.16984117 0.13713783
-0.10985583 0.0095892195 -0.15389839 -0.17354318 0.03396734 0.10319753 -0.037601963 -0.113148265
0.10162283 0.03594682 -0.06927295 0.12226338 -0.021991054 0.035310272 -0.13139552 -0.08655928

weight f4 [32]
00000000: f35f 9a3d 0276 bd3e 8217 8440 8bfe 1d3e
00000010: 8ad1 303e f8c6 ebbd 30a0 153d 7044 8ec0
00000020: 9644 9b3d be38 da3d a340 a640 6ca4 dc40
00000030: 6aca 3dc0 c0eb 4a40 199b 5a40 e267 67bd
00000040: c8dc 053c 21db 4240 ec00 843e 5c85 ee3f
00000050: 951d 153d 4855 bc40 3d8d 09be 300d ccc0
00000060: 469e e640 f42e ff3f 2c71 d940 85b5 8540
00000070: 0b94 383e 3cec 5640 e394 0f40 3677 28be
0.07537832 0.37004095 4.1278696 0.15429132 0.17267433 -0.1151256 0.03652972 -4.445854
0.07581441 0.10655354 5.19539 6.895071 -2.9654794 3.170639 3.4157164 -0.056495555
0.008170314 3.0446246 0.25781953 1.8634448 0.036405165 5.8854103 -0.13432784 -6.37661
7.2068205 1.9936204 6.795065 4.178408 0.18025224 3.3581686 2.2434623 -0.16451725

bias f4 [32]
00000000: 2d58 f9be ddc4 b6bf 55d9 1d3f 5d44 6840
00000010: bc7a 8abf 08cf debe 8b76 e2be 6710 38c0
00000020: 0a7c ebbe 7eeb 29bf 44ae e7bf 768b 693f
00000030: 33b4 d93e 690c 823f 4646 9d3f bb62 51bf
00000040: bdfc 1bbf 0ae4 cb3e c45a 51bf 0591 023e
00000050: 53a3 d3be de94 82bf a957 efbe 672b b4bf
00000060: 2eb9 3bc0 7cd1 873f 077a 5ebf a38c 2c3e
00000070: 0d26 0dbf 739a fcbe aeee dc3e 83a8 1fbf
-0.48700085 -1.4278828 0.6165975 3.6291726 -1.0818706 -0.43517327 -0.44231066 -2.8760011
-0.45993072 -0.6637496 -1.8100057 0.91228426 0.42520294 1.0160037 1.2287071 -0.81791276
-0.60932523 0.39822417 -0.8177912 0.12750633 -0.41335544 -1.0201681 -0.46746567 -1.4075745
-2.9331775 1.0610805 -0.8690495 0.16850524 -0.55136186 -0.49336585 0.43150848 -0.62366503

running_mean f4 [32]
00000000: 2902 b53e 7c00 00c0 34df c73e e357 7dc0
00000010: be3b b1bf 4171 ea3d c80c 543f 7b52 b23e
00000020: eb53 8bbf 30f3 7d40 33ca 1940 ab60 c9c0
00000030: 26df 77c0 76ad 2e3f 7748 1341 3d92 293f
00000040: 0e65 c0bf 2aa0 c940 313d a93f 2be9 c340
00000050: eb21 9b3f cde3 d03f d3d8 a1be c364 2840
00000060: d228 4540 7524 edbe ceb8 85c0 7ac4 c4bf
00000070: 7a23 a93f 8f35 0d3e 80f0 1040 1cec febb
0.3535321 -2.0000296 0.39037478 -3.9584892 -1.3846357 0.11447383 0.82832 0.34828553
-1.0884985 3.967968 2.4029663 -6.2930503 -3.872995 0.6823343 9.205192 0.66238767
-1.503084 6.3008013 1.3221799 6.122213 1.2119726 1.6319519 -0.31610736 2.63115
3.0806165 -0.46316877 -4.178809 -1.537246 1.3213952 0.13789962 2.264679 -0.0077796113

running_var f4 [32]
00000000: 2359 4e3e 3694 3140 4fcb 3941 11ac 293f
00000010: aa92 7f3f e8bc 903e b7c8 713f 8089 0941
00000020: 4aca 083e d38b 0b3f 913d 1c41 b814 5641
00000030: 0ea6 d240 660f 6041 ba50 5741 37fa 263f
00000040: f8b5 a23e 7963 9041 ade3 893e 2ac9 4341
00000050: 74ab 393e d5af 1f41 eb46 833d 1b93 dc40
00000060: d830 0641 ffa3 b841 a833 6541 788c 9c41
00000070: b7e3 173f 7812 2f41 3d90 1b41 6228 083e
0.2015119 2.774671 11.612136 0.6627818 0.99833167 0.28269124 0.9444689 8.596069
0.13358417 0.5451023 9.765031 13.380058 6.5827703 14.003759 13.457209 0.6522555
0.31779456 18.04857 0.26931515 12.236612 0.1813181 9.980428 0.06410011 6.892957
8.386925 23.080076 14.325111 19.568588 0.5933184 10.942009 9.722714 0.13296655

weight f4 [2, 32, 1, 1]
00000000: 4b02 183f 4774 253f 8a7f c9bd 1d61 973f
00000010: 758a 9dbe a608 0f3e 1607 bc3f 5d71 87bf
00000020: 895f 093f 8dbe a3bf 818d 683f f41a 763f
00000030: dbea 023e 2125 5dbf 09d5 3340 ab14 f33f
00000040: be3c 2abf 8534 4b3e d56e 5e3e c338 e3be
00000050: d8d2 973e 481b 91bf 4b04 22bf 03df d83e
00000060: a4af aebe 721b 01bf 1f89 6b3d c7c8 a1bf
00000070: 68f5 bf3f f510 813e 45be b23f 58be 77bf
00000080: 1c85 35c0 77bf 4140 e3e8 26bf 76d1 b2bf
00000090: e688 803d c42c 4b40 5bc1 e53e 60d6 f2bf
000000a0: 0c95 ddbf 43ad bebf c685 85bf 4000 72c0
000000b0: b009 e63f 0ab9 1d40 21f7 c540 a2ef 63c0
000000c0: 4956 c5bf 28e9 6840 b4b4 d0bf cff7 4b40
000000d0: d2ac bdbe 4982 12be a260 4540 9032 393f
000000e0: ceae 193f 9dd9 9640 ef9c 19c1 8aec 2ec0
000000f0: 07e0 1dc1 0537 cd3f 1c55 57c0 4adb 9140
0.593785 0.6463055 -0.09838779 1.1826512 -0.30769697 0.13968143 1.4689662 -1.0581471
0.536614 -1.2792526 0.9084092 0.9613488 0.12784903 -0.8638478 2.8098776 1.8990682
-0.66498935 0.19844253 0.21721967 -0.44379243 0.2965305 -1.133645 -0.632878 0.42357644
-0.34118378 -0.50432503 0.057503816 -1.2639397 1.4996767 0.2520825 1.3964316 -0.96774817
-2.8362494 3.027311 -0.65199107 -1.3970172 0.06276111 3.1746073 0.4487408 -1.8971672
-1.731111 -1.4896625 -1.043145 -3.7812653 1.7971706 2.464419 6.186417 -3.561501
-1.5416957 3.6392307 -1.6305146 3.187 -0.37045914 -0.14307512 3.084023 0.7234278
0.60032356 4.714064 -9.600814 -2.7331872 -9.867194 1.6032416 -3.3645697 4.5580187

bias f4 [2]
00000000: 870b 223e 8f85 dbbd
0.1582471 -0.10718834

weight f4 [2]
00000000: 4508 38bf d6ed ce3e
-0.7188762 0.4041583

bias f4 [2]
00000000: 1fef 62c0 5b2f 02c0
-3.5458448 -2.0341403

running_mean f4 [2]
00000000: 28cb 3041 942f 8dc1
11.049599 -17.648232

running_var f4 [2]
00000000: dca2 c142 c528 5145
96.818085 3346.548

weight f4 [26, 18]
00000000: dbd7 e1be 34c7 1ebd 9dcc edbe 7589 003f
00000010: e5c1 80bf 2e4b bcbd 3fdc 913f d7ff 49be
00000020: 9fe3 4cbd 67e0 20c0 ac18 32bd 3fcd 8e3f
00000030: ee9b 143f d8f5 dc3f 5534 763e 05de b9bc
00000040: 2936 d53f 577c f53e cbb9 17bf 9a47 033f
00000050: f519 5a3f a63e e7be e99c 773f ccbc a83e
00000060: a3ff c8be cf4a 323e b988 85bc badf 30c0
00000070: 7f03 89bf 109d 943f a4e1 813f 4a11 ca3f
00000080: 29b2 dc3f 7116 863f c885 103f 8aaa 4dbe
00000090: 9404 f4bd 3ada 62be 07e0 85be 6ab3 eebe
000000a0: 3bff aebe 0d6c c8be d4d1 bcbe 6d80 47be
000000b0: 2c3f dcbd b991 a23f ff91 40bf bcd7 1dbf
000000c0: f74b 0ebd d668 82bf 1aae 843f 118d 963e
000000d0: 7fec c23e a2ad c03f c355 733e 5d42 983e
000000e0: dadf 0abf aba4 553f 5320 2cbf bc29 4e3f
000000f0: 3b85 6d3f 909f 4cbe ae54 103e 81fb 0e3f
00000100: 8b25 0d3f ed1f 10c0 df6b f6be e5e6 3cbf
00000110: 98fc a73e d60e 753f 329d 773e 903f 653f
00000120: 031d 933f 50a7 e6be 7ee5 99be 2592 3ebd
00000130: e500 71be 1b4d 49bd 701c 29bf c902 d7be
00000140: f8f7 8ebe 43bb 393f 7d8a 493e 27b2 033c
00000150: 3577 83bf 2558 35bf c9ff 593f 7f67 8a3f
00000160: 137b 35bf 9a3f b93e ed4c 0d3d 7d7c d8be
00000170: 8976 123f c2dc 063c 7591 26bf b39f 943f
00000180: e311 ebbd a6e2 633e 78d5 913e 291d 32c0
00000190: fe28 47bf 9210 e83d 1869 b9bf 0702 b83f
000001a0: 0b4c 933f 4379 cd3d 7f52 1f3f c9e9 303f
000001b0: 3a99 f7be e205 f0be 74d0 643e 98e2 86be
000001c0: 8350 5fbf e543 aabe e5a0 8ebd 60e7 f4bc
000001d0: 85cc efbd 60f9 99bf ccfb c6bf bd80 4f3f
000001e0: 4840 33c0 dbf1 3cbe 4ea7 343f f046 873e
000001f0: ff52 a73e d894 c43f d65e 343f fcba ccbe
00000200: bba7 0bbf b133 87be ca6f c13f 079b f4bd
00000210: acec 02be 4450 9ebe f3bc 65be 35b7 4cc0
00000220: 0000 57bf 885f acbe a19a 873f 8b50 05c0
00000230: 2408 3ec0 2eaf 1340 84a5 9a3e 5c23 0940
00000240: 69d9 b2bd f5c2 0ebf 6a15 12bf 9a37 4bbe
00000250: 23e6 0140 fefe 35be f397 ddbe b5b0 a9be
00000260: d18a 043f 69be d73f 7fb9 23c0 e6b3 73bf
00000270: 51ef 553f dbd8 4e3f 291e f5bf 78a2 9f3e
00000280: 723f 913c 3da1 5fbf 2797 773e 1eb1 28bf
00000290: bb3d 3c3f 75a5 473f 23f7 1a3e c0aa 393e
000002a0: 17a9 333e 58ee 8f3e cb2f bbbe 8d43 9f3e
000002b0: db18 883f 6781 cbc0 05ce d33e 8dac 673e
000002c0: 9e27 833e a881 bd3f 957d 7e3f b274 8d3e
000002d0: 3712 a9be ce0e e2be 22f0 8e3f e1ed e3bd
000002e0: 4217 77bf 91c0 d9be f5f0 67be a54c 5f3e
000002f0: 3545 c13e 9c4f 6c3e 3e65 b4bc 44fd 973f
00000300: b494 03c0 c363 48bf 1a06 a23f bd81 30bf
00000310: 4a00 b63f 64ea 9e3f 6aab 0bbe dfce f2be
00000320: 0207 8cbf dd15 83bd bbf7 0ebf 568c 813b
00000330: 27d1 a3be dd1b e33b 22bc 48be 992a d43e
00000340: f5ea 1c3e 077f 01be 01ee 68bf 36c8 19c0
00000350: c9d8 ba3f cf16 06c0 6b7c 413f 625d 1240
00000360: 8c13 ce3d 086c 75bd 08b3 2a3e 683a a03e
00000370: 2871 913f 4f09 27bf ae32 b7be af5a 9c3e
00000380: 8092 31bd 95d8 1a40 f004 bebd 13a0 01be
00000390: c2b5 97c0 3170 59bf c300 d8be c3a8 913e
000003a0: 2e60 05bf edd5 97bf c5e2 643e 9088 a0be
000003b0: 7ce6 833e b256 e0bd e360 eb3e c550 acbe
000003c0: 58d1 803f 870a ed3d f317 3abe 8a07 c93f
000003d0: 380a f33f ef63 3dbf 3e1b 533f 5b3f 93c0
000003e0: eb31 00c0 fdd2 fa3f 595f c4be c1c8 b9bf
000003f0: 200a 623d f077 453f fffb 273c 3106 80be
-0.44109997 -0.038764194 -0.4644517 0.5020974 -1.0059172 -0.09194027 1.1395339 -0.19726501
-0.050021764 -2.5136964 -0.04348056 1.1156386 0.5805043 1.7262526 0.240434 -0.022688875
1.6657153 0.47946426 -0.5926787 0.5128113 0.8519586 -0.45164984 0.967238 0.3295654
-0.39257535 0.1741135 -0.016300546 -2.7636552 -1.0704192 1.1610432 1.0146985 1.5786526
1.724187 1.0475599 0.56454134 -0.20084587 -0.11914936 -0.2215356 -0.26147482 -0.46621257
-0.341791 -0.39144936 -0.36878836 -0.19482584 -0.107542366 1.2700721 -0.7522277 -0.6165731
-0.034740414 -1.0188243 1.0365632 0.294045 0.38071057 1.5052989 0.23763184 0.2973813
-0.5424782 0.8345439 -0.6723682 0.8053243 0.9278142 -0.19982743 0.14094803 0.55852515
0.5513541 -2.2519486 -0.48129174 -0.7378982 0.328099 0.9572576 0.24181059 0.89550114
1.1493229 -0.45049524 -0.300579 -0.046526093 -0.23535497 -0.0491458 -0.6605902 -0.41994312
-0.2792356 0.72551364 0.19681735 0.00803808 -1.0270754 -0.7083762 0.8515592 1.0812835
-0.7089092 0.36181337 0.03449719 -0.42282477 0.5721212 0.008231344 -0.650657 1.1611236
-0.11478021 0.22254428 0.28483176 -2.7830298 -0.77796924 0.113312855 -1.4485197 1.4375619
1.1507581 0.100328945 0.62235254 0.6910673 -0.4835909 -0.46879488 0.22345144 -0.26344752
-0.87232226 -0.33254924 -0.06964282 -0.029895484 -0.11708931 -1.2029228 -1.5545592 0.81055814
-2.8007984 -0.18451636 0.70567787 0.2642131 0.32680508 1.5357924 0.7045721 -0.39986408
-0.5455281 -0.26406625 1.511224 -0.119436316 -0.12785596 -0.30920613 -0.2243536 -3.198682
-0.83984375 -0.33666635 1.0594064 -2.083041 -2.9692469 2.3075671 0.30204403 2.1427832
-0.08732874 -0.5576623 -0.57063925 -0.19845429 2.0296714 -0.17773053 -0.4327999 -0.3314263
0.5177432 1.6854984 -2.5581968 -0.9519638 0.8356829 0.80799645 -1.9149829 0.3117864
0.017730448 -0.87355405 0.24178754 -0.6589526 0.73531693 0.7798684 0.15133338 0.18131542
0.17544971 0.2811153 -0.365599 0.31106225 1.0632585 -6.359546 0.41368118 0.22624417
0.25616163 1.4805193 0.9941037 0.27628094 -0.3302171 -0.4415192 1.1167033 -0.11129356
-0.96519864 -0.4252973 -0.22650512 0.21806581 0.37748113 0.23077244 -0.022020932 1.1874166
-2.055951 -0.78277224 1.2658112 -0.68947965 1.4218838 1.241528 -0.13639608 -0.47423455
-1.0939639 -0.064006545 -0.55846757 0.003953497 -0.31995508 0.006930812 -0.19603017 0.4143875
0.15324004 -0.12646113 -0.90988165 -2.402845 1.4597408 -2.0951421 0.7558047 2.2869496
0.10062322 -0.05991748 0.16669858 0.3129456 1.1362658 -0.6524858 -0.35780853 0.30537936
-0.043352604 2.419469 -0.092782855 -0.1265872 -4.740937 -0.84936816 -0.4218808 0.28449067
-0.52099884 -1.186216 0.2235213 -0.3135419 0.25761783 -0.10954036 0.45972356 -0.33655372
1.0063887 0.115742736 -0.18173198 1.5705426 1.8987494 -0.7398061 0.82463443 -4.601484
-2.0030468 1.9595639 -0.38353994 -1.451439 0.055185437 0.77136135 0.010252952 -0.25004724

bias f4 [26]
00000000: b44d a53d 2542 263e 4c50 413b fb40 10be
00000010: 373b 823e f038 99be 7f19 653d 67f4 c5be
00000020: 4cbd 1e3d 4982 2dbb ab2a 99be d146 23bd
00000030: d059 12be ce80 f6be 8423 febd f311 81be
00000040: d4dd dabd 3510 34bd 701c 4dbd be5f 3dbf
00000050: 49ae d5bd 4097 afbe aad4 d83d 50cd 4c3e
00000060: 1fc5 1abe b955 1540
0.08071461 0.1623617 0.0029497324 -0.14087288 0.25435802 -0.29926252 0.055932518 -0.38663027
0.038754746 -0.002647536 -0.29915366 -0.039862458 -0.14292073 -0.48145145 -0.12409118 -0.25209007
-0.106868416 -0.04396077 -0.05007595 -0.73974216 -0.10433633 -0.34295082 0.105874375 0.20000196
-0.15114258 2.333357

weight f4 [1, 32, 1, 1]
00000000: d98a ec3d ede1 71bd dbb9 7e3e 4cfe da3e
00000010: 7d4c 8bbc 089d cebe 04e7 06bf b87a 70bf
00000020: 5448 e33d c3b0 8d3e 4f2b 3dbe 78c6 8a3f
00000030: 9141 603f 3e9b 663f dd89 adbe 10f3 e2bd
00000040: eaea 263f dd39 e7be ab89 643e 3a2c c9bf
00000050: ab7a afbe f616 8e3b 5bd0 8d3e bc14 4d3f
00000060: 6f89 9dbf 0ed4 4abe d7a1 433d 4e83 b8bf
00000070: 0b90 7b3e 3cbb 243f 4ab2 963d 96d2 b23d
0.115499206 -0.05905335 0.24875586 0.42772138 -0.017004246 -0.4035418 -0.5269625 -0.93937254
0.1109778 0.2767392 -0.18473552 1.0841818 0.87600046 0.9008063 -0.33894244 -0.11081517
0.652022 -0.45161334 0.22318141 -1.5716622 -0.34273276 0.0043362333 0.27698025 0.80109763
-1.2307566 -0.19807455 0.047761764 -1.4415071 0.24566667 0.64348197 0.07358225 0.08731572

weight f4 [32, 9]
00000000: 6948 9fbc 449d 3abf 2586 74be 0ff8 773d
00000010: c05e 90bd 2096 58bd 2361 00bf 6859 89bc
00000020: e65e a2be 52c6 18bf 1ccb 613e 46e1 51be
00000030: 9e19 ff3e 1cd0 dcbd 652e 16bd 265d cbbd
00000040: 0275 02be 3484 13be 366b e33c 9e29 9dbe
00000050: 0038 1fbe ba16 3dbe 8a74 a33c 33e9 13be
00000060: ff5d fabd bdc8 c33d 5994 533e 398e eb3e
00000070: 4448 03be d9e2 24bf 2624 c63e facc c23d
00000080: 905b d6bd 7dac 36be e585 aa3d 61cf e4bd
00000090: bd19 e83e 53d5 fc3e 8bed b73e be99 bc3c
000000a0: c2d9 da3e fa08 753d 443e a83e f0b7 683e
000000b0: ecb2 603d b7cd bdbe c56a b8be f019 8abe
000000c0: 25c2 db3d b9bb e93e 84fe 10bf 8eb9 583c
000000d0: 8878 273f 5305 36be fa4c 9f3d 96fa 873e
000000e0: f028 463e c5fb e8bb f3aa 033f 8b85 b23d
000000f0: 5c0c 583e 28db af3d 2a1a 1b3e f739 abbe
00000100: b1c0 58be 1969 0b3e 1ee4 4a3e 4a77 3a3e
00000110: 3ba1 083a 88e9 92be dc78 27be a198 34be
00000120: 3826 49bd 72a0 0a3d 388b 983e fad0 08bf
00000130: bbfe 47be eb7f 893e 3d59 143f c314 cbbe
00000140: 1755 babe fc4f 3bbe 2502 00bf 039e 26be
00000150: 2c48 3d3f ecf8 fb3d fd4d afbe 55b6 99be
00000160: 5cf3 e3bd bac1 b63e 9a7a 3cbe 6bc0 a4be
00000170: 7d2d 05be 8420 a3bd a9c3 8fbe 1c75 733e
00000180: 01e9 83bd 54a7 283d 3239 053e 33ad c43d
00000190: 7696 3c3e e3ce 29be 91af da3d 4d9f 0d3e
000001a0: aa65 f2bd e593 503e b0dc 933d d140 2bbf
000001b0: 6e3f 33be 6c7d 21be d104 03be e17e c03c
000001c0: c6dc b5bd ca01 9e3d b667 c0bd 5e40 32be
000001d0: 2830 25bb 2112 d53e f663 97be 31fd f13d
000001e0: 3560 27be 523c 763e 5083 34be af8d 773e
000001f0: 6616 d63d 9a97 30be 6c02 e3be 10c0 023e
00000200: c5ba bcbe 9908 13be 415e e2be 66e7 1abe
00000210: de7f 043e 7b30 ad3e b5a0 cb3e 58fb 9f3d
00000220: 904e d1bd cb2b 80be bf08 e5bd 0548 54be
00000230: 630c 4c3e d09a 82be 9730 28bd febc 9d3d
00000240: b8ac 48bd 6550 fdbd dba5 003e 54bd 57be
00000250: 741b 53be 117b f4be ad46 943e c2cb 74be
00000260: 3f83 d53d d6e2 ad3e 1284 44be 25ec 87bf
00000270: ab06 133e 178e 933e 52a3 b3be df93 0dbf
00000280: 5bac 8dbd ea1b 81bf e0df 44be 5c22 9fbe
00000290: d77e 803e ea15 f4bd a502 3cbf 2bd4 fa3e
000002a0: 972d ebbe 7d68 033e 3b64 303e ede6 8cbf
000002b0: 80bd 4dbf 0549 dfbe 2ac5 78be f501 9d3e
000002c0: 7240 7c3e 6ad4 dcbe ec8e 23bf b8dd e73e
000002d0: 1e15 813e 029b 3dbe 2347 8ebe 841d 2cbe
000002e0: bf19 453e f483 99be cf82 58be b371 d8bd
000002f0: f287 94be a1c4 9abe 9190 80bb 84cc 6abe
00000300: 0221 06bc 1d7b fb3d 5a01 abbd 2af0 b93e
00000310: d9be cdbd 65f6 e4bc 66de 97be 972a a2bd
00000320: 68fd 0d3e ae41 c13e 5438 6c3e f4ce 9b3d
00000330: d64d 8bbe 6ddb 79bd f28d 31be 273c 383e
00000340: 85b3 30be 1945 893d b1cb 9abd a413 7abd
00000350: 067c 9bbd 5cbf ecbe 28ce 8a3e 33ff debe
00000360: 04d7 8bbe cf0c 8dbd 7c29 3ebe 817e 483e
00000370: 3d0c 94be 2675 aebe cf74 20be 8709 d73c
00000380: 7638 db3c b036 34bd dc23 4d3e 41b2 e23b
00000390: ca82 18be 7ccb 81be d656 8dbd a7ea 56bc
000003a0: dc71 dcbc 7b93 56be b054 c43d c21d 983e
000003b0: a920 403d 1321 81be 79bd 99be d6dd 62be
000003c0: 5ea2 5bbe e939 5ebd 6943 97be c06a 26be
000003d0: 332e 84be ddc7 143f cb02 07bf 8846 cabc
000003e0: 7c58 f23e 3531 543c e17d 3bbe b115 8dbe
000003f0: 0195 823e 637f e13e 6d0e dbbe 8133 f3be
-0.019443708 -0.7289622 -0.23879297 0.0605393 -0.07049322 -0.052877545 -0.5014822 -0.016766265
-0.31713027 -0.5967761 0.22050136 -0.20496091 0.49824232 -0.10781881 -0.03666534 -0.09929876
-0.12739947 -0.144059 0.027761083 -0.30695814 -0.15548706 -0.18465701 0.019953031 -0.14444427
-0.122249596 0.09559772 0.20662059 0.46006945 -0.12820536 -0.6440864 0.38699454 0.095117524
-0.10466683 -0.17839237 0.083263196 -0.11172367 0.45332137 0.49381503 0.35923418 0.023022529
0.4274426 0.059823014 0.32860005 0.22726417 0.054858133 -0.3707101 -0.3601896 -0.26972914
0.107303895 0.45651034 -0.5663836 0.013227833 0.6541829 -0.17775469 0.07778354 0.2655837
0.19351554 -0.0071100914 0.5143272 0.087168775 0.21098465 0.085867226 0.151467 -0.3344266
-0.21167256 0.1361431 0.19813582 0.18209568 0.00052120135 -0.28693795 -0.16354698 -0.17636348
-0.049108714 0.03384442 0.29793715 -0.5344387 -0.19530766 0.26855406 0.57948667 -0.39664277
-0.36393043 -0.1829223 -0.5000327 -0.16271214 0.7393825 0.123033375 -0.34239188 -0.3002192
-0.111304015 0.35694677 -0.18406144 -0.32178053 -0.13005634 -0.07965186 -0.28078964 0.23775142
-0.06440926 0.0411752 0.130101 0.09603348 0.18416771 -0.16582827 0.10678018 0.138303
-0.11835797 0.20368917 0.07219827 -0.66895777 -0.17504665 -0.15770501 -0.12794806 0.023498
-0.0888 0.07715185 -0.09394781 -0.17407367 -0.0025205705 0.41615394 -0.29568452 0.118158706
-0.16345294 0.24046448 -0.17628217 0.24175142 0.10453491 -0.17245331 -0.44337785 0.12768579
-0.36861244 -0.14358748 -0.44212535 -0.15127334 0.12939402 0.3382605 0.39771047 0.07811612
-0.10220063 -0.2503341 -0.11183309 -0.20730598 0.199266 -0.25508738 -0.041061964 0.07702063
-0.048992842 -0.1236885 0.12563269 -0.21068317 -0.20615941 -0.47750142 0.2896017 -0.23905852
0.10425424 0.33962125 -0.19191006 -1.061894 0.14358012 0.28819343 -0.3508554 -0.5530376
-0.0691764 -1.0086644 -0.19226027 -0.31080902 0.2509677 -0.11918242 -0.73441535 0.48989996
-0.4593322 0.12832828 0.17225735 -1.1007973 -0.8036728 -0.43610397 -0.24293962 0.30665556
0.24633959 -0.4313081 -0.63889956 0.45286345 0.25211424 -0.18516162 -0.27788648 -0.16808134
0.19248103 -0.29983485 -0.2114365 -0.105685614 -0.29009968 -0.3022814 -0.0039234837 -0.22929579
-0.008186581 0.12279341 -0.08349867 0.36316043 -0.10046167 -0.027949521 -0.29661864 -0.079182796
0.13866198 0.37745422 0.23068362 0.076078326 -0.27207822 -0.061000276 -0.17339304 0.17991696
-0.17255981 0.067026325 -0.07558382 -0.061053887 -0.07592015 -0.46239746 0.2711041 -0.43554077
-0.2731248 -0.06887209 -0.18570513 0.19579507 -0.28915587 -0.34073752 -0.15669559 0.02624966
0.026760321 -0.043997467 0.2003321 0.006918222 -0.14893642 -0.2535056 -0.06901328 -0.013117469
-0.026909761 -0.20954697 0.09586465 0.29710203 0.046906147 -0.25220546 -0.3002737 -0.22154936
-0.21448657 -0.054254446 -0.29543617 -0.1625166 -0.25816497 0.5811747 -0.52738637 -0.024691835
0.47333133 0.012951185 -0.18309738 -0.27555612 0.25504306 0.440425 -0.42784443 -0.47500232

bias f4 [32]
00000000: 0f8e a23f 9a62 cc3e ef29 9dbe 2548 703d
00000010: 8e0e 22c0 f74c f5bc c03f c3bf 7dd6 aabd
00000020: 76c8 053e 3c7b 30be 19df 093d b0b8 43be
00000030: 0561 c9bd a17c cabe 79fd adbd e278 1dbe
00000040: 3466 433e 80b4 113f 0089 023e 9c31 d03e
00000050: 0be1 bbbd 7008 8fbd 6e4f fa3d d892 d13d
00000060: ec12 7c3d a4a9 85ba 45b2 453c e4de babd
00000070: f875 bb3e da7b 4abe f0d8 ddbe 1a91 793f
1.2699603 0.39918977 -0.30696055 0.058662552 -2.5321383 -0.029943926 -1.525383 -0.08341692
0.13064751 -0.1723451 0.033660028 -0.19113421 -0.09832958 -0.3954821 -0.08495612 -0.15378144
0.19081956 0.56916046 0.12747574 0.4066285 -0.09173783 -0.06984031 0.12222181 0.10233086
0.061541483 -0.0010197652 0.012066429 -0.09124544 0.3661344 -0.19773808 -0.43329573 0.9748703

weight f4 [1, 32]
00000000: fb9d 8a3f 6099 d53e 3c85 8cbc 8fef c7be
00000010: 0557 e33e 7be6 203f ffc3 9c3e f2b5 cf3d
00000020: ffb1 38be 3ef4 eabe 9931 673e 4393 5ebe
00000030: f3b1 d3bd 948a 123e 7334 cebe cf75 2b3e
00000040: 9edf b3be 5729 b83f f710 86be f3d1 743f
00000050: dfd7 b73d a4c5 49be cee6 383e 7c08 c53e
00000060: af39 8e3e 3999 3e3c 831a f9bc 6e39 ccbe
00000070: 2102 26bf ff5c 943e 7351 e33e a5fc 443f
1.0829462 0.41718578 -0.017153375 -0.39049956 0.44402328 0.62851685 0.30618283 0.10142125
-0.1803665 -0.45889467 0.22577514 -0.21735863 -0.103366755 0.14310676 -0.4027439 0.16744159
-0.35131544 1.4387616 -0.26184818 0.9563286 0.08976721 -0.197043 0.18056795 0.38483036
0.27778384 0.011633211 -0.03040815 -0.39887565 -0.64847 0.289772 0.44398078 0.76948005

weight f4 [32, 32, 3, 3]
00000000: 2600 c4bc 04c5 0cbc ad21 57bd d907 6e3d
00000010: 8b59 383d b247 0ebd dadb 11bd 6ca2 1fbd
00000020: f477 3bbc 05c0 0a3d b43c 3f3c 75ee 4b3d
00000030: 73bf 3a3d 6468 48bc 3e04 40bd e464 29bc
00000040: acfd 10bd d428 703c 0d3a 123d d847 89bb
00000050: 257d edbc b95d 24bd 6f6b 193d 18b0 b8bc
00000060: a0ab 6ebd cccd 123c 74ca 47bd 81fc 313d
00000070: 162c f7bc ec6b 043c 18fa 12bc 146f 523c
00000080: 4462 763c 61a7 093d e21a c33c ae20 ef3c
00000090: 3b57 073d e539 70bd ea14 9d3c b0de 54bb
000000a0: c01b 4ebc 30e0 453b 00e0 c339 0eda c03c
000000b0: 5397 643d f69d 47bd 585c 23bd 3ef5 a63c
000000c0: c2fb ce3c ff14 713d b666 0fbd f8fa 17bd
000000d0: c0af 683b 2096 56bc 68fb 0ebc e02c dfba
000000e0: 2481 60bc d2db 4dbd 4cce 29bd 602e 8cbc
000000f0: 5bed 553d 12d2 d73c a0fc 78bb fdde 133d
00000100: 0bab 2b3d 66db 1dbd 7613 32bd 2c59 36bd
00000110: 5fd1 f1bc 3ed7 d7bc 227d e8bc 79bc 513d
00000120: 80a7 a9bb f16c 673d 1e91 acbc 62db 2ebd
00000130: 50e5 53bd 969a ee3c 1b89 263d 6c61 1bbd
00000140: 7899 08bc a060 9aba 267c d4bc c40a 06bd
00000150: 8a04 1cbd f6e7 fbbc dc80 9cbc bdb0 5d3d
00000160: d28b 05bd 98c1 95bc 48ed 71bc fed2 2abd
00000170: 04d5 28bd d0a0 3fbd 1678 05bd 294a 1b3d
00000180: 066d 34bd 2979 013d 1fac 0a3d 6c52 233c
00000190: 80e3 56bd 05c6 0bbd 1625 8f3c 0606 cabc
000001a0: cfa5 593d 2e30 f93c 404f 51bb 1652 0cbd
000001b0: 959a 6d3d de88 a33c 602b ab3a ffc6 1b3d
000001c0: a4b5 723c f610 80bc da1b 54bd 5943 5dbd
000001d0: 601e 17bc c739 62bd 2d2a 2c3d 5906 213d
000001e0: 6a83 08bd 4421 713c cfec 5a3d a327 363d
000001f0: aac6 8f3c b209 f23c 117f 213d c993 273d
00000200: 743d 613c c711 eabc 4a50 d63c 7bc5 083d
00000210: 8888 e93b 3bac 033d c4d0 86bc b3a7 53bd
00000220: 6cf5 6abd 54a9 023c 9e31 29bd 0380 363d
00000230: e29d 53bd a0c4 79bb a878 ac3b d4aa b5bc
00000240: aaaa 913c 4988 30bd bbc4 6a3d 48f5 52bc
00000250: d473 96bc 1eed dfbc 4c04 03bd ac29 92bc
00000260: 2a59 bbbc adde 1c3d ac1b 65bd 86e7 e1bc
00000270: 6248 bfbc 6c7c 50bc 6c0e 66bd e111 0a3d
00000280: 9820 66bd 8829 94bc fa09 8cbc 1a26 0bbd
00000290: 5c2e 0ebd d14c 2d3d 1adf 3cbd f10c efbc
000002a0: b2bf da3c a7f0 643d 2988 0d3d da0d b13c
000002b0: de58 ee3c a2ca 8c3c e58a 5e3d 90f3 513b
000002c0: 163a debc 4a00 02bd 1e80 f3bc 205a 26bd
000002d0: c37b 5c3d aa38 e2bc 4ec7 c33c 961c 95bc
000002e0: 3234 bb3c 323e cb3c 95a0 2c3d 9109 2a3d
000002f0: dc3a 063c a7dc 383d 6886 b5bc 40ff 39ba
00000300: f6ce 99bc 202a 95ba 147d 073c ca3d 2dbd
00000310: 281d d1bc abde eebc 58b4 c53b c32c 713d
00000320: db3e 163d 481c ffbc 1c41 0f3c 250a 5e3d
00000330: 6911 403d bb3e 693d ed7f 4cbd 947b 49bd
00000340: 1cb3 68bd 00b2 9138 6f01 573d 0e5b f53c
00000350: f00a 4cbd 7c58 363c c5c1 413d 7099 793b
00000360: 2682 17bd 5809 fb3b 8033 603b 839c 673d
00000370: eb05 393d e7ea eabc 1a5a 2fbd 2772 00bd
00000380: a7b0 623d 70df 80bb 8ca6 2b3c 8a23 15bd
00000390: 52bc 843c 182a 20bc e97b 6c3d e8fc 45bc
000003a0: 5897 ddbc e039 ec3a a429 b4bc 54f2 4ebd
000003b0: 4b20 0cbd 0c5e 6e3c 70fa 53bc 59bb 0d3d
000003c0: 7860 6abd a06e 95bc 880d 903b 48e2 48bc
000003d0: a83d ed3b 561f e23c 0801 e93b 4879 67bc
000003e0: 47a1 093d 63d2 1c3d 6846 31bc e059 90bb
000003f0: d9d6 5abd 4664 debc ec6d 68bd 50c5 233b
-0.023925852 -0.008591894 -0.05252235 0.058112953 0.04500727 -0.034736343 -0.035610057 -0.038973257
-0.011442173 0.03387453 0.011672188 0.049787957 0.045592736 -0.01223192 -0.046879046 -0.010338996
-0.03539817 0.014658172 0.035699893 -0.0041894726 -0.028990338 -0.040128443 0.037455972 -0.022544906
-0.058269143 0.008960199 -0.04877706 0.043453697 -0.030172389 0.008082371 -0.00897076 0.012843866
0.015038077 0.03360689 0.02381653 0.029190388 0.033042174 -0.058648963 0.019175012 -0.0032481365
-0.012579858 0.003019344 0.0003736019 0.023541477 0.055808377 -0.048734628 -0.039882988 0.020380612
0.025266532 0.058857914 -0.035010062 -0.037104577 0.0035505146 -0.013097316 -0.008726932 -0.0017026924
-0.0137026645 -0.050258465 -0.041456506 -0.017111957 0.052228313 0.026345287 -0.0037992373 0.03610133
0.041911166 -0.038539313 -0.04347559 -0.044518635 -0.029518781 -0.026347753 -0.02837998 0.051205132
-0.0051774383 0.05650038 -0.021065291 -0.04268969 -0.05173236 0.029126447 0.040658098 -0.037934706
-0.008337371 -0.0011778064 -0.025938105 -0.03272511 -0.038090266 -0.030750256 -0.019104414 0.05412363
-0.032604046 -0.01828079 -0.014766045 -0.041705124 -0.041218773 -0.046784222 -0.032585226 0.03791252
-0.044049285 0.031609688 0.033855554 0.009968381 -0.052463055 -0.034124393 0.017473739 -0.024661075
0.053136643 0.030418482 -0.0031938106 -0.03425797 0.05800875 0.019962724 0.0013059191 0.038031574
0.014813814 -0.015633088 -0.051784374 -0.054019306 -0.009223551 -0.055230882 0.04203241 0.039312694
-0.03332845 0.014717404 0.053448495 0.044471394 0.017550785 0.029545639 0.03942782 0.040912423
0.013747562 -0.02857293 0.026161332 0.033391457 0.0071268715 0.032146674 -0.01645697 -0.051673602
-0.05736296 0.007974941 -0.041307084 0.044555675 -0.05166424 -0.0038111582 0.005263407 -0.022176184
0.017781574 -0.04309872 0.057316523 -0.012875862 -0.018365778 -0.027334746 -0.03198652 -0.017842136
-0.022869665 0.038298298 -0.055934593 -0.02757622 -0.023349945 -0.012724977 -0.056166098 0.033708457
-0.056183428 -0.01808621 -0.017094601 -0.033971883 -0.03471218 0.042309586 -0.046111204 -0.029180976
0.026702736 0.055893566 0.03455368 0.02161305 0.02909511 0.017186467 0.05433168 0.0032036044
-0.027127307 -0.031738557 -0.029724177 -0.040613294 0.053828966 -0.02761491 0.023898747 -0.018202107
0.022852037 0.02480993 0.04214533 0.04151303 0.008192744 0.045132305 -0.022158816 -0.0007095225
-0.018775444 -0.0011380352 0.008269567 -0.042295255 -0.025526598 -0.02915891 0.0060334615 0.05888058
0.036681037 -0.031141415 0.008743551 0.054208893 0.046891604 0.05694459 -0.049926687 -0.04919012
-0.056811437 6.947294e-05 0.0524916 0.029950645 -0.04981512 0.011129495 0.047303934 0.003808584
-0.036989354 0.007661026 0.0034210384 0.056545746 0.04517166 -0.028676463 -0.042810537 -0.031358864
0.05534425 -0.003932886 0.01047672 -0.036410846 0.01620308 -0.009775661 0.057735357 -0.012084223
-0.027049705 0.0018022619 -0.021992512 -0.05052407 -0.034210484 0.01454879 -0.012938127 0.034602497
-0.057220906 -0.018241227 0.0043961443 -0.012260981 0.007240016 0.027602833 0.0071107186 -0.014128037
0.03360107 0.038286578 -0.010820009 -0.004405245 -0.05342755 -0.027147423 -0.056745455 0.0024989434

bias f4 [32]
00000000: f88b 09bd 2686 c83c e8c6 d3bc d09e 8ebc
00000010: fb09 293d c9cb 2c3d 44f5 87bc 3918 48bd
00000020: 8961 383d c986 5b3d 84d8 1abd 106c 88bb
00000030: 3ff3 223d cfbf 54bd 576e 093d 268d ee3c
00000040: 54e4 2cbd 4af2 20bd c029 36bc c160 053d
00000050: 0f68 17bd eca7 99bc 5afd 943c 853c 2d3d
00000060: 9c12 633c b2c2 45bd 107c 023b 4d45 5e3d
00000070: b6d3 d3bc 62f3 f6bc f876 28bc 6604 dbbc
-0.03358075 0.02447803 -0.025851682 -0.017409712 0.041269284 0.042186532 -0.016596444 -0.048851226
0.04501489 0.053595338 -0.03780414 -0.0041632727 0.03978276 -0.051940735 0.033552494 0.02912004
-0.04220994 -0.039293565 -0.011118352 0.032562975 -0.036964472 -0.01875683 0.018187214 0.042294044
0.013859417 -0.04828138 0.0019910373 0.05426531 -0.025857788 -0.03014535 -0.010282271 -0.026735496

weight f4 [32, 32, 3, 3]
00000000: 0d17 5c3d 482d 9fbb 72c3 39bd 70ca 8bbb
00000010: 0394 5d3d 6289 3ebd d6ee f33c 0789 3d3d
00000020: 1d1f 453d 90b4 bcbc acf4 3ebc c03b 04bd
00000030: ca6d 52bd 2862 0bbd 5752 2f3d 8625 bcbc
00000040: c060 16bb 9c7a 3b3c cd93 0b3d e848 c43b
00000050: c00c f1bb 3652 66bd e883 01bc eafc a63c
00000060: f0d8 0fbc 0982 4abd 9905 3c3d 5e77 85bc
00000070: 2db0 053d 0304 4a3d 772b 503d 24c9 563c
00000080: 7d38 20bd 9c03 173c aced d0bc aff9 303d
00000090: 8b00 5e3d 0e71 e53c e526 29bd 036d 4c3d
000000a0: 10a6 01bc 6b93 673d f8eb 8abc 9c04 14bd
000000b0: 141a 183c 45cc 213d 0691 35bd 75ae f8bc
000000c0: 5a58 02bd 4889 fbbb 59bd 57bd 1633 5abd
000000d0: a046 d3ba c0e6 9c3a 9a83 cd3c a09f c1bc
000000e0: 8845 f3bc 3998 3f3d 785d 8cbb 00de c9bb
000000f0: 7008 81bc f04a 4fbd 2034 1fbb 9c7a 653c
00000100: 741d 6f3c fca4 39bd 6993 463d 287a 33bc
00000110: fd32 4a3d 29b4 5f3d c0ec ee3a 1ba9 6abd
00000120: de21 92bc e9b0 433d 36d3 8c3c a485 50bc
00000130: 829a cc3c 9834 19bd 002a c739 2359 663d
00000140: 0c86 29bd d06a 48bc a8a7 ebbc 9881 e7bc
00000150: afe0 183d 71ae 133d f161 0d3d b16d 343d
00000160: fac5 f13c 04e4 28bc 9ad7 903c 11b4 533d
00000170: b47b 17bd b516 363d 5ad2 4ebd eb69 15bd
00000180: c0a5 07bc 615f 3e3d d0c1 51bb 1f23 5f3d
00000190: c014 523a e212 9d3c b1be 4c3d 00a3 603a
000001a0: 09bc 61bd 6c2a 82bc b979 6c3d 60f4 63bd
000001b0: 6768 3fbd dc75 bebc 2e02 a93c 3e91 8a3c
000001c0: 1f84 0cbd ece8 733c 4898 3ebd afca 553d
000001d0: ce73 58bd 5be1 353d 1ff8 353d d898 ad3b
000001e0: 37a7 04bd 988f 903b 3ee0 8abc ccb5 59bd
000001f0: 2e23 06bd 664f a93c 1372 683d 9458 193c
00000200: 2d0e 673d 8e00 d83c 64e7 34bd 407a 01bc
00000210: b789 53bd 42df f83c 81e0 6d3d aa41 b53c
00000220: bdff 003d 65de 2b3d 2e39 a33c 2e92 f73c
00000230: dd29 173d ec30 3cbc 6f49 50bd 7ead fa3c
00000240: 6ee4 2fbd 85a0 273d 4df5 2c3d c887 b73b
00000250: 6cba 33bd 4ec1 cf3c 1779 613d 36ab d9bc
00000260: d2e1 4cbd ee56 903c b81a 26bc 423b a3bc
00000270: a6d9 d4bc fdf5 643d 4028 23bd 287b 95bb
00000280: 5479 7dbc b1d7 4c3d c448 0e3c 140f 0abc
00000290: 7af3 4ebd 9acc f63c d2ba 34bd dec3 d93c
000002a0: 84c8 6fbd f862 fc3b dbc1 153d be9a 80bc
000002b0: 2401 783c 84e9 2f3c c677 823c 6c0c 5cbc
000002c0: d0d7 30bd f879 ad3b 183b 14bd 367c 64bd
000002d0: 808f fbbb bbff 55bd 9b2f 593d 769f b2bc
000002e0: 54be 23bc f61b de3c 2170 3fbd cc8f 14bc
000002f0: fcae 6f3c 2447 52bd 7c15 1bbc 0045 67bb
00000300: a4fa 40bc 80aa 13bb 89aa 003d 4ef6 833c
00000310: bb18 533d cc49 27bd d8d0 d7bc c938 44bd
00000320: a075 e3bc 5462 593c 7ae6 ff3c 19c6 583d
00000330: 50e3 20bd b8f9 fa3b 77c4 6fbd 275b 093d
00000340: cf58 1b3d 916e 453d 6890 fe3b be59 8b3c
00000350: 374b 0b3d a69e 8fbc 0e62 21bd 2b59 4cbd
00000360: 0874 1fbc 9018 2ebd 44ca 213c dd4d 663d
00000370: c25e 37bd b05e 47bd 9b07 eebc 9047 5dbc
00000380: 8b36 483d e793 673d 4de3 183d 83d4 043d
00000390: d4ea 2dbc fca5 1cbd c0a6 783a 17b3 2c3d
000003a0: 46d1 8e3c e2a9 01bd 5ed3 8bbc 5f45 3e3d
000003b0: 7b7d 62bd 73b6 523d b3b5 463d a0fa b23a
000003c0: 9b28 37bd 2afb fd3c fc8c 533c ed98 673d
000003d0: 16f0 f8bc fa07 913c c68e 34bd c5b7 60bd
000003e0: 7455 36bd 4a88 d5bc 80e9 9ebc 5158 0c3d
000003f0: c0aa 13bb 2473 7a3c 76b3 1bbd 9262 6bbd
0.05373292 -0.004857693 -0.045352407 -0.004266076 0.054096233 -0.046517737 0.029776972 0.046273258
0.048125375 -0.023035318 -0.011655014 -0.032283545 -0.051374234 -0.034029156 0.042803135 -0.022967111
-0.002294585 0.011442807 0.0340765 0.0059901364 -0.0073562562 -0.056230746 -0.007904984 0.02038427
-0.008779749 -0.049440417 0.045903776 -0.01629227 0.032638717 0.049320232 0.0508227 0.013109479
-0.03911637 0.009217169 -0.025503956 0.043206867 0.054199737 0.02800801 -0.04129686 0.04990865
-0.007913128 0.056537073 -0.016958222 -0.03613721 0.009283561 0.039501447 -0.04432776 -0.030356625
-0.03182254 -0.0076762773 -0.05267081 -0.053271376 -0.001611907 0.0011970624 0.025087167 -0.023635685
-0.029696241 0.04677603 -0.0042836033 -0.0061604977 -0.015751094 -0.050608575 -0.0024292544 0.014006283
0.0145944245 -0.045323357 0.048480425 -0.010954417 0.049365032 0.054615173 0.0018228516 -0.057290178
-0.017838415 0.047776137 0.017190557 -0.012727175 0.024976019 -0.037403673 0.0003798753 0.05623735
-0.041387603 -0.012232497 -0.028766468 -0.028260037 0.03732365 0.036055032 0.034517232 0.044049922
0.029513348 -0.010308269 0.017680932 0.051685397 -0.036983207 0.04445525 -0.050493576 -0.036477964
-0.008279264 0.04647768 -0.003200639 0.054476853 0.0008013956 0.019174043 0.049986545 0.0008569211
-0.055110965 -0.015889369 0.05773327 -0.055652976 -0.046730425 -0.02324956 0.020630922 0.01691496
-0.034305688 0.014887076 -0.046531945 0.052195247 -0.052844815 0.04440437 0.04442608 0.0052977614
-0.03238603 0.004411649 -0.01695263 -0.05315189 -0.032748394 0.020667743 0.056749415 0.009359498
0.056410003 0.026367452 -0.044165984 -0.007902682 -0.051645007 0.030379895 0.05807543 0.022126038
0.03149389 0.04196014 0.019924726 0.030221071 0.03690516 -0.011486273 -0.05085128 0.030600306
-0.042942457 0.040924568 0.042226125 0.005600903 -0.043878958 0.02536073 0.05504712 -0.026570898
-0.050020047 0.017619576 -0.010138206 -0.019925717 -0.02598269 0.055898655 -0.039833307 -0.0045618005
-0.015470821 0.050010387 0.008684341 -0.0084264465 -0.050525166 0.030126859 -0.04412348 0.026582655
-0.058540836 0.0077022277 0.036561828 -0.015698787 0.015136991 0.010736827 0.015926253 -0.013430696
-0.043174565 0.005294081 -0.03618917 -0.05578252 -0.0076770186 -0.052245837 0.053023916 -0.021804553
-0.009994108 0.027112942 -0.046737794 -0.009067487 0.014629122 -0.051337376 -0.0094655715 -0.003528893
-0.011778507 -0.0022532046 0.031412635 0.016108658 0.051537257 -0.040841863 -0.026344702 -0.047905717
-0.027766049 0.013268072 0.03123783 0.052923296 -0.039279282 0.0076591633 -0.058536973 0.033534195
0.03792649 0.048201147 0.0077686794 0.017010566 0.034007277 -0.017531704 -0.039400153 -0.049889725
-0.009732254 -0.042503893 0.009874884 0.0562266 -0.044768102 -0.048674285 -0.029056361 -0.013505831
0.04888014 0.056537535 0.037326146 0.03242923 -0.010615069 -0.038244233 0.0009485297 0.04216298
0.017433774 -0.031656154 -0.017068561 0.046452876 -0.05529545 0.05144353 0.048513126 0.0013655014
-0.04471646 0.031003553 0.012912031 0.056542326 -0.03038792 0.017703999 -0.04408147 -0.054862756
-0.04451509 -0.026065964 -0.01939845 0.034263913 -0.0022532195 0.015286241 -0.038012944 -0.05746705

bias f4 [32]
00000000: 9d5c 5dbd 0a4f f6bc e8c6 d8bb 6f23 30bd
00000010: 0964 143d 6d16 663d eeb0 b23c 9d13 70bd
00000020: 5e5c ba3c 299f 653d a581 4abd 2cbb 383c
00000030: 5417 2d3c b6ad 46bd 0227 ff3c a694 babc
00000040: e803 57bc 6abf a03c e8fd a43b a561 103d
00000050: a84d b1bc 68e5 1fbc 8eb5 913c 7c1d 58bd
00000060: dc22 033c 0c53 2a3c 6618 5abd 66d0 31bd
00000070: 889e aabc b224 fabc 81b2 203d 9152 33bd
-0.0540434 -0.030066986 -0.0066155083 -0.043002542 0.036228213 0.05617373 0.021812882 -0.058612455
0.022749122 0.05605999 -0.049440045 0.011275094 0.010564644 -0.048505507 0.03114653 -0.02277596
-0.01312349 0.019622523 0.005035151 0.03524937 -0.021643475 -0.009759285 0.017786767 -0.052762493
0.008003917 0.0103957765 -0.053245924 -0.043411635 -0.020827547 -0.030535076 0.039232735 -0.043779913

weight f4 [32]
00000000: f82b 5f3f 1e79 6a3f 68c7 e83e 2281 513f
00000010: 5e28 113f c067 0a3e 1209 093f 3350 083f
00000020: 9a6f f73e b19b 3d3f 5c69 123e 7d23 4c3f
00000030: 2207 923e 426f 073f 8856 ac3e 00ae 053b
00000040: 2d0a 753f 1e3f 763f db1f 703f 0c13 573f
00000050: 4ddb 143f 28a1 d03d d279 9a3e a130 773f
00000060: 8890 e83e 91ab 4c3f 38ef 783f 80c5 a83c
00000070: 6045 b73e 0255 363f 3c99 233e 40ba 223f
0.87176466 0.9159106 0.45464635 0.81837666 0.5670222 0.1351614 0.53529465 0.53247374
0.48327333 0.7406569 0.14298004 0.7974165 0.28521067 0.5290414 0.33659768 0.0020397902
0.9571865 0.9619006 0.9379861 0.8401344 0.58147126 0.10186988 0.30171067 0.96558577
0.4542277 0.7994929 0.9724002 0.020601988 0.35795116 0.7122346 0.15976423 0.63565445

bias f4 [32]
00000000: 0000 0000 0000 0000 0000 0000 0000 0000
00000010: 0000 0000 0000 0000 0000 0000 0000 0000
00000020: 0000 0000 0000 0000 0000 0000 0000 0000
00000030: 0000 0000 0000 0000 0000 0000 0000 0000
00000040: 0000 0000 0000 0000 0000 0000 0000 0000
00000050: 0000 0000 0000 0000 0000 0000 0000 0000
00000060: 0000 0000 0000 0000 0000 0000 0000 0000
00000070: 0000 0000 0000 0000 0000 0000 0000 0000
0.0 0.0 0.0 0.0 0.0 0.0 0.0 0.0
0.0 0.0 0.0 0.0 0.0 0.0 0.0 0.0
0.0 0.0 0.0 0.0 0.0 0.0 0.0 0.0
0.0 0.0 0.0 0.0 0.0 0.0 0.0 0.0

running_mean f4 [32]
00000000: 52b9 32be 1100 90bf 6ab2 04bf 89e6 27be
00000010: ba78 8fbd 7885 b53d 0052 033f 8eaa 03bf
00000020: 4f91 433e 96ab 153f 58f5 933e 1b47 bb3f
00000030: bfcd e0bd 074d 06bf db3f ddbd 4c05 bdbe
00000040: 6d07 65be a9fd 30be 3e1e de3d 1e37 17bf
00000050: 2ffe 663e 19e2 6e3e 2693 b0bd 5286 ad3c
00000060: 3745 0abf 1089 61be 6a0d edbe 8d6e 88be
00000070: 1409 51bf 6093 283d 13ed 0c3f 86f2 083e
-0.17453507 -1.125002 -0.5183474 -0.16396536 -0.07005449 0.08863348 0.51297 -0.5143212
0.190984 0.58464944 0.2889812 1.4631075 -0.10976743 -0.52461284 -0.10803195 -0.36918104
-0.22366114 -0.17284264 0.10845612 -0.5906848 0.22557901 0.23328437 -0.08621816 0.021182213
-0.54011863 -0.22024941 -0.46299297 -0.26646844 -0.8165448 0.041156173 0.55049247 0.13373765

running_var f4 [32]
00000000: 7cb8 9c3e 9674 713f 6816 aa3f ca60 473f
00000010: fac4 3c3f a366 833f 7622 923f 6304 053f
00000020: fdd0 083f 82fe b23f 692c 763f aaa3 0e3f
00000030: 45b0 be3f bcd3 503f 3acb 823f 9c09 9d3f
00000040: cdf4 193f 1266 693f 583c d73e 5e14 543f
00000050: 46cf 773f b520 563f 07c9 8f3f f61d e43e
00000060: dbb7 8d3f adbe 5f3f 478e 153f 72db 493f
00000070: b4fe df3e afd9 543f cbb7 613f e94b 533f
0.306095 0.9431852 1.3288088 0.77882063 0.7373806 1.0265697 1.1416767 0.5195982
0.5344389 1.398392 0.96161515 0.5571848 1.4897543 0.8157308 1.021827 1.2268558
0.6013916 0.9117137 0.42038226 0.8284358 0.9680065 0.83643657 1.1233224 0.44554108
1.1071733 0.87400323 0.58420223 0.7885047 0.4374901 0.8314466 0.8817107 0.82537705

weight f4 [32]
00000000: 60fc 8f3d 4be3 573f d86c fb3d 5e2b b13e
00000010: 12ad a83e e41a 603f 70c7 433e 3435 613e
00000020: d87e 8c3e e07a 3c3f afae 1b3f 9ecd 513f
00000030: ca04 743f 4084 553d 8403 793f e404 403e
00000040: 6d13 453f 000a ea3d 18da a73e e1e6 133f
00000050: 7873 dd3e 2d8c 023f 7a1d ae3e 4b3a 373f
00000060: 5b1b 6a3f 5117 0f3f 6df1 5a3f 988e 8f3e
00000070: b611 473f 3edc 153f 7031 b43d cb4f 403f
0.070305586 0.84331197 0.1227662 0.346034 0.32944542 0.8754103 0.19119048 0.21992952
0.27440524 0.7362499 0.6081342 0.8195437 0.9531981 0.052128077 0.9727099 0.18751866
0.76982766 0.114276886 0.3278358 0.5777417 0.43252158 0.5099514 0.34006864 0.71573323
0.9144799 0.55894953 0.85524637 0.28038478 0.777614 0.5853919 0.08798492 0.75121754

bias f4 [32]
00000000: 0000 0000 0000 0000 0000 0000 0000 0000
00000010: 0000 0000 0000 0000 0000 0000 0000 0000
00000020: 0000 0000 0000 0000 0000 0000 0000 0000
00000030: 0000 0000 0000 0000 0000 0000 0000 0000
00000040: 0000 0000 0000 0000 0000 0000 0000 0000
00000050: 0000 0000 0000 0000 0000 0000 0000 0000
00000060: 0000 0000 0000 0000 0000 0000 0000 0000
00000070: 0000 0000 0000 0000 0000 0000 0000 0000
0.0 0.0 0.0 0.0 0.0 0.0 0.0 0.0
0.0 0.0 0.0 0.0 0.0 0.0 0.0 0.0
0.0 0.0 0.0 0.0 0.0 0.0 0.0 0.0
0.0 0.0 0.0 0.0 0.0 0.0 0.0 0.0

running_mean f4 [32]
00000000: e03e 4a3d 4a70 203d d0e6 8c3c 265e 95be
00000010: 7a60 363c 4b04 ff3c 0102 0b3c 45fa febc
00000020: f271 f83c fe00 bebd 9fb6 ecbd 15fb a03d
00000030: 280e b13c b53d 09bd 8ecb be3d f371 46bd
00000040: e1a1 853d 4fcb b6bc f20a 913b 929e 3f3d
00000050: 4e19 1ebe d9f3 4b3e e074 163e c711 f83c
00000060: 25ce c1bd e707 c33c 8da7 25bc 4c6e 003e
00000070: 0fcc 2bbc 6685 c2bd 3626 343e 8890 c2bc
0.04937637 0.039169587 0.017199904 -0.29173392 0.0111314 0.031129977 0.0084843645 -0.031125197
0.03032777 -0.09277533 -0.1155827 0.0786039 0.021613196 -0.033506114 0.09316169 -0.048448514
0.065250166 -0.022313742 0.0044263536 0.046782084 -0.1543934 0.19917239 0.14693022 0.030281914
-0.09463147 0.023807479 -0.010110748 0.12542075 -0.010485663 -0.094981 0.17592701 -0.023750558

running_var f4 [32]
00000000: 9b91 443d 0f9e 7d3d e463 af3c 6a35 143d
00000010: 35e4 f53c e6bf 033d 0f9a ba3c 5695 ed3c
00000020: 4695 d43c 387f 4c3d eb27 d23c 3764 ce3c
00000030: 9a14 283d b026 5a3c a691 103d 42b9 073d
00000040: 3243 8f3c f365 2a3d 4a96 823c bfaf 133d
00000050: 9da7 133d e1a7 343d 2cc4 2f3d 6e41 5c3d
00000060: f173 183d 765e e23c 746c 933d 4fc7 d53c
00000070: 1f04 433c 4d08 153d 59a3 0e3d 8ee9 e23c
0.047990423 0.061918315 0.021409936 0.036183752 0.030016044 0.03216543 0.022778539 0.029001873
0.025950085 0.049926013 0.0256538 0.02519427 0.041035272 0.013314888 0.03529515 0.03313566
0.017488096 0.041601133 0.015940804 0.036056276 0.03604852 0.044105414 0.042911693 0.053773336
0.037219945 0.027632933 0.0719842 0.026096014 0.011902838 0.03638487 0.03482375 0.027699258
