models/5_cross_5_iter_70.pt (torch_old, 339781 bytes, 66 tensors)

weight f4 [32, 3, 3, 3]
0	0xbe90324e	-0.2816338
1	0xbebd29ea	-0.3694604
2	0x3e099a6a	0.1343781
3	0xbe7bcb02	-0.2458916
4	0xbd0653b3	-0.032794666
5	0xbd908280	-0.07056141
6	0xbd55f766	-0.05223789
7	0xbb259b0f	-0.0025269424
8	0x3c8ab386	0.016931307
9	0x3e9cbbf5	0.3061215
10	0x3ef9dc5e	0.4880094
11	0xbdc750f6	-0.09732239
12	0x3dde2fd2	0.10848965
13	0xbeb51103	-0.3536454
14	0x3e96c64b	0.2944816
15	0x3e04fa07	0.12986003
16	0x3e09cd31	0.1345718
17	0x3e8221af	0.25416324
18	0x3e7b85ea	0.24562803
19	0x3d6fc355	0.058535893
20	0x3bfeebe5	0.0077795857
21	0x3e51f4d2	0.20503548
22	0x3d9e200f	0.077209584
23	0xbd0ac085	-0.033875007
24	0x3e0c2100	0.13684464
25	0x3df20484	0.118172675
26	0x3e43a2fc	0.19105142
27	0x3f9ce697	1.225787
28	0xbe5daabc	-0.21647161
29	0xbfa18ad5	-1.2620493
30	0x3d4dc349	0.050235067
31	0x3f702f04	0.9382174
32	0xbea64760	-0.3247633
33	0xbe3b7a3c	-0.18308347
34	0x3f8dfd9d	1.1093022
35	0xbf38426d	-0.7197636
36	0xbfcdc5e3	-1.6076015
37	0x3ee61019	0.44934157
38	0xbf4218e0	-0.75819206
39	0x3ebf15ae	0.37321228
40	0x3e6e6f09	0.23284544
41	0x3f833b98	1.0252562
42	0xbddb14a6	-0.10697298
43	0xbf92fbbe	-1.1483076
44	0x3e93a8a0	0.28839588
45	0xbf0375c0	-0.5135155
46	0xbe8ff570	-0.2811694
47	0xbf016662	-0.5054685
48	0xbed27ae3	-0.4110938
49	0xbf0a0c14	-0.5392468
50	0xbe58fa56	-0.21189246
51	0xbed2de99	-0.41185454
52	0xbea7b120	-0.32752323
53	0xbe838685	-0.25688568
54	0x3f50ba0e	0.81533897
55	0xbfbe5d5d	-1.4872242
56	0x3f6b7525	0.91975623
57	0xbfff7934	-1.9958863
58	0xc02188b2	-2.5239682
59	0x3f284386	0.6572803
60	0x3d5b4ce6	0.053540133
61	0x401ad876	2.4194617
62	0x403c8a35	2.9459355
63	0x3f1f80fe	0.623062
64	0xc0de0169	-6.937672
65	0x3e79451b	0.24342768
66	0xc035fc8c	-2.8435392
67	0xbfa3e832	-1.2805235
68	0x3f89ad17	1.0755948
69	0x40274e07	2.6141374
70	0x3e546d98	0.20744932
71	0x400e3891	2.2222025
72	0xbe6ed2aa	-0.2332255
73	0xbe7eea69	-0.24894108
74	0xbe491555	-0.19637044
75	0xbda402a1	-0.08008314
76	0xbde4682a	-0.1115268
77	0xbe671119	-0.22565116
78	0xbe248e67	-0.16069947
79	0xbc9b1e38	-0.018935308
80	0xbe432d4b	-0.19060247
81	0xbdacdb49	-0.08440263
82	0xbebb82b0	-0.36623144
83	0x3f12a9c6	0.57290304
84	0xbf07cff4	-0.53051686
85	0xbe89e0d2	-0.26929337
86	0xbeb960bf	-0.36206624
87	0xbd806cc6	-0.06270747
88	0xbf78fb4d	-0.97258455
89	0x3e975e96	0.2956435
90	0xbf820f1e	-1.0160863
91	0x3de928ee	0.1138476
92	0xbe92383f	-0.28558537
93	0x3ec8ef4f	0.39245078
94	0x3da4aa58	0.08040303
95	0x3f7a8839	0.9786411
96	0x3dda9dda	0.10674639
97	0x3cd4a868	0.025959209
98	0xbf5b2a05	-0.8561099
99	0xbf063c45	-0.52435714
100	0xbf5679e0	-0.83779716
101	0xbf0357dd	-0.51305944
102	0xbf33685a	-0.700811
103	0xbf551264	-0.83231187
104	0xbf3a7368	-0.72832346
105	0xbf05dbe5	-0.5228866
106	0xbf56745d	-0.83771306
107	0xbf28bbc9	-0.6591154
108	0x3eabae78	0.33531547
109	0x3c4a8ac6	0.012362188
110	0x3f007d36	0.50191057
111	0x3f8174dd	1.0113789
112	0x3e15c7f9	0.14627065
113	0xbdb616c3	-0.0889106
114	0x3de89f8d	0.11358557
115	0x3ccc8b58	0.024968788
116	0x3eb7a658	0.35869098
117	0x3f02339f	0.5086002
118	0xbf7d7cd9	-0.9901863
119	0xbf59ac14	-0.85028195
120	0xbeae97df	-0.34100243
121	0x3fb06cf3	1.3783249
122	0xbed3cf73	-0.4136921
123	0x3e42e5f9	0.1903304
124	0x3e1a3952	0.15060928
125	0xbe92e8b1	-0.28693154
126	0xbef0ab8c	-0.4700588
127	0xbebe3f01	-0.37157443
128	0xbefceb41	-0.49398234
129	0xbf05b696	-0.5223173
130	0xbecd52c6	-0.40102214
131	0xbf04f0c3	-0.51929873
132	0xbe7a6888	-0.24453938
133	0xbee8d37e	-0.45473856
134	0xbecd2680	-0.40068436
135	0x3ec1d144	0.3785497
136	0x3dc2857f	0.094981186
137	0xbda501e4	-0.08057001
138	0x3e84612f	0.25855395
139	0x3e37b95e	0.17941806
140	0x3df85556	0.121256515
141	0x3e816569	0.25272682
142	0x3eb84896	0.3599288
143	0x3e753ada	0.23948231
144	0xbe8bb270	-0.27284575
145	0x3e2e2d4c	0.17009467
146	0xbe5a6a52	-0.2132962
147	0xbe9679e5	-0.29389873
148	0xbe882d2c	-0.26596963
149	0xbe10c9eb	-0.14139526
150	0xbdebf525	-0.11521367
151	0xbdccb331	-0.099951155
152	0x3cbdd9fb	0.02317523
153	0xbda5a160	-0.080874205
154	0x3deb41df	0.11487173
155	0xbe0bb38b	-0.13642709
156	0xbda54e26	-0.08071546
157	0xbe1dfd02	-0.15428546
158	0xbe2dc93b	-0.16971295
159	0xbd66cc54	-0.056347206
160	0xbdfe9ba7	-0.12432032
161	0x3ddd5057	0.10806339
162	0xbedb53a7	-0.4283726
163	0xbf127a5e	-0.5721797
164	0xbe8ce3b8	-0.27517486
165	0xbebda851	-0.37042478
166	0x3f1927a8	0.59826136
167	0xbf4d00f1	-0.8007956
168	0x3e87b6be	0.2650661
169	0xbec6cdc2	-0.38828856
170	0xbe388b15	-0.18021806
171	0xbeabd2e4	-0.33559334
172	0x3ea2c191	0.31788304
173	0xbf2b0ba4	-0.6681464
174	0xbedc4002	-0.43017584
175	0xbf58607a	-0.8452221
176	0xbee50dd1	-0.44737104
177	0xbeee40bc	-0.46533763
178	0x3e7e8100	0.24853897
179	0x3f73fb76	0.95305574
180	0x3eb2c856	0.3491847
181	0x3e22fa6c	0.15915841
182	0x3e383350	0.17988324
183	0x3e963404	0.2933656
184	0x3e7a9953	0.24472551
185	0x3e82fea1	0.2558489
186	0x3ebfdb12	0.37471825
187	0x3ecded87	0.4022028
188	0x3eadf34d	0.33974686
189	0x3fd4d41c	1.6627231
190	0xbf4a385d	-0.78992254
191	0x3f25c227	0.6474938
192	0xbfd1c5c4	-1.6388478
193	0x3fbebf48	1.4902124
194	0x3f906532	1.1280882
195	0xbf3cf5b2	-0.738124
196	0x40a86aa8	5.2630196
197	0xc01fc936	-2.496656
198	0x3fc72a47	1.5559777
199	0xbf947d86	-1.1600807
200	0xbee76c15	-0.45199648
201	0x3f9cb84f	1.2243747
202	0xbe400beb	-0.18754546
203	0x3f62aaf4	0.88542104
204	0x400241da	2.0352693
205	0x3f5d442a	0.86432135
206	0x3ee30ccd	0.44345704
207	0xbed25c2a	-0.4108594
208	0xbf1bc071	-0.6084052
209	0xbeb223d8	-0.34792972
210	0xbed1f594	-0.41007674
211	0xbef6245c	-0.48074615
212	0xbec07d24	-0.37595475
213	0xbecb235e	-0.3967542
214	0xbf118f51	-0.5685931
215	0xbee91434	-0.45523226
216	0xbe329e73	-0.17443256
217	0x3e95e441	0.29275706
218	0xbec95fb9	-0.39330843
219	0x3ca64c9b	0.0203002
220	0xbe37899c	-0.17923588
221	0xbe55002e	-0.2080085
222	0xbe67674e	-0.22598001
223	0xbe780006	-0.24218759
224	0x3e0d5dfd	0.13805385
225	0x3dc4e239	0.09613461
226	0xbea3bc36	-0.3197953
227	0xbd224363	-0.039615046
228	0xbd451031	-0.048111144
229	0xbe33605f	-0.17517231
230	0xbcbd507d	-0.023109669
231	0x3eb587ea	0.35455257
232	0xbd80c01b	-0.06286641
233	0xbe5126b7	-0.20424925
234	0xbe63547a	-0.22200194
235	0xbdf83d8b	-0.121211134
236	0xbd568fce	-0.052383237
237	0xbe265b1f	-0.16245697
238	0xbe37a5df	-0.17934369
239	0xbe5518c0	-0.20810223
240	0xbe0e4715	-0.13894303
241	0xbd9b2276	-0.07574932
242	0xbd919b6f	-0.07109725
243	0x3e24529e	0.16047141
244	0xbebc918e	-0.368298
245	0xbded50f0	-0.11587703
246	0x3ed505b2	0.41605908
247	0x3cf0729f	0.02935153
248	0x3e5f63cf	0.21815418
249	0x3f72a65d	0.947851
250	0xbe4e237d	-0.20130725
251	0x3e11ebb6	0.14250073
252	0xbd38fcf9	-0.04516313
253	0xbe8ca965	-0.27472988
254	0x3eaaab0b	0.3333362
255	0x3e3e760b	0.18599717

bias f4 [32]
0	0x3cb91260	0.02259177
1	0xbda8a472	-0.082344905
2	0xbd9f41ad	-0.077761985
3	0x3d76f233	0.060289573
4	0xbe25bad4	-0.1618455
5	0xbc9b19ae	-0.018933143
6	0x3dfb532d	0.12271724
7	0x3e23591f	0.15951966
8	0x3da2eabf	0.079549305
9	0x3d338bce	0.0438345
10	0x3d531580	0.051534176
11	0x3e280e16	0.16411623
12	0x3ca6a7a1	0.020343604
13	0xbdf5cf65	-0.12002448
14	0x3e1e1325	0.1543699
15	0x3dff46b6	0.12464659
16	0xbdcc7dfb	-0.09984966
17	0x3c0ecc0e	0.008715643
18	0xbe0f3ca2	-0.13987973
19	0xbe21856e	-0.15773556
20	0x3cfce9a2	0.030873124
21	0x3dc0197e	0.09379862
22	0xbd0bfcdd	-0.034176696
23	0xbdd29ee3	-0.102842115
24	0x3dbd2b07	0.092367224
25	0x3d05d3d8	0.032672733
26	0xbd80f21e	-0.0629618
27	0x3de39632	0.11112632
28	0xbca3bd9f	-0.01998788
29	0x3d0374c1	0.032093767
30	0xbdf49615	-0.119426884
31	0xbda11fd6	-0.078674

weight f4 [32]
0	0x3d8c5032	0.068512335
1	0x3eac3403	0.33633432
2	0x404b14ad	3.173137
3	0x3f34bd14	0.7060101
4	0x3e20b65e	0.15694568
5	0xbdd64d0d	-0.10463915
6	0x3d07ff06	0.033202194
7	0xc07fb513	-3.995427
8	0x3d8d1fd0	0.068908334
9	0x3dc657dc	0.096847266
10	0x40a55668	5.1667976
11	0x40e19f03	7.0506606
12	0xc044d015	-3.0752003
13	0x40464241	3.0977938
14	0x401ada5b	2.4195774
15	0xbd5253bc	-0.051349387
16	0x3bf35735	0.0074261674
17	0x400041bd	2.0040123
18	0x3e7137dc	0.23556465
19	0x4007f40d	2.1242707
20	0x3d078871	0.033089105
21	0x40b43c2e	5.632346
22	0xbdfa0af4	-0.122091204
23	0xc0b2faee	-5.593131
24	0x40d94321	6.7894444
25	0x3f8cd306	1.1001899
26	0x40bebd83	5.9606338
27	0x407c09cb	3.9380977
28	0x3e2789f2	0.16361216
29	0x402df7ab	2.7182415
30	0x3fef2759	1.8683883
31	0xbe19914f	-0.14996837

bias f4 [32]
0	0xbee2a1a0	-0.44263935
1	0xbfa61ee6	-1.297818
2	0x3ea752d9	0.32680395
3	0x4069a9fd	3.6510003
4	0xbf7bbbfc	-0.98333716
5	0xbeca832c	-0.395532
6	0xbecdd5b4	-0.40202105
7	0xc019b95f	-2.4019392
8	0xbed608e8	-0.4180367
9	0xbf1a71c0	-0.6032982
10	0xbfb32d20	-1.3998146
11	0x3f47758b	0.7791373
12	0x3f522efb	0.82102937
13	0x3f8f3408	1.1187754
14	0x3f55693c	0.833637
15	0xbf3e50a0	-0.74341774
16	0xbf0dc73d	-0.5538214
17	0x3e99dc04	0.3005067
18	0xbf3e322b	-0.742953
19	0xbd97e3cd	-0.074164964
20	0xbec05be3	-0.37570104
21	0xbf8aef97	-1.0854367
22	0xbed98a4e	-0.4248833
23	0xbff2a5c4	-1.8956838
24	0xc0241863	-2.5639884
25	0x3f0011d3	0.500272
26	0xbf46abbc	-0.77605796
27	0xbf0580d1	-0.52149683
28	0xbf004fed	-0.5012196
29	0xbec1021a	-0.37696916
30	0x3c754899	0.014970922
31	0xbf1115f6	-0.56674135

running_mean f4 [32]
0	0x3df24985	0.11830429
1	0xbfac6b99	-1.3470336
2	0xbf78cd88	-0.97188616
3	0xc04a98ae	-3.1655688
4	0xbf6066cc	-0.87656856
5	0x3e89fab9	0.269491
6	0x3ec30b6d	0.38094655
7	0x3ca13f56	0.019683521
8	0xbf5c5f1c	-0.86082625
9	0x40446457	3.0686243
10	0x3f24b793	0.6434261
11	0xc0ccc553	-6.3990874
12	0xbea110fc	-0.3145827
13	0x3fbf5710	1.4948444
14	0x40f3f63a	7.623807
15	0x3f0ba431	0.5454741
16	0xbf8931c0	-1.0718307
17	0x40cf7311	6.482796
18	0x3f890cd7	1.0707043
19	0x40a3ce83	5.118959
20	0x3f6d1b23	0.9261953
21	0x3e3e908e	0.1860983
22	0xbe43aef9	-0.19109716
23	0x408f444c	4.477087
24	0x4009f937	2.1558359
25	0x3fd2e068	1.6474733
26	0xc0cded39	-6.435208
27	0xbfbca114	-1.4736657
28	0x3f9474d1	1.159815
29	0x3e5d5673	0.21615009
30	0x3fdc0dde	1.7191732
31	0xbc0273f1	-0.007962213

running_var f4 [32]
0	0x3e070dbf	0.13188837
1	0x3fe7c6d7	1.8107556
2	0x40f51c95	7.659739
3	0x3eea652d	0.45780316
4	0x3f2612f9	0.648727
5	0x3e4ea222	0.20179036
6	0x3f1f31ab	0.6218516
7	0x4099afc9	4.802708
8	0x3db38091	0.087647565
9	0x3eef2375	0.4670674
10	0x40f897f4	7.768549
11	0x412cf99b	10.810939
12	0x405ca582	3.4476018
13	0x41191f69	9.5701685
14	0x41255319	10.3327875
15	0x3ec6f6e8	0.3886025
16	0x3e62b865	0.22140653
17	0x41333887	11.201301
18	0x3e7671ee	0.24066898
19	0x412e5a26	10.897009
20	0x3e2d2178	0.16907299
21	0x40fcae3d	7.8962693
22	0x3d3fafc5	0.046798486
23	0x40b514b6	5.658778
24	0x40f4ee84	7.6541157
25	0x41d2d405	26.353525
26	0x419c7293	19.555944
27	0x41368150	11.40657
28	0x3f223d38	0.6337466
29	0x40c0efb1	6.029259
30	0x40929a84	4.581362
31	0x3dee04cd	0.116220094

weight f4 [2, 32, 1, 1]
0	0x3f0a296c	0.53969455
1	0x3f16626a	0.5874392
2	0xbdb72508	-0.0894261
3	0x3f899721	1.0749246
4	0xbe8f30cb	-0.27966914
5	0x3e020177	0.12695871
6	0x3faae699	1.3351623
7	0xbf763638	-0.9617648
8	0x3ef9b761	0.4877272
9	0xbf94d39e	-1.162708
10	0x3f535e81	0.82566077
11	0x3f5faff4	0.8737786
12	0x3dedfbc6	0.116202876
13	0xbf490028	-0.78515863
14	0x402373b7	2.5539377
15	0x3fdcf056	1.7260845
16	0xbf1abba1	-0.6044255
17	0x3e38b1e0	0.18036604
18	0x3e4a2bc8	0.19743264
19	0xbece864a	-0.4033683
20	0x3e89fe77	0.26951954
21	0xbf83e33a	-1.0303719
22	0xbf134243	-0.5752298
23	0x3ec51da3	0.38499174
24	0xbe9ec636	-0.31010598
25	0xbeeab213	-0.45838985
26	0x3d5614cf	0.05226594
27	0xbf930bf2	-1.148802
28	0x3fae7938	1.3630743
29	0x3e6a9f3c	0.22912306
30	0x3fa275cc	1.2692199
31	0xbf612d1e	-0.8795947
32	0xc024fc4a	-2.5778985
33	0x40301956	2.7515464
34	0xbf17b479	-0.59259754
35	0xbfa28777	-1.269759
36	0x3d69a759	0.05704436
37	0x4038aaf2	2.8854337
38	0x3ed0d3e3	0.40786657
39	0xbfdcb7a0	-1.7243538
40	0xbfc96614	-1.5734277
41	0xbfad4ebc	-1.3539653
42	0xbf72b92e	-0.9481381
43	0xc05bf522	-3.4368367
44	0x3fd1159d	1.6334721
45	0x400f5b3e	2.239944
46	0x40b3eeea	5.6229143
47	0xc04f2ca1	-3.237099
48	0xbfb35c9d	-1.4012638
49	0x4053b22a	3.3077493
50	0xbfbdb197	-1.4819821
51	0x4039633e	2.8966823
52	0xbeac65dd	-0.33671466
53	0xbe0529ab	-0.13004176
54	0x403365ce	2.8030887
55	0x3f285400	0.65753174
56	0x3f0baf04	0.5456393
57	0x40891bfe	4.284667
58	0xc10b9ead	-8.726239
59	0xc01efdb2	-2.4842343
60	0xc10f7ec0	-8.968445
61	0x3fba8576	1.4571979
62	0xc043b77c	-3.058074
63	0x4084927b	4.142881

bias f4 [2]
0	0x3e1348b6	0.14383206
1	0xbdc786b6	-0.09742491

weight f4 [2]
0	0xbf2744d6	-0.6533941
1	0x3ebc14ec	0.36734712

bias f4 [2]
0	0xc04e4342	-3.222855
1	0xbfeca73d	-1.8488537

running_mean f4 [2]
0	0x4112fa7e	9.186155
1	0xc1bf5336	-23.91563

running_var f4 [2]
0	0x429c7064	78.21951
1	0x452494ec	2633.3076

weight f4 [26, 18]
0	0xbecd4543	-0.40091905
1	0xbd105037	-0.03523275
2	0xbed82350	-0.4221444
3	0x3ee9a861	0.45636275
4	0xbf6a0f17	-0.91429275
5	0xbdab249b	-0.08356591
6	0x3f84935b	1.0357469
7	0xbe379986	-0.17929658
8	0xbd3a3986	-0.045465015
9	0xc0123908	-2.284731
10	0xbd21dfb0	-0.039519966
11	0x3f81cbe7	1.0140351
12	0x3f071278	0.52762556
13	0x3fc8d526	1.5690048
14	0x3e5fc6f0	0.21853232
15	0xbca8effa	-0.020622242
16	0x3fc1c9e7	1.5139741
17	0x3edf1fe4	0.43579018
18	0xbf09e7ca	-0.5386931
19	0x3eeea4f0	0.46610212
20	0x3f463bed	0.7743519
21	0xbed22e6f	-0.4105105
22	0x3f610e9d	0.87912923
23	0x3e995db9	0.29954317
24	0xbeb6b057	-0.35681412
25	0x3e220d25	0.15825327
26	0xbc72bebe	-0.014815984
27	0xc020c358	-2.5119228
28	0xbf7910e9	-0.9729143
29	0x3f87137d	1.0552822
30	0x3f6c19e0	0.9222698
31	0x3fb7a945	1.4348532
32	0x3fc8978d	1.567125
33	0x3f73bfdf	0.9521465
34	0x3f035bf1	0.51312166
35	0xbe3aee06	-0.18254861
36	0xbdddca6e	-0.10829626
37	0xbe4e304c	-0.20135611
38	0xbe735cee	-0.23765919
39	0xbed8f559	-0.42374685
40	0xbe9f0e72	-0.31065708
41	0xbeb62aa0	-0.35579395
42	0xbeab9e95	-0.33519426
43	0xbe355447	-0.1770793
44	0xbdc82f2f	-0.097746246
45	0x3f93c347	1.1543969
46	0xbf2f076d	-0.68370706
47	0xbf0f7744	-0.5604136
48	0xbd01561c	-0.03157626
49	0xbf6d0fd7	-0.92602295
50	0x3f712fe7	0.9421372
51	0x3e88d668	0.2672608
52	0x3eb12b37	0.34603283
53	0x3faf20a7	1.368184
54	0x3e5d2bb4	0.21598703
55	0x3e8a63d0	0.27029276
56	0xbefc723f	-0.49305913
57	0x3f422e20	0.7585163
58	0xbf1c724f	-0.6111192
59	0x3f3b629e	0.7319735
60	0x3f57e270	0.8432989
61	0xbe39fc90	-0.18162751
62	0x3e032f34	0.12810975
63	0x3f01f520	0.50764656
64	0x3f004ac4	0.50114083
65	0xc002ff54	-2.046834
66	0xbedff9be	-0.43745226
67	0xbf2bb1c3	-0.6706812
68	0x3e98afe0	0.29821682
69	0x3f5ebc7d	0.8700636
70	0x3e610ede	0.21978328
71	0x3f505dbb	0.8139302
72	0x3f85b65b	1.0446275
73	0xbed1a4b0	-0.4094596
74	0xbe8be0b2	-0.27319866
75	0xbd2d35f1	-0.04228777
76	0xbe5b0cd0	-0.21391606
77	0xbd36f6e4	-0.044669047
78	0xbf19b483	-0.60041064
79	0xbec36d62	-0.3816939
80	0xbe81f1f8	-0.2537992
81	0x3f28cffc	0.6594236
82	0x3e372f1f	0.17889069
83	0x3bef6635	0.007305885
84	0xbf6efac6	-0.933514
85	0xbf24d364	-0.64385056
86	0x3f4624a3	0.77399653
87	0x3f7b977e	0.98278034
88	0xbf24f32f	-0.6443357
89	0x3ea85fdd	0.32885638
90	0x3d006dfc	0.03135489
91	0xbec4c422	-0.38430887
92	0x3f051f34	0.5200074
93	0x3bf528ac	0.007481655
94	0xbf1764ed	-0.59138376
95	0x3f8715ed	1.0553566
96	0xbdd5a870	-0.104325175
97	0x3e4f208b	0.20227258
98	0x3e848d48	0.2588904
99	0xc021e3d6	-2.529531
100	0xbf3504f1	-0.70710665
101	0x3dd2ecfc	0.102991074
102	0xbfa885a5	-1.3165785
103	0x3fa73f44	1.3066182
104	0x3f85e183	1.0459446
105	0x3dbac22f	0.09119069
106	0x3f10cf55	0.56566364
107	0x3f20cc4f	0.6281175
108	0xbee10b60	-0.4395399
109	0xbeda28ef	-0.42609355
110	0x3e4ff8f4	0.20309812
111	0xbe753376	-0.23945412
112	0xbf4af94a	-0.79286635
113	0xbe9ac221	-0.30226234
114	0xbd81a32b	-0.0632995
115	0xbcde98ad	-0.02717241
116	0xbdd9f4a5	-0.10642365
117	0xbf8bf2dd	-1.0933491
118	0xbfb4db79	-1.4129478
119	0x3f3c9990	0.7367182
120	0xc022ec9f	-2.5456922
121	0xbe2bbba3	-0.16770796
122	0x3f243283	0.64139575
123	0x3e75e880	0.24014473
124	0x3e9815b0	0.29704046
125	0x3fb2ad17	1.3959073
126	0x3f23f08d	0.64038926
127	0xbeba14fa	-0.3634413
128	0xbefddeb5	-0.49583974
129	0xbe75c644	-0.24001414
130	0x3fafd126	1.3735702
131	0xbdde52ef	-0.10855662
132	0xbdedff1d	-0.116209246
133	0xbe8fe4b0	-0.28104162
134	0xbe50cfdf	-0.20391797
135	0xc03a119f	-2.9073255
136	0xbf436acb	-0.7633483
137	0xbe9cab88	-0.30599618
138	0x3f76814d	0.9629105
139	0xbff25856	-1.8933208
140	0xc02cb90d	-2.6987946
141	0x40063b6a	2.0973763
142	0x3e8c8f83	0.2745324
143	0x3ff94ad6	1.9475963
144	0xbda28eb1	-0.079373725
145	0xbf01c25a	-0.5068718
146	0xbf04c733	-0.51866454
147	0xbe38b49c	-0.18037647
148	0x3fec21d9	1.844783
149	0xbe256b08	-0.1615411
150	0xbec968ba	-0.39337713
151	0xbe9a3bad	-0.30123654
152	0x3ef0f0a5	0.47058597
153	0x3fc4171d	1.5319554
154	0xc014ceff	-2.325134
155	0xbf5d8108	-0.8652501
156	0x3f42726f	0.7595586
157	0x3f3c013d	0.7343939
158	0xbfdeca91	-1.7405568
159	0x3e911818	0.28338695
160	0x3c840426	0.01611526
161	0xbf4b42ac	-0.7939861
162	0x3e61097b	0.21976273
163	0xbf19534f	-0.59892744
164	0x3f2b1835	0.6683381
165	0x3f357640	0.7088356
166	0x3e0cd9d2	0.13754967
167	0x3e28c11a	0.16479912
168	0x3e234b94	0.159468
169	0x3e82d256	0.255511
170	0xbeaa22af	-0.33229586
171	0x3e90c1f1	0.28272966
172	0x3f776660	0.96640587
173	0xc0b8f861	-5.7803197
174	0x3ec083a1	0.37600425
175	0x3e529237	0.20563589
176	0x3e6e6a19	0.2328266
177	0x3fac3e7f	1.3456572
178	0x3f674f09	0.90354973
179	0x3e8092a0	0.25111866
180	0xbe99ab57	-0.30013534
181	0xbecd7735	-0.4013001
182	0x3f81eae7	1.0149812
183	0xbdcf2af9	-0.10115618
184	0xbf609577	-0.87728065
185	0xbec5ea90	-0.3865552
186	0xbe52d048	-0.20587265
187	0x3e4af5b0	0.19820285
188	0x3eafaa83	0.34309778
189	0x3e56c908	0.20975125
190	0xbca3f672	-0.020014975
191	0x3f8a24e8	1.0792513
192	0xbfef310e	-1.8686845
193	0xbf362347	-0.7114758
194	0x3f9343eb	1.1505102
195	0xbf206e1a	-0.62668
196	0x3fa56c38	1.2923651
197	0x3f9070a5	1.1284376
198	0xbdfde52b	-0.12397226
199	0xbedcb0c3	-0.43103608
200	0xbf7e8b23	-0.99431056
201	0xbd6e4a50	-0.05817634
202	0xbf01f1c6	-0.5075954
203	0x3b6b7f17	0.0035933906
204	0xbe94e51c	-0.29081047
205	0x3bce6bfe	0.0062994948
206	0xbe367372	-0.17817476
207	0x3ec0d788	0.37664437
208	0x3e0e9f79	0.13928021
209	0xbdeb66d3	-0.114942215
210	0xbf53b672	-0.82700264
211	0xc00bc601	-2.1839602
212	0x3fa9d3f5	1.3267809
213	0xbff3c08e	-1.9043138
214	0x3f2fdcbd	0.68696195
215	0x4005087d	2.078643
216	0x3dbb4dbb	0.09145685
217	0xbd5f112c	-0.054459736
218	0x3e1b2629	0.15151276
219	0x3e91a1cd	0.28443757
220	0x3f843164	1.0327573
221	0xbf17d298	-0.59305716
222	0xbea682e6	-0.32521743
223	0x3e8e1cfb	0.27756485
224	0xbd2165d3	-0.039403748
225	0x400cbe08	2.1990986
226	0xbdacb631	-0.08433188
227	0xbdeba294	-0.11505619
228	0xc089e419	-4.309094
229	0xbf45a1d5	-0.7720006
230	0xbec453c2	-0.38345152
231	0x3e84643c	0.25857723
232	0xbef2748c	-0.47354543
233	0xbf8a0146	-1.0781639
234	0x3e50096a	0.20316091
235	0xbe91e8e4	-0.28497994
236	0x3e6fc5b1	0.23415257
237	0xbdcbe719	-0.09956188
238	0x3ed5f013	0.41784725
239	0xbe9c9e3d	-0.30589476
240	0x3f6a2b44	0.9147227
241	0x3dd772f5	0.10519973
242	0xbe292450	-0.16517758
243	0x3fb6b7a8	1.4274797
244	0x3fdce6d7	1.7257947
245	0xbf2c2370	-0.67241573
246	0x3f3fe035	0.7495149
247	0xc085d602	-4.182374
248	0xbfe908e3	-1.8205837
249	0x3fe3fa0e	1.7810686
250	0xbeb27c30	-0.34860373
251	0xbfa8dc86	-1.3192298
252	0x3d4d72f4	0.050158456
253	0x3f337b10	0.70109653
254	0x3c18af51	0.009319142
255	0xbe68b966	-0.22726974

bias f4 [26]
0	0x3e5a839b	0.21339266
1	0xbe12efaa	-0.14349237
2	0x3e52c775	0.205839
3	0x3efdbf86	0.49560183
4	0x3e4efa97	0.2021278
5	0x3e8d39a7	0.27583048
6	0xbdd9bba3	-0.10631492
7	0xbe71acdf	-0.23601101
8	0xbe2c0761	-0.1679969
9	0xbeab2861	-0.33429244
10	0xbefd8a50	-0.49519587
11	0xbdd441a7	-0.10364085
12	0xbed72c3b	-0.42025933
13	0xbe8dd69b	-0.27702793
14	0xbe9382e2	-0.28810793
15	0xbb0cf97e	-0.0021511014
16	0xbe4eefc1	-0.20208646
17	0xbf0d7380	-0.55254364
18	0xbf09645f	-0.5366878
19	0xbee4cdb6	-0.44688195
20	0xbe83689e	-0.25665754
21	0x3e03105d	0.12799211
22	0x3e9a114b	0.30091318
23	0xbe5caa39	-0.2154931
24	0x3db0fa38	0.086414754
25	0x401c9154	2.4463701

weight f4 [1, 32, 1, 1]
0	0x3f4482e1	0.76762205
1	0xbf865516	-1.0494716
2	0xbc820f3b	-0.015876403
3	0x3f0f55f3	0.55990523
4	0x3e5c3734	0.21505433
5	0x3e58442c	0.21119756
6	0x3c9e5641	0.019328238
7	0xbf90e57a	-1.1320031
8	0xbe0ca203	-0.13733678
9	0x3f9ddc57	1.2332867
10	0x3d6a5a08	0.057214767
11	0x3f98fa2f	1.195135
12	0x3f4cf1f6	0.80056703
13	0x3f3ccf42	0.7375375
14	0xbf55dc01	-0.83538824
15	0x3f489ee4	0.7836745
16	0x3f758cc1	0.959179
17	0xbed7b663	-0.42131338
18	0xbdc8f5db	-0.09812518
19	0xbfccb257	-1.5991925
20	0xbf851aa7	-1.0398759
21	0x3f2b1d20	0.66841316
22	0xbd790da6	-0.06080403
23	0x3f9b0959	1.2112228
24	0xbf5e7998	-0.8690429
25	0x3d3fa5d2	0.046788998
26	0xbb38e09b	-0.0028210047
27	0xbfdc65d0	-1.7218571
28	0x3dcd9501	0.10038186
29	0x3eb3a594	0.35087264
30	0x3ec4dca4	0.38449585
31	0x3f940146	1.1562889

weight f4 [32, 9]
0	0xbe03b0dc	-0.12860435
1	0xbf95c583	-1.1700901
2	0xbf68ea3d	-0.9098242
3	0xbe72e10f	-0.23718666
4	0xbebc9bff	-0.36837766
5	0xbf02d8a5	-0.51111823
6	0xbdbc54c2	-0.09195854
7	0x3dab2411	0.083564885
8	0x3c7f1277	0.015568367
9	0xbf4f090e	-0.8087319
10	0x3edfe519	0.43729475
11	0xbf4e1b1d	-0.8051012
12	0x3ef2c21c	0.4741372
13	0xbe26cfac	-0.16290158
14	0x3e1f9d6c	0.15587395
15	0xbdb1d350	-0.08682883
16	0xbe7851f4	-0.24250013
17	0x3ec6af47	0.388056
18	0x3c8b5ea9	0.01701291
19	0xbe8ef25d	-0.27919284
20	0xbe196454	-0.14979678
21	0xbe2bf28e	-0.16791746
22	0x3c3bdec8	0.011466689
23	0xbe0c1ce8	-0.13682902
24	0xbde366b5	-0.11103574
25	0x3da8b94d	0.08238468
26	0x3e31bb40	0.17356586
27	0x3f5daac8	0.86588717
28	0xbd2c0271	-0.041994516
29	0xbf8a95b9	-1.0826942
30	0xbe665569	-0.22493519
31	0x3f042866	0.51624143
32	0xbe0b3a1a	-0.13596383
33	0xbf01d82d	-0.50720483
34	0xbef9d817	-0.48797676
35	0x3dd59069	0.10427935
36	0x3eacf96d	0.33784047
37	0x3eab7131	0.33484796
38	0x3e889eb2	0.26683575
39	0x3e7698c1	0.24081708
40	0x3e5cdaaf	0.21567796
41	0x3e2662b6	0.16248593
42	0x3f1fc379	0.6240764
43	0x3e921a4d	0.2853569
44	0x3e5865b6	0.2113255
45	0xbf8e28ad	-1.1106163
46	0xbed553e3	-0.41665563
47	0x3ed5d6b9	0.41765383
48	0x3e83b187	0.2572138
49	0x3f039f83	0.5141527
50	0xbf217e65	-0.6308349
51	0x3eac00c6	0.3359434
52	0x3f17d1e4	0.5930464
53	0xbe9dbb21	-0.3080683
54	0x3d1927ec	0.037391588
55	0x3e8f1549	0.27945927
56	0xbb7bf2f2	-0.0038444367
57	0x3e4958a7	0.19662724
58	0x3e82761d	0.25480738
59	0x3e02de58	0.1278013
60	0x3ea175cc	0.31535184
61	0x3cdb41bb	0.026764741
62	0x3e05b912	0.1305888
63	0xbf1069b8	-0.56411314
64	0xbe8f745b	-0.2801846
65	0x3e612980	0.21988487
66	0xbc796cc0	-0.015223682
67	0xbea98ccf	-0.3311524
68	0x3df2cb13	0.118551396
69	0xbe62fbdd	-0.2216639
70	0xbf12c786	-0.573357
71	0xbcf8c796	-0.030368607
72	0xbe39d618	-0.18148077
73	0xbe80a6c6	-0.25127238
74	0x3f0fcc12	0.5617076
75	0xbf07a4fe	-0.52986133
76	0xbe8e9637	-0.2784898
77	0x3eb2d533	0.34928283
78	0x3d47cb70	0.048777997
79	0xbefaa014	-0.48950255
80	0xbeaa89aa	-0.33308154
81	0xbe99bdc1	-0.30027583
82	0xbf728e07	-0.94747967
83	0x3f07c654	0.53037
84	0x3f135169	0.575461
85	0x3dfca8f4	0.12336913
86	0xbf74c131	-0.95607287
87	0xbe7bfeb8	-0.24608886
88	0xbe0f453f	-0.13991259
89	0x3e91625b	0.28395352
90	0xbeea83c5	-0.45803657
91	0xbed15fa3	-0.40893278
92	0xbd052e8e	-0.0325151
93	0xbe82ef28	-0.25573087
94	0xbe92b64b	-0.28654703
95	0x3d87ad7e	0.06624888
96	0x3eb21ded	0.34788457
97	0xbd69c07f	-0.057068344
98	0x3e2a2aaf	0.16617845
99	0x3e953d8e	0.29148525
100	0xbd93b2c8	-0.07211834
101	0x3e85defa	0.2614668
102	0x3e923e5c	0.285632
103	0xbf5db99c	-0.8661134
104	0xbe88ec5b	-0.26742825
105	0xbe470bc7	-0.19438086
106	0x3e80527b	0.25062928
107	0xbf8d8ba4	-1.105824
108	0xbe0bf5bf	-0.13667963
109	0xbe11d7b4	-0.1424244
110	0xbdee8b1e	-0.11647628
111	0x3d09c946	0.033639215
112	0xbdae5fb0	-0.08514345
113	0x3ddc6073	0.10760584
114	0xbdd1d87a	-0.10246368
115	0xbe1ef997	-0.15524898
116	0x3ac29bc2	0.0014847445
117	0x3e13ad60	0.14421606
118	0x3dad227b	0.08453842
119	0x3f0c4cf1	0.54804903
120	0x3c6ac8d1	0.014330105
121	0xbd7c804e	-0.0616458
122	0xbf3e9e8c	-0.74460673
123	0x3e1908bc	0.14944738
124	0x3e2a5915	0.16635545
125	0xbd1b5a28	-0.037927777
126	0xbf4d7331	-0.80253893
127	0xbeb73f90	-0.35790682
128	0xbeb3d994	-0.35126936
129	0x3dd7f251	0.10544265
130	0xbefb568c	-0.49089468
131	0xbe48be33	-0.19603805
132	0x3defdcca	0.11712034
133	0x3f4459dd	0.7669962
134	0x3f16f432	0.5896636
135	0xbe03c029	-0.12866272
136	0xbd9bc704	-0.076063186
137	0xbe52ff58	-0.20605218
138	0xbeab190f	-0.33417556
139	0xbe7a2e28	-0.2443167
140	0x3e3f7293	0.1869605
141	0xbe898e39	-0.2686632
142	0xbe3bbae9	-0.1833302
143	0x3d745726	0.059653424
144	0xbe19ea18	-0.15030706
145	0xbe3e56cb	-0.18587796
146	0xbdb7b293	-0.08969607
147	0xbf033a94	-0.5126126
148	0x3e0e0353	0.13868456
149	0xbf11bf88	-0.5693288
150	0x3e540d16	0.20708117
151	0xbec1b406	-0.3783266
152	0x3e9fcda0	0.31211567
153	0x3e878e23	0.2647563
154	0x3e2396d0	0.15975499
155	0xbfd248cf	-1.642847
156	0xbe8243d5	-0.25442377
157	0x3ebaf286	0.36513156
158	0xbf6f4a78	-0.93473005
159	0xbf9f917f	-1.2466277
160	0xbe04f5cb	-0.12984388
161	0xbf248768	-0.64269114
162	0xbea5334b	-0.32265696
163	0x3d8590d6	0.06521766
164	0x3f34aa26	0.70572126
165	0xbf00eeac	-0.50364184
166	0xbf5680d2	-0.83790314
167	0x3e390f19	0.18072166
168	0xbe3f1254	-0.18659335
169	0xbe87a83f	-0.2649555
170	0xbcfa92a8	-0.03058751
171	0xbfa955d9	-1.3229324
172	0xbf2d7fe1	-0.6777325
173	0xbf01c1e9	-0.5068651
174	0xbe457b94	-0.19285423
175	0x3f04433b	0.51665086
176	0x3d7f4a85	0.062326927
177	0xbf28331f	-0.65703005
178	0xbe9a0d80	-0.30088425
179	0x3f1379b1	0.5760756
180	0x3e943398	0.28945613
181	0xbe8c5c89	-0.2741435
182	0xbea8c279	-0.3296087
183	0xbd88749b	-0.06662866
184	0x3e29a097	0.16565166
185	0xbe951055	-0.29114023
186	0xbe8d078a	-0.27544814
187	0xbd3450bd	-0.04402231
188	0xbe834160	-0.25635815
189	0xbeb935a0	-0.36173725
190	0xbd80d9af	-0.0629152
191	0xbf386b12	-0.72038376
192	0xbe837be0	-0.25680447
193	0x3eb0ebfa	0.34555036
194	0xbe93b7ea	-0.28851253
195	0x3f267976	0.65029085
196	0x3e5e14df	0.21687649
197	0xbe49c737	-0.197049
198	0x3eede316	0.46462315
199	0xbe31ee32	-0.1737602
200	0x3eb14ebd	0.34630385
201	0x3e9cd830	0.30633688
202	0x3e5840d6	0.21118483
203	0xbe2351e8	-0.15949214
204	0xbf9a3a06	-1.2048957
205	0xbf88ab15	-1.067721
206	0xbd762843	-0.06009699
207	0xbecd0396	-0.40041798
208	0xbeea9f42	-0.4582463
209	0x3f1345ae	0.575282
210	0xbf5a30c8	-0.85230684
211	0xbf26cf0e	-0.6515969
212	0x3e02083e	0.12698457
213	0xbf0d9970	-0.5531225
214	0xbee04d68	-0.43809056
215	0xbf0acb45	-0.54216415
216	0xbe939d6f	-0.2883105
217	0xbe1dd16d	-0.15411921
218	0xbe427d74	-0.18993169
219	0x3d8c6958	0.0685603
220	0xbeaa7f23	-0.33300123
221	0xbe9b500c	-0.30334508
222	0xbe33ae43	-0.17546944
223	0x3de8f887	0.11375528
224	0x3db57803	0.08860781
225	0xbe2d15f5	-0.16902907
226	0x3e9c6edf	0.30553338
227	0xbea231f2	-0.3167873
228	0xbb8d1524	-0.0043054987
229	0xbeb7e025	-0.35913196
230	0xbe7d635e	-0.24744937
231	0x3e9f5d7c	0.3112601
232	0xbe83cccd	-0.25742188
233	0xbeb40876	-0.35162705
234	0xbef2470f	-0.47319838
235	0x3e5ff69a	0.21871415
236	0x3eb77b0b	0.35836062
237	0x3de4189d	0.11137507
238	0xbf390c75	-0.7228463
239	0xbe455430	-0.19270396
240	0xbf03a244	-0.5141947
241	0xbf1437b0	-0.5789747
242	0xbebec44e	-0.37259144
243	0x3e881b41	0.26583293
244	0x3f2c6825	0.6734641
245	0x3e7ab23f	0.24482058
246	0xbf59a6e9	-0.8502031
247	0xbee696b0	-0.4503684
248	0xbe84fef7	-0.25975773
249	0xbef0d90a	-0.47040588
250	0xbe27aecb	-0.16375272
251	0xbf80f0a3	-1.0073436
252	0x3effa973	0.49933967
253	0x3f200ba5	0.6251777
254	0xbf07abfa	-0.5299679
255	0xbecb215f	-0.39673898

bias f4 [32]
0	0x3fd97244	1.6987996
1	0xbe8fadd4	-0.28062308
2	0xbe90a970	-0.2825427
3	0xbf087a8a	-0.5331198
4	0xc055892c	-3.3364973
5	0xbdf7234c	-0.12067279
6	0xc00202af	-2.0314138
7	0x3e88b9d9	0.2670429
8	0xbd22d685	-0.039755363
9	0xbf179ef3	-0.5922691
10	0x3d837c65	0.06420211
11	0xbedb7325	-0.42861286
12	0xbdac3a47	-0.08409553
13	0xbf877eb0	-1.0585537
14	0xbddb8b9d	-0.107199885
15	0x3cfe2e8c	0.031028055
16	0x3ea1e83a	0.31622487
17	0x3f1fc22a	0.62405646
18	0x3f4a2643	0.7896463
19	0x3e533a4e	0.2062771
20	0x3cad7610	0.02117446
21	0xbec2073c	-0.37896144
22	0xbe2be7ff	-0.16787718
23	0x3f006412	0.50152695
24	0xbd882102	-0.06646921
25	0x3e1d450c	0.1535837
26	0x3e80dca1	0.25168326
27	0xbf02eb1a	-0.51139987
28	0xbd808777	-0.06275838
29	0xbea7b49b	-0.3275498
30	0xbf1ec5cb	-0.6202056
31	0x3fbe806d	1.4882942

weight f4 [1, 32]
0	0x3f77caf9	0.96794087
1	0x3e8caf16	0.2747733
2	0x3c11c72d	0.008897585
3	0xbf08b513	-0.534013
4	0x3ed98289	0.42482403
5	0x3ee62863	0.44952688
6	0x3e674978	0.2258662
7	0x3f2f4054	0.6845753
8	0xbe917a7f	-0.2841377
9	0xbf38de55	-0.7221425
10	0x3ef59d32	0.47971493
11	0xbf246dd0	-0.6423006
12	0xbdd0e929	-0.10200722
13	0x3eb291d3	0.3487688
14	0xbebba036	-0.3664567
15	0x3eb11cd3	0.34592304
16	0xbe8a8fcc	-0.27062833
17	0x3fd82024	1.6884809
18	0xbef9e030	-0.48803854
19	0x3f0f4eaa	0.55979407
20	0x3ea8d488	0.32974648
21	0xbf294121	-0.66115004
22	0x3f05919a	0.52175295
23	0x3fb0353b	1.3766245
24	0x3eb2a962	0.34894854
25	0x3f086f6e	0.5329503
26	0x3f5dcefa	0.86643946
27	0xbf2995c8	-0.66244173
28	0xbecfdb3a	-0.40596944
29	0x3e9c0cf8	0.30478644
30	0x3eb50418	0.35354686
31	0x3f45aff3	0.772216

weight f4 [32, 32, 3, 3]
0	0xbcc40026	-0.023925852
1	0xbc0cc504	-0.008591894
2	0xbd5721ad	-0.05252235
3	0x3d6e07d9	0.058112953
4	0x3d38598b	0.04500727
5	0xbd0e47b2	-0.034736343
6	0xbd11dbda	-0.035610057
7	0xbd1fa26c	-0.038973257
8	0xbc3b77f4	-0.011442173
9	0x3d0ac005	0.03387453
10	0x3c3f3cb4	0.011672188
11	0x3d4bee75	0.049787957
12	0x3d3abf73	0.045592736
13	0xbc486864	-0.01223192
14	0xbd40043e	-0.046879046
15	0xbc2964e4	-0.010338996
16	0xbd10fdac	-0.03539817
17	0x3c7028d4	0.014658172
18	0x3d123a0d	0.035699893
19	0xbb8947d8	-0.0041894726
20	0xbced7d25	-0.028990338
21	0xbd245db9	-0.040128443
22	0x3d196b6f	0.037455972
23	0xbcb8b018	-0.022544906
24	0xbd6eaba0	-0.058269143
25	0x3c12cdcc	0.008960199
26	0xbd47ca74	-0.04877706
27	0x3d31fc81	0.043453697
28	0xbcf72c16	-0.030172389
29	0x3c046bec	0.008082371
30	0xbc12fa18	-0.00897076
31	0x3c526f14	0.012843866
32	0x3c766244	0.015038077
33	0x3d09a761	0.03360689
34	0x3cc31ae2	0.02381653
35	0x3cef20ae	0.029190388
36	0x3d07573b	0.033042174
37	0xbd7039e5	-0.058648963
38	0x3c9d14ea	0.019175012
39	0xbb54deb0	-0.0032481365
40	0xbc4e1bc0	-0.012579858
41	0x3b45e030	0.003019344
42	0x39c3e000	0.0003736019
43	0x3cc0da0e	0.023541477
44	0x3d649753	0.055808377
45	0xbd479df6	-0.048734628
46	0xbd235c58	-0.039882988
47	0x3ca6f53e	0.020380612
48	0x3ccefbc2	0.025266532
49	0x3d7114ff	0.058857914
50	0xbd0f66b6	-0.035010062
51	0xbd17faf8	-0.037104577
52	0x3b68afc0	0.0035505146
53	0xbc569620	-0.013097316
54	0xbc0efb68	-0.008726932
55	0xbadf2ce0	-0.0017026924
56	0xbc608124	-0.0137026645
57	0xbd4ddbd2	-0.050258465
58	0xbd29ce4c	-0.041456506
59	0xbc8c2e60	-0.017111957
60	0x3d55ed5b	0.052228313
61	0x3cd7d212	0.026345287
62	0xbb78fca0	-0.0037992373
63	0x3d13defd	0.03610133
64	0x3d2bab0b	0.041911166
65	0xbd1ddb66	-0.038539313
66	0xbd321376	-0.04347559
67	0xbd36592c	-0.044518635
68	0xbcf1d15f	-0.029518781
69	0xbcd7d73e	-0.026347753
70	0xbce87d22	-0.02837998
71	0x3d51bc79	0.051205132
72	0xbba9a780	-0.0051774383
73	0x3d676cf1	0.05650038
74	0xbcac911e	-0.021065291
75	0xbd2edb62	-0.04268969
76	0xbd53e550	-0.05173236
77	0x3cee9a96	0.029126447
78	0x3d26891b	0.040658098
79	0xbd1b616c	-0.037934706
80	0xbc089978	-0.008337371
81	0xba9a60a0	-0.0011778064
82	0xbcd47c26	-0.025938105
83	0xbd060ac4	-0.03272511
84	0xbd1c048a	-0.038090266
85	0xbcfbe7f6	-0.030750256
86	0xbc9c80dc	-0.019104414
87	0x3d5db0bd	0.05412363
88	0xbd058bd2	-0.032604046
89	0xbc95c198	-0.01828079
90	0xbc71ed48	-0.014766045
91	0xbd2ad2fe	-0.041705124
92	0xbd28d504	-0.041218773
93	0xbd3fa0d0	-0.046784222
94	0xbd057816	-0.032585226
95	0x3d1b4a29	0.03791252
96	0xbd346d06	-0.044049285
97	0x3d017929	0.031609688
98	0x3d0aac1f	0.033855554
99	0x3c23526c	0.009968381
100	0xbd56e380	-0.052463055
101	0xbd0bc605	-0.034124393
102	0x3c8f2516	0.017473739
103	0xbcca0606	-0.024661075
104	0x3d59a5cf	0.053136643
105	0x3cf9302e	0.030418482
106	0xbb514f40	-0.0031938106
107	0xbd0c5216	-0.03425797
108	0x3d6d9a95	0.05800875
109	0x3ca388de	0.019962724
110	0x3aab2b60	0.0013059191
111	0x3d1bc6ff	0.038031574
112	0x3c72b5a4	0.014813814
113	0xbc8010f6	-0.015633088
114	0xbd541bda	-0.051784374
115	0xbd5d4359	-0.054019306
116	0xbc171e60	-0.009223551
117	0xbd6239c7	-0.055230882
118	0x3d2c2a2d	0.04203241
119	0x3d210659	0.039312694
120	0xbd08836a	-0.03332845
121	0x3c712144	0.014717404
122	0x3d5aeccf	0.053448495
123	0x3d3627a3	0.044471394
124	0x3c8fc6aa	0.017550785
125	0x3cf209b2	0.029545639
126	0x3d217f11	0.03942782
127	0x3d2793c9	0.040912423
128	0x3c613d74	0.013747562
129	0xbcea11c7	-0.02857293
130	0x3cd6504a	0.026161332
131	0x3d08c57b	0.033391457
132	0x3be98888	0.0071268715
133	0x3d03ac3b	0.032146674
134	0xbc86d0c4	-0.01645697
135	0xbd53a7b3	-0.051673602
136	0xbd6af56c	-0.05736296
137	0x3c02a954	0.007974941
138	0xbd29319e	-0.041307084
139	0x3d368003	0.044555675
140	0xbd539de2	-0.05166424
141	0xbb79c4a0	-0.0038111582
142	0x3bac78a8	0.005263407
143	0xbcb5aad4	-0.022176184
144	0x3c91aaaa	0.017781574
145	0xbd308849	-0.04309872
146	0x3d6ac4bb	0.057316523
147	0xbc52f548	-0.012875862
148	0xbc9673d4	-0.018365778
149	0xbcdfed1e	-0.027334746
150	0xbd03044c	-0.03198652
151	0xbc9229ac	-0.017842136
152	0xbcbb592a	-0.022869665
153	0x3d1cdead	0.038298298
154	0xbd651bac	-0.055934593
155	0xbce1e786	-0.02757622
156	0xbcbf4862	-0.023349945
157	0xbc507c6c	-0.012724977
158	0xbd660e6c	-0.056166098
159	0x3d0a11e1	0.033708457
160	0xbd662098	-0.056183428
161	0xbc942988	-0.01808621
162	0xbc8c09fa	-0.017094601
163	0xbd0b261a	-0.033971883
164	0xbd0e2e5c	-0.03471218
165	0x3d2d4cd1	0.042309586
166	0xbd3cdf1a	-0.046111204
167	0xbcef0cf1	-0.029180976
168	0x3cdabfb2	0.026702736
169	0x3d64f0a7	0.055893566
170	0x3d0d8829	0.03455368
171	0x3cb10dda	0.02161305
172	0x3cee58de	0.02909511
173	0x3c8ccaa2	0.017186467
174	0x3d5e8ae5	0.05433168
175	0x3b51f390	0.0032036044
176	0xbcde3a16	-0.027127307
177	0xbd02004a	-0.031738557
178	0xbcf3801e	-0.029724177
179	0xbd265a20	-0.040613294
180	0x3d5c7bc3	0.053828966
181	0xbce238aa	-0.02761491
182	0x3cc3c74e	0.023898747
183	0xbc951c96	-0.018202107
184	0x3cbb3432	0.022852037
185	0x3ccb3e32	0.02480993
186	0x3d2ca095	0.04214533
187	0x3d2a0991	0.04151303
188	0x3c063adc	0.008192744
189	0x3d38dca7	0.045132305
190	0xbcb58668	-0.022158816
191	0xba39ff40	-0.0007095225
192	0xbc99cef6	-0.018775444
193	0xba952a20	-0.0011380352
194	0x3c077d14	0.008269567
195	0xbd2d3dca	-0.042295255
196	0xbcd11d28	-0.025526598
197	0xbceedeab	-0.02915891
198	0x3bc5b458	0.0060334615
199	0x3d712cc3	0.05888058
200	0x3d163edb	0.036681037
201	0xbcff1c48	-0.031141415
202	0x3c0f411c	0.008743551
203	0x3d5e0a25	0.054208893
204	0x3d401169	0.046891604
205	0x3d693ebb	0.05694459
206	0xbd4c7fed	-0.049926687
207	0xbd497b94	-0.04919012
208	0xbd68b31c	-0.056811437
209	0x3891b200	6.947294e-05
210	0x3d57016f	0.0524916
211	0x3cf55b0e	0.029950645
212	0xbd4c0af0	-0.04981512
213	0x3c36587c	0.011129495
214	0x3d41c1c5	0.047303934
215	0x3b799970	0.003808584
216	0xbd178226	-0.036989354
217	0x3bfb0958	0.007661026
218	0x3b603380	0.0034210384
219	0x3d679c83	0.056545746
220	0x3d3905eb	0.04517166
221	0xbceaeae7	-0.028676463
222	0xbd2f5a1a	-0.042810537
223	0xbd007227	-0.031358864
224	0x3d62b0a7	0.05534425
225	0xbb80df70	-0.003932886
226	0x3c2ba68c	0.01047672
227	0xbd15238a	-0.036410846
228	0x3c84bc52	0.01620308
229	0xbc202a18	-0.009775661
230	0x3d6c7be9	0.057735357
231	0xbc45fce8	-0.012084223
232	0xbcdd9758	-0.027049705
233	0x3aec39e0	0.0018022619
234	0xbcb429a4	-0.021992512
235	0xbd4ef254	-0.05052407
236	0xbd0c204b	-0.034210484
237	0x3c6e5e0c	0.01454879
238	0xbc53fa70	-0.012938127
239	0x3d0dbb59	0.034602497
240	0xbd6a6078	-0.057220906
241	0xbc956ea0	-0.018241227
242	0x3b900d88	0.0043961443
243	0xbc48e248	-0.012260981
244	0x3bed3da8	0.007240016
245	0x3ce21f56	0.027602833
246	0x3be90108	0.0071107186
247	0xbc677948	-0.014128037
248	0x3d09a147	0.03360107
249	0x3d1cd263	0.038286578
250	0xbc314668	-0.010820009
251	0xbb9059e0	-0.004405245
252	0xbd5ad6d9	-0.05342755
253	0xbcde6446	-0.027147423
254	0xbd686dec	-0.056745455
255	0x3b23c550	0.0024989434

bias f4 [32]
0	0xbd098bf8	-0.03358075
1	0x3cc88626	0.02447803
2	0xbcd3c6e8	-0.025851682
3	0xbc8e9ed0	-0.017409712
4	0x3d2909fb	0.041269284
5	0x3d2ccbc9	0.042186532
6	0xbc87f544	-0.016596444
7	0xbd481839	-0.048851226
8	0x3d386189	0.04501489
9	0x3d5b86c9	0.053595338
10	0xbd1ad884	-0.03780414
11	0xbb886c10	-0.0041632727
12	0x3d22f33f	0.03978276
13	0xbd54bfcf	-0.051940735
14	0x3d096e57	0.033552494
15	0x3cee8d26	0.02912004
16	0xbd2ce454	-0.04220994
17	0xbd20f24a	-0.039293565
18	0xbc3629c0	-0.011118352
19	0x3d0560c1	0.032562975
20	0xbd17680f	-0.036964472
21	0xbc99a7ec	-0.01875683
22	0x3c94fd5a	0.018187214
23	0x3d2d3c85	0.042294044
24	0x3c63129c	0.013859417
25	0xbd45c2b2	-0.04828138
26	0x3b027c10	0.0019910373
27	0x3d5e454d	0.05426531
28	0xbcd3d3b6	-0.025857788
29	0xbcf6f362	-0.03014535
30	0xbc2876f8	-0.010282271
31	0xbcdb0466	-0.026735496

weight f4 [32, 32, 3, 3]
0	0x3d5c170d	0.05373292
1	0xbb9f2d48	-0.004857693
2	0xbd39c372	-0.045352407
3	0xbb8bca70	-0.004266076
4	0x3d5d9403	0.054096233
5	0xbd3e8962	-0.046517737
6	0x3cf3eed6	0.029776972
7	0x3d3d8907	0.046273258
8	0x3d451f1d	0.048125375
9	0xbcbcb490	-0.023035318
10	0xbc3ef4ac	-0.011655014
11	0xbd043bc0	-0.032283545
12	0xbd526dca	-0.051374234
13	0xbd0b6228	-0.034029156
14	0x3d2f5257	0.042803135
15	0xbcbc2586	-0.022967111
16	0xbb1660c0	-0.002294585
17	0x3c3b7a9c	0.011442807
18	0x3d0b93cd	0.0340765
19	0x3bc448e8	0.0059901364
20	0xbbf10cc0	-0.0073562562
21	0xbd665236	-0.056230746
22	0xbc0183e8	-0.007904984
23	0x3ca6fcea	0.02038427
24	0xbc0fd8f0	-0.008779749
25	0xbd4a8209	-0.049440417
26	0x3d3c0599	0.045903776
27	0xbc85775e	-0.01629227
28	0x3d05b02d	0.032638717
29	0x3d4a0403	0.049320232
30	0x3d502b77	0.0508227
31	0x3c56c924	0.013109479
32	0xbd20387d	-0.03911637
33	0x3c17039c	0.009217169
34	0xbcd0edac	-0.025503956
35	0x3d30f9af	0.043206867
36	0x3d5e008b	0.054199737
37	0x3ce5710e	0.02800801
38	0xbd2926e5	-0.04129686
39	0x3d4c6d03	0.04990865
40	0xbc01a610	-0.007913128
41	0x3d67936b	0.056537073
42	0xbc8aebf8	-0.016958222
43	0xbd14049c	-0.03613721
44	0x3c181a14	0.009283561
45	0x3d21cc45	0.039501447
46	0xbd359106	-0.04432776
47	0xbcf8ae75	-0.030356625
48	0xbd02585a	-0.03182254
49	0xbbfb8948	-0.0076762773
50	0xbd57bd59	-0.05267081
51	0xbd5a3316	-0.053271376
52	0xbad346a0	-0.001611907
53	0x3a9ce6c0	0.0011970624
54	0x3ccd839a	0.025087167
55	0xbcc19fa0	-0.023635685
56	0xbcf34588	-0.029696241
57	0x3d3f9839	0.04677603
58	0xbb8c5d78	-0.0042836033
59	0xbbc9de00	-0.0061604977
60	0xbc810870	-0.015751094
61	0xbd4f4af0	-0.050608575
62	0xbb1f3420	-0.0024292544
63	0x3c657a9c	0.014006283
64	0x3c6f1d74	0.0145944245
65	0xbd39a4fc	-0.045323357
66	0x3d469369	0.048480425
67	0xbc337a28	-0.010954417
68	0x3d4a32fd	0.049365032
69	0x3d5fb429	0.054615173
70	0x3aeeecc0	0.0018228516
71	0xbd6aa91b	-0.057290178
72	0xbc9221de	-0.017838415
73	0x3d43b0e9	0.047776137
74	0x3c8cd336	0.017190557
75	0xbc5085a4	-0.012727175
76	0x3ccc9a82	0.024976019
77	0xbd193498	-0.037403673
78	0x39c72a00	0.0003798753
79	0x3d665923	0.05623735
80	0xbd29860c	-0.041387603
81	0xbc486ad0	-0.012232497
82	0xbceba7a8	-0.028766468
83	0xbce78198	-0.028260037
84	0x3d18e0af	0.03732365
85	0x3d13ae71	0.036055032
86	0x3d0d61f1	0.034517232
87	0x3d346db1	0.044049922
88	0x3cf1c5fa	0.029513348
89	0xbc28e404	-0.010308269
90	0x3c90d79a	0.017680932
91	0x3d53b411	0.051685397
92	0xbd177bb4	-0.036983207
93	0x3d3616b5	0.04445525
94	0xbd4ed25a	-0.050493576
95	0xbd1569eb	-0.036477964
96	0xbc07a5c0	-0.008279264
97	0x3d3e5f61	0.04647768
98	0xbb51c1d0	-0.003200639
99	0x3d5f231f	0.054476853
100	0x3a5214c0	0.0008013956
101	0x3c9d12e2	0.019174043
102	0x3d4cbeb1	0.049986545
103	0x3a60a300	0.0008569211
104	0xbd61bc09	-0.055110965
105	0xbc822a6c	-0.015889369
106	0x3d6c79b9	0.05773327
107	0xbd63f460	-0.055652976
108	0xbd3f6867	-0.046730425
109	0xbcbe75dc	-0.02324956
110	0x3ca9022e	0.020630922
111	0x3c8a913e	0.01691496
112	0xbd0c841f	-0.034305688
113	0x3c73e8ec	0.014887076
114	0xbd3e9848	-0.046531945
115	0x3d55caaf	0.052195247
116	0xbd5873ce	-0.052844815
117	0x3d35e15b	0.04440437
118	0x3d35f81f	0.04442608
119	0x3bad98d8	0.0052977614
120	0xbd04a737	-0.03238603
121	0x3b908f98	0.004411649
122	0xbc8ae03e	-0.01695263
123	0xbd59b5cc	-0.05315189
124	0xbd06232e	-0.032748394
125	0x3ca94f66	0.020667743
126	0x3d687213	0.056749415
127	0x3c195894	0.009359498
128	0x3d670e2d	0.056410003
129	0x3cd8008e	0.026367452
130	0xbd34e764	-0.044165984
131	0xbc017a40	-0.007902682
132	0xbd5389b7	-0.051645007
133	0x3cf8df42	0.030379895
134	0x3d6de081	0.05807543
135	0x3cb541aa	0.022126038
136	0x3d00ffbd	0.03149389
137	0x3d2bde65	0.04196014
138	0x3ca3392e	0.019924726
139	0x3cf7922e	0.030221071
140	0x3d1729dd	0.03690516
141	0xbc3c30ec	-0.011486273
142	0xbd50496f	-0.05085128
143	0x3cfaad7e	0.030600306
144	0xbd2fe46e	-0.042942457
145	0x3d27a085	0.040924568
146	0x3d2cf54d	0.042226125
147	0x3bb787c8	0.005600903
148	0xbd33ba6c	-0.043878958
149	0x3ccfc14e	0.02536073
150	0x3d617917	0.05504712
151	0xbcd9ab36	-0.026570898
152	0xbd4ce1d2	-0.050020047
153	0x3c9056ee	0.017619576
154	0xbc261ab8	-0.010138206
155	0xbca33b42	-0.019925717
156	0xbcd4d9a6	-0.02598269
157	0x3d64f5fd	0.055898655
158	0xbd232840	-0.039833307
159	0xbb957b28	-0.0045618005
160	0xbc7d7954	-0.015470821
161	0x3d4cd7b1	0.050010387
162	0x3c0e48c4	0.008684341
163	0xbc0a0f14	-0.0084264465
164	0xbd4ef37a	-0.050525166
165	0x3cf6cc9a	0.030126859
166	0xbd34bad2	-0.04412348
167	0x3cd9c3de	0.026582655
168	0xbd6fc884	-0.058540836
169	0x3bfc62f8	0.0077022277
170	0x3d15c1db	0.036561828
171	0xbc809abe	-0.015698787
172	0x3c780124	0.015136991
173	0x3c2fe984	0.010736827
174	0x3c8277c6	0.015926253
175	0xbc5c0c6c	-0.013430696
176	0xbd30d7d0	-0.043174565
177	0x3bad79f8	0.005294081
178	0xbd143b18	-0.03618917
179	0xbd647c36	-0.05578252
180	0xbbfb8f80	-0.0076770186
181	0xbd55ffbb	-0.052245837
182	0x3d592f9b	0.053023916
183	0xbcb29f76	-0.021804553
184	0xbc23be54	-0.009994108
185	0x3cde1bf6	0.027112942
186	0xbd3f7021	-0.046737794
187	0xbc148fcc	-0.009067487
188	0x3c6faefc	0.014629122
189	0xbd524724	-0.051337376
190	0xbc1b157c	-0.0094655715
191	0xbb674500	-0.003528893
192	0xbc40faa4	-0.011778507
193	0xbb13aa80	-0.0022532046
194	0x3d00aa89	0.031412635
195	0x3c83f64e	0.016108658
196	0x3d5318bb	0.051537257
197	0xbd2749cc	-0.040841863
198	0xbcd7d0d8	-0.026344702
199	0xbd4438c9	-0.047905717
200	0xbce375a0	-0.027766049
201	0x3c596254	0.013268072
202	0x3cffe67a	0.03123783
203	0x3d58c619	0.052923296
204	0xbd20e350	-0.039279282
205	0x3bfaf9b8	0.0076591633
206	0xbd6fc477	-0.058536973
207	0x3d095b27	0.033534195
208	0x3d1b58cf	0.03792649
209	0x3d456e91	0.048201147
210	0x3bfe9068	0.0077686794
211	0x3c8b59be	0.017010566
212	0x3d0b4b37	0.034007277
213	0xbc8f9ea6	-0.017531704
214	0xbd21620e	-0.039400153
215	0xbd4c592b	-0.049889725
216	0xbc1f7408	-0.009732254
217	0xbd2e1890	-0.042503893
218	0x3c21ca44	0.009874884
219	0x3d664ddd	0.0562266
220	0xbd375ec2	-0.044768102
221	0xbd475eb0	-0.048674285
222	0xbcee079b	-0.029056361
223	0xbc5d4790	-0.013505831
224	0x3d48368b	0.04888014
225	0x3d6793e7	0.056537535
226	0x3d18e34d	0.037326146
227	0x3d04d483	0.03242923
228	0xbc2dead4	-0.010615069
229	0xbd1ca5fc	-0.038244233
230	0x3a78a6c0	0.0009485297
231	0x3d2cb317	0.04216298
232	0x3c8ed146	0.017433774
233	0xbd01a9e2	-0.031656154
234	0xbc8bd35e	-0.017068561
235	0x3d3e455f	0.046452876
236	0xbd627d7b	-0.05529545
237	0x3d52b673	0.05144353
238	0x3d46b5b3	0.048513126
239	0x3ab2faa0	0.0013655014
240	0xbd37289b	-0.04471646
241	0x3cfdfb2a	0.031003553
242	0x3c538cfc	0.012912031
243	0x3d6798ed	0.056542326
244	0xbcf8f016	-0.03038792
245	0x3c9107fa	0.017703999
246	0xbd348ec6	-0.04408147
247	0xbd60b7c5	-0.054862756
248	0xbd365574	-0.04451509
249	0xbcd5884a	-0.026065964
250	0xbc9ee980	-0.01939845
251	0x3d0c5851	0.034263913
252	0xbb13aac0	-0.0022532195
253	0x3c7a7324	0.015286241
254	0xbd1bb376	-0.038012944
255	0xbd6b6292	-0.05746705

bias f4 [32]
0	0xbd5d5c9d	-0.0540434
1	0xbcf64f0a	-0.030066986
2	0xbbd8c6e8	-0.0066155083
3	0xbd30236f	-0.043002542
4	0x3d146409	0.036228213
5	0x3d66166d	0.05617373
6	0x3cb2b0ee	0.021812882
7	0xbd70139d	-0.058612455
8	0x3cba5c5e	0.022749122
9	0x3d659f29	0.05605999
10	0xbd4a81a5	-0.049440045
11	0x3c38bb2c	0.011275094
12	0x3c2d1754	0.010564644
13	0xbd46adb6	-0.048505507
14	0x3cff2702	0.03114653
15	0xbcba94a6	-0.02277596
16	0xbc5703e8	-0.01312349
17	0x3ca0bf6a	0.019622523
18	0x3ba4fde8	0.005035151
19	0x3d1061a5	0.03524937
20	0xbcb14da8	-0.021643475
21	0xbc1fe568	-0.009759285
22	0x3c91b58e	0.017786767
23	0xbd581d7c	-0.052762493
24	0x3c0322dc	0.008003917
25	0x3c2a530c	0.0103957765
26	0xbd5a1866	-0.053245924
27	0xbd31d066	-0.043411635
28	0xbcaa9e88	-0.020827547
29	0xbcfa24b2	-0.030535076
30	0x3d20b281	0.039232735
31	0xbd335291	-0.043779913

weight f4 [32]
0	0x3f5f2bf8	0.87176466
1	0x3f6a791e	0.9159106
2	0x3ee8c768	0.45464635
3	0x3f518122	0.81837666
4	0x3f11285e	0.5670222
5	0x3e0a67c0	0.1351614
6	0x3f090912	0.53529465
7	0x3f085033	0.53247374
8	0x3ef76f9a	0.48327333
9	0x3f3d9bb1	0.7406569
10	0x3e12695c	0.14298004
11	0x3f4c237d	0.7974165
12	0x3e920722	0.28521067
13	0x3f076f42	0.5290414
14	0x3eac5688	0.33659768
15	0x3b05ae00	0.0020397902
16	0x3f750a2d	0.9571865
17	0x3f763f1e	0.9619006
18	0x3f701fdb	0.9379861
19	0x3f57130c	0.8401344
20	0x3f14db4d	0.58147126
21	0x3dd0a128	0.10186988
22	0x3e9a79d2	0.30171067
23	0x3f7730a1	0.96558577
24	0x3ee89088	0.4542277
25	0x3f4cab91	0.7994929
26	0x3f78ef38	0.9724002
27	0x3ca8c580	0.020601988
28	0x3eb74560	0.35795116
29	0x3f365502	0.7122346
30	0x3e23993c	0.15976423
31	0x3f22ba40	0.63565445

bias f4 [32]
0	0x00000000	0.0
1	0x00000000	0.0
2	0x00000000	0.0
3	0x00000000	0.0
4	0x00000000	0.0
5	0x00000000	0.0
6	0x00000000	0.0
7	0x00000000	0.0
8	0x00000000	0.0
9	0x00000000	0.0
10	0x00000000	0.0
11	0x00000000	0.0
12	0x00000000	0.0
13	0x00000000	0.0
14	0x00000000	0.0
15	0x00000000	0.0
16	0x00000000	0.0
17	0x00000000	0.0
18	0x00000000	0.0
19	0x00000000	0.0
20	0x00000000	0.0
21	0x00000000	0.0
22	0x00000000	0.0
23	0x00000000	0.0
24	0x00000000	0.0
25	0x00000000	0.0
26	0x00000000	0.0
27	0x00000000	0.0
28	0x00000000	0.0
29	0x00000000	0.0
30	0x00000000	0.0
31	0x00000000	0.0

running_mean f4 [32]
0	0x3dddb0c6	0.108247325
1	0xbf8515d5	-1.0397288
2	0xbedd22cd	-0.43190613
3	0x3d352db5	0.044233043
4	0xbdfb64f1	-0.122751124
5	0x3e1adb2d	0.15122671
6	0x3eea8249	0.45802525
7	0xbe728ff4	-0.23687726
8	0x3e2dfe46	0.16991529
9	0x3ed21ec6	0.41039103
10	0x3ef43725	0.47698322
11	0x3fa5861f	1.2931556
12	0xbde6f944	-0.112780124
13	0xbef6ff12	-0.48241478
14	0x3d97b8f7	0.07408326
15	0xbeb2d205	-0.34925857
16	0xbe6affa9	-0.22949089
17	0xbc9d5a71	-0.019208165
18	0x3e8e5c06	0.27804583
19	0xbf49a998	-0.78774405
20	0x3d85625a	0.065129
21	0x3de54a19	0.11195774
22	0x3aca6cb0	0.0015443768
23	0x3ce6cf99	0.028175162
24	0xbf350af4	-0.7071984
25	0xbe62dbf8	-0.22154224
26	0xbf04f676	-0.5193857
27	0xbe6c9e1f	-0.23107193
28	0xbf062888	-0.52405596
29	0x3e51a2fb	0.20472328
30	0x3ead485d	0.3384427
31	0xbd2501b3	-0.040284824

running_var f4 [32]
0	0x3e7da151	0.24768569
1	0x3ea0d732	0.3141418
2	0x3fbe00fb	1.4844049
3	0x3ebeadf8	0.37242103
4	0x3e364306	0.17799005
5	0x3f48f9a2	0.7850591
6	0x3f1d77ae	0.6151074
7	0x3ead14af	0.33804843
8	0x3e39011a	0.18066826
9	0x3f983aa5	1.1892897
10	0x3e83b0a9	0.25720719
11	0x3ecc6b37	0.39925548
12	0x3fa8b43d	1.3180004
13	0x3f466c64	0.7750914
14	0x3f1614cc	0.58625484
15	0x3f437dc1	0.7636376
16	0x3f0f9458	0.5608573
17	0x3f2bf3bc	0.67168784
18	0x3e7f5b24	0.24937111
19	0x3f05cba1	0.5226384
20	0x3f45195b	0.76991814
21	0x3f949d33	1.1610473
22	0x3fb70c62	1.4300654
23	0x3ef25175	0.47327772
24	0x3fa7715c	1.308147
25	0x3f41a8b0	0.7564802
26	0x3e51851e	0.20460936
27	0x3f00e0f8	0.50343275
28	0x3f1dd70d	0.61656266
29	0x3fabf0e8	1.3432894
30	0x3f120429	0.570376
31	0x3f6eeefc	0.9333341

weight f4 [32]
0	0x3d8ffc60	0.070305586
1	0x3f57e34b	0.84331197
2	0x3dfb6cd8	0.1227662
3	0x3eb12b5e	0.346034
4	0x3ea8ad12	0.32944542
5	0x3f601ae4	0.8754103
6	0x3e43c770	0.19119048
7	0x3e613534	0.21992952
8	0x3e8c7ed8	0.27440524
9	0x3f3c7ae0	0.7362499
10	0x3f1baeaf	0.6081342
11	0x3f51cd9e	0.8195437
12	0x3f7404ca	0.9531981
13	0x3d558440	0.052128077
14	0x3f790384	0.9727099
15	0x3e4004e4	0.18751866
16	0x3f45136d	0.76982766
17	0x3dea0a00	0.114276886
18	0x3ea7da18	0.3278358
19	0x3f13e6e1	0.5777417
20	0x3edd7378	0.43252158
21	0x3f028c2d	0.5099514
22	0x3eae1d7a	0.34006864
23	0x3f373a4b	0.71573323
24	0x3f6a1b5b	0.9144799
25	0x3f0f1751	0.55894953
26	0x3f5af16d	0.85524637
27	0x3e8f8e98	0.28038478
28	0x3f4711b6	0.777614
29	0x3f15dc3e	0.5853919
30	0x3db43170	0.08798492
31	0x3f404fcb	0.75121754

bias f4 [32]
0	0x00000000	0.0
1	0x00000000	0.0
2	0x00000000	0.0
3	0x00000000	0.0
4	0x00000000	0.0
5	0x00000000	0.0
6	0x00000000	0.0
7	0x00000000	0.0
8	0x00000000	0.0
9	0x00000000	0.0
10	0x00000000	0.0
11	0x00000000	0.0
12	0x00000000	0.0
13	0x00000000	0.0
14	0x00000000	0.0
15	0x00000000	0.0
16	0x00000000	0.0
17	0x00000000	0.0
18	0x00000000	0.0
19	0x00000000	0.0
20	0x00000000	0.0
21	0x00000000	0.0
22	0x00000000	0.0
23	0x00000000	0.0
24	0x00000000	0.0
25	0x00000000	0.0
26	0x00000000	0.0
27	0x00000000	0.0
28	0x00000000	0.0
29	0x00000000	0.0
30	0x00000000	0.0
31	0x00000000	0.0

running_mean f4 [32]
0	0x3ba211e5	0.004945981
1	0x3d7ee4be	0.062229864
2	0xbac50bc2	-0.0015033411
3	0xbe9b5889	-0.30340984
4	0xba789c60	-0.0009483751
5	0x3da76fd6	0.08175628
6	0xbc89c364	-0.016816802
7	0x3c8b9287	0.017037643
8	0x3c43b147	0.011944122
9	0xbe014e26	-0.12627468
10	0xbdb9894f	-0.09059393
11	0x3d7b0c1f	0.061290856
12	0x3b897066	0.004194307
13	0xbc4539a4	-0.012037668
14	0x3d0017ad	0.03127258
15	0xbc43b473	-0.011944878
16	0x3d8e7fa2	0.06957938
17	0xbc09a422	-0.008400949
18	0x3d8d87b8	0.06910652
19	0x3d456908	0.04819587
20	0xbdb366da	-0.08759852
21	0x3e2b4f63	0.16729502
22	0x3e213c30	0.15745616
23	0x3c344bd4	0.011004407
24	0xbd97aded	-0.074062206
25	0x3c0ed1fe	0.008717058
26	0xbd5182f4	-0.051150277
27	0x3e0613be	0.13093469
28	0xbcaa441e	-0.020784434
29	0xbdc27807	-0.0949555
30	0x3e45c5ac	0.19313687
31	0x3ac2ed1d	0.0014871691

running_var f4 [32]
0	0x3cac3f50	0.021026284
1	0x3d98d16f	0.07461821
2	0x3d225498	0.039631456
3	0x3d2c1dc6	0.04202058
4	0x3c36ded8	0.0111615285
5	0x3d2abacd	0.041682053
6	0x3ca38d87	0.019964946
7	0x3c461465	0.012089823
8	0x3cc4096a	0.02393027
9	0x3d2648b5	0.040596683
10	0x3c958d94	0.018255986
11	0x3c9e55a5	0.019327948
12	0x3d1a1e82	0.03762675
13	0x3bec15c9	0.0072047454
14	0x3ca481d7	0.020081444
15	0x3d19f650	0.037588418
16	0x3ce12895	0.027485171
17	0x3cbda60c	0.023150466
18	0x3c737753	0.014859992
19	0x3c910c88	0.01770617
20	0x3c69fa6a	0.014280895
21	0x3d0e6c24	0.0347711
22	0x3d1c6943	0.038186323
23	0x3c946380	0.018113852
24	0x3c952d39	0.01821004
25	0x3ca484b5	0.02008281
26	0x3d863202	0.06552507
27	0x3d1589c0	0.03650832
28	0x3c9fb4f6	0.019495469
29	0x3d03ff62	0.032225974
30	0x3d0c49dd	0.03425013
31	0x3d0e7ebf	0.034788843
