models/5_cross_5_iter_40.pt (torch_old, 339781 bytes, 66 tensors)

weight f4 [32, 3, 3, 3]
0	0xbe98b3e8	-0.29824758
1	0xbec851cb	-0.39124903
2	0x3e11b792	0.14230183
3	0xbe8551e6	-0.26039046
4	0xbd0e3fa5	-0.034728665
5	0xbd990865	-0.07472304
6	0xbd6295e4	-0.055318728
7	0xbb2f5fc4	-0.0026759962
8	0x3c92e1a7	0.017929865
9	0x3ea5fa9e	0.32417768
10	0x3f044c07	0.5167851
11	0xbdd3128f	-0.10306274
12	0x3deb4a90	0.11488831
13	0xbebfbeda	-0.37450296
14	0x3e9faab4	0.31184924
15	0x3e0cd1d6	0.13751921
16	0x3e11edbc	0.14250845
17	0x3e89ce7f	0.26915357
18	0x3e852df7	0.2601163
19	0x3d7de752	0.061988182
20	0x3c06fa58	0.008238398
21	0x3e5e56f6	0.2171286
22	0x3da773da	0.08176394
23	0xbd12ef4b	-0.03587274
24	0x3e1464b8	0.14491546
25	0x3e00256b	0.12514274
26	0x3e4f2d33	0.20232086
27	0x3fa627a9	1.2980853
28	0xbe6abdb6	-0.22923931
29	0xbfab120b	-1.3364881
30	0x3d59e60d	0.05319791
31	0x3f7e5975	0.9935525
32	0xbeb015be	-0.34391588
33	0xbe4688e2	-0.19388154
34	0x3f965d1c	1.1747165
35	0xbf43209d	-0.7622164
36	0xbfd9e8d1	-1.7024175
37	0x3ef3a1b7	0.47584316
38	0xbf4d8b8b	-0.8029105
39	0x3eca5a57	0.3952205
40	0x3e7c7eec	0.24657792
41	0x3f8af928	1.0857286
42	0xbde800b2	-0.113282576
43	0xbf9ba734	-1.2160401
44	0x3e9c5de8	0.30540395
45	0xbf0b36d6	-0.5438055
46	0xbe987314	-0.29775298
47	0xbf090844	-0.5352824
48	0xbedee4db	-0.43533978
49	0xbf1230a7	-0.5710549
50	0xbe65c628	-0.22438872
51	0xbedf4e66	-0.436145
52	0xbeb194e7	-0.34683916
53	0xbe8b4824	-0.27203476
54	0x3f8cea50	1.1009007
55	0xbfd1915f	-1.6372489
56	0x3f3c28ac	0.7349956
57	0xc00422e5	-2.0646298
58	0xc02e955b	-2.727866
59	0x3f2353e0	0.6379986
60	0x3d698563	0.057011973
61	0x402e78ec	2.7261305
62	0x404ac093	3.1680038
63	0x3f21b1bf	0.63161844
64	0xc0e72489	-7.22321
65	0x3eee1540	0.46500587
66	0xc0470b4a	-3.110064
67	0xbfa8fb19	-1.3201629
68	0x3fa619ff	1.2976683
69	0x4028c9d2	2.6373181
70	0x3e89b8be	0.2689876
71	0x401917e4	2.3920832
72	0xbe334deb	-0.17510192
73	0xbe4458e7	-0.19174539
74	0xbe0b56c1	-0.13607313
75	0xbc53cb7a	-0.012926931
76	0xbd3d56b4	-0.046225265
77	0xbe2b171d	-0.16708036
78	0xbdc95085	-0.09829811
79	0x3d5448c2	0.0518272
80	0xbe05158e	-0.12996504
81	0xbe08b2fe	-0.1334953
82	0xbeda6e96	-0.42662495
83	0x3f29df08	0.66355944
84	0xbf223c64	-0.633734
85	0xbea39429	-0.31948975
86	0xbeac955d	-0.33707705
87	0x3b7dff33	0.0038756847
88	0xbf744ef9	-0.95433
89	0x3e868070	0.26269865
90	0xbf876dc1	-1.0580369
91	0x3e099e4f	0.13439296
92	0xbec7b7e3	-0.39007482
93	0x3ece93be	0.40347093
94	0x3e1aa41b	0.15101664
95	0x3f783e3f	0.9696998
96	0x3d60b123	0.05485643
97	0x3c67813c	0.014129933
98	0xbf4a1b15	-0.78947574
99	0xbf13f66a	-0.57797873
100	0xbf68ef9c	-0.90990615
101	0xbf10e65a	-0.5660149
102	0xbf43cc9c	-0.76484084
103	0xbf6772d9	-0.9040962
104	0xbf4b41e5	-0.7939742
105	0xbf139090	-0.5764246
106	0xbf68e9c5	-0.90981704
107	0xbf387efa	-0.7206875
108	0x3eb5cee9	0.35509422
109	0x3c567cb9	0.01309126
110	0x3f081192	0.5315181
111	0x3f8917e8	1.0710421
112	0x3e1e9d50	0.15489697
113	0xbdc0d40f	-0.09415447
114	0x3df657dc	0.120284766
115	0x3cd89b71	0.026441308
116	0x3ec27b14	0.37984526
117	0x3f09e1dd	0.53860265
118	0xbf86385e	-1.0485952
119	0xbf6682f1	-0.9004355
120	0xbeb8e439	-0.3611162
121	0x3fbad4c7	1.4596184
122	0xbee04d7b	-0.43809113
123	0x3e4e652b	0.2015578
124	0x3e2351e4	0.15949208
125	0xbe9b92c0	-0.303854
126	0xbefedd69	-0.49778298
127	0xbec9775f	-0.39348885
128	0xbf05eaff	-0.523117
129	0xbf0d99ad	-0.55312616
130	0xbed96ec4	-0.4246732
131	0xbf0cc7fb	-0.54992646
132	0xbe849661	-0.2589598
133	0xbef68ec7	-0.48155805
134	0xbed94034	-0.42431796
135	0x3ecd3ff2	0.4008785
136	0x3dcdff40	0.10058451
137	0xbdaebcdd	-0.085321166
138	0x3e8c301b	0.27380452
139	0x3e428f29	0.18999924
140	0x3e037d52	0.12840775
141	0x3e890733	0.26763305
142	0x3ec3272b	0.3811582
143	0x3e81d8bf	0.25360677
144	0xbe93eff4	-0.28894007
145	0x3e3872f1	0.18012597
146	0xbe674bd3	-0.22587518
147	0xbe9f59f9	-0.3112333
148	0xbe9034f9	-0.28165415
149	0xbe1953b4	-0.14973336
150	0xbdf9dfdc	-0.12200901
151	0xbdd8c611	-0.10584653
152	0x3cc90c98	0.024542138
153	0xbdaf6671	-0.08564461
154	0x3df92207	0.12164693
155	0xbe13f12c	-0.14447469
156	0xbdaf0dec	-0.08547577
157	0xbe274e58	-0.1633848
158	0xbe3808ea	-0.1797215
159	0xbd746906	-0.05967047
160	0xbe06cfc9	-0.13165201
161	0x3dea5d89	0.11443622
162	0xbee8433c	-0.45363796
163	0xbf1b1dd1	-0.6059237
164	0xbe9532ec	-0.29140413
165	0xbec8d7ce	-0.39227146
166	0x3f22305c	0.6335504
167	0xbf591842	-0.8480264
168	0x3e8fb7e3	0.28069982
169	0xbed28737	-0.41118786
170	0xbe436d4a	-0.19084659
171	0xbeb5f55b	-0.35538754
172	0x3eac5b34	0.33663332
173	0xbf35220c	-0.70755076
174	0xbee93d6c	-0.45554674
175	0xbf65235c	-0.8950708
176	0xbef2903e	-0.47375673
177	0xbefc4e01	-0.49278262
178	0x3e86c20a	0.26319915
179	0x3f812f92	1.0092642
180	0x3ebd53ac	0.369779
181	0x3e2c975f	0.16854618
182	0x3e431066	0.19049224
183	0x3e9f101f	0.31066987
184	0x3e84b0c8	0.25916123
185	0x3e8ab881	0.2709389
186	0x3ecb2beb	0.39681944
187	0x3eda12c8	0.42592454
188	0x3eb8359d	0.35978404
189	0x3fc9b855	1.5759379
190	0xbf1f3648	-0.621922
191	0x3f4583e1	0.77154356
192	0xbfe64bf7	-1.7991933
193	0x3fb17fa0	1.3867073
194	0x3fbaaff8	1.4584951
195	0xbec307c4	-0.38091862
196	0x40b17d67	5.546558
197	0xc02ba175	-2.6817296
198	0x3fe98691	1.8244191
199	0xbfb416c3	-1.4069446
200	0xbf4f2ba6	-0.8092598
201	0x3fa673e0	1.3004112
202	0xbe30df12	-0.17272595
203	0x3f60a27d	0.8774794
204	0x3ffbb9a4	1.9666028
205	0x3fa97eac	1.3241782
206	0x3ebd3548	0.36954713
207	0xbebe7f21	-0.37206367
208	0xbf14cd52	-0.58125794
209	0xbe9c605b	-0.30542263
210	0xbebe1249	-0.37123325
211	0xbee46356	-0.44607037
212	0xbeab9212	-0.3350988
213	0xbeb6d94d	-0.35712662
214	0xbf0a026a	-0.53909934
215	0xbed68e13	-0.4190527
216	0xbe3d276c	-0.1847207
217	0x3e9ebb88	0.3100245
218	0xbed5404d	-0.4165062
219	0x3cb01b3e	0.021497365
220	0xbe425cca	-0.18980709
221	0xbe61906c	-0.22027749
222	0xbe750d24	-0.23930794
223	0xbe835028	-0.25647092
224	0x3e15b498	0.14619672
225	0x3dd07e99	0.101803966
226	0xbead642a	-0.33865482
227	0xbd2bd510	-0.04195124
228	0xbd50af9c	-0.050948724
229	0xbe3df49f	-0.18550347
230	0xbcc87ad8	-0.024472639
231	0x3ec03cbb	0.37546334
232	0xbd885852	-0.06657471
233	0xbe5d7c63	-0.21629481
234	0xbe70bcbf	-0.23509501
235	0xbe0370fd	-0.1283607
236	0xbd633786	-0.055472873
237	0xbe302aac	-0.17203778
238	0xbe427a93	-0.18992071
239	0xbe61aa53	-0.2203763
240	0xbe16ab31	-0.14713742
241	0xbda448f5	-0.08021728
242	0xbd9a321c	-0.07529089
243	0x3e2e03bf	0.16993617
244	0xbec7b0f6	-0.39002198
245	0xbdfb5036	-0.122711584
246	0x3ee1963f	0.4405994
247	0x3cfea12c	0.031082712
248	0x3e6c90f4	0.2310217
249	0x3f807b00	1.0037537
250	0xbe5a4be7	-0.21318017
251	0x3e1a870f	0.15090583
252	0xbd43e60c	-0.04782681
253	0xbe94f4fe	-0.29093164
254	0x3eb4bbb9	0.3529947
255	0x3e49b215	0.19696839

bias f4 [32]
0	0x3cc3fcb0	0.023924202
1	0xbdb296e4	-0.08720186
2	0xbda8a5de	-0.08234762
3	0x3d82c111	0.06384481
4	0xbe2f815c	-0.1713919
5	0xbca43f6b	-0.020049771
6	0x3e05129e	0.12995383
7	0x3e2cfb58	0.16892755
8	0x3dac868f	0.084241025
9	0x3d3e229e	0.046419732
10	0x3d5f8882	0.054573543
11	0x3e31f740	0.17379475
12	0x3cb07ba9	0.02154334
13	0xbe022761	-0.12710334
14	0x3e2765e6	0.16347465
15	0x3e0729f3	0.13199596
16	0xbdd88d59	-0.10573835
17	0x3c17388d	0.009229791
18	0xbe17af40	-0.14812946
19	0xbe2b0c57	-0.16703926
20	0x3d05ea20	0.032693982
21	0x3dcb6d72	0.099329844
22	0xbd143ea5	-0.036192555
23	0xbddf0ac0	-0.10890722
24	0x3dc852ef	0.09781443
25	0x3d0db86a	0.0345997
26	0xbd888d5d	-0.06667588
27	0x3df10278	0.11768049
28	0xbcad65ac	-0.021166645
29	0x3d0b35b9	0.03398678
30	0xbe018159	-0.12646998
31	0xbdaaa0dc	-0.08331463

weight f4 [32]
0	0x3d94968f	0.07255279
1	0x3eb65bbc	0.35616863
2	0x406b6f5c	3.6786718
3	0x3ee61413	0.4493719
4	0x3e2a3098	0.166201
5	0xbde2f0c7	-0.11081081
6	0x3d100453	0.035160374
7	0xc086c08c	-4.2110043
8	0x3d9572d8	0.07297295
9	0x3dd20a8b	0.10255917
10	0x40a1c062	5.054734
11	0x40e1e974	7.0597477
12	0xc0413f56	-3.0194907
13	0x404e608b	3.2246425
14	0x40424b11	3.0358317
15	0xbd5ebb77	-0.054378
16	0x3c00d873	0.0078641055
17	0x402c035d	2.6877053
18	0x3e7f0d02	0.24907306
19	0x400627a6	2.09617
20	0x3d0f86d9	0.03504071
21	0x40b8e17e	5.777526
22	0xbe046530	-0.12929225
23	0xc0bec19e	-5.961135
24	0x40e03e2b	7.007589
25	0x3fc8a06e	1.5673959
26	0x40d00994	6.501169
27	0x407ed171	3.9815333
28	0x3e316b0f	0.17325996
29	0x405064b6	3.256147
30	0x4009e509	2.1546042
31	0xbe222d73	-0.1583765

bias f4 [32]
0	0xbeefffa4	-0.46874726
1	0xbfafeb18	-1.374362
2	0x3ecd49d6	0.40095395
3	0x4065f6fc	3.5931997
4	0xbf854a03	-1.0413212
5	0xbed674cf	-0.41885993
6	0xbed9f99e	-0.42573255
7	0xc02c7fed	-2.695308
8	0xbee2a846	-0.44269007
9	0xbf238d1a	-0.6388718
10	0xbfd7041d	-1.679813
11	0x3f8125b3	1.008963
12	0x3f4e23bc	0.80523276
13	0x3f7e300d	0.9929207
14	0x3f7be653	0.9839832
15	0xbf4989d6	-0.78725946
16	0xbf1623c5	-0.5864833
17	0x3ee6c4a3	0.45071897
18	0xbf4971f8	-0.7868953
19	0x3c00d126	0.007862365
20	0xbecbb471	-0.39786103
21	0xbf8cf9ff	-1.1013793
22	0xbee65f18	-0.44994426
23	0xbfcfb447	-1.6226891
24	0xc035092d	-2.828685
25	0x3f4e7176	0.8064188
26	0xbf4c9318	-0.7991195
27	0xbe65f651	-0.22457244
28	0xbf07e102	-0.5307771
29	0xbe50cf1a	-0.20391503
30	0x3edb21ff	0.42799374
31	0xbf19abf9	-0.60028034

running_mean f4 [32]
0	0x3f516367	0.817923
1	0xc02a65ca	-2.6624627
2	0xc016a4bd	-2.3538048
3	0xc096aa3e	-4.7082815
4	0xc010f3d9	-2.2648833
5	0xbe229c5b	-0.15879957
6	0x3f6c6df8	0.923553
7	0xbeae3590	-0.3402524
8	0xbfa3bbae	-1.279165
9	0x40901be5	4.503405
10	0x401f146e	2.485622
11	0xc0d29f3d	-6.5819383
12	0xc05aa03e	-3.4160304
13	0x3f852ac8	1.0403681
14	0x416e5e74	14.89806
15	0x3f60c575	0.87801296
16	0xc003da9e	-2.0602183
17	0x40dc1d3f	6.87857
18	0x3faf5f89	1.370103
19	0x40af455f	5.477218
20	0x3f9be47a	1.21791
21	0x406f59ca	3.7398553
22	0xbee33763	-0.44378194
23	0x4016ffeb	2.35937
24	0x403487d7	2.820791
25	0xbeb9810d	-0.3623127
26	0xc0c7eb6d	-6.2474885
27	0xc068f90e	-3.640201
28	0x3fb5faca	1.421716
29	0x3f3d7f8f	0.74022764
30	0x403526dc	2.8304968
31	0xbcd7777c	-0.026302092

running_var f4 [32]
0	0x3e91438a	0.2837184
1	0x4052a055	3.291036
2	0x419908ee	19.12936
3	0x402f1642	2.7357335
4	0x3fe7d11c	1.811069
5	0x3e1ef82c	0.15524358
6	0x3fc2df83	1.522446
7	0x40cf0b64	6.4701405
8	0x3e0b2647	0.1358882
9	0x3f597e5a	0.8495842
10	0x41bd9efb	23.702627
11	0x41b52214	22.64164
12	0x40b6e9c2	5.716035
13	0x412168a0	10.088043
14	0x41db27cb	27.39443
15	0x3f23fd15	0.6405805
16	0x3fa4d419	1.2877227
17	0x4125eb25	10.369908
18	0x3f135cde	0.5756358
19	0x419b586f	19.41818
20	0x3f243275	0.6413949
21	0x40e57289	7.1702313
22	0x3dd661c5	0.10467867
23	0x40acef1b	5.4041877
24	0x4120aaed	10.04173
25	0x41982a42	19.020634
26	0x41b0c365	22.095407
27	0x41705eb9	15.023126
28	0x3eb4e3ea	0.35330135
29	0x41686551	14.524735
30	0x41c47fb6	24.562359
31	0x3e845969	0.25849465

weight f4 [2, 32, 1, 1]
0	0x3f124fcd	0.57153016
1	0x3f1f4118	0.622087
2	0xbdc1f256	-0.0947005
3	0x3f91b423	1.1383098
4	0xbe97a2a0	-0.2961626
5	0x3e09ac69	0.13444676
6	0x3fb4fab6	1.4139011
7	0xbf825d9e	-1.018482
8	0x3f0438e0	0.51649284
9	0xbf9d9afa	-1.231292
10	0x3f5fd5fd	0.87435895
11	0x3f6ce16b	0.9253146
12	0x3dfc04fa	0.12305637
13	0xbf54daf0	-0.8314657
14	0x402d1738	2.7045422
15	0x3fe9f81e	1.8278844
16	0xbf23db69	-0.6400667
17	0x3e43969a	0.19100419
18	0x3e561875	0.20907767
19	0xbedab47c	-0.42715824
20	0x3e922234	0.2854172
21	0xbf8baa8e	-1.0911424
22	0xbf1bf212	-0.60916245
23	0x3ed0be0d	0.40769997
24	0xbea823a9	-0.32839707
25	0xbef889a1	-0.48542503
26	0x3d62b4e8	0.055348307
27	0xbf9bb85d	-1.2165638
28	0x3fb8c395	1.4434687
29	0x3e7875a9	0.24263634
30	0x3fac0afe	1.3440855
31	0xbf6e7515	-0.93147403
32	0xc02eb6ef	-2.7299154
33	0x403a7c48	2.9138355
34	0xbf20a738	-0.62755156
35	0xbfac1d7e	-1.34465
36	0x3d776f27	0.060408738
37	0x40438f47	3.05562
38	0x3edd24e8	0.4319222
39	0xbfe9bc30	-1.8260555
40	0xbfd546e3	-1.6662258
41	0xbfb7878a	-1.4338238
42	0xbf8084e5	-1.0040556
43	0xc068ee29	-3.6395361
44	0x3fdd6a60	1.7298088
45	0x4017cf7e	2.3720393
46	0x40be8b9c	5.954542
47	0xc05b648b	-3.4280117
48	0xbfbdf0a3	-1.4839061
49	0x40602e67	3.5028322
50	0xbfc8e1c1	-1.5693895
51	0x40445296	3.0675406
52	0xbeb690c5	-0.35657325
53	0xbe0d0430	-0.13771129
54	0x403dfa73	2.9684112
55	0x3f32416d	0.6963108
56	0x3f13ec49	0.5778242
57	0x40913212	4.537362
58	0xc113db10	-9.240982
59	0xc0285e2f	-2.6307485
60	0xc117f50b	-9.497325
61	0x3fc585a4	1.5431409
62	0xc04f42e4	-3.2384577
63	0x408c6404	4.387209

bias f4 [2]
0	0x3e1bf8da	0.15231648
1	0xbdd34b0c	-0.103170484

weight f4 [2]
0	0xbf312298	-0.6919341
1	0x3ec72c65	0.38901058

bias f4 [2]
0	0xc05a6d9a	-3.4129395
1	0xbffa9c40	-1.9578934

running_mean f4 [2]
0	0x4135d704	11.364994
1	0xc19ca79e	-19.581844

running_var f4 [2]
0	0x4267361f	57.802853
1	0x4579882a	3992.5103

weight f4 [26, 18]
0	0xbed96084	-0.42456448
1	0xbd18d37c	-0.037311062
2	0xbee4e2e8	-0.44704366
3	0x3ef7703b	0.48327813
4	0xbf77dd10	-0.9682169
5	0xbdb53c6d	-0.08849416
6	0x3f8c64ef	1.0968302
7	0xbe426d97	-0.18987118
8	0xbd453532	-0.048146434
9	0xc01ad877	-2.419462
10	0xbd2b6bb5	-0.041850764
11	0x3f897349	1.0738307
12	0x3f0f09f1	0.55874544
13	0x3fd4ad88	1.6615458
14	0x3e6cf9e5	0.23142202
15	0xbcb2e692	-0.02183846
16	0x3fcd3813	1.6032737
17	0x3eec48be	0.46149248
18	0xbf1209e8	-0.57046366
19	0x3efcb7fd	0.49359122
20	0x3f51eced	0.82002145
21	0xbede93da	-0.43472177
22	0x3f6e54e3	0.93098277
23	0x3ea269a4	0.31721222
24	0xbec17698	-0.37785792
25	0x3e2b9bc0	0.16758633
26	0xbc8087d2	-0.015689764
27	0xc02a3e3a	-2.660048
28	0xbf83e094	-1.0302911
29	0x3f8f0b07	1.117524
30	0x3f7a0677	0.97666115
31	0x3fc27e1d	1.5194737
32	0x3fd46c97	1.6595639
33	0x3f810fb8	1.0082922
34	0x3f0b1b33	0.5433838
35	0xbe45f4af	-0.1933162
36	0xbdeadf1d	-0.11468337
37	0xbe5a598e	-0.21323225
38	0xbe80db7e	-0.2516746
39	0xbee5c0e7	-0.44873735
40	0xbea8700e	-0.3289799
41	0xbec0e912	-0.3767782
42	0xbeb5be23	-0.35496625
43	0xbe40060b	-0.18752305
44	0xbdd3fddc	-0.10351154
45	0x3f9c79ca	1.2224667
46	0xbf3959ee	-0.72402847
47	0xbf17ecef	-0.59345907
48	0xbd08f66f	-0.033438142
49	0xbf7b0b04	-0.98063684
50	0x3f7f697b	0.99770325
51	0x3e90e884	0.28302395
52	0x3ebb9e33	0.36644134
53	0x3fb974a6	1.4488723
54	0x3e6a36be	0.22872445
55	0x3e928d6f	0.2862353
56	0xbf05aadd	-0.5221384
57	0x3f4da28d	0.8032616
58	0xbf25ac84	-0.6471636
59	0x3f466fcd	0.77514344
60	0x3f649e2e	0.89303863
61	0xbe44f47d	-0.1923389
62	0x3e0aec2b	0.13566653
63	0x3f099fb9	0.5375934
64	0x3f07dba0	0.53069496
65	0xc00ab937	-2.1675546
66	0xbeed2f4f	-0.46325156
67	0xbf35d26d	-0.7102421
68	0x3ea1b0c7	0.31580183
69	0x3f6bdf4c	0.921376
70	0x3e6e552a	0.23274675
71	0x3f5ca794	0.86193204
72	0x3f8d996e	1.1062448
73	0xbede01f2	-0.4336086
74	0xbe9420ca	-0.28931266
75	0xbd376d7d	-0.04478215
76	0xbe67f868	-0.22653353
77	0xbd41c153	-0.04730351
78	0xbf22c595	-0.63582736
79	0xbecef36d	-0.40420094
80	0xbe899c5b	-0.26877102
81	0x3f32c51c	0.69832015
82	0x3e41fd09	0.18944182
83	0x3bfd84c4	0.007736774
84	0xbf7d132e	-0.9885739
85	0xbf2e8be5	-0.6818221
86	0x3f51d3d0	0.81963825
87	0x3f853749	1.0407497
88	0xbf2ead60	-0.682333
89	0x3eb24e1b	0.34825215
90	0x3d08014f	0.033204373
91	0xbed05f29	-0.406976
92	0x3f0cf907	0.55067486
93	0x3c01cf19	0.007922911
94	0xbf2052ee	-0.6262654
95	0x3f8f0d94	1.1176019
96	0xbde24243	-0.11047795
97	0x3e5b57ea	0.21420255
98	0x3e8c5e7f	0.27415845
99	0xc02b7010	-2.6787148
100	0xbf3fb22c	-0.74881244
101	0x3ddf5d89	0.10906512
102	0xbfb2764e	-1.3942354
103	0x3fb11ca3	1.3836864
104	0x3f8dc6f9	1.1076347
105	0x3dc5c5dc	0.09656879
106	0x3f19596e	0.59902084
107	0x3f2a47e5	0.6651595
108	0xbeee5156	-0.4654643
109	0xbee706b4	-0.45122302
110	0x3e5c3cdd	0.21507592
111	0xbe81d4ca	-0.25357658
112	0xbf56f1a7	-0.8396248
113	0xbea3e23b	-0.32008538
114	0xbd894890	-0.06703293
115	0xbcebb954	-0.028774895
116	0xbde6cf7f	-0.112700455
117	0xbf9433ef	-1.1578349
118	0xbfbf8614	-1.4962792
119	0x3f47b97b	0.78017396
120	0xc02c8891	-2.6958354
121	0xbe35dcf1	-0.17760064
122	0x3f2de1ec	0.67922854
123	0x3e82349e	0.2543077
124	0x3ea10d7f	0.3145561
125	0x3fbd36a8	1.4782305
126	0x3f2d9c03	0.6781618
127	0xbec50e95	-0.38487688
128	0xbf066bf3	-0.5250847
129	0xbe822283	-0.25416955
130	0x3fba2fbf	1.4545821
131	0xbdeb6fd2	-0.114959374
132	0xbdfc0870	-0.12306297
133	0xbe986174	-0.2976185
134	0xbe5d20a7	-0.21594487
135	0xc0450b01	-3.0787966
136	0xbf4ef0c1	-0.8083611
137	0xbea5e978	-0.32404685
138	0x3f828519	1.0196868
139	0xc00051b6	-2.0049872
140	0xc036e903	-2.857972
141	0x400e2620	2.221077
142	0x3e94d96e	0.29072136
143	0x4003feef	2.062435
144	0xbdac2530	-0.084055305
145	0xbf096995	-0.5367673
146	0xbf0c9bd9	-0.54925305
147	0xbe439986	-0.19101533
148	0x3ffa0f0c	1.9535842
149	0xbe2f2cb2	-0.17106894
150	0xbed549b1	-0.41657785
151	0xbea35471	-0.3190036
152	0x3eff2668	0.4983399
153	0x3fcfa86b	1.6223272
154	0xc01d962c	-2.4622908
155	0xbf6a9170	-0.9162817
156	0x3f4dea7e	0.8043593
157	0x3f4717c1	0.7777062
158	0xbfebee11	-1.8432027
159	0x3e99a6a9	0.30009964
160	0x3c8bcd7b	0.017065754
161	0xbf573fc9	-0.84081703
162	0x3e6e4f5a	0.23272458
163	0xbf225e69	-0.6342531
164	0x3f352f71	0.70775515
165	0x3f402a15	0.7506421
166	0x3e152864	0.14566189
167	0x3e32b551	0.17451979
168	0x3e2ced22	0.16887334
169	0x3e8a8941	0.2705784
170	0xbeb42bc4	-0.3518964
171	0x3e994b56	0.2994029
172	0x3f82febd	1.023399
173	0xc0c3e12a	-6.121236
174	0x3ecbdd66	0.3981735
175	0x3e5efd79	0.2177638
176	0x3e7c79b4	0.24655801
177	0x3fb666e9	1.4250156
178	0x3f74f369	0.95683914
179	0x3e88278b	0.2659267
180	0xbea2bbb5	-0.31783834
181	0xbed9957e	-0.42496866
182	0x3f8994b8	1.074851
183	0xbddb62d6	-0.10712211
184	0xbf6dd448	-0.9290204
185	0xbed19724	-0.40935624
186	0xbe5f3f57	-0.21801506
187	0x3e56ede8	0.20989192
188	0x3eba06c6	0.36333293
189	0x3e63741d	0.22212262
190	0xbcada234	-0.021195509
191	0x3f924b02	1.142914
192	0xbffd4c9b	-1.9789003
193	0xbf40e133	-0.75343627
194	0x3f9bf3d3	1.2183784
195	0xbf29e421	-0.6636372
196	0x3faf2ded	1.368589
197	0x3f98f5ac	1.1949973
198	0xbe066f78	-0.1312846
199	0xbee9b503	-0.45645913
200	0xbf86c757	-1.0529584
201	0xbd7c582c	-0.061607525
202	0xbf099c24	-0.53753877
203	0x3b79629f	0.0038053168
204	0xbe9dad45	-0.30796257
205	0x3bda989f	0.006671026
206	0xbe413656	-0.18868384
207	0x3ecc36bb	0.39885506
208	0x3e170936	0.14749607
209	0xbdf9491b	-0.12172147
210	0xbf6032ef	-0.8757772
211	0xc01404b3	-2.3127868
212	0x3fb3d818	1.4050322
213	0xc0011015	-2.0166066
214	0x3f3a3bfe	0.7274779
215	0x400ce0e6	2.2012267
216	0x3dc659d5	0.09685103
217	0xbd6c3919	-0.05767164
218	0x3e244cf6	0.16044983
219	0x3e9a38ee	0.3012156
220	0x3f8bfd89	1.0936748
221	0xbf20c6da	-0.62803423
222	0xbeb0548b	-0.344395
223	0x3e967e7c	0.29393375
224	0xbd2aea9b	-0.041727643
225	0x40150ae8	2.3287907
226	0xbdb6e5eb	-0.08930572
227	0xbdf9881d	-0.12184165
228	0xc0920600	-4.5632324
229	0xbf5149f0	-0.81753445
230	0xbecfe846	-0.40606898
231	0x3e8c335c	0.27382934
232	0xbf0060a2	-0.5014745
233	0xbf922536	-1.1417606
234	0x3e5c4e56	0.21514258
235	0xbe9a841a	-0.3017891
236	0x3e7de9df	0.24796246
237	0xbdd7edd2	-0.105434075
238	0x3ee28e22	0.44249064
239	0xbea5db31	-0.32393792
240	0x3f77facf	0.9686708
241	0x3de427ca	0.11140402
242	0xbe331e1c	-0.17491955
243	0x3fc17e4b	1.5116667
244	0x3fe9ee16	1.8275783
245	0xbf364a54	-0.71207166
246	0x3f4b317d	0.7937239
247	0xc08dbab4	-4.429041
248	0xbff6c775	-1.927962
249	0x3ff16c27	1.886113
250	0xbebd0309	-0.36916378
251	0xbfb2d225	-1.3970381
252	0x3d599105	0.053116817
253	0x3f3e10cf	0.742444
254	0x3c21b034	0.00986867
255	0xbe76734a	-0.24067417

bias f4 [26]
0	0x3d787ebc	0.06066774
1	0xbdf6b89c	-0.1204693
2	0xbdc53e03	-0.096309684
3	0xbec7fec1	-0.3906155
4	0x3e1438b2	0.14474753
5	0xbd210bce	-0.0393179
6	0xbdc62094	-0.096741825
7	0xbe8953ec	-0.2682184
8	0xbe952885	-0.29132476
9	0xbdc9b6f1	-0.098493464
10	0x3eb4868d	0.35258904
11	0xbdc0a163	-0.09405782
12	0xbc3e0877	-0.011598698
13	0xbec61315	-0.38686433
14	0xbe512fcd	-0.20428391
15	0xbe269ece	-0.16271517
16	0xbe8a2343	-0.26980028
17	0xbee17d3b	-0.44040856
18	0xbeb813a8	-0.35952497
19	0xbe465efd	-0.19372173
20	0x3ed7269a	0.42021638
21	0xbe484939	-0.19559182
22	0xbe1138b9	-0.14181794
23	0xbda04352	-0.0782534
24	0x3eac41e8	0.33644032
25	0x400ada4d	2.169574

weight f4 [1, 32, 1, 1]
0	0x3f03c7f4	0.5147698
1	0xbf393ac0	-0.7235527
2	0x3d882bc7	0.06648975
3	0x3f08d843	0.5345499
4	0xbe20e792	-0.15713337
5	0x3e2105a0	0.15724802
6	0xbe54f138	-0.20795143
7	0xbe83eca7	-0.2576649
8	0xbd05f14e	-0.03270083
9	0x3f52acbc	0.8229482
10	0xbcb23c90	-0.021757394
11	0x3f98a6e8	1.1925936
12	0x3f19f7e9	0.60143906
13	0x3f0e0e49	0.5549055
14	0xbec019b8	-0.37519622
15	0x3f1c516c	0.6106174
16	0x3f6e458f	0.9307489
17	0xbbf278d8	-0.0073996596
18	0x3ee3242a	0.44363528
19	0xbfe30423	-1.7735637
20	0xbf4c397c	-0.79775214
21	0x3eae5c91	0.34054998
22	0x3e8ca914	0.27472746
23	0x3fa3c5d7	1.2794751
24	0xbf6d6bf4	-0.9274285
25	0xbdb584ac	-0.08863196
26	0x3e312bfb	0.17301933
27	0xbfeb82fd	-1.839935
28	0x3dea58aa	0.114426926
29	0x3f0b7e97	0.54490036
30	0x3e001518	0.12508047
31	0x3f60f256	0.87869775

weight f4 [32, 9]
0	0xbdc4d267	-0.096104436
1	0xbfa69038	-1.3012762
2	0xbe602875	-0.21890433
3	0xbe0d27cd	-0.13784714
4	0xbe9fcee5	-0.31212536
5	0xbe239c2a	-0.1597754
6	0xbea13c2e	-0.31491226
7	0xbd7bbde0	-0.061460376
8	0xbc0fd5d5	-0.008779009
9	0xbf1d523c	-0.61453605
10	0x3f106b52	0.5641376
11	0xbf0717c8	-0.5277066
12	0x3ec984a9	0.39359024
13	0xbdcaf4e7	-0.09909993
14	0x3e010eb2	0.12603262
15	0xbd401183	-0.0468917
16	0xbe8e4a9f	-0.27791306
17	0x3eb2957c	0.34879673
18	0x3cd4e4e2	0.025988046
19	0xbe9740ce	-0.2954163
20	0xbe1b07b8	-0.15139663
21	0xbe364892	-0.17801121
22	0x3c8f5835	0.017498115
23	0xbe0f2964	-0.13980633
24	0xbdf02bb0	-0.11727083
25	0x3db8ac71	0.090172656
26	0x3e466274	0.19373494
27	0x3eff39a5	0.49848667
28	0xbda55e21	-0.08074594
29	0xbf65593f	-0.89589304
30	0x3e1b7070	0.1517961
31	0x3f174e23	0.591036
32	0xbe885c30	-0.26632833
33	0xbe26f35a	-0.16303769
34	0xbebf0ec8	-0.37315965
35	0xbe72e7bd	-0.23721214
36	0x3ea16d97	0.31528923
37	0x3ed6726f	0.4188418
38	0x3dd577d7	0.10423248
39	0x3e669462	0.22517541
40	0x3ea57e5f	0.32322976
41	0x3e3b930b	0.18317811
42	0x3e9401de	0.28907675
43	0x3e7ae31d	0.245007
44	0x3e44337f	0.19160269
45	0xbf14ac3e	-0.5807532
46	0xbebf0edb	-0.3731602
47	0x3d9bc895	0.07606617
48	0x3f053191	0.5202876
49	0x3efa2b0e	0.48860973
50	0xbf421176	-0.75807893
51	0x3ecad0cb	0.3961242
52	0x3ee7a96b	0.45246443
53	0xbe80b476	-0.2513768
54	0x3e0a71c7	0.13519965
55	0x3e7f745d	0.24946733
56	0x3be59f93	0.007007548
57	0x3e0f5e11	0.14000727
58	0x3eca8ab7	0.39558956
59	0x3e2383f1	0.159683
60	0x3e16f869	0.14743198
61	0x3dcd8d70	0.10036743
62	0x3e39f273	0.18158893
63	0xbeaeadfc	-0.34117115
64	0xbe483f94	-0.19555503
65	0x3e86670d	0.26250497
66	0x3df0d736	0.11759798
67	0x3de78bdb	0.11305972
68	0x3ac3f20c	0.0014949455
69	0xbe93a9d9	-0.2884052
70	0xbe7858ec	-0.24252671
71	0xbe217492	-0.15767124
72	0xbd955f23	-0.072935365
73	0x3df361fb	0.11883923
74	0x3eaa8f7d	0.33312598
75	0xbec711a4	-0.38880646
76	0xbea9b302	-0.33144385
77	0x3ea42bf4	0.32064784
78	0x3ef112a0	0.47084522
79	0xbee3c588	-0.44486642
80	0xbeb4eeba	-0.35338384
81	0xbecb6937	-0.3972871
82	0xbf2e916e	-0.6819066
83	0x3e29f527	0.16597424
84	0x3f138c23	0.57635707
85	0x3e515aea	0.20444837
86	0xbf360fcb	-0.7111785
87	0xbf100ac1	-0.5626641
88	0xbde6f3bf	-0.1127696
89	0x3f21aca1	0.63154036
90	0xbe8fdad5	-0.28096643
91	0xbeac8da4	-0.33701813
92	0xbe4634e9	-0.19356121
93	0xbd8a9b4e	-0.06767903
94	0xbeaa29ab	-0.33234915
95	0x3ddbd8ad	0.10734687
96	0x3d4fc0d4	0.050721005
97	0x3c8dd509	0.017313497
98	0x3da7a39a	0.081855014
99	0x3dba595d	0.09099076
100	0x3c03676b	0.008020262
101	0x3cd3d828	0.025859907
102	0x3f04deda	0.51902544
103	0xbea30df2	-0.31846577
104	0xbdab33aa	-0.083594635
105	0x3d907687	0.07053857
106	0x3d965a89	0.07341487
107	0xbf68c521	-0.90925795
108	0xbe2a5844	-0.16635233
109	0xbe1b4f8f	-0.15167068
110	0xbdf99172	-0.121859446
111	0x3cde78d8	0.027157232
112	0xbdaec7ae	-0.0853418
113	0x3dc54a58	0.096333206
114	0xbdc03a89	-0.09386165
115	0xbe292cd4	-0.16521007
116	0x3b3f5bd3	0.0029199019
117	0x3ead29bf	0.33820912
118	0xbe5d8325	-0.21632059
119	0x3eed4ac3	0.463461
120	0xbde1d6d9	-0.11027307
121	0x3db62236	0.08893244
122	0xbf02d1fe	-0.5110167
123	0x3e97c6ee	0.2964396
124	0x3d1c6e93	0.03819139
125	0xbe23ca47	-0.15995131
126	0xbf1f76f2	-0.6229087
127	0xbe58c621	-0.2116933
128	0xbe3f8078	-0.1870135
129	0x3d56d598	0.052449793
130	0xbf0fed10	-0.56221104
131	0xbe2fe438	-0.17176902
132	0x3e75482d	0.23953314
133	0x3eb8a580	0.36063766
134	0x3ecca800	0.39971924
135	0x3c73ea7f	0.014887451
136	0xbdf8d4a4	-0.12149933
137	0xbe929f67	-0.2863724
138	0xbe28b514	-0.16475326
139	0xbe560fce	-0.20904467
140	0x3e549905	0.20761497
141	0xbe85c2f3	-0.26125297
142	0xbc4af79c	-0.012388136
143	0x3ddb98d9	0.10722513
144	0xbdf4504c	-0.11929378
145	0xbe241c1d	-0.1602635
146	0xbe0da51a	-0.13832512
147	0xbed5c6e2	-0.41753298
148	0xbce80e58	-0.028327152
149	0xbf03d5fa	-0.5149838
150	0x3eb1e17a	0.34742337
151	0xbe8be442	-0.27322584
152	0x3e84d7a7	0.2594578
153	0x3eb8b408	0.36074853
154	0x3eaad962	0.33368975
155	0xbfb81c59	-1.4383651
156	0xbdfa5223	-0.122226976
157	0xbd72039d	-0.059085477
158	0xbf0ec7f7	-0.5577387
159	0xbf7800b3	-0.96876067
160	0xbef27e0d	-0.47361794
161	0xbf85ad8a	-1.0443585
162	0x3e27c590	0.16383958
163	0xbe2386b9	-0.15969361
164	0x3eeb309f	0.45935532
165	0xbf02dcdc	-0.51118255
166	0xbf518b2e	-0.81852996
167	0x3e95543c	0.29165828
168	0xbe9d4a30	-0.30720663
169	0xbd46985e	-0.048485152
170	0x3e1dcb09	0.15409483
171	0xbf9a143c	-1.2037425
172	0xbf754e00	-0.95822144
173	0xbead1897	-0.33807823
174	0xbe6b1085	-0.2295552
175	0x3eb0f398	0.34560847
176	0x3eaa57a4	0.3326999
177	0xbece3f70	-0.40282774
178	0xbe837ff2	-0.25683552
179	0x3eedf595	0.46476427
180	0x3e7a8d17	0.24467884
181	0xbe74cfe9	-0.23907436
182	0xbe999f60	-0.30004406
183	0xbe169d4f	-0.14708446
184	0x3e2d5b77	0.16929422
185	0xbe99c488	-0.30032754
186	0xbe6edb89	-0.23325934
187	0xbda26388	-0.0792914
188	0xbe89a446	-0.26883143
189	0xbe3eebf2	-0.18644693
190	0xbcec8de9	-0.028876262
191	0xbf14e31b	-0.58159035
192	0xbde32ab7	-0.110921316
193	0x3e6c7d79	0.23094739
194	0xbdc2db49	-0.095144816
195	0x3eeaf1a3	0.4588748
196	0xbe700f3b	-0.2344331
197	0xbd84627f	-0.06464099
198	0xbca2597b	-0.019818058
199	0xbd7ecd50	-0.06220752
200	0xbcfa3a59	-0.0305454
201	0x3e974dd6	0.29551572
202	0x3eb71ac5	0.3576261
203	0x3e8df9cd	0.27729645
204	0xbf43916c	-0.7639377
205	0xbe900430	-0.28128195
206	0xbe4d3f52	-0.20043686
207	0x3d9b187e	0.07573031
208	0xbe7f2fd0	-0.24920583
209	0x3ebfc155	0.37452188
210	0xbe7f0e02	-0.24907687
211	0xbea27c29	-0.31735352
212	0xbec0f51a	-0.37686998
213	0xbf158a7b	-0.5841443
214	0xbe1efc8f	-0.15526031
215	0xbef9bc29	-0.48776367
216	0xbe8f833a	-0.28029805
217	0xbdd82512	-0.105539456
218	0xbe4d575d	-0.20052858
219	0x3de64a17	0.112446
220	0xbe9e338c	-0.30898702
221	0xbeac2d76	-0.33628434
222	0xbe01a42b	-0.12660281
223	0xbc24c632	-0.010057019
224	0x3bfd045e	0.007721468
225	0xbdec21fa	-0.11529918
226	0x3e92806e	0.2861361
227	0xbcb45788	-0.022014394
228	0xbdab3683	-0.08360007
229	0xbe6db398	-0.23213041
230	0xbe0307db	-0.12795965
231	0xbd4d2b84	-0.050090328
232	0xbdcfcffc	-0.10147092
233	0xbe593c27	-0.21214353
234	0xbdb41909	-0.087938376
235	0x3eabde71	0.33568147
236	0x3e78d22f	0.24298929
237	0xbe08335f	-0.13300847
238	0xbe9f03d4	-0.31057608
239	0xbe9cdb32	-0.30635983
240	0xbea6a1d3	-0.32545337
241	0xbe71d700	-0.23617172
242	0xbe74c314	-0.23902541
243	0x3e9f01ed	0.31056157
244	0x3e9be7cd	0.30450287
245	0x3f12da15	0.57364017
246	0xbf76480e	-0.96203697
247	0xbf079d58	-0.5297446
248	0x3e6c4c5b	0.23076002
249	0xbf020a47	-0.5079693
250	0x3ce70984	0.02820278
251	0xbf223e76	-0.6337656
252	0x3ed836f3	0.42229423
253	0x3f5d0960	0.8634243
254	0xbf12ca8a	-0.573403
255	0xbe912b3d	-0.283533

bias f4 [32]
0	0x3fbc4ae7	1.4710358
1	0xbdf6a8fb	-0.12043949
2	0xbe988f7e	-0.29796976
3	0xbea474de	-0.32120413
4	0xc041220d	-3.0177033
5	0x3c423ac1	0.011854828
6	0xbfe9e7ed	-1.8273903
7	0xbc9fce71	-0.019507619
8	0x3de353cc	0.11099967
9	0xbe70b64e	-0.23507044
10	0x3dbca903	0.09211924
11	0xbe83d50a	-0.25748473
12	0xbdafca28	-0.0858348
13	0xbf12b28d	-0.57303697
14	0xbe07a3a5	-0.13246019
15	0xbd7c85f1	-0.061651174
16	0x3e910a82	0.2832833
17	0x3f224469	0.63385636
18	0x3e6d5718	0.23177755
19	0x3ebdf26b	0.37099013
20	0xbd608daf	-0.05482262
21	0xbd1df75b	-0.038565975
22	0x3e139ed9	0.14416064
23	0x3eed4573	0.46342048
24	0xbd5b3f94	-0.05352743
25	0x3d5d8284	0.054079548
26	0x3e2ccf4c	0.16875952
27	0xbebb78d3	-0.3661562
28	0x3e02fd5b	0.1279196
29	0xbe207e24	-0.15673119
30	0xbee35a22	-0.44404703
31	0x3f9bf0a3	1.2182811

weight f4 [1, 32]
0	0x3f7796e8	0.9671464
1	0x3e99ea59	0.30061606
2	0x3c5b9a7c	0.013403531
3	0xbf2790d0	-0.6545534
4	0x3e938c31	0.28817895
5	0x3ebd7b22	0.37008005
6	0x3e45eedc	0.19329399
7	0x3e73ef93	0.23821859
8	0xbdce1aaf	-0.10063683
9	0xbf23c0ec	-0.6396625
10	0x3e85deb8	0.26146483
11	0xbebf92b3	-0.3741661
12	0xbdd61b32	-0.10454406
13	0x3e0dd858	0.1385206
14	0xbecbe46e	-0.39822716
15	0x3e747861	0.23874046
16	0xbee0cee4	-0.43907845
17	0x3fe36053	1.7763771
18	0xbe7dc07f	-0.24780463
19	0x3f2c9ac9	0.67423683
20	0x3e55bad9	0.20872058
21	0xbec54af4	-0.38533747
22	0x3e4eaa3a	0.20182124
23	0x3f5c2162	0.8598844
24	0x3e920101	0.2851639
25	0x3e75f0c1	0.24017622
26	0x3edad380	0.42739487
27	0xbf2aa6eb	-0.66660947
28	0xbf041e68	-0.51608896
29	0x3e9368be	0.2879085
30	0x3ed8f378	0.42373252
31	0x3f5f25d2	0.87167084

weight f4 [32, 32, 3, 3]
0	0xbcc40026	-0.023925852
1	0xbc0cc504	-0.008591894
2	0xbd5721ad	-0.05252235
3	0x3d6e07d9	0.058112953
4	0x3d38598b	0.04500727
5	0xbd0e47b2	-0.034736343
6	0xbd11dbda	-0.035610057
7	0xbd1fa26c	-0.038973257
8	0xbc3b77f4	-0.011442173
9	0x3d0ac005	0.03387453
10	0x3c3f3cb4	0.011672188
11	0x3d4bee75	0.049787957
12	0x3d3abf73	0.045592736
13	0xbc486864	-0.01223192
14	0xbd40043e	-0.046879046
15	0xbc2964e4	-0.010338996
16	0xbd10fdac	-0.03539817
17	0x3c7028d4	0.014658172
18	0x3d123a0d	0.035699893
19	0xbb8947d8	-0.0041894726
20	0xbced7d25	-0.028990338
21	0xbd245db9	-0.040128443
22	0x3d196b6f	0.037455972
23	0xbcb8b018	-0.022544906
24	0xbd6eaba0	-0.058269143
25	0x3c12cdcc	0.008960199
26	0xbd47ca74	-0.04877706
27	0x3d31fc81	0.043453697
28	0xbcf72c16	-0.030172389
29	0x3c046bec	0.008082371
30	0xbc12fa18	-0.00897076
31	0x3c526f14	0.012843866
32	0x3c766244	0.015038077
33	0x3d09a761	0.03360689
34	0x3cc31ae2	0.02381653
35	0x3cef20ae	0.029190388
36	0x3d07573b	0.033042174
37	0xbd7039e5	-0.058648963
38	0x3c9d14ea	0.019175012
39	0xbb54deb0	-0.0032481365
40	0xbc4e1bc0	-0.012579858
41	0x3b45e030	0.003019344
42	0x39c3e000	0.0003736019
43	0x3cc0da0e	0.023541477
44	0x3d649753	0.055808377
45	0xbd479df6	-0.048734628
46	0xbd235c58	-0.039882988
47	0x3ca6f53e	0.020380612
48	0x3ccefbc2	0.025266532
49	0x3d7114ff	0.058857914
50	0xbd0f66b6	-0.035010062
51	0xbd17faf8	-0.037104577
52	0x3b68afc0	0.0035505146
53	0xbc569620	-0.013097316
54	0xbc0efb68	-0.008726932
55	0xbadf2ce0	-0.0017026924
56	0xbc608124	-0.0137026645
57	0xbd4ddbd2	-0.050258465
58	0xbd29ce4c	-0.041456506
59	0xbc8c2e60	-0.017111957
60	0x3d55ed5b	0.052228313
61	0x3cd7d212	0.026345287
62	0xbb78fca0	-0.0037992373
63	0x3d13defd	0.03610133
64	0x3d2bab0b	0.041911166
65	0xbd1ddb66	-0.038539313
66	0xbd321376	-0.04347559
67	0xbd36592c	-0.044518635
68	0xbcf1d15f	-0.029518781
69	0xbcd7d73e	-0.026347753
70	0xbce87d22	-0.02837998
71	0x3d51bc79	0.051205132
72	0xbba9a780	-0.0051774383
73	0x3d676cf1	0.05650038
74	0xbcac911e	-0.021065291
75	0xbd2edb62	-0.04268969
76	0xbd53e550	-0.05173236
77	0x3cee9a96	0.029126447
78	0x3d26891b	0.040658098
79	0xbd1b616c	-0.037934706
80	0xbc089978	-0.008337371
81	0xba9a60a0	-0.0011778064
82	0xbcd47c26	-0.025938105
83	0xbd060ac4	-0.03272511
84	0xbd1c048a	-0.038090266
85	0xbcfbe7f6	-0.030750256
86	0xbc9c80dc	-0.019104414
87	0x3d5db0bd	0.05412363
88	0xbd058bd2	-0.032604046
89	0xbc95c198	-0.01828079
90	0xbc71ed48	-0.014766045
91	0xbd2ad2fe	-0.041705124
92	0xbd28d504	-0.041218773
93	0xbd3fa0d0	-0.046784222
94	0xbd057816	-0.032585226
95	0x3d1b4a29	0.03791252
96	0xbd346d06	-0.044049285
97	0x3d017929	0.031609688
98	0x3d0aac1f	0.033855554
99	0x3c23526c	0.009968381
100	0xbd56e380	-0.052463055
101	0xbd0bc605	-0.034124393
102	0x3c8f2516	0.017473739
103	0xbcca0606	-0.024661075
104	0x3d59a5cf	0.053136643
105	0x3cf9302e	0.030418482
106	0xbb514f40	-0.0031938106
107	0xbd0c5216	-0.03425797
108	0x3d6d9a95	0.05800875
109	0x3ca388de	0.019962724
110	0x3aab2b60	0.0013059191
111	0x3d1bc6ff	0.038031574
112	0x3c72b5a4	0.014813814
113	0xbc8010f6	-0.015633088
114	0xbd541bda	-0.051784374
115	0xbd5d4359	-0.054019306
116	0xbc171e60	-0.009223551
117	0xbd6239c7	-0.055230882
118	0x3d2c2a2d	0.04203241
119	0x3d210659	0.039312694
120	0xbd08836a	-0.03332845
121	0x3c712144	0.014717404
122	0x3d5aeccf	0.053448495
123	0x3d3627a3	0.044471394
124	0x3c8fc6aa	0.017550785
125	0x3cf209b2	0.029545639
126	0x3d217f11	0.03942782
127	0x3d2793c9	0.040912423
128	0x3c613d74	0.013747562
129	0xbcea11c7	-0.02857293
130	0x3cd6504a	0.026161332
131	0x3d08c57b	0.033391457
132	0x3be98888	0.0071268715
133	0x3d03ac3b	0.032146674
134	0xbc86d0c4	-0.01645697
135	0xbd53a7b3	-0.051673602
136	0xbd6af56c	-0.05736296
137	0x3c02a954	0.007974941
138	0xbd29319e	-0.041307084
139	0x3d368003	0.044555675
140	0xbd539de2	-0.05166424
141	0xbb79c4a0	-0.0038111582
142	0x3bac78a8	0.005263407
143	0xbcb5aad4	-0.022176184
144	0x3c91aaaa	0.017781574
145	0xbd308849	-0.04309872
146	0x3d6ac4bb	0.057316523
147	0xbc52f548	-0.012875862
148	0xbc9673d4	-0.018365778
149	0xbcdfed1e	-0.027334746
150	0xbd03044c	-0.03198652
151	0xbc9229ac	-0.017842136
152	0xbcbb592a	-0.022869665
153	0x3d1cdead	0.038298298
154	0xbd651bac	-0.055934593
155	0xbce1e786	-0.02757622
156	0xbcbf4862	-0.023349945
157	0xbc507c6c	-0.012724977
158	0xbd660e6c	-0.056166098
159	0x3d0a11e1	0.033708457
160	0xbd662098	-0.056183428
161	0xbc942988	-0.01808621
162	0xbc8c09fa	-0.017094601
163	0xbd0b261a	-0.033971883
164	0xbd0e2e5c	-0.03471218
165	0x3d2d4cd1	0.042309586
166	0xbd3cdf1a	-0.046111204
167	0xbcef0cf1	-0.029180976
168	0x3cdabfb2	0.026702736
169	0x3d64f0a7	0.055893566
170	0x3d0d8829	0.03455368
171	0x3cb10dda	0.02161305
172	0x3cee58de	0.02909511
173	0x3c8ccaa2	0.017186467
174	0x3d5e8ae5	0.05433168
175	0x3b51f390	0.0032036044
176	0xbcde3a16	-0.027127307
177	0xbd02004a	-0.031738557
178	0xbcf3801e	-0.029724177
179	0xbd265a20	-0.040613294
180	0x3d5c7bc3	0.053828966
181	0xbce238aa	-0.02761491
182	0x3cc3c74e	0.023898747
183	0xbc951c96	-0.018202107
184	0x3cbb3432	0.022852037
185	0x3ccb3e32	0.02480993
186	0x3d2ca095	0.04214533
187	0x3d2a0991	0.04151303
188	0x3c063adc	0.008192744
189	0x3d38dca7	0.045132305
190	0xbcb58668	-0.022158816
191	0xba39ff40	-0.0007095225
192	0xbc99cef6	-0.018775444
193	0xba952a20	-0.0011380352
194	0x3c077d14	0.008269567
195	0xbd2d3dca	-0.042295255
196	0xbcd11d28	-0.025526598
197	0xbceedeab	-0.02915891
198	0x3bc5b458	0.0060334615
199	0x3d712cc3	0.05888058
200	0x3d163edb	0.036681037
201	0xbcff1c48	-0.031141415
202	0x3c0f411c	0.008743551
203	0x3d5e0a25	0.054208893
204	0x3d401169	0.046891604
205	0x3d693ebb	0.05694459
206	0xbd4c7fed	-0.049926687
207	0xbd497b94	-0.04919012
208	0xbd68b31c	-0.056811437
209	0x3891b200	6.947294e-05
210	0x3d57016f	0.0524916
211	0x3cf55b0e	0.029950645
212	0xbd4c0af0	-0.04981512
213	0x3c36587c	0.011129495
214	0x3d41c1c5	0.047303934
215	0x3b799970	0.003808584
216	0xbd178226	-0.036989354
217	0x3bfb0958	0.007661026
218	0x3b603380	0.0034210384
219	0x3d679c83	0.056545746
220	0x3d3905eb	0.04517166
221	0xbceaeae7	-0.028676463
222	0xbd2f5a1a	-0.042810537
223	0xbd007227	-0.031358864
224	0x3d62b0a7	0.05534425
225	0xbb80df70	-0.003932886
226	0x3c2ba68c	0.01047672
227	0xbd15238a	-0.036410846
228	0x3c84bc52	0.01620308
229	0xbc202a18	-0.009775661
230	0x3d6c7be9	0.057735357
231	0xbc45fce8	-0.012084223
232	0xbcdd9758	-0.027049705
233	0x3aec39e0	0.0018022619
234	0xbcb429a4	-0.021992512
235	0xbd4ef254	-0.05052407
236	0xbd0c204b	-0.034210484
237	0x3c6e5e0c	0.01454879
238	0xbc53fa70	-0.012938127
239	0x3d0dbb59	0.034602497
240	0xbd6a6078	-0.057220906
241	0xbc956ea0	-0.018241227
242	0x3b900d88	0.0043961443
243	0xbc48e248	-0.012260981
244	0x3bed3da8	0.007240016
245	0x3ce21f56	0.027602833
246	0x3be90108	0.0071107186
247	0xbc677948	-0.014128037
248	0x3d09a147	0.03360107
249	0x3d1cd263	0.038286578
250	0xbc314668	-0.010820009
251	0xbb9059e0	-0.004405245
252	0xbd5ad6d9	-0.05342755
253	0xbcde6446	-0.027147423
254	0xbd686dec	-0.056745455
255	0x3b23c550	0.0024989434

bias f4 [32]
0	0xbd098bf8	-0.03358075
1	0x3cc88626	0.02447803
2	0xbcd3c6e8	-0.025851682
3	0xbc8e9ed0	-0.017409712
4	0x3d2909fb	0.041269284
5	0x3d2ccbc9	0.042186532
6	0xbc87f544	-0.016596444
7	0xbd481839	-0.048851226
8	0x3d386189	0.04501489
9	0x3d5b86c9	0.053595338
10	0xbd1ad884	-0.03780414
11	0xbb886c10	-0.0041632727
12	0x3d22f33f	0.03978276
13	0xbd54bfcf	-0.051940735
14	0x3d096e57	0.033552494
15	0x3cee8d26	0.02912004
16	0xbd2ce454	-0.04220994
17	0xbd20f24a	-0.039293565
18	0xbc3629c0	-0.011118352
19	0x3d0560c1	0.032562975
20	0xbd17680f	-0.036964472
21	0xbc99a7ec	-0.01875683
22	0x3c94fd5a	0.018187214
23	0x3d2d3c85	0.042294044
24	0x3c63129c	0.013859417
25	0xbd45c2b2	-0.04828138
26	0x3b027c10	0.0019910373
27	0x3d5e454d	0.05426531
28	0xbcd3d3b6	-0.025857788
29	0xbcf6f362	-0.03014535
30	0xbc2876f8	-0.010282271
31	0xbcdb0466	-0.026735496

weight f4 [32, 32, 3, 3]
0	0x3d5c170d	0.05373292
1	0xbb9f2d48	-0.004857693
2	0xbd39c372	-0.045352407
3	0xbb8bca70	-0.004266076
4	0x3d5d9403	0.054096233
5	0xbd3e8962	-0.046517737
6	0x3cf3eed6	0.029776972
7	0x3d3d8907	0.046273258
8	0x3d451f1d	0.048125375
9	0xbcbcb490	-0.023035318
10	0xbc3ef4ac	-0.011655014
11	0xbd043bc0	-0.032283545
12	0xbd526dca	-0.051374234
13	0xbd0b6228	-0.034029156
14	0x3d2f5257	0.042803135
15	0xbcbc2586	-0.022967111
16	0xbb1660c0	-0.002294585
17	0x3c3b7a9c	0.011442807
18	0x3d0b93cd	0.0340765
19	0x3bc448e8	0.0059901364
20	0xbbf10cc0	-0.0073562562
21	0xbd665236	-0.056230746
22	0xbc0183e8	-0.007904984
23	0x3ca6fcea	0.02038427
24	0xbc0fd8f0	-0.008779749
25	0xbd4a8209	-0.049440417
26	0x3d3c0599	0.045903776
27	0xbc85775e	-0.01629227
28	0x3d05b02d	0.032638717
29	0x3d4a0403	0.049320232
30	0x3d502b77	0.0508227
31	0x3c56c924	0.013109479
32	0xbd20387d	-0.03911637
33	0x3c17039c	0.009217169
34	0xbcd0edac	-0.025503956
35	0x3d30f9af	0.043206867
36	0x3d5e008b	0.054199737
37	0x3ce5710e	0.02800801
38	0xbd2926e5	-0.04129686
39	0x3d4c6d03	0.04990865
40	0xbc01a610	-0.007913128
41	0x3d67936b	0.056537073
42	0xbc8aebf8	-0.016958222
43	0xbd14049c	-0.03613721
44	0x3c181a14	0.009283561
45	0x3d21cc45	0.039501447
46	0xbd359106	-0.04432776
47	0xbcf8ae75	-0.030356625
48	0xbd02585a	-0.03182254
49	0xbbfb8948	-0.0076762773
50	0xbd57bd59	-0.05267081
51	0xbd5a3316	-0.053271376
52	0xbad346a0	-0.001611907
53	0x3a9ce6c0	0.0011970624
54	0x3ccd839a	0.025087167
55	0xbcc19fa0	-0.023635685
56	0xbcf34588	-0.029696241
57	0x3d3f9839	0.04677603
58	0xbb8c5d78	-0.0042836033
59	0xbbc9de00	-0.0061604977
60	0xbc810870	-0.015751094
61	0xbd4f4af0	-0.050608575
62	0xbb1f3420	-0.0024292544
63	0x3c657a9c	0.014006283
64	0x3c6f1d74	0.0145944245
65	0xbd39a4fc	-0.045323357
66	0x3d469369	0.048480425
67	0xbc337a28	-0.010954417
68	0x3d4a32fd	0.049365032
69	0x3d5fb429	0.054615173
70	0x3aeeecc0	0.0018228516
71	0xbd6aa91b	-0.057290178
72	0xbc9221de	-0.017838415
73	0x3d43b0e9	0.047776137
74	0x3c8cd336	0.017190557
75	0xbc5085a4	-0.012727175
76	0x3ccc9a82	0.024976019
77	0xbd193498	-0.037403673
78	0x39c72a00	0.0003798753
79	0x3d665923	0.05623735
80	0xbd29860c	-0.041387603
81	0xbc486ad0	-0.012232497
82	0xbceba7a8	-0.028766468
83	0xbce78198	-0.028260037
84	0x3d18e0af	0.03732365
85	0x3d13ae71	0.036055032
86	0x3d0d61f1	0.034517232
87	0x3d346db1	0.044049922
88	0x3cf1c5fa	0.029513348
89	0xbc28e404	-0.010308269
90	0x3c90d79a	0.017680932
91	0x3d53b411	0.051685397
92	0xbd177bb4	-0.036983207
93	0x3d3616b5	0.04445525
94	0xbd4ed25a	-0.050493576
95	0xbd1569eb	-0.036477964
96	0xbc07a5c0	-0.008279264
97	0x3d3e5f61	0.04647768
98	0xbb51c1d0	-0.003200639
99	0x3d5f231f	0.054476853
100	0x3a5214c0	0.0008013956
101	0x3c9d12e2	0.019174043
102	0x3d4cbeb1	0.049986545
103	0x3a60a300	0.0008569211
104	0xbd61bc09	-0.055110965
105	0xbc822a6c	-0.015889369
106	0x3d6c79b9	0.05773327
107	0xbd63f460	-0.055652976
108	0xbd3f6867	-0.046730425
109	0xbcbe75dc	-0.02324956
110	0x3ca9022e	0.020630922
111	0x3c8a913e	0.01691496
112	0xbd0c841f	-0.034305688
113	0x3c73e8ec	0.014887076
114	0xbd3e9848	-0.046531945
115	0x3d55caaf	0.052195247
116	0xbd5873ce	-0.052844815
117	0x3d35e15b	0.04440437
118	0x3d35f81f	0.04442608
119	0x3bad98d8	0.0052977614
120	0xbd04a737	-0.03238603
121	0x3b908f98	0.004411649
122	0xbc8ae03e	-0.01695263
123	0xbd59b5cc	-0.05315189
124	0xbd06232e	-0.032748394
125	0x3ca94f66	0.020667743
126	0x3d687213	0.056749415
127	0x3c195894	0.009359498
128	0x3d670e2d	0.056410003
129	0x3cd8008e	0.026367452
130	0xbd34e764	-0.044165984
131	0xbc017a40	-0.007902682
132	0xbd5389b7	-0.051645007
133	0x3cf8df42	0.030379895
134	0x3d6de081	0.05807543
135	0x3cb541aa	0.022126038
136	0x3d00ffbd	0.03149389
137	0x3d2bde65	0.04196014
138	0x3ca3392e	0.019924726
139	0x3cf7922e	0.030221071
140	0x3d1729dd	0.03690516
141	0xbc3c30ec	-0.011486273
142	0xbd50496f	-0.05085128
143	0x3cfaad7e	0.030600306
144	0xbd2fe46e	-0.042942457
145	0x3d27a085	0.040924568
146	0x3d2cf54d	0.042226125
147	0x3bb787c8	0.005600903
148	0xbd33ba6c	-0.043878958
149	0x3ccfc14e	0.02536073
150	0x3d617917	0.05504712
151	0xbcd9ab36	-0.026570898
152	0xbd4ce1d2	-0.050020047
153	0x3c9056ee	0.017619576
154	0xbc261ab8	-0.010138206
155	0xbca33b42	-0.019925717
156	0xbcd4d9a6	-0.02598269
157	0x3d64f5fd	0.055898655
158	0xbd232840	-0.039833307
159	0xbb957b28	-0.0045618005
160	0xbc7d7954	-0.015470821
161	0x3d4cd7b1	0.050010387
162	0x3c0e48c4	0.008684341
163	0xbc0a0f14	-0.0084264465
164	0xbd4ef37a	-0.050525166
165	0x3cf6cc9a	0.030126859
166	0xbd34bad2	-0.04412348
167	0x3cd9c3de	0.026582655
168	0xbd6fc884	-0.058540836
169	0x3bfc62f8	0.0077022277
170	0x3d15c1db	0.036561828
171	0xbc809abe	-0.015698787
172	0x3c780124	0.015136991
173	0x3c2fe984	0.010736827
174	0x3c8277c6	0.015926253
175	0xbc5c0c6c	-0.013430696
176	0xbd30d7d0	-0.043174565
177	0x3bad79f8	0.005294081
178	0xbd143b18	-0.03618917
179	0xbd647c36	-0.05578252
180	0xbbfb8f80	-0.0076770186
181	0xbd55ffbb	-0.052245837
182	0x3d592f9b	0.053023916
183	0xbcb29f76	-0.021804553
184	0xbc23be54	-0.009994108
185	0x3cde1bf6	0.027112942
186	0xbd3f7021	-0.046737794
187	0xbc148fcc	-0.009067487
188	0x3c6faefc	0.014629122
189	0xbd524724	-0.051337376
190	0xbc1b157c	-0.0094655715
191	0xbb674500	-0.003528893
192	0xbc40faa4	-0.011778507
193	0xbb13aa80	-0.0022532046
194	0x3d00aa89	0.031412635
195	0x3c83f64e	0.016108658
196	0x3d5318bb	0.051537257
197	0xbd2749cc	-0.040841863
198	0xbcd7d0d8	-0.026344702
199	0xbd4438c9	-0.047905717
200	0xbce375a0	-0.027766049
201	0x3c596254	0.013268072
202	0x3cffe67a	0.03123783
203	0x3d58c619	0.052923296
204	0xbd20e350	-0.039279282
205	0x3bfaf9b8	0.0076591633
206	0xbd6fc477	-0.058536973
207	0x3d095b27	0.033534195
208	0x3d1b58cf	0.03792649
209	0x3d456e91	0.048201147
210	0x3bfe9068	0.0077686794
211	0x3c8b59be	0.017010566
212	0x3d0b4b37	0.034007277
213	0xbc8f9ea6	-0.017531704
214	0xbd21620e	-0.039400153
215	0xbd4c592b	-0.049889725
216	0xbc1f7408	-0.009732254
217	0xbd2e1890	-0.042503893
218	0x3c21ca44	0.009874884
219	0x3d664ddd	0.0562266
220	0xbd375ec2	-0.044768102
221	0xbd475eb0	-0.048674285
222	0xbcee079b	-0.029056361
223	0xbc5d4790	-0.013505831
224	0x3d48368b	0.04888014
225	0x3d6793e7	0.056537535
226	0x3d18e34d	0.037326146
227	0x3d04d483	0.03242923
228	0xbc2dead4	-0.010615069
229	0xbd1ca5fc	-0.038244233
230	0x3a78a6c0	0.0009485297
231	0x3d2cb317	0.04216298
232	0x3c8ed146	0.017433774
233	0xbd01a9e2	-0.031656154
234	0xbc8bd35e	-0.017068561
235	0x3d3e455f	0.046452876
236	0xbd627d7b	-0.05529545
237	0x3d52b673	0.05144353
238	0x3d46b5b3	0.048513126
239	0x3ab2faa0	0.0013655014
240	0xbd37289b	-0.04471646
241	0x3cfdfb2a	0.031003553
242	0x3c538cfc	0.012912031
243	0x3d6798ed	0.056542326
244	0xbcf8f016	-0.03038792
245	0x3c9107fa	0.017703999
246	0xbd348ec6	-0.04408147
247	0xbd60b7c5	-0.054862756
248	0xbd365574	-0.04451509
249	0xbcd5884a	-0.026065964
250	0xbc9ee980	-0.01939845
251	0x3d0c5851	0.034263913
252	0xbb13aac0	-0.0022532195
253	0x3c7a7324	0.015286241
254	0xbd1bb376	-0.038012944
255	0xbd6b6292	-0.05746705

bias f4 [32]
0	0xbd5d5c9d	-0.0540434
1	0xbcf64f0a	-0.030066986
2	0xbbd8c6e8	-0.0066155083
3	0xbd30236f	-0.043002542
4	0x3d146409	0.036228213
5	0x3d66166d	0.05617373
6	0x3cb2b0ee	0.021812882
7	0xbd70139d	-0.058612455
8	0x3cba5c5e	0.022749122
9	0x3d659f29	0.05605999
10	0xbd4a81a5	-0.049440045
11	0x3c38bb2c	0.011275094
12	0x3c2d1754	0.010564644
13	0xbd46adb6	-0.048505507
14	0x3cff2702	0.03114653
15	0xbcba94a6	-0.02277596
16	0xbc5703e8	-0.01312349
17	0x3ca0bf6a	0.019622523
18	0x3ba4fde8	0.005035151
19	0x3d1061a5	0.03524937
20	0xbcb14da8	-0.021643475
21	0xbc1fe568	-0.009759285
22	0x3c91b58e	0.017786767
23	0xbd581d7c	-0.052762493
24	0x3c0322dc	0.008003917
25	0x3c2a530c	0.0103957765
26	0xbd5a1866	-0.053245924
27	0xbd31d066	-0.043411635
28	0xbcaa9e88	-0.020827547
29	0xbcfa24b2	-0.030535076
30	0x3d20b281	0.039232735
31	0xbd335291	-0.043779913

weight f4 [32]
0	0x3f5f2bf8	0.87176466
1	0x3f6a791e	0.9159106
2	0x3ee8c768	0.45464635
3	0x3f518122	0.81837666
4	0x3f11285e	0.5670222
5	0x3e0a67c0	0.1351614
6	0x3f090912	0.53529465
7	0x3f085033	0.53247374
8	0x3ef76f9a	0.48327333
9	0x3f3d9bb1	0.7406569
10	0x3e12695c	0.14298004
11	0x3f4c237d	0.7974165
12	0x3e920722	0.28521067
13	0x3f076f42	0.5290414
14	0x3eac5688	0.33659768
15	0x3b05ae00	0.0020397902
16	0x3f750a2d	0.9571865
17	0x3f763f1e	0.9619006
18	0x3f701fdb	0.9379861
19	0x3f57130c	0.8401344
20	0x3f14db4d	0.58147126
21	0x3dd0a128	0.10186988
22	0x3e9a79d2	0.30171067
23	0x3f7730a1	0.96558577
24	0x3ee89088	0.4542277
25	0x3f4cab91	0.7994929
26	0x3f78ef38	0.9724002
27	0x3ca8c580	0.020601988
28	0x3eb74560	0.35795116
29	0x3f365502	0.7122346
30	0x3e23993c	0.15976423
31	0x3f22ba40	0.63565445

bias f4 [32]
0	0x00000000	0.0
1	0x00000000	0.0
2	0x00000000	0.0
3	0x00000000	0.0
4	0x00000000	0.0
5	0x00000000	0.0
6	0x00000000	0.0
7	0x00000000	0.0
8	0x00000000	0.0
9	0x00000000	0.0
10	0x00000000	0.0
11	0x00000000	0.0
12	0x00000000	0.0
13	0x00000000	0.0
14	0x00000000	0.0
15	0x00000000	0.0
16	0x00000000	0.0
17	0x00000000	0.0
18	0x00000000	0.0
19	0x00000000	0.0
20	0x00000000	0.0
21	0x00000000	0.0
22	0x00000000	0.0
23	0x00000000	0.0
24	0x00000000	0.0
25	0x00000000	0.0
26	0x00000000	0.0
27	0x00000000	0.0
28	0x00000000	0.0
29	0x00000000	0.0
30	0x00000000	0.0
31	0x00000000	0.0

running_mean f4 [32]
0	0x3d92cdf4	0.07168189
1	0xbf18d631	-0.5970183
2	0xbeaf6181	-0.34254077
3	0xbe94047f	-0.2890968
4	0xbe982dad	-0.29722348
5	0xbdb36c56	-0.08760898
6	0x3f205e5a	0.6264397
7	0xbeff0379	-0.49807337
8	0x3daadf7b	0.08343407
9	0x3ee33bce	0.44381565
10	0x3f435c96	0.7631315
11	0x3fab1a44	1.3367391
12	0xbdacb4fe	-0.08432959
13	0xbee8a524	-0.45438492
14	0x3ce71a0d	0.028210664
15	0xbece5d4a	-0.4030555
16	0xbe029253	-0.12751131
17	0xbe9a7a32	-0.30171353
18	0x3e87bc43	0.2651082
19	0xbecc85c5	-0.39945808
20	0x3d58e602	0.052953728
21	0x3da5de95	0.08099095
22	0x3d83cf3f	0.064360134
23	0xbe34ca8d	-0.17655392
24	0xbf2aeb8c	-0.66765666
25	0xbe438236	-0.1909264
26	0xbe7a91b7	-0.24469648
27	0xbe80d981	-0.25165942
28	0xbf15a0f6	-0.5844873
29	0x3e874954	0.26423132
30	0x3ea80d15	0.3282248
31	0xbe2e90d7	-0.1704744

running_var f4 [32]
0	0x3f7bd14f	0.98366255
1	0x3f3d6744	0.73985696
2	0x3ed6db4c	0.41964185
3	0x3f894ab4	1.0725923
4	0x3f530ccb	0.82441396
5	0x3f5d84b7	0.8653063
6	0x3f41cf4a	0.75706923
7	0x3edcf698	0.43156886
8	0x3f846d5a	1.0345871
9	0x3ee2a77d	0.44268408
10	0x3f943c1f	1.1580848
11	0x40001fc7	2.0019395
12	0x3f0865fa	0.53280604
13	0x3f05f22e	0.5232266
14	0x3f666c7d	0.9000929
15	0x3fd3e499	1.6554137
16	0x3eb0559d	0.34440318
17	0x3f35b0ae	0.70972717
18	0x3e3a6824	0.18203789
19	0x3f2277b2	0.6346389
20	0x3f4acede	0.79221904
21	0x3fd6c34f	1.6778353
22	0x3f1d1c2f	0.6137113
23	0x3f4d41b6	0.8017839
24	0x3f4095a2	0.7522832
25	0x3fa19a29	1.2625171
26	0x3f23335a	0.6375023
27	0x3f1d292b	0.6139094
28	0x3f52870b	0.8223731
29	0x3f44f95b	0.76942986
30	0x3f9f0b4c	1.2425323
31	0x3f9046c3	1.1271595

weight f4 [32]
0	0x3d8ffc60	0.070305586
1	0x3f57e34b	0.84331197
2	0x3dfb6cd8	0.1227662
3	0x3eb12b5e	0.346034
4	0x3ea8ad12	0.32944542
5	0x3f601ae4	0.8754103
6	0x3e43c770	0.19119048
7	0x3e613534	0.21992952
8	0x3e8c7ed8	0.27440524
9	0x3f3c7ae0	0.7362499
10	0x3f1baeaf	0.6081342
11	0x3f51cd9e	0.8195437
12	0x3f7404ca	0.9531981
13	0x3d558440	0.052128077
14	0x3f790384	0.9727099
15	0x3e4004e4	0.18751866
16	0x3f45136d	0.76982766
17	0x3dea0a00	0.114276886
18	0x3ea7da18	0.3278358
19	0x3f13e6e1	0.5777417
20	0x3edd7378	0.43252158
21	0x3f028c2d	0.5099514
22	0x3eae1d7a	0.34006864
23	0x3f373a4b	0.71573323
24	0x3f6a1b5b	0.9144799
25	0x3f0f1751	0.55894953
26	0x3f5af16d	0.85524637
27	0x3e8f8e98	0.28038478
28	0x3f4711b6	0.777614
29	0x3f15dc3e	0.5853919
30	0x3db43170	0.08798492
31	0x3f404fcb	0.75121754

bias f4 [32]
0	0x00000000	0.0
1	0x00000000	0.0
2	0x00000000	0.0
3	0x00000000	0.0
4	0x00000000	0.0
5	0x00000000	0.0
6	0x00000000	0.0
7	0x00000000	0.0
8	0x00000000	0.0
9	0x00000000	0.0
10	0x00000000	0.0
11	0x00000000	0.0
12	0x00000000	0.0
13	0x00000000	0.0
14	0x00000000	0.0
15	0x00000000	0.0
16	0x00000000	0.0
17	0x00000000	0.0
18	0x00000000	0.0
19	0x00000000	0.0
20	0x00000000	0.0
21	0x00000000	0.0
22	0x00000000	0.0
23	0x00000000	0.0
24	0x00000000	0.0
25	0x00000000	0.0
26	0x00000000	0.0
27	0x00000000	0.0
28	0x00000000	0.0
29	0x00000000	0.0
30	0x00000000	0.0
31	0x00000000	0.0

running_mean f4 [32]
0	0x3d046255	0.03232034
1	0x3dbe0fa9	0.09280331
2	0x3bb2f207	0.005460981
3	0xbe992447	-0.2991049
4	0x3d1c8bfe	0.038219444
5	0xbd0a4cbf	-0.033764597
6	0xbaa3fd16	-0.0012511339
7	0x3d5c86a4	0.05383934
8	0x3d8e5b49	0.06951005
9	0xbd86944a	-0.06571253
10	0xbe1da815	-0.1539615
11	0x3d69b028	0.05705276
12	0x3d1725c2	0.036901243
13	0xbbc57ff6	-0.006027217
14	0x3de8bde9	0.113643475
15	0xbd93a97b	-0.0721006
16	0x3a307c81	0.000673242
17	0x3be4e3a0	0.006985143
18	0xbdcdcbe9	-0.100486584
19	0x3db0a222	0.086246744
20	0xbe28509f	-0.16437005
21	0x3e4c8044	0.19970804
22	0x3e2aac0e	0.16667196
23	0xbc16be4b	-0.009200643
24	0xbd8a73bd	-0.067603566
25	0x3c75a4ed	0.014992935
26	0xbb246a36	-0.002508772
27	0x3e22d4e8	0.1590153
28	0x3ce3aa06	0.027791034
29	0xbd816e93	-0.063199185
30	0x3e55838b	0.20850961
31	0xbd0276c8	-0.03185156

running_var f4 [32]
0	0x3d34149f	0.04396498
1	0x3d2dd8c7	0.042443063
2	0x3ca9c5b6	0.020724159
3	0x3c8f72c2	0.017510775
4	0x3cce6a5a	0.025197197
5	0x3cc30174	0.023804404
6	0x3d003a44	0.031305566
7	0x3cf08e4d	0.02936473
8	0x3d347cb5	0.044064242
9	0x3c8c1fb2	0.017104957
10	0x3cb289b9	0.021794187
11	0x3d18beb1	0.037291232
12	0x3cd7748a	0.026300687
13	0x3cd707e3	0.026248878
14	0x3d7abfad	0.061217953
15	0x3d863bc9	0.06554372
16	0x3caba248	0.020951405
17	0x3d279bc4	0.040920034
18	0x3ce6d3b5	0.028177122
19	0x3cd90354	0.026490845
20	0x3d28dacd	0.04122429
21	0x3d140059	0.036133144
22	0x3d2757ba	0.040855147
23	0x3d32d1f3	0.043657254
24	0x3ca5b119	0.020226048
25	0x3d37c6e4	0.04486741
26	0x3cc0ff04	0.0235591
27	0x3d085e05	0.03329279
28	0x3cd1939d	0.025583083
29	0x3d0643c2	0.032779463
30	0x3d819748	0.06327683
31	0x3d2bfe8f	0.041990813
