models/5_cross_5_iter_10.pt (torch_old, 324948 bytes, 66 tensors)

weight f4 [32, 3, 3, 3]
1.9601402 1.0972695 -2.7224731 -1.8344307 0.3215783 0.8566452 -1.1947751 -0.6764047
0.37874442 0.25744948 -0.38042334 -2.902759 0.0034432125 -0.61013955 2.7657106 -2.0670447
1.1968042 -1.2387638 0.23895514 0.17632864 0.41861618 0.45239505 0.13088544 0.46256775
0.4365843 0.4358129 0.14181326 -0.52633214 1.1508183 2.0140994 -0.8046017 0.041890632
1.0040262 -1.1213965 -0.56277436 -0.08231223 0.17468421 -1.5054318 0.43801552 2.3705995
-1.9607363 -0.595339 -0.8240283 -0.9622621 -0.5310604 -0.6150693 -0.5361506 -0.28211534
-0.45341966 -0.23982394 -0.56569344 -0.38119906 -0.48884353 -0.2688717 -0.25388148 1.7259212
-1.3401036 -0.37688464 0.023652114 -0.19880201 -0.7118313 0.2653558 -0.77611065 -0.4810311
-0.73443633 -0.9280667 -0.9717943 -0.05342033 -1.5226991 -0.8418592 1.3641042 -1.7998438
0.52159077 0.25500813 0.30395275 0.16214924 0.30890068 0.19550918 0.16814353 0.5392126
0.23648189 -0.67303807 0.94482815 -1.9882967 -1.0424732 1.2452793 -2.4767864 -0.30260038
-0.95770806 1.4736912 -2.0315053 1.7756202 1.065322 2.4830587 2.1950035 -1.5996848
0.14418256 1.5016695 -0.6998735 -0.23722826 -0.03624078 -0.26713228 -0.09446664 -0.017514454
0.045741636 -0.061893087 0.06697782 -0.25230846 3.6497598 -1.6152298 0.30148387 2.5972476
-1.1129535 0.4488878 1.7730597 0.34816253 0.0056051314 1.5031364 -0.07597621 0.08601705
-0.94708914 -0.031811576 -2.2599337 1.6700333 -1.5616307 0.78451043 0.32404256 0.30130616
0.21355103 0.44546 0.44690317 0.11991925 0.32553783 0.14154267 0.1980847 1.4064301
0.023184612 0.6106706 -1.4877038 1.84754 -0.80752873 0.19008379 1.6206234 0.29017136
0.5147911 1.0478275 0.8425813 -0.64176697 0.59322023 0.25811845 -1.2878023 -0.11178454
-1.4177293 0.35662407 0.33447245 0.26780567 0.3810332 0.5043397 0.37852645 0.28744462
0.5674492 0.24553554 3.8669147 -2.1750627 -1.0594324 1.4313595 -0.8768407 0.5118407
-1.6142759 0.66117173 2.9513469 1.9007084 -0.38161305 0.7297314 0.6591366 4.8890247
0.12948681 -2.3797822 0.37934136 -1.9441023 -0.12963742 -0.20184286 -0.11074849 -0.3279986
-0.05579647 -0.0044556996 -0.28403038 -0.09934975 -0.23466888 -0.26701662 -0.2624128 -0.59577084
-0.16164832 -0.6041349 -0.16694155 0.059969597 -0.14327817 -0.04671427 1.3023596 1.5737222
0.43013376 -0.5093737 -0.586023 -0.63467586 -0.13723521 -0.8134528 0.24181204 -0.1734995
-0.35733458 -0.30391347 -0.29346833 -0.31768844 -0.019213866 -0.24699138 -0.23649578 -0.30333373
-0.30251288 -1.8435872 -1.7955291 1.824397 1.0745338 -2.1839874 -1.9050909 -0.3738946
0.21201141 -0.14916316 1.4756677 -1.878355 -0.9376597 -0.43593937 0.12861088 -2.7630243
0.6982321 -0.70946383 -0.74908525 -0.77478915 -0.62320226 -0.47621512 -0.7422555 -0.7100932
-0.5726082 -0.48810512 -0.71438485 0.53956896 0.3204017 3.2533417 0.18054587 -1.2881407
-0.9635133 0.9270023 0.2256355 -1.0230863 2.3274808 0.34312227 1.8077927 1.1097691
00000000: e0e5 fa3f 5473 8c3f 003d 2ec0 a0ce eabf
00000010: e9a5 a43e 1a4d 5b3f 64ee 98bf dc28 2dbf
00000020: caea c13e 6bd0 833e d9c6 c2be cec6 39c0
00000030: 85a7 613b 1b32 1cbf 6701 3140 764a 04c0
00000040: e130 993f d08f 9ebf a8b0 743e 7f8f 343e
00000050: dc54 d63e 53a0 e73e d506 063e aed5 ec3e
00000060: fa87 df3e de22 df3e 7f37 113e b4bd 06bf
00000070: 044e 933f 01e7 0040 61fa 4dbf 8395 2b3d
00000080: ee83 803f ec89 8fbf fb11 10bf 5093 a8bd
00000090: 6be0 323e fdb1 c0bf 9243 e03e e7b7 1740
000000a0: 68f9 fabf 2368 18bf 85f3 52bf cf56 76bf
000000b0: 93f3 07bf 2f75 1dbf 2a41 09bf 6c71 90be
000000c0: 9f26 e8be 6894 75be 49d1 10bf 862c c3be
000000d0: b349 fabe 8da9 89be c1fc 81be fcea dc3f
000000e0: 8488 abbf 06f7 c0be 14c2 c13c c192 4bbe
000000f0: 933a 36bf b7dc 873e 30af 46bf b549 f6be
00000100: 0504 3cbf c795 6dbf 83c7 78bf 47cf 5abd
00000110: cee7 c2bf 1684 57bf f79a ae3f 4861 e6bf
00000120: f986 053f 6d90 823e b29f 9b3e 730a 263e
00000130: 3b28 9e3e 8f33 483e d12d 2c3e d609 0a3f
00000140: 4f28 723e 394c 2cbf 42e0 713f 8280 febf
00000150: c36f 85bf 5065 9f3f ab83 1ec0 70ee 9abe
00000160: 5b2c 75bf eaa1 bc3f 2f04 02c0 8647 e33f
00000170: 795c 883f 6fea 1e40 f07a 0c40 79c2 ccbf
00000180: 98a4 133e b536 c03f e92a 33bf f7eb 72be
00000190: 3671 14bd 90c5 88be ba77 c1bd 797a 8fbc
000001a0: 955b 3b3d 9b83 7dbd ab2b 893d 932e 81be
000001b0: aa95 6940 dabf cebf 185c 9a3e 4e39 2640
000001c0: 4375 8ebf 9fd4 e53e 9ff3 e23f 5c42 b23e
000001d0: 40ab b73b c666 c03f 6a99 9bbd b529 b03d
000001e0: 6f74 72bf db4c 02bd c1a2 10c0 a7c3 d53f
000001f0: 84e3 c7bf add5 483f e8e8 a53e cd44 9a3e
00000200: 1fad 5a3e 5513 e43e 7ed0 e43e 3998 f53d
00000210: e5ac a63e 90f0 103e b7d6 4a3e e705 b43f
00000220: a8ed bd3c e954 1c3f 146d bebf 317c ec3f
00000230: 34ba 4ebf 53a5 423e 9670 cf3f 5791 943e
00000240: 59c9 033f 361f 863f 68b3 573f d74a 24bf
00000250: 48dd 173f 1a28 843e b5d6 a4bf 4bef e4bd
00000260: 2778 b5bf 6e97 b63e f93f ab3e d31d 893e
00000270: c916 c33e 681c 013f 38ce c13e f12b 933e
00000280: 5a44 113f ab6d 7b3e 887b 7740 3a34 0bc0
00000290: 7b9b 87bf ca36 b73f a278 60bf fe07 033f
000002a0: 98a0 cebf 8d42 293f dee2 3c40 6a4a f33f
000002b0: c962 c3be adcf 3a3f 2dbd 283f e472 9c40
000002c0: 3198 043e 5a4e 18c0 0839 c23e 58d8 f8bf
000002d0: acbf 04be e5af 4ebe 1bd0 e2bd 6fef a7be
000002e0: d78a 64bd 1e01 92bb 6e6c 91be e277 cbbd
000002f0: 0a4d 70be 67b6 88be f85a 86be 7084 18bf
00000300: 2387 25be 96a8 1abf baf2 2abe aea2 753d
00000310: 83b7 12be 7657 3fbd b8b3 a63f bb6f c93f
00000320: 7e3a dc3e 5166 02bf 9a05 16bf 1e7a 22bf
00000330: 6387 0cbe 713e 50bf 939d 773e daa9 31be
00000340: 8ff4 b6be 8c9a 9bbe 7b41 96be 0fa8 a2be
00000350: 6666 9dbc 4feb 7cbe f32b 72be 8f4e 9bbe
00000360: f8e2 9abe aafa ebbf e6d3 e5bf d785 e93f
00000370: 538a 893f 73c6 0bc0 05da f3bf 1d6f bfbe
00000380: 8519 593e 3abe 18be aee2 bc3f f06d f0bf
00000390: 770a 70bf 7233 dfbe 92b2 033e 64d5 30c0
000003a0: 57bf 323f 6c9f 35bf 0dc4 3fbf 9558 46bf
000003b0: 2f8a 1fbf 78d2 f3be 7504 3ebf abc8 35bf
000003c0: 7396 12bf eae8 f9be ede1 36bf 3121 0a3f
000003d0: b10b a43e c036 5040 04e1 383e cbe1 a4bf
000003e0: cfa8 76bf 0650 6d3f fe0c 673e 7ef4 82bf
000003f0: 72f5 1440 b9ad af3e c065 e73f ea0c 8e3f

bias f4 [32]
-0.0945603 -0.17104141 -0.04796357 0.13416643 -0.029994017 0.038018912 -0.19050239 -0.09883773
-0.028294949 -0.07157215 -0.05503705 -0.12476948 -0.0129807815 -0.083532125 -0.114231415 0.051792778
0.10242108 0.0757259 -0.05370878 -0.1121823 0.094432674 0.15791954 0.090571 -0.1351129
0.06395493 0.1884354 -0.11753687 0.16837871 -0.053686146 0.1405993 -0.12514175 0.094890855
00000000: d5a8 c1bd 7b25 2fbe 7375 44bd ed62 093e
00000010: 03b6 f5bc b8b9 1b3d 0f13 43be 706b cabd
00000020: cfca e7bc 6b94 92bd 886e 61bd 2487 ffbd
00000030: 58ad 54bc e412 abbd 29f2 e9bd aa24 543d
00000040: 25c2 d13d 2e16 9b3d bdfd 5bbd d5bf e5bd
00000050: eb65 c13d a9b5 213e 4a7d b93d 095b 0abe
00000060: cdfa 823d 36f5 403e 2cb7 f0bd 786b 2c3e
00000070: 01e6 5bbd 43f9 0f3e 2925 00be 2356 c23d

weight f4 [32]
2.635322 2.3477042 1.8556751 2.2395005 2.157512 1.7138919 3.8214874 -0.20845734
3.0849824 1.9259952 3.2891512 2.9059913 0.40708354 2.7833176 1.468185 4.419944
2.8100512 4.5451655 3.7277184 -2.4274397 3.114775 2.866854 1.1021599 1.2884344
2.9812365 1.8549335 0.24885923 -0.16946055 2.604493 1.0208397 2.6247678 -0.22802995
00000000: 1ea9 2840 c940 1640 c386 ed3f fa53 0f40
00000010: ad14 0a40 cf60 db3f 4093 7440 d775 55be
00000020: 5a70 4540 0387 f63f 7481 5240 c3fb 3940
00000030: 416d d03e e021 3240 7ced bb3f 2e70 8d40
00000040: e1d7 3340 ff71 9140 f092 6e40 2c5b 1bc0
00000050: 7958 4740 897a 3740 9313 8d3f 6beb a43f
00000060: 94cc 3e40 766e ed3f f4d4 7e3e 1187 2dbe
00000070: 03b0 2640 e0aa 823f 32fc 2740 af80 69be

bias f4 [32]
1.861547 0.30063912 0.3716047 0.11465653 0.38903564 -1.017572 -0.44367936 -0.6851975
1.7286415 0.7533422 0.3373318 0.27274758 1.3775928 -1.0575881 -1.5247066 -0.35068986
0.70494276 2.0656245 2.1049411 -0.041469608 -0.13022247 -0.12386864 0.3844169 -1.0671269
1.6947955 0.6613531 -1.3420612 -1.0752774 1.4255338 0.4961853 -0.20772736 -1.1972128
00000000: 2c47 ee3f 5fed 993e f942 be3e 0bd1 ea3d
00000010: ae2f c73e cd3f 82bf f129 e3be 1a69 2fbf
00000020: 2044 dd3f 09db 403f c1b6 ac3e 92a5 8b3e
00000030: f654 b03f 0c5f 87bf 9629 c3bf 9f8d b3be
00000040: 2177 343f 3133 0440 5bb7 0640 09dc 29bd
00000050: 0a59 05be d7ae fdbd 4bd2 c43e 9d97 88bf
00000060: 0fef d83f 704e 293f a9c8 abbf b1a2 89bf
00000070: e477 b63f 000c fe3e 7bb6 54be 453e 99bf

running_mean f4 [32]
0.7475877 -2.3026037 0.74851763 -0.07584615 1.1503426 1.946397 -0.7427552 -1.268883
-3.4728403 1.9202894 0.88574207 -1.9821129 3.2589378 -0.118393466 0.113264926 -1.9508451
-0.05083684 0.90625644 -3.2148826 1.7843937 -1.8267418 1.1997088 -2.3204675 0.3856454
-4.0285854 2.2774808 -0.71398014 -0.38461643 0.8920674 -2.19571 2.8046393 -0.9693096
00000000: e861 3f3f dc5d 13c0 da9e 3f3f 3a55 9bbd
00000010: 6d3e 933f 8923 f93f 3425 3ebf c26a a2bf
00000020: 0443 5ec0 0bcc f53f febf 623f e0b5 fdbf
00000030: 7092 5040 4678 f2bd 71f7 e73d 4bb5 f9bf
00000040: 4a3a 50bd 6c00 683f a3c0 4dc0 0367 e43f
00000050: add2 e9bf 0f90 993f 8a82 14c0 5073 c53e
00000060: 2cea 80c0 3fc2 1140 67c7 36bf 72ec c4be
00000070: 875e 643f 8386 0cc0 367f 3340 ad24 78bf

running_var f4 [32]
2.8390594 4.1376386 2.6833036 1.9721869 2.9776783 3.496181 3.4789062 1.8679146
10.03077 3.8447182 2.8505108 3.6800308 9.328594 1.7958988 1.3414017 5.4965267
3.8564634 4.1339025 12.017559 4.1191397 7.407122 3.3982964 4.236828 1.115921
13.327405 4.7652984 0.9952137 1.0568967 3.453756 5.4590907 7.754356 1.7619267
00000000: 26b3 3540 8967 8440 3fbb 2b40 9f70 fc3f
00000010: 4892 3e40 6ec1 5f40 66a6 5e40 d317 ef3f
00000020: 097e 2041 dd0f 7640 c56e 3640 a085 6b40
00000030: ec41 1541 03e0 e53f 0db3 ab3f 8ce3 af40
00000040: 4cd0 7640 ee48 8440 ec47 4041 fecf 8340
00000050: 2507 ed40 b07d 5940 1894 8740 80d6 8e3f
00000060: 0d3d 5541 537d 9840 53c6 7e3f 6448 873f
00000070: 570a 5d40 dfb0 ae40 af23 f840 d086 e13f

weight f4 [2, 32, 1, 1]
3.1051242 0.18073104 1.7656082 -0.8147936 0.32203075 2.660062 -0.30681476 1.9733316
-0.5583818 -1.5269476 -2.5312166 -1.3284199 -0.5330562 0.28512418 0.13180275 -2.3667784
-2.4501245 -0.53800577 1.2726336 -1.3258061 -3.3771894 -3.4596443 0.2217577 0.7800218
5.5463367 -0.5392133 -3.5281808 -0.90627086 2.7212834 -2.105475 1.1726369 1.2841715
-1.6949505 1.6766273 -1.0521386 -1.99644 4.326573 -1.9285643 -1.8025842 1.734076
-4.208742 1.2885559 -1.016534 -1.9353601 -3.5352232 -1.8363036 0.6992392 3.432252
0.123211466 -1.403455 -0.25832817 -0.93060446 1.7319384 0.5968391 1.3697885 0.44064415
1.2532696 -0.009531969 2.3559504 1.9817321 -1.4885886 -1.4843506 2.4442663 -2.415452
00000000: 5bba 4640 8f11 393e 73ff e13f 5096 50bf
00000010: 37e1 a43e 753e 2a40 d316 9dbe 2196 fc3f
00000020: 1cf2 0ebf 0573 c3bf 74ff 21c0 aa09 aabf
00000030: 5f76 08bf ccfb 913e 4df7 063e 4c79 17c0
00000040: d7ce 1cc0 bfba 09bf a8e5 a23f 04b4 a9bf
00000050: df23 58c0 d06a 5dc0 7314 633e 82af 473f
00000060: 977b b140 e209 0abf b7cd 61c0 5e01 68bf
00000070: 8229 2e40 1ac0 06c0 f718 963f bb5f a43f
00000080: 23f4 d8bf b99b d63f 7aac 86bf 598b ffbf
00000090: 4973 8a40 32db f6bf 14bb e6bf 34f6 dd3f
000000a0: 04ae 86c0 66ef a43f c91d 82bf e1b9 f7bf
000000b0: 1941 62c0 ff0b ebbf 5701 333f 04aa 5b40
000000c0: 4b56 fc3d 6aa4 b3bf 9743 84be 183c 6ebf
000000d0: 28b0 dd3f 72ca 183f 3b55 af3f 1c9c e13e
000000e0: 236b a03f fa2b 1cbc e4c7 1640 66a9 fd3f
000000f0: 128a bebf 33ff bdbf dc6e 1c40 c496 1ac0

bias f4 [2]
0.009887053 -0.046580933
00000000: 4efd 213c a6cb 3ebd

weight f4 [2]
1.3003901 1.5331893
00000000: 2f73 a63f 8c3f c43f

bias f4 [2]
0.116790004 -0.32225394
00000000: 992f ef3d 78fe a4be

running_mean f4 [2]
-2.7199495 -12.872693
00000000: a713 2ec0 8df6 4dc1

running_var f4 [2]
526.07965 493.65848
00000000: 1985 0344 49d4 f643

weight f4 [26, 18]
-0.7941449 -0.025894152 0.39532363 -0.7412062 2.1771257 -0.031177025 -0.38295534 -0.42122465
-0.29682776 -1.0191168 -0.65882903 1.8862498 -1.2104194 -0.21616526 0.89076585 -2.2306945
1.253068 1.3569045 -0.25840253 -0.38388088 -0.33978796 -0.38783035 -0.51526105 -0.32928985
-0.12073129 0.066654794 -0.25091505 -0.2632505 -0.111864924 -0.41329035 -0.24560668 -0.06998735
-0.18771665 -0.2030035 -0.08579148 -0.26281932 -0.1725571 -0.3887624 -0.26584187 -0.16220197
-0.7038451 -0.33661157 -0.24194837 -0.084587745 -0.12527776 -0.4666787 -0.16010839 -0.2794407
-0.13764186 -0.24782111 -0.19958527 -0.099002525 -0.33932987 -0.074488916 3.2675748 -1.5266081
-0.8397746 0.86786765 1.8723804 0.43221098 1.5567968 -0.3931669 -1.2687027 -0.7841675
0.17428048 -0.5170383 -0.48499778 -0.16639103 -0.62960076 0.33769742 0.7908086 -0.5158208
-2.648238 0.075801834 2.018581 1.3288413 1.6657624 0.6271695 -0.54873645 -0.63904285
1.3537103 1.6101072 1.1009679 -3.4481423 -1.643698 -0.16099356 2.3416157 1.3359131
-2.0514033 0.22668357 -0.5313425 -1.6492753 -0.785591 -0.52898043 0.15203397 -0.59422666
0.48546427 -0.23678705 -0.7751239 1.2690275 -0.32352123 2.493301 2.1357691 -0.0022676392
-0.5592121 -1.8966619 1.2091107 -0.29593566 -0.37581906 -0.36159417 -0.39708632 -0.31746495
-0.6657932 -0.11106733 -0.10166928 -0.10857593 0.046763964 -0.36853275 -0.10129671 -0.3734218
0.08209306 -0.108551726 -0.28676164 -0.33311978 -0.3704277 0.043412544 -0.55306435 -1.2935135
-0.38841325 -0.6426995 -1.0189204 -0.779021 -0.23907055 0.052418914 -0.642631 0.3812652
-0.2806745 3.5422285 -0.65978456 -0.012724093 -0.6004081 0.20527764 0.5300263 -0.52030355
3.5966349 -2.1143515 -1.1119791 0.8692316 1.9924277 0.3506448 1.3105876 -0.29682007
-1.2585253 -1.4087474 -0.039328307 -0.79446805 1.9250281 -1.0775388 -0.77807754 0.5444578
1.1147028 -0.71735924 -2.0717914 1.5625684 -0.6504528 -0.29133582 1.4112043 2.2998054
-0.25509518 -1.4006184 0.3709453 0.6514152 1.7337155 -2.408735 -1.753834 -0.5759489
1.6848608 0.41305682 0.69891155 0.69881475 0.42873693 1.9795665 0.47208965 1.2088625
0.20906001 -1.39285 -0.0096209 2.1505358 1.4302474 -2.0627284 1.9926481 -0.74739254
-0.7556885 0.4120592 -1.5721544 -1.0710623 -0.17714433 3.2716784 -1.1572233 0.5224336
1.7420943 1.5883628 1.3800807 0.2286324 -0.7482551 -1.0265415 0.49602678 0.059620045
-0.3733532 -0.21578376 0.03851731 0.26611817 -0.3652739 2.9099872 0.16888675 -0.5446694
0.6545863 0.8792073 1.5822493 -0.22205204 -1.33235 2.2076876 -0.45575514 -1.4405817
-0.01714027 1.6145111 1.3868597 -1.2471639 1.99656 -0.07814504 -0.518325 1.5077811
-0.2887408 -1.7154652 1.4309434 1.082147 0.10415487 -1.3008368 0.22023213 -0.32058978
-1.5520183 3.4437733 -0.13523835 0.30652437 -1.9606084 -1.2793713 2.9980145 -0.5249162
-0.9947659 2.1197462 -0.8489107 -0.2968483 -0.28326797 -0.3753561 -0.23656638 -0.29840514
00000000: 154d 4bbf f91f d4bc dc67 ca3e b1bf 3dbf
00000010: 0756 0b40 f666 ffbc b912 c4be c2aa d7be
00000020: cff9 97be 6b72 82bf 05a9 28bf a270 f13f
00000030: 06ef 9abf 6d5a 5dbe 3b09 643f b3c3 0ec0
00000040: 8864 a03f 0caf ad3f 564d 84be 098c c4be
00000050: b0f8 adbe b391 c6be 26e8 03bf ae98 a8be
00000060: f741 f7bd 4f82 883d f077 80be c5c8 86be
00000070: 7019 e5bd cb9a d3be 5180 7bbe 8755 8fbd
00000080: cb38 40be 26e0 4fbe 72b3 afbd 4190 86be
00000090: cfb2 30be de0b c7be 6d1c 88be 4618 26be
000000a0: 312f 34bf 5a58 acbe 50c1 77be 573c adbd
000000b0: d048 00be 83f0 eebe 74f3 23be da12 8fbe
000000c0: fdf1 0cbe d1c4 7dbe 1560 4cbe d6c1 cabd
000000d0: a5bc adbe a58d 98bd f21f 5140 e567 c3bf
000000e0: 78fb 56bf 932c 5e3f 29aa ef3f c24a dd3e
000000f0: 1e45 c73f 2c4d c9be da64 a2bf 34bf 48bf
00000100: 9576 323e 9f5c 04bf a151 f8be 6962 2abe
00000110: 842d 21bf ade6 ac3e 6f72 4a3f d50c 04bf
00000120: bb7c 29c0 fe3d 9b3d 6e30 0140 7917 aa3f
00000130: b437 d53f 2e8e 203f fe79 0cbf 5098 23bf
00000140: 6146 ad3f fe17 ce3f 84ec 8c3f 5dae 5cc0
00000150: b264 d2bf 7fdb 24be 08dd 1540 33ff aa3f
00000160: 314a 03c0 bd1f 683e 1006 08bf 741b d3bf
00000170: 7e1c 49bf 436b 07bf cbae 1b3e 3d1f 18bf
00000180: c68e f83e 4e78 72be 856e 46bf 7e6f a23f
00000190: 93a4 a5be 3e92 1f40 71b0 0840 ac9c 14bb
000001a0: 8628 0fbf d1c5 f2bf 24c4 9a3f e184 97be
000001b0: 5b6b c0be df22 b9be e64e cbbe c48a a2be
000001c0: 6c71 2abf 4577 e3bd fc37 d0bd 0f5d debd
000001d0: 928b 3f3d 53b0 bcbe a674 cfbd 2431 bfbe
000001e0: 6820 a83d 5e50 debd 6cd2 92be ad8e aabe
000001f0: b3a8 bdbe 5ad1 313d a095 0dbf da91 a5bf
00000200: 1ade c6be f487 24bf fc6b 82bf ec6d 47bf
00000210: e9ce 74be 37b5 563d 7783 24bf 3135 c33e
00000220: 91b4 8fbe dfb3 6240 a4e7 28bf b778 50bc
00000230: 58b4 19bf 4d34 523e ceaf 073f 9d32 05bf
00000240: 442f 6640 8951 07c0 5555 8ebf f685 5e3f
00000250: df07 ff3f b787 b33e 56c1 a73f cdf8 97be
00000260: 5b17 a1bf d651 b4bf b816 21bd 4262 4bbf
00000270: 5267 f63f cbec 89bf 1730 47bf 9661 0b3f
00000280: 95ae 8e3f dba4 37bf 3b98 04c0 3e02 c83f
00000290: 1384 26bf f829 95be 58a2 b43f 0330 1340
000002a0: d69b 82be 7747 b3bf 8bec bd3e 26c3 263f
000002b0: 64ea dd3f b728 1ac0 a27d e0bf 6371 13bf
000002c0: 85a9 d73f 2f7c d33e deeb 323f 86e5 323f
000002d0: 6883 db3e 6f62 fd3f bcb5 f13e 02bc 9a3f
000002e0: d413 563e e948 b2bf fba0 1dbc 61a2 0940
000002f0: 5912 b73f be03 04c0 180f ff3f 1e55 3fbf
00000300: cd74 41bf 6cf9 d23e 5b3c c9bf 9218 89bf
00000310: 5365 35be 2e63 5140 e51f 94bf 35be 053f
00000320: f2fc de3f 794f cb3f 7ca6 b03f 9d1e 6a3e
00000330: a58d 3fbf b665 83bf 39f7 fd3e 2634 743d
00000340: 2728 bfbe 6bf6 5cbe 54c4 1d3d a440 883e
00000350: 2e05 bbbe 3b3d 3a40 a6f0 2c3e 746f 0bbf
00000360: f892 273f bb13 613f 2587 ca3f 9c61 63be
00000370: 728a aabf c14a 0d40 bd58 e9be fb64 b8bf
00000380: c069 8cbc 4da8 ce3f 9e84 b13f 11a3 9fbf
00000390: 478f ff3f 820a a0bd f2b0 04bf f9fe c03f
000003a0: d6d5 93be 5d94 dbbf 2729 b73f cb83 8a3f
000003b0: 264f d53d d281 a6bf 8884 613e 5824 a4be
000003c0: 89a8 c6bf c866 5c40 ec7b 0abe c3f0 9c3e
000003d0: 37f5 fabf 70c2 a3bf 78df 3f40 e860 06bf
000003e0: faa8 7ebf eca9 0740 3652 59bf 80fc 97be
000003f0: 8008 91be ad2e c0be 753e 72be 8fc8 98be

bias f4 [26]
0.13087055 -0.81798804 -0.9539198 -0.6571729 -0.6066755 -0.0148509955 -0.724373 -0.37971598
-0.5512871 2.086901 2.2426093 -0.3040736 0.08391611 -2.0037272 -0.6535018 1.1845219
-0.83905244 -0.30521476 -0.9451986 -0.71455765 1.9239514 -0.88511115 1.0571678 -0.82993364
-0.8489004 4.269053
00000000: ee02 063e aa67 51bf 1734 74bf 7c3c 28bf
00000010: 164f 1bbf 9751 73bc 8270 39bf 226a c2be
00000020: 2721 0dbf c98f 0540 e986 0f40 89af 9bbe
00000030: 36dc ab3d 113d 00c0 e54b 27bf 6a9e 973f
00000040: 24cc 56bf 1c45 9cbe 89f8 71bf 40ed 36bf
00000050: 0a44 f63f a596 62bf 4651 873f 8876 54bf
00000060: 8951 59bf 159c 8840

weight f4 [1, 32, 1, 1]
-0.11502915 0.19947302 0.09912251 -0.3984645 -0.09549312 0.42399684 0.49749526 -0.28619263
0.25546667 0.1743057 -0.5947421 -0.46113762 0.11764615 -0.10499816 0.07296619 0.4680197
0.6855978 -0.36664635 -0.27730885 -0.08191382 -0.03356629 -0.07234904 0.28458503 0.6361266
-0.83660555 -0.1354534 -0.6784613 0.46434373 -0.19416031 -0.7435648 0.25094065 0.3192779
00000000: 6794 ebbd a842 4c3e be00 cb3d 8a03 ccbe
00000010: e691 c3bd 1d16 d93e b3b7 fe3e d787 92be
00000020: 87cc 823e 327d 323e 0541 18bf 3b1a ecbe
00000030: 77f0 f03d 4609 d7bd 4c6f 953d 47a0 ef3e
00000040: 5683 2f3f 12b9 bbbe 6dfb 8dbe 6fc2 a7bd
00000050: ce7c 09bd bc2b 94bd 21b5 913e 31d9 223f
00000060: c82b 56bf 4cb4 0abe a4af 2dbf 76be ed3e
00000070: f6d1 46be 435a 3ebf 4b7b 803e 6578 a33e

weight f4 [32, 9]
0.1406175 -0.043170515 0.09083714 0.05468999 0.21800223 -0.24382745 -0.23060228 -0.31035072
-0.27933672 -0.0006082542 0.17784402 -0.038793504 -0.15500075 0.25147945 0.12950549 -0.32837898
-0.058058396 -0.08929603 -0.6692994 0.30405915 0.4018208 -0.21534011 -0.07534062 0.32820493
-0.7980021 -0.2647804 0.9032317 0.2747522 0.12357181 0.12986673 0.13292679 -0.20492715
0.17626107 0.04010456 -0.62428766 -0.10942576 0.011073668 0.002852124 0.07338788 0.1512318
0.3736935 -0.13921195 0.23408702 -0.16084808 -0.066737644 -0.19357948 -0.2697284 0.29074696
-0.18441191 -0.19940545 -0.29891708 -0.015600353 -0.11110708 -0.20814455 -0.33185697 0.19567928
-0.009681061 0.06030575 0.2033503 -0.23330007 -0.46376574 0.024395803 0.36915737 -0.02940793
-0.3571279 0.035782076 -0.060220324 0.2352028 0.15728757 -0.06003674 0.098813206 -0.08998464
0.04430927 0.26754576 0.20370464 -0.21484491 -0.3338573 -0.29369473 -0.18074943 -0.14960138
0.13614522 0.6806839 -0.5650094 0.12949221 0.3772704 -0.01389826 -0.092294306 0.09895361
-0.13481948 -0.5160609 0.2581572 0.2112859 0.17748521 -0.30146706 0.46325612 0.18572886
-0.32367775 0.14121191 -0.11345505 0.12373509 0.14337157 -0.01514061 -0.13249709 -0.33061638
0.05386171 -0.13833025 0.2748427 0.10056245 0.06096874 0.024935603 -0.2470005 -0.18159528
-0.14648029 0.3196539 -0.18995278 -0.13256909 -0.0025204895 0.01790069 -0.065514155 -0.29484445
-0.22038545 0.02631035 0.22665112 -0.024564272 -0.0731168 0.19608466 0.074542254 -0.27886453
-0.32427695 0.11117709 0.18224892 -0.2072707 0.102956615 0.24886258 -0.38101953 -0.30084231
-0.3138467 -0.10491668 0.075458795 0.029619403 -0.19913703 -0.27801573 0.09863667 -0.24968691
0.4182386 0.24571373 -0.19327326 -0.26344612 -0.34926584 0.15808818 -0.10110627 -0.37083933
-0.27534965 0.02389714 -0.12192074 -0.12562826 0.1140926 0.30058172 0.19393906 0.18814623
-0.11799654 -0.04781612 -0.122614406 0.13338223 0.20331608 -0.007391681 -0.08037048 0.15348738
-0.1629601 -0.058556218 0.010280016 -0.2635816 -0.1704817 0.06656729 0.10213072 0.20380624
-0.1990478 -0.047440164 0.03168783 -0.22257954 0.603962 -0.18140711 -0.22102979 0.27309692
0.1817993 0.17302896 -0.6995592 0.03503029 0.15608455 -0.17443663 0.093074515 -0.2102064
0.16198286 0.08780079 -0.17843148 0.0895936 0.1440199 -0.36042675 -0.30709255 0.006031807
-0.008224042 0.05453178 -0.16906278 0.24757062 -0.2138194 0.18907814 -0.3133726 -0.23850268
0.18420133 -0.29861945 0.084222615 -0.17186265 0.07402721 -0.32635057 -0.10194574 -0.12085641
-0.10387075 0.11590784 0.10875995 -0.2444202 -0.13250989 -0.08024134 0.28877124 -0.07687048
-0.30166686 0.29632932 -0.19401522 0.10443864 -0.1068908 0.17344622 -0.036339156 0.1002502
-0.0968775 -0.3601157 0.50996286 -0.36349958 -0.040420614 0.2983768 0.41151154 0.15065548
-0.6894058 0.06417496 -0.3134862 0.32053858 0.16768049 0.01968584 -0.27457896 -0.03844212
0.023059024 -0.2391389 -0.10582638 -0.07984812 -0.05792222 0.07224424 0.18411495 0.018476753
00000000: 09fe 0f3e 91d3 30bd d308 ba3d 9c02 603d
00000010: fa3b 5f3e e7ad 79be 0123 6cbe 4ae6 9ebe
00000020: 3905 8fbe 4073 1fba be1c 363e f0e5 1ebd
00000030: 84b8 1ebe eac1 803e 169d 043e 4a21 a8be
00000040: a4ce 6dbd d6e0 b6bd 3557 2bbf a4ad 9b3e
00000050: 75bb cd3e 1e82 5cbe 2f4c 9abd 7a0a a83e
00000060: de49 4cbf 4c91 87be 313a 673f 52ac 8c3e
00000070: 3813 fd3d c9fb 043e f61d 083e 6cd8 51be
00000080: c87d 343e ae44 243d 51d1 1fbf 9d1a e0bd
00000090: 546e 353c b3ea 3a3b 634c 963d 82dc 1a3e
000000a0: c154 bf3e 948d 0ebe 82b4 6f3e 5cb5 24be
000000b0: bfad 88bd b339 46be d719 8abe c9dc 943e
000000c0: 7ad6 3cbe f130 4cbe a90b 99be 9f98 7fbc
000000d0: 1c8c e3bd d823 55be 28e9 a9be 2660 483e
000000e0: 509d 1ebc 2a03 773d 103b 503e 37e6 6ebe
000000f0: b472 edbe b5d9 c73c 3202 bd3e e6e8 f0bc
00000100: 78d9 b6be 3a90 123d 96a9 76bd 01d9 703e
00000110: fe0f 213e 16e9 75bd 945e ca3d de49 b8bd
00000120: a37d 353d c2fb 883e f397 503e 4e00 5cbe
00000130: 58ef aabe 285f 96be 6116 39be 1b31 19be
00000140: a769 0b3e 4d41 2e3f 75a4 10bf 9b99 043e
00000150: 9629 c13e 87b5 63bc cc04 bdbd 31a8 ca3d
00000160: 1e0e 0abe 911c 04bf 2e2d 843e 555b 583e
00000170: afbe 353e e459 9abe e82f ed3e b52f 3e3e
00000180: 17b9 a5be db99 103e 1f5b e8bd d368 fd3d
00000190: ffcf 123e 5210 78bc 51ad 07be 8d46 a9be
000001a0: 199e 5c3d 72a6 0dbe 2fb8 8c3e b0f3 cd3d
000001b0: 5cba 793d c045 cc3c b3ed 7cbe 1df4 39be
000001c0: eefe 15be ada9 a33e fb82 42be 31c0 07be
000001d0: cc2e 25bb 78a4 923c 492c 86bd daf5 96be
000001e0: b9ac 61be ce88 d73c 3b17 683e 033b c9bc
000001f0: 43be 95bd 6bca 483e 9ca9 983d 55c7 8ebe
00000200: a107 a6be d0b0 e33d 769f 3a3e c53e 54be
00000210: ebda d23d d5d5 7e3e fe14 c3be 0108 9abe
00000220: 84b0 a0be 8ede d6bd 248a 9a3d 64a4 f23c
00000230: 94ea 4bbe 1458 8ebe 0602 ca3d edad 7fbe
00000240: 5f23 d63e 619c 7b3e 6de9 45be 69e2 86be
00000250: f9d2 b2be dee1 213e ce10 cfbd a7de bdbe
00000260: a1fa 8cbe efc3 c33c 95b1 f9bd b2a4 00be
00000270: 62a9 e93d d9e5 993e f697 463e 68a9 403e
00000280: 2ca8 f1bd d6da 43bd 431d fbbd 5a95 083e
00000290: 1732 503e ea35 f2bb 4799 a4bd cc2b 1d3e
000002a0: 03df 26be a5d8 6fbd 836d 283c 2bf4 86be
000002b0: c192 2ebe 6e54 883d e929 d13d 95b2 503e
000002c0: 30d3 4bbe 9e50 42bd 19cb 013d e4eb 63be
000002d0: 419d 1a3f c9c2 39be a255 62be 5cd3 8b3e
000002e0: 9829 3a3e 812e 313e 5016 33bf ec7b 0f3d
000002f0: a1d4 1f3e 849f 32be da9d be3d 5940 57be
00000300: d6de 253e e7d0 b33d beb6 36be d97c b73d
00000310: f479 133e db89 b8be 3c3b 9dbe 77a6 c53b
00000320: 22be 06bc b75c 5f3d cb1e 2dbe 2783 7d3e
00000330: 79f3 5abe b39d 413e 6072 a0be 0c3a 74be
00000340: 469f 3c3e a6e4 98be e87c ac3d c3fc 2fbe
00000350: 949b 973d 6c17 a7be eec8 d0bd 9183 f7bd
00000360: 30ba d4bd 1761 ed3d 89bd de3d 4a49 7abe
00000370: acb0 07be 9255 a4bd d3d9 933e 456e 9dbd
00000380: 1474 9abe 7ab8 973e edab 46be ede3 d53d
00000390: 90e9 dabd e39b 313e 5ed8 14bd fa4f cd3d
000003a0: b667 c6bd 1661 b8be ed8c 023f 9e1c babe
000003b0: 1690 25bd d8c4 983e a4b1 d23e 6e45 1a3e
000003c0: e67c 30bf 296e 833d 4381 a0be a21d a43e
000003d0: 6fb4 2b3e 3344 a13c 9d95 8cbe 7c75 1dbd
000003e0: 47e6 bc3c d4e0 74be 80bb d8bd 6987 a3bd
000003f0: da3f 6dbd caf4 933d a188 3c3e 8f5c 973c

bias f4 [32]
0.07556886 0.16862701 0.16691592 -0.18306185 -0.15208656 0.273341 -0.018768588 -0.14079633
-0.15226097 -0.3056379 0.11580483 0.030354787 0.19847795 0.07018823 0.2876015 -0.07701238
-0.2492339 -0.15221192 0.15723921 0.022986222 -0.11649696 0.025007488 0.042703785 -0.30784863
0.019083705 0.023263413 0.42542323 -0.2705559 -0.3139338 -0.30600747 -0.26548538 -0.24963279
00000000: d9c3 9a3d 8fac 2c3e 02ec 2a3e 9174 3bbe
00000010: 94bc 1bbe 5af3 8b3e 95c0 99bc ea2c 10be
00000020: 4dea 1bbe 927c 9cbe 152b ed3d 9aaa f83c
00000030: ce3d 4b3e d9be 8f3d 8140 933e abb8 9dbd
00000040: 2c37 7fbe 71dd 1bbe 5103 213e 9a4d bc3c
00000050: f595 eebd 81dc cc3c 2aea 2e3d 569e 9dbe
00000060: 6e55 9c3c ea92 be3c 13d1 d93e 4e86 8abe
00000070: eebb a0be 03ad 9cbe b3ed 87be bd9f 7fbe

weight f4 [1, 32]
0.039352987 0.13885468 1.1308689 0.26836345 -0.15240903 -0.05683881 0.3977367 0.08079761
0.22388381 0.5157514 -0.39490712 0.1674661 -0.23197033 0.08851618 -0.029374884 -0.051542822
0.66848934 -0.10456212 0.063308574 -0.10494908 -0.6239242 -0.1258679 -0.20940356 -0.043691147
-0.053501792 -0.007551385 -0.7967665 0.2351985 -0.0703293 0.19027667 0.1230031 -0.016286578
00000000: 9930 213d ec2f 0e3e 50c0 903f ef66 893e
00000010: 1d11 1cbe d0cf 68bd 25a4 cb3e 3879 a53d
00000020: cc41 653e 4908 043f 4431 cabe 3c7c 2b3e
00000030: a189 6dbe f947 b53d 99a3 f0bc 911e 53bd
00000040: 1e22 2b3f aa24 d6bd eda7 813d 8bef d6bd
00000050: 7fb9 1fbf 84e3 00be e36d 56be 7df5 32bd
00000060: b224 5bbd 9c71 f7bb e4f8 4bbf e0d7 703e
00000070: cf08 90bd e3d7 423e 0de9 fb3d 6e6b 85bc

weight f4 [32, 32, 3, 3]
0.036381062 -0.0230182 -0.011576902 -0.026928015 0.057123717 -0.050808996 -0.013476126 -0.039314736
-0.056399457 0.04479653 -0.039842125 0.0013673082 -0.02963383 0.05841366 0.026622858 -0.0026977994
-0.03318487 0.024569992 0.007794801 0.033845384 -0.045620065 0.032938953 0.044459384 0.05871043
0.02032822 -0.017049477 -0.012590323 -0.058846716 0.00050037354 0.04542492 0.052419227 -0.016465686
-0.04943724 0.05260166 -0.058275774 -0.0164337 0.041515265 -0.03593895 -0.006952636 -0.0013885684
-0.025580235 -0.056349404 0.053901907 -0.026563387 -0.055047154 -0.0342261 0.02119669 -0.029896347
-0.046618257 0.039831635 0.024152096 -0.034803085 -0.042491287 -0.016351406 -0.044475652 0.048564997
0.0332856 0.036856946 -0.030395001 0.02269109 0.036737118 0.035380136 0.041926313 -0.05327247
0.035948213 0.056845125 -0.036172725 0.005122658 -0.012865931 -0.025555104 -0.019820098 0.049818415
0.017339293 0.037067857 -0.013884563 0.007517215 0.008127745 0.01653492 -0.027190015 -0.042744007
-0.027920714 -0.015123513 0.04116984 -0.055295583 0.04272634 -0.04605979 0.05357914 0.0504652
-0.028460868 -0.020593505 -0.0048741773 0.03175124 0.034460682 0.021735389 0.028645482 -0.028143285
0.04477043 -0.0041132793 0.05833644 -0.045759134 0.029769044 0.019501362 0.006905135 0.022761289
0.004991647 0.01106232 -0.03186976 -0.021018501 0.013656307 -0.045187127 -0.0371731 0.054518085
0.01654837 0.01795974 -0.038831793 -0.029489694 0.020843726 0.024262626 0.04360803 -0.001764942
0.056659136 -0.049905747 -0.037853397 -0.019888535 -0.035034664 -0.010425713 -0.0531407 -0.054167867
-0.0049407966 -0.0048883334 -0.015481155 0.044731926 -0.0011739582 0.010628011 -0.009537403 0.052234236
0.0060387813 0.02773251 0.02523652 0.0027626567 -0.021711726 0.057292957 0.040290233 0.0016977675
0.018453885 -0.0069579035 0.024131719 0.043962833 0.04882251 -0.0472897 0.011725705 0.0114232935
-0.011212096 -0.014426142 0.0036536343 -0.05527492 -0.03969545 -0.058611136 -0.018214751 0.01597901
-0.030213468 0.011475008 0.005599614 -0.031341963 -0.019381046 -0.054984525 0.05291651 0.0337372
0.030447166 0.0033766776 0.0136500485 -0.030853432 0.02418084 -0.028867768 -0.047297396 0.027284075
-0.01738941 0.026210163 0.03522848 -0.023745492 0.054045383 0.044085126 0.037168186 -0.0038001984
-0.009793866 0.012690831 0.048465956 0.026450593 0.056122888 -0.038719796 -0.04141672 -0.058461394
0.043409202 0.045750204 -0.0014746487 0.020719033 0.038363848 0.014713246 0.002436839 0.024145547
0.020450141 -0.035689138 0.013750117 -0.020685285 -0.043081097 0.041227777 -0.01658513 0.05721039
0.024818826 0.031949233 0.05646443 0.047962297 -0.036680393 -0.05307328 -0.044719316 0.039012898
0.008813899 0.058760468 -0.039699346 0.027961913 -0.038842283 0.04988857 0.006643001 -0.0044560097
-0.037488163 0.037146587 0.025901373 0.006891098 0.03678072 0.001116652 -0.048324034 -0.035130344
-0.045179848 -0.043373197 -0.042480014 0.025082204 0.015566278 0.044712458 -0.011168003 -0.050939053
-0.01831204 -0.03605424 -0.030698085 -0.012852568 -0.054317195 0.026386578 -0.038638454 0.0054713003
0.025391128 0.0029933974 -0.027546365 -0.03645034 -0.030515548 0.0148909055 -0.009428617 -0.0073523223
00000000: 4f04 153d aa90 bcbc 0cad 3dbc 2498 dcbc
00000010: 8ffa 693d 181d 50bd f8ca 5cbc 7d08 21bd
00000020: 1e03 67bd 917c 373d 7f31 23bd 4037 b33a
00000030: a5c2 f2bc 2943 6f3d 2e18 da3c 90cd 30bb
00000040: dcec 07bd 0247 c93c 886b ff3b 75a1 0a3d
00000050: 1bdc 3abd ffea 063d 0b1b 363d 597a 703d
00000060: 5e87 a63c 58ab 8bbc a447 4ebc 4109 71bd
00000070: 802b 033a 7b0f 3a3d 8bb5 563d 0ce3 86bc
00000080: b47e 4abd d774 573d 94b2 6ebd f89f 86bc
00000090: e90b 2a3d b834 13bd f0d2 e3bb a000 b6ba
000000a0: a48d d1bc a2ce 66bd 3fc8 5c3d 769b d9bc
000000b0: 2079 61bd ab30 0cbd aea4 ad3c 2fe9 f4bc
000000c0: c9f2 3ebd 7f26 233d 9eda c53c ae8d 0ebd
000000d0: 580b 2ebd 62f3 85bc 1a2c 36bd 17ec 463d
000000e0: 7b56 083d 4ff7 163d f0fe f8bc aae2 b93c
000000f0: a979 163d c3ea 103d edba 2b3d 3c34 5abd
00000100: 6f3e 133d 6fd6 683d da29 14bd f8db a73b
00000110: a0cb 52bc f058 d1bc c25d a2bc 650e 4c3d
00000120: 220b 8e3c 77d4 173d 147c 63bc f852 f63b
00000130: 3c2a 053c 3e74 873c 98bd debc 5714 2fbd
00000140: fbb9 e4bc 9cc8 77bc b5a1 283d 9f7d 62bd
00000150: d101 2f3d 31a9 3cbd cd75 5b3d 99b4 4e3d
00000160: c426 e9bc b6b3 a8bc 90b7 9fbb 970d 023d
00000170: a526 0d3d 6a0e b23c eea9 ea3c bf8c e6bc
00000180: 3361 373d b0c8 86bb 31f2 6e3d ee6d 3bbd
00000190: 36de f33c 52c1 9f3c 7844 e23b e275 ba3c
000001a0: f890 a33b bc3e 353c de89 02bd fe2e acbc
000001b0: b4be 5f3c 2316 39bd d242 18bd 5b4e 5f3d
000001c0: 7290 873c 4e20 933c 160e 1fbd 5f94 f1bc
000001d0: 76c0 aa3c 6ac2 c63c 559e 323d a055 e7ba
000001e0: 6913 683d f869 4cbd 2a0c 1bbd 48ed a2bc
000001f0: 8280 0fbd 9cd0 2abc 10aa 59bd 20df 5dbd
00000200: 68e6 a1bb 502e a0bb aca4 7dbc d338 373d
00000210: 80df 99ba 1c21 2e3c c442 1cbc 91f3 553d
00000220: f8e0 c53b 4a2f e33c d2bc ce3c b00d 353b
00000230: cadc b1bc 05ac 6a3d 5f07 253d a087 de3a
00000240: 9a2c 973c 20ff e3bb e2af c53c 5f12 343d
00000250: 1dfa 473d d8b2 41bd 2c1d 403c c428 3b3c
00000260: f0b2 37bc a05b 6cbc d071 6f3b f467 62bd
00000270: b297 22bd 3b12 70bd 1a37 95bc 6ae6 823c
00000280: 3c82 f7bc ac01 3c3c f87c b73b 6e60 00bd
00000290: 00c5 9ebc 7437 61bd fbbe 583d 0530 0a3d
000002a0: 566c f93c 404b 5d3b 74a4 5f3c 56c0 fcbc
000002b0: e616 c63c 197c ecbc eaba 41bd da82 df3c
000002c0: 3c74 8ebc b2b6 d63c bd4b 103d e885 c2bc
000002d0: b15e 5d3d 9b92 343d ab3d 183d c00c 79bb
000002e0: 7476 20bc 34ed 4f3c 3d84 463d eaae d83c
000002f0: 1de1 653d a698 1ebd 94a4 29bd 3775 6fbd
00000300: d9cd 313d 9164 3b3d 0049 c1ba f6ba a93c
00000310: 6923 1d3d d40f 713c 60b3 1f3b e2cc c53c
00000320: 0e87 a73c c62e 12bd 2c48 613c 3074 a9bc
00000330: ce75 30bd 75de 283d 8add 87bc 7155 6a3d
00000340: da50 cb3c 33dd 023d 3f47 673d 1d74 443d
00000350: 2e3e 16bd 5e63 59bd 9a2b 37bd fdcb 1f3d
00000360: 2c68 103c d1ae 703d c89b 22bd 6210 e53c
00000370: 1619 1fbd f557 4c3d 88ad d93b b803 92bb
00000380: 308d 19bd 0527 183d 1e2f d43c b8ce e13b
00000390: 61a7 163d a05c 923a 6cef 45bd d6e4 0fbd
000003a0: 810e 39bd 18a8 31bd 86ff 2dbd 3279 cd3c
000003b0: b409 7f3c 6924 373d 00fa 36bc 78a5 50bd
000003c0: 2203 96bc 9cad 13bd 8d7a fbbc 9493 52bc
000003d0: b57b 5ebd aa28 d83c 5b43 1ebd 9848 b33b
000003e0: 0e01 d03c e02c 443b eaa8 e1bc f44c 15bd
000003f0: befb f9bc fcf8 733c 7c7a 1abc c0eb f0bb

bias f4 [32]
-0.046731982 0.038855772 0.05013832 0.024570938 -0.0061209463 -0.028601239 -0.010561466 -0.049739834
-0.015541103 0.054938328 0.011051472 -0.0022960342 -0.041257437 -0.00249362 0.030496787 -0.025398996
0.012571912 -0.008026347 4.1607767e-05 0.009231348 0.034488034 0.047347914 -0.047087975 -0.005775325
0.0415773 -0.04880334 -0.007714946 -0.043710012 -0.02172885 -0.040239856 0.0269305 -0.010120422
00000000: 096a 3fbd 3b27 1f3d d75d 4d3d fe48 c93c
00000010: 3892 c8bb 254d eabc 000a 2dbc ffbb 4bbd
00000020: 1ca0 7ebc 0307 613d 3c11 353c 1079 16bb
00000030: 8ffd 28bd 006c 23bb 66d4 f93c 8e11 d0bc
00000040: 6cfa 4d3c f080 03bc 0084 2e38 143f 173c
00000050: 5343 0d3d e3ef 413d 52df 40bd f03e bdbb
00000060: f54c 2a3d 03e6 47bd a8cd fcbb 4509 33bd
00000070: b400 b2bc 8cd2 24bd 5a9d dc3c 20d0 25bc

weight f4 [32, 32, 3, 3]
0.038565997 0.0012832806 -0.020999815 0.011118349 0.00013772771 -0.008106843 0.007265616 0.043174032
-0.018789038 -0.04802106 -0.006361913 0.0065024383 0.027655099 -0.055095177 -0.005382005 0.024715591
0.024591219 -0.009835895 0.04303534 0.006638538 0.041499425 -0.051931325 0.017128173 -0.009510253
-0.03179281 -0.05054975 8.567795e-05 -0.046820708 -0.028826063 -0.015857588 0.019858684 -0.055321258
0.058467973 0.03893457 0.013321985 -0.03997101 0.0483242 0.024521608 0.012623403 -0.05449573
0.0359944 0.025758464 -0.022473115 0.020306747 -0.026718244 0.012613144 0.030791346 -0.037375577
0.023216981 -0.017059084 0.045595754 -0.008780587 0.055471253 0.035232622 -0.036144618 0.04602355
-0.0005025938 0.0142661445 -0.057187233 -0.0058646984 -0.025257658 0.012663808 -0.017192084 -0.0072898045
0.015933383 -0.023835573 -0.05257436 0.0018776208 0.023047846 -0.04310459 -0.024881061 -0.021826793
0.022025656 0.01625872 -0.036346465 0.009343196 -0.013651539 0.05019333 -0.015115287 -0.0071060136
-0.026578259 0.035413716 -0.04399346 -0.040206246 0.0032297 0.04437544 -0.0062075853 0.04540119
-0.029029718 0.00029003993 0.044015724 0.022967834 0.035146896 -0.0024272986 -0.020293392 -0.057209115
-0.043504793 0.035096344 0.042937893 0.01932526 0.030712772 -0.05211482 0.00510123 0.021136556
0.02800088 0.0014709756 0.030773047 -0.0077257566 -0.010697931 -0.022984419 0.04349378 0.04453787
0.0023987964 0.037176568 0.019061726 -0.035330206 -0.022676092 0.038791616 0.019220565 0.049868975
0.022663485 0.052915905 0.055121187 0.035694618 -0.023695976 -0.022980422 0.044500146 -0.05471
0.018579025 -0.031995505 -0.0430021 0.012681078 -0.033092834 -0.039401345 -0.023396831 0.048186574
-0.03935407 -0.027237091 -0.017360482 0.046149377 -0.040404998 0.022195268 0.057455745 0.04480723
0.034095373 0.05233891 0.04363553 -0.022609621 0.038114052 -0.035270423 -0.006685775 0.021143306
0.0074772574 0.013801698 -0.057509832 -0.017490182 0.00079608336 0.003689643 0.054319542 0.022671733
0.03537896 0.0034036264 0.0051022805 0.009842578 0.029187385 -0.027937165 -0.051844254 0.017424319
-0.042842455 -0.048541524 0.03269643 0.027732912 0.058680784 -0.005362693 -0.0050787292 -0.020447165
-0.056863237 0.016309198 -0.03972511 -0.03296499 -0.03602837 -0.058592543 -0.018489555 -0.02835187
0.017579045 0.0077377893 0.039146703 -0.017475974 0.01140276 -0.010247305 0.0451334 0.05576339
-0.040706843 0.015790593 -0.013922684 -0.045600854 -0.033867802 0.0054416545 0.055424977 -0.05003083
-0.040968556 0.0022326447 -0.0020360388 -0.034193613 -0.031467907 -0.05534322 0.039178584 -0.047539953
-0.008593988 -0.013408534 0.020291973 -0.052724913 -0.043139365 0.011827264 -0.0054766163 -0.025530543
0.037781786 0.04168805 0.036771443 -0.04563576 -0.01753559 -0.024857216 0.019356798 -0.047185246
-0.05485487 0.016341712 -0.007993538 -0.020123433 0.034496773 -0.010565359 -0.0029782355 0.054675836
0.05832159 0.04764572 -0.03750787 0.03264318 0.04167371 0.0030630715 0.010739204 0.013171513
-0.029315023 0.024416666 0.050841685 -0.03331382 0.044971164 0.049691577 0.052228276 0.046580154
-0.017909467 0.042899806 -0.037428156 0.022709098 -0.057376906 -0.011113837 -0.05518138 0.040029358
00000000: 61f7 1d3d c033 a83a ce07 acbc bc29 363c
00000010: 006b 1039 90d2 04bc 6814 ee3b 41d7 303d
00000020: 78eb 99bc bbb1 44bd 9877 d0bb 6812 d53b
00000030: f28c e23c 7bab 61bd 885b b0bb 5a78 ca3c
00000040: 8673 c93c bc26 21bc d345 303d 1888 d93b
00000050: 4dfb 293d f1b5 54bd 6250 8c3c e4d0 1bbc
00000060: 2d39 02bd 410d 4fbd 00ae b338 12c7 3fbd
00000070: a324 ecbc c6e7 81bc aeae a23c 8b98 62bd
00000080: 1d7c 6f3d db79 1f3d 7444 5a3c a4b8 23bd
00000090: 99ef 453d 8ae1 c83c 64d2 4e3c ea36 5fbd
000000a0: dd6e 133d 6a03 d33c 8a19 b8bc 565a a63c
000000b0: 38e0 dabc 5ca7 4e3c 223e fc3c 2217 19bd
000000c0: 8a31 be3c 7ebf 8bbc 9dc2 3a3d 74dc 0fbc
000000d0: d335 633d 1550 103d 610c 14bd 3183 3c3d
000000e0: 80c0 03ba 8cbc 693c 293d 6abd a82c c0bb
000000f0: 26e9 cebc dc7b 4f3c 6ad6 8cbc 50df eebb
00000100: ba86 823c d242 c3bc 3658 57bd 801a f63a
00000110: d6ce bc3c 708e 30bd 5ed3 cbbc 1ace b2bc
00000120: 266f b43c 0231 853c 08e0 14bd 3414 193c
00000130: b4aa 5fbc 8597 4d3d 1ca6 77bc 90d9 e8bb
00000140: a6ba d9bc f90d 113d 7c32 34bd 4eaf 24bd
00000150: 60a9 533b 05c3 353d 0069 cbbb 99f6 393d
00000160: bbcf edbc 8010 9839 d549 343d 0a27 bc3c
00000170: 31f6 0f3d 5013 1fbb 543e a6bc 1b54 6abd
00000180: 1532 32bd 2fc1 0f3d a5df 2f3d 0250 9e3c
00000190: 5a99 fb3c 5976 55bd 3828 a73b 9226 ad3c
000001a0: 1a62 e53c c0cd c03a c217 fc3c 5828 fdbb
000001b0: 6046 2fbc d249 bcbc 8926 323d 576d 363d
000001c0: 2035 1d3b 7546 183d 5627 9c3c 68b6 10bd
000001d0: 36c3 b9bc f5e3 1e3d 7274 9d3c 6943 4c3d
000001e0: c6a8 b93c 59be 583d c1c6 613d 8534 123d
000001f0: 101e c2bc 7041 bcbc c945 363d 9817 60bd
00000200: 0a33 983c b80d 03bd f822 30bd 4cc4 4f3c
00000210: 5a8c 07bd 4e63 21bd b6aa bfbc 495f 453d
00000220: bc31 21bd 5220 dfbc 9237 8ebc 2107 3d3d
00000230: b67f 25bd dad2 b53c b756 6b3d c987 373d
00000240: 97a7 0b3d 5361 563d 2bbb 323d d037 b9bc
00000250: 7b1d 1c3d b877 10bd 5814 dbbb ba34 ad3c
00000260: c803 f53b 8420 623c 6e8f 6bbd 9247 8fbc
00000270: 40b0 503a f0cd 713b 2b7e 5e3d 12ba b93c
00000280: 87e9 103d 600f 5f3b 0831 a73b c442 213c
00000290: 621a ef3c 7bdc e4bc a45a 54bd 72bd 8e3c
000002a0: 927b 2fbd 7ad3 46bd b1ec 053d 2230 e33c
000002b0: 435b 703d 88b9 afbb 786b a6bb d080 a7bc
000002c0: 6de9 68bd de9a 853c ccb6 22bd 4c06 07bd
000002d0: 7c92 13bd bcfe 6fbd 6877 97bc 2e42 e8bc
000002e0: ee01 903c 488d fd3b 4b58 203d c629 8fbc
000002f0: a4d2 3a3c 50e4 27bc cddd 383d 2768 643d
00000300: 38bc 26bd 465b 813c f81b 64bc f6c7 3abd
00000310: f7b8 0abd e84f b23b 4d05 633d 21ed 4cbd
00000320: a5ce 27bd 9051 123b 106f 05bb 9a0e 0cbd
00000330: 7ee4 00bd 92af 62bd b979 203d 41b9 42bd
00000340: cccd 0cbc 78af 5bbc 5a3b a63c 14f6 57bd
00000350: e7b2 30bd 24c7 413c 3075 b3bb 6e25 d1bc
00000360: 13c1 1a3d 17c1 2a3d a79d 163d 90ec 3abd
00000370: cca6 8fbc 5ca1 cbbc 2692 9e3c 5145 41bd
00000380: 80af 60bd 0edf 853c 54f7 02bc e6d9 a4bc
00000390: 7d4c 0d3d 541a 2dbc 802e 43bb c5f3 5f3d
000003a0: 9fe2 6e3d 2928 433d daa1 19bd dbb4 053d
000003b0: 0db2 2a3d d0bd 483b 7cf3 2f3c 54cd 573c
000003c0: 0f26 f0bc 7605 c83c 5f3f 503d 1274 08bd
000003d0: af33 383d 6589 4b3d 51ed 553d d5ca 3e3d
000003e0: e0b6 92bc b5b7 2f3d 444e 19bd 6e08 ba3c
000003f0: 0c04 6bbd d016 36bc df05 62bd d3f5 233d

bias f4 [32]
0.048965167 0.015026372 -0.020997737 -0.0345938 -0.051155083 0.0068089403 -0.03239405 0.02766217
0.026565108 -0.025204554 0.03010356 0.006841954 0.0072569437 0.024830166 0.035031397 0.018251415
0.03404734 -0.0040423833 -0.011196129 -0.021230303 0.02623551 -0.013120454 -0.012740158 0.018421654
-0.035638947 0.023585822 0.04257245 0.03197382 0.0026504062 0.0019633546 -0.047056 -0.058532383
00000000: b38f 483d 2c31 763c 7203 acbc 3ab2 0dbd
00000010: fe87 51bd 881d df3b a0af 04bd c69b e23c
00000020: 129f d93c c879 cebc be9b f63c 7832 e03b
00000030: a8cb ed3b a268 cb3c 157d 0f3d fe83 953c
00000040: 3975 0b3d f875 84bb f86f 37bc 2ceb adbc
00000050: daeb d63c 2cf7 56bc 18bc 50bc 02e9 963c
00000060: 25fa 11bd 0e37 c13c 7360 2e3d fbf6 023d
00000070: 70b2 2d3b a0ab 003b cbbd 40bd a7bf 6fbd

weight f4 [32]
1.0 1.0 1.0 1.0 1.0 1.0 1.0 1.0
1.0 1.0 1.0 1.0 1.0 1.0 1.0 1.0
1.0 1.0 1.0 1.0 1.0 1.0 1.0 1.0
1.0 1.0 1.0 1.0 1.0 1.0 1.0 1.0
00000000: 0000 803f 0000 803f 0000 803f 0000 803f
00000010: 0000 803f 0000 803f 0000 803f 0000 803f
00000020: 0000 803f 0000 803f 0000 803f 0000 803f
00000030: 0000 803f 0000 803f 0000 803f 0000 803f
00000040: 0000 803f 0000 803f 0000 803f 0000 803f
00000050: 0000 803f 0000 803f 0000 803f 0000 803f
00000060: 0000 803f 0000 803f 0000 803f 0000 803f
00000070: 0000 803f 0000 803f 0000 803f 0000 803f

bias f4 [32]
0.0 0.0 0.0 0.0 0.0 0.0 0.0 0.0
0.0 0.0 0.0 0.0 0.0 0.0 0.0 0.0
0.0 0.0 0.0 0.0 0.0 0.0 0.0 0.0
0.0 0.0 0.0 0.0 0.0 0.0 0.0 0.0
00000000: 0000 0000 0000 0000 0000 0000 0000 0000
00000010: 0000 0000 0000 0000 0000 0000 0000 0000
00000020: 0000 0000 0000 0000 0000 0000 0000 0000
00000030: 0000 0000 0000 0000 0000 0000 0000 0000
00000040: 0000 0000 0000 0000 0000 0000 0000 0000
00000050: 0000 0000 0000 0000 0000 0000 0000 0000
00000060: 0000 0000 0000 0000 0000 0000 0000 0000
00000070: 0000 0000 0000 0000 0000 0000 0000 0000

running_mean f4 [32]
0.40264115 0.4712464 0.109564714 0.05062774 0.22485994 -0.029887827 0.16409926 0.7079758
1.0958992 0.27008227 0.31561077 0.67832255 0.95495147 0.115345016 0.42498344 -0.69600713
0.31489313 -0.0816008 -0.0707152 -1.2520163 -0.5464505 -1.1911225 1.2203462 0.84031993
0.17358795 -0.9110496 0.43814427 -0.5477426 -0.15045103 0.18275346 0.39978737 -0.10272262
00000000: fb26 ce3e 3547 f13e 7763 e03d 085f 4f3d
00000010: af41 663e 51d7 f4bc a309 283e e73d 353f
00000020: 6d46 8c3f 3948 8a3e bc97 a13e 8ca6 2d3f
00000030: b377 743f 023a ec3d 6e97 d93e 862d 32bf
00000040: ac39 a13e 521e a7bd 21d3 90bd 1242 a0bf
00000050: 2ee4 0bbf b476 98bf 4e34 9c3f 351f 573f
00000060: 0ac1 313e 8c3a 69bf 7254 e03e dc38 0cbf
00000070: d60f 1abe b923 3b3e eeb0 cc3e 3d60 d2bd

running_var f4 [32]
0.9178369 0.65215874 0.4283106 0.5415841 0.6016671 0.8740469 2.032271 0.6015559
0.511049 0.32584855 0.6569511 0.42257923 0.8282683 1.7715312 0.92872006 0.4849412
0.36030945 0.6001591 0.5441459 0.6434657 0.55706084 0.71261483 1.5013678 1.8369383
0.36875802 0.56225735 0.6782947 0.49660942 0.3921499 0.91137713 0.36033362 0.31846136
00000000: 5cf7 6a3f e0f3 263f 874b db3e 41a5 0a3f
00000010: db06 1a3f 8ac1 5f3f ba10 0240 91ff 193f
00000020: 1bd4 023f 9fd5 a63e f32d 283f 4e5c d83e
00000030: 6409 543f 89c1 e23f 99c0 6d3f 374a f83e
00000040: 7b7a b83e 07a4 193f 254d 0b3f 2bba 243f
00000050: 8a9b 0e3f ed6d 363f d22c c03f cb20 eb3f
00000060: dacd bc3e 19f0 0f3f b9a4 2d3f 9743 fe3e
00000070: dfc7 c83e 0350 693f a67d b83e 5e0d a33e

weight f4 [32]
1.0 1.0 1.0 1.0 1.0 1.0 1.0 1.0
1.0 1.0 1.0 1.0 1.0 1.0 1.0 1.0
1.0 1.0 1.0 1.0 1.0 1.0 1.0 1.0
1.0 1.0 1.0 1.0 1.0 1.0 1.0 1.0
00000000: 0000 803f 0000 803f 0000 803f 0000 803f
00000010: 0000 803f 0000 803f 0000 803f 0000 803f
00000020: 0000 803f 0000 803f 0000 803f 0000 803f
00000030: 0000 803f 0000 803f 0000 803f 0000 803f
00000040: 0000 803f 0000 803f 0000 803f 0000 803f
00000050: 0000 803f 0000 803f 0000 803f 0000 803f
00000060: 0000 803f 0000 803f 0000 803f 0000 803f
00000070: 0000 803f 0000 803f 0000 803f 0000 803f

bias f4 [32]
0.0 0.0 0.0 0.0 0.0 0.0 0.0 0.0
0.0 0.0 0.0 0.0 0.0 0.0 0.0 0.0
0.0 0.0 0.0 0.0 0.0 0.0 0.0 0.0
0.0 0.0 0.0 0.0 0.0 0.0 0.0 0.0
00000000: 0000 0000 0000 0000 0000 0000 0000 0000
00000010: 0000 0000 0000 0000 0000 0000 0000 0000
00000020: 0000 0000 0000 0000 0000 0000 0000 0000
00000030: 0000 0000 0000 0000 0000 0000 0000 0000
00000040: 0000 0000 0000 0000 0000 0000 0000 0000
00000050: 0000 0000 0000 0000 0000 0000 0000 0000
00000060: 0000 0000 0000 0000 0000 0000 0000 0000
00000070: 0000 0000 0000 0000 0000 0000 0000 0000

running_mean f4 [32]
0.069159895 0.081223056 0.074038126 -0.08289737 -0.019259278 0.23713997 -0.14913473 -0.21559846
-0.041975636 0.14155565 0.14061846 -0.12058006 -0.12530607 -0.08774561 0.2757931 -0.27681503
0.008972405 -0.11771195 0.11888049 0.22896796 0.116089515 0.0662294 0.21957774 0.024315203
0.030533355 0.037556868 -0.0673991 -0.008519588 0.14061931 0.13385615 0.02243739 0.060634673
00000000: b4a3 8d3d 4658 a63d 4da1 973d 19c6 a9bd
00000010: a2c5 9dbc d2d4 723e c6b6 18be d8c5 5cbe
00000020: a5ee 2bbd f7f3 103e 49fe 0f3e aef2 f6bd
00000030: 3c50 00be f8b3 b3bd c134 8d3e b3ba 8dbe
00000040: ff00 133c f612 f1bd 9d77 f33d 9476 6a3e
00000050: 57c0 ed3d 48a3 873d fdd8 603e ad30 c73c
00000060: 1621 fa3c 3bd5 193d 8a08 8abd be95 0bbc
00000070: 82fe 0f3e 9611 093e 9ece b73c 105c 783d

running_var f4 [32]
0.069809616 0.06511729 0.094870724 0.04917733 0.12110446 0.05828034 0.10751817 0.067479685
0.1051046 0.076709025 0.086267374 0.10828386 0.111839876 0.07337411 0.09234341 0.09503736
0.03623985 0.10369854 0.140101 0.07364128 0.097353466 0.09108253 0.07564078 0.13710493
0.07277186 0.07764989 0.10912515 0.04090691 0.054542083 0.043881223 0.08680777 0.08274471
00000000: 58f8 8e3d 375c 853d 954b c23d 2b6e 493d
00000010: 9d05 f83d 5eb7 6e3d 7c32 dc3d ca32 8a3d
00000020: 1541 d73d 9f19 9d3d f3ac b03d eec3 dd3d
00000030: 4e0c e53d 2a45 963d 8b1e bd3d f3a2 c23d
00000040: 3d70 143d e65f d43d a376 0f3e 3dd1 963d
00000050: 4161 c73d 7a89 ba3d 8ee9 9a3d 3c65 0c3e
00000060: 6a09 953d e806 9f3d 027d df3d 018e 273d
00000070: 8567 5f3d ccbc 333d 46c8 b13d 0f76 a93d
