models/5_cross_5_iter_30.pt (torch_old, 339781 bytes, 66 tensors)

weight f4 [32, 3, 3, 3]
0	0xbe9ba5d5	-0.30399957
1	0xbecc2eb2	-0.39879376
2	0x3e148738	0.14504707
3	0xbe87e42c	-0.2654127
4	0xbd10fdf8	-0.035398453
5	0xbd9bfc19	-0.07616443
6	0xbd66f4c5	-0.056385774
7	0xbb32c198	-0.0027276035
8	0x3c95b6d2	0.018275652
9	0x3ea92e2c	0.3304304
10	0x3f06d92b	0.5267512
11	0xbdd724ae	-0.10505043
12	0x3defd43f	0.117104046
13	0xbec37186	-0.3817255
14	0x3ea2bf14	0.31786406
15	0x3e0f892b	0.14017169
16	0x3e14be07	0.14525615
17	0x3e8c770e	0.27434582
18	0x3e87bf9e	0.2651338
19	0x3d81667a	0.06318374
20	0x3c099524	0.008397374
21	0x3e62a08d	0.22131558
22	0x3daaae85	0.08334068
23	0xbd15c4d2	-0.036564656
24	0x3e174158	0.1477102
25	0x3e029dd1	0.12755515
26	0x3e532bd4	0.20622188
27	0x3fa95bef	1.3231181
28	0xbe6f449b	-0.23366015
29	0xbfae5e82	-1.3622591
30	0x3d5e1999	0.05422363
31	0x3f81a0ac	1.0127158
32	0xbeb37b10	-0.35054827
33	0xbe4a5ca7	-0.19761907
34	0x3f9943ab	1.1973776
35	0xbf46e3b2	-0.77691185
36	0xbfde1c6e	-1.7352426
37	0x3ef854a4	0.48502076
38	0xbf518282	-0.81839764
39	0x3ece417e	0.40284342
40	0x3e80aec6	0.25133342
41	0x3f8da743	1.1066669
42	0xbdec7a12	-0.115467206
43	0xbf9ea772	-1.239485
44	0x3e9f6215	0.31129518
45	0xbf0de633	-0.5542938
46	0xbe9b63cd	-0.3034958
47	0xbf0bac87	-0.5456013
48	0xbee33132	-0.4437347
49	0xbf150242	-0.5820657
50	0xbe6a347f	-0.22871588
51	0xbee39cda	-0.44455606
52	0xbeb5018f	-0.35352752
53	0xbe8df7f5	-0.2772824
54	0x3f973b49	1.1814967
55	0xbfd25732	-1.643286
56	0x3f24ed41	0.6442452
57	0xc0045506	-2.0676894
58	0xc030b544	-2.7610636
59	0x3f216908	0.6305089
60	0x3db83bbf	0.08995771
61	0x403512f2	2.8292813
62	0x404e1239	3.2198622
63	0x3f1b7887	0.60730785
64	0xc0eba09b	-7.363355
65	0x3f03f8d3	0.5155155
66	0xc04fa1f2	-3.2442594
67	0xbfb7b493	-1.4351982
68	0x3faa531b	1.3306612
69	0x40254944	2.5825968
70	0x3e81b601	0.2533417
71	0x401c8d7c	2.4461355
72	0xbde650c0	-0.112458706
73	0xbe04877b	-0.12942307
74	0xbd94d7a9	-0.072676964
75	0x3d587301	0.05284405
76	0x3c9adbb9	0.0189036
77	0xbdd591e3	-0.10428216
78	0xbd0bf9af	-0.034173664
79	0x3df36603	0.118846916
80	0xbd881781	-0.06645108
81	0xbe1abc11	-0.15110804
82	0xbee580c3	-0.448248
83	0x3f30d0ca	0.69068587
84	0xbf2b33b3	-0.6687576
85	0xbea9ae39	-0.33140734
86	0xbeac7007	-0.3367922
87	0xbc2b5b6a	-0.0104588065
88	0xbf76413e	-0.961933
89	0x3e80e2e5	0.25173107
90	0xbf88c65e	-1.0685537
91	0x3e16270f	0.14663337
92	0xbed18d4d	-0.40928116
93	0x3ed58b66	0.41707915
94	0x3e1fe70f	0.15615486
95	0x3f7aeeca	0.98020613
96	0x3d2e1eb8	0.042509764
97	0x3c2c748c	0.010525834
98	0xbf4bdd1d	-0.7963427
99	0xbf16c903	-0.5890047
100	0xbf6d65ab	-0.9273326
101	0xbf13a9c3	-0.5768091
102	0xbf478b3d	-0.77946836
103	0xbf6be19a	-0.92141116
104	0xbf4f255e	-0.8091639
105	0xbf166124	-0.58741975
106	0xbf6d5fbf	-0.9272422
107	0xbf3c05fb	-0.73446625
108	0x3eb95045	0.36194053
109	0x3c5a9fdc	0.0133437775
110	0x3f0ab14c	0.54176784
111	0x3f8bbc5b	1.0916857
112	0x3e21ac46	0.15788373
113	0xbdc48be1	-0.09596992
114	0x3dfb17e6	0.12260418
115	0x3cdcc8b4	0.026951171
116	0x3ec63b8d	0.3871731
117	0x3f0c8aa9	0.5489908
118	0xbf88cef3	-1.0688156
119	0xbf6af4fc	-0.91780066
120	0xbebc74b0	-0.36807775
121	0x3fbe6f39	1.4877692
122	0xbee4a0cb	-0.44653925
123	0x3e526004	0.2054444
124	0x3e26784f	0.16256832
125	0xbe9e92c3	-0.30971345
126	0xbf01e3e4	-0.5073836
127	0xbecd599b	-0.40107426
128	0xbf087ff9	-0.5332027
129	0xbf105488	-0.56378984
130	0xbedda063	-0.43286428
131	0xbf0f7f26	-0.5605339
132	0xbe87246d	-0.26394978
133	0xbefb503e	-0.49084657
134	0xbedd70de	-0.43250173
135	0x3ed1357c	0.40861118
136	0x3dd1f7ef	0.10252368
137	0xbdb21bd1	-0.08696712
138	0x3e8ee401	0.27908328
139	0x3e465031	0.19366528
140	0x3e06069f	0.13088463
141	0x3e8bab73	0.27279243
142	0x3ec6ea7a	0.38850766
143	0x3e845989	0.2584956
144	0xbe96ca5f	-0.29451272
145	0x3e3c017c	0.18359941
146	0xbe6bc1ad	-0.230231
147	0xbea26cb7	-0.31723568
148	0xbe92fd2b	-0.28708777
149	0xbe1c48e7	-0.15262185
150	0xbdfeb172	-0.12436189
151	0xbddcf421	-0.107887514
152	0x3ccced33	0.02501545
153	0xbdb2c873	-0.08729639
154	0x3dfdeffb	0.12399288
155	0xbe16cb9c	-0.14726108
156	0xbdb26e56	-0.08712451
157	0xbe2a8877	-0.1665362
158	0xbe3b95bf	-0.18318842
159	0xbd791fb7	-0.06082126
160	0xbe09697f	-0.1341915
161	0x3deee29f	0.11664318
162	0xbeecbdf6	-0.4623868
163	0xbf1e1b9a	-0.61760867
164	0xbe981384	-0.2970239
165	0xbeccb781	-0.39983752
166	0x3f25512e	0.64576995
167	0xbf5d481b	-0.8643815
168	0x3e927d73	0.28611335
169	0xbed69668	-0.41911626
170	0xbe4731be	-0.19452569
171	0xbeb9777e	-0.36223978
172	0x3eafae29	0.3431256
173	0xbf38a068	-0.7211976
174	0xbeedbce3	-0.46433172
175	0xbf698eb0	-0.9123335
176	0xbef73ddc	-0.48289382
177	0xbf0095b4	-0.5022843
178	0x3e895ba2	0.26827723
179	0x3f83ad8b	1.0287336
180	0x3ec0fa28	0.37690854
181	0x3e2feb5c	0.17179626
182	0x3e46d349	0.19416536
183	0x3ea22178	0.3166616
184	0x3e873fc0	0.26415825
185	0x3e8d6543	0.2761632
186	0x3ecf16fc	0.40447223
187	0x3ede4754	0.43413794
188	0x3ebbc310	0.36672258
189	0x3fce1ed0	1.6103153
190	0xbf17b862	-0.5926572
191	0x3f456c11	0.7711802
192	0xbff3c8af	-1.9045619
193	0x3faf16c9	1.3678828
194	0x3fc3cdd1	1.5297185
195	0xbea89d91	-0.32932714
196	0x40b57470	5.6704636
197	0xc02f9869	-2.7436774
198	0x3fe82d97	1.8138913
199	0xbfb54ca4	-1.4164014
200	0xbf54acd1	-0.83076197
201	0x3fa90602	1.3204958
202	0xbe49c443	-0.19703774
203	0x3f6fb862	0.9364072
204	0x3ff50304	1.9141545
205	0x3fb7ddb9	1.4364539
206	0x3ea69bbe	0.32540697
207	0xbeb8ee62	-0.36119372
208	0xbf130d5b	-0.57442254
209	0xbe96272d	-0.29326764
210	0xbeb87f84	-0.36034787
211	0xbedf8db5	-0.436628
212	0xbea5a3e5	-0.32351604
213	0xbeb122ce	-0.34596866
214	0xbf080d2c	-0.531451
215	0xbed17428	-0.40908933
216	0xbe40cd38	-0.18828285
217	0x3ea1cb32	0.31600338
218	0xbed95cf2	-0.42453724
219	0x3cb380b3	0.021911955
220	0xbe461c27	-0.19346677
221	0xbe65e9fe	-0.22452542
222	0xbe79c725	-0.24392374
223	0xbe85d827	-0.26141474
224	0x3e1897d3	0.14901666
225	0x3dd4842a	0.10376771
226	0xbeb0bc54	-0.34518683
227	0xbd2f258b	-0.042760413
228	0xbd54b5ad	-0.051931072
229	0xbe419ece	-0.18908235
230	0xbccc58b8	-0.024944648
231	0x3ec3f1c7	0.382704
232	0xbd8af97e	-0.06785868
233	0xbe61c1ea	-0.22046629
234	0xbe756143	-0.23962884
235	0xbe05f9ff	-0.13083647
236	0xbd67995e	-0.056542747
237	0xbe339083	-0.17535596
238	0xbe463b09	-0.19358458
239	0xbe660469	-0.2246262
240	0xbe19931b	-0.14997523
241	0xbda77432	-0.08176459
242	0xbd9d2b61	-0.076742895
243	0x3e315eca	0.17321315
244	0xbecb8aab	-0.39754233
245	0xbe001476	-0.12507805
246	0x3ee5efef	0.44909617
247	0x3d01c50d	0.031682063
248	0x3e7120e5	0.23547705
249	0x3f82f55d	1.0231129
250	0xbe5e8178	-0.21729076
251	0x3e1d821a	0.15381661
252	0xbd47ad20	-0.04874909
253	0xbe97d445	-0.29654136
254	0x3eb8381b	0.35980305
255	0x3e4d95f0	0.20076728

bias f4 [32]
0	0x3cc7c489	0.024385707
1	0xbdb60897	-0.08888357
2	0xbdabe68b	-0.08393582
3	0x3d8546ae	0.06507622
4	0xbe32e3c5	-0.174697
5	0xbca76a83	-0.020436531
6	0x3e07a37c	0.13245958
7	0x3e305119	0.17218436
8	0x3dafda36	0.08586542
9	0x3d41cd7f	0.047315117
10	0x3d63d849	0.055626187
11	0x3e356605	0.17714699
12	0x3cb3e314	0.021958865
13	0xbe04aa20	-0.12955523
14	0x3e2aa05d	0.16662736
15	0x3e09c576	0.13454232
16	0xbddcba59	-0.107777305
17	0x3c1a233d	0.0094078155
18	0xbe1a9c12	-0.15098599
19	0xbe2e58b4	-0.17026025
20	0x3d087f17	0.033324327
21	0x3dcf5998	0.101245105
22	0xbd171aa3	-0.036890637
23	0xbde357f6	-0.111007616
24	0x3dcc2fdb	0.09970065
25	0x3d1073fe	0.03526687
26	0xbd8b2fd5	-0.067962326
27	0x3df5a86a	0.11995013
28	0xbcb0bde0	-0.021574914
29	0x3d0de514	0.034642294
30	0xbe040060	-0.12890768
31	0xbdadeb58	-0.08492154

weight f4 [32]
0	0x3d977438	0.07395214
1	0x3eb9e035	0.3630387
2	0x407922d5	3.892751
3	0x3eaf0f11	0.34191182
4	0x3e2d7906	0.16940698
5	0xbde750fb	-0.11294743
6	0x3d12cb77	0.03583857
7	0xc0876594	-4.2311497
8	0x3d9854ba	0.07438035
9	0x3dd617b8	0.10453743
10	0x40a286e0	5.078964
11	0x40df34c6	6.975192
12	0xc040753e	-3.007156
13	0x404e9263	3.2276847
14	0x404c33a1	3.1906512
15	0xbd63071d	-0.055426706
16	0x3c0354c5	0.008015816
17	0x403972ba	2.8976274
18	0x3e8181e4	0.2529441
19	0x400dcf12	2.2157636
20	0x3d124b73	0.035716485
21	0x40ba4c6d	5.8218293
22	0xbe06f2ae	-0.13178512
23	0xc0c5688b	-6.1690116
24	0x40e467b8	7.137661
25	0x3fe21ef6	1.7665699
26	0x40d58e87	6.6736484
27	0x4082c97d	4.0870957
28	0x3e3515ed	0.17684145
29	0x40578db0	3.368023
30	0x400e1e5f	2.2206037
31	0xbe254e3e	-0.16143128

bias f4 [32]
0	0xbef4a08d	-0.4777874
1	0xbfb34f6b	-1.4008611
2	0x3f067073	0.52515334
3	0x4066c965	3.6060421
4	0xbf87dc3f	-1.0614089
5	0xbeda97c4	-0.42693913
6	0xbede2d95	-0.4339415
7	0xc0350db6	-2.8289618
8	0xbee70762	-0.4512282
9	0xbf26b473	-0.65119094
10	0xbfe1113b	-1.7583383
11	0x3f7bc77a	0.9835125
12	0x3f2b8c66	0.67011106
13	0x3f8253fb	1.0181879
14	0x3f8a90af	1.0825404
15	0xbf4d6c56	-0.8024343
16	0xbf190905	-0.5977939
17	0x3eea4818	0.45758128
18	0xbf4d648b	-0.8023154
19	0x3e7c1cb0	0.24620318
20	0xbecfa26f	-0.40553614
21	0xbf8c77dc	-1.0974078
22	0xbeead057	-0.45862076
23	0xbfb6eed9	-1.429164
24	0xc035f1ea	-2.8428903
25	0x3f78a3ef	0.9712514
26	0xbf54ebca	-0.83172286
27	0xbc296188	-0.010338195
28	0xbf0a7a99	-0.5409332
29	0xbea2ba52	-0.31782776
30	0x3ee028b4	0.43781054
31	0xbf1ca2bb	-0.61185807

running_mean f4 [32]
0	0x3fa05829	1.2526904
1	0xc02adfd9	-2.6699126
2	0xbfff9e2e	-1.9970148
3	0xc068598f	-3.6304662
4	0xc0145c24	-2.3181238
5	0xbf7b9f76	-0.98290193
6	0x3ea29503	0.31754312
7	0x3ffdf67e	1.9840848
8	0xbf798986	-0.9747547
9	0x40588c04	3.3835459
10	0x403cb364	2.9484491
11	0xc02d6006	-2.7089858
12	0xc0c195a0	-6.049515
13	0x3e753ed4	0.23949748
14	0x41a8962c	21.073326
15	0x3fa29973	1.2703079
16	0xc0136be2	-2.3034596
17	0x40a83820	5.256851
18	0x3f358889	0.7091146
19	0x40b37e5f	5.609176
20	0x3f241215	0.6409009
21	0x40b9bde9	5.8044324
22	0xbedb37f1	-0.42816117
23	0xbf97d53e	-1.1861951
24	0xbf82e6b0	-1.022665
25	0x40170e20	2.3602371
26	0xc0b99137	-5.7989764
27	0xc0578428	-3.3674412
28	0x3fb7256e	1.4308298
29	0x3facb82a	1.3493702
30	0x4006ef88	2.1083698
31	0x3c9fb3c2	0.019494895

running_var f4 [32]
0	0x3ec0fd93	0.37693462
1	0x40a7b125	5.240374
2	0x4148e1a0	12.555084
3	0x3f8db7c9	1.1071712
4	0x400b8356	2.179891
5	0x3db3854d	0.087656595
6	0x3f7bead5	0.984052
7	0x40b1d214	5.5568943
8	0x3dced58b	0.10099324
9	0x3e6d53c9	0.23176493
10	0x41b0879c	22.066216
11	0x418ff931	17.996675
12	0x40ac0282	5.375306
13	0x41350307	11.313239
14	0x4100dbf4	8.0536995
15	0x3f01637f	0.50542444
16	0x3ecee5d0	0.40409708
17	0x40c273d1	6.0766377
18	0x3f08527a	0.5325085
19	0x40a5612d	5.1681123
20	0x3e8555eb	0.26042113
21	0x41166524	9.399693
22	0x3cd5f48c	0.026117586
23	0x40d4ca0f	6.6496654
24	0x404a044c	3.1565123
25	0x40df6752	6.9813623
26	0x4192b9ad	18.340662
27	0x41cad2a3	25.35285
28	0x3e6d05ce	0.23146746
29	0x4112e626	9.181189
30	0x414e17a5	12.880773
31	0x3d3f4665	0.046697993

weight f4 [2, 32, 1, 1]
0	0x3f152201	0.5825501
1	0x3f225317	0.63408035
2	0xbdc5af5e	-0.09652589
3	0x3f9483b5	1.1602694
4	0xbe9a8f33	-0.30187377
5	0x3e0c5404	0.13703924
6	0x3fb87881	1.4411775
7	0xbf84e17a	-1.038131
8	0x3f06c5e1	0.5264569
9	0xbfa0a542	-1.2550433
10	0x3f6426f9	0.8912197
11	0x3f7172e4	0.94315934
12	0x3e0070ab	0.1254298
13	0xbf58f5fb	-0.84750336
14	0x40306dca	2.756701
15	0x3fee7b3e	1.863136
16	0xbf270436	-0.652408
17	0x3e475c20	0.19468737
18	0x3e5a397f	0.21310996
19	0xbedeec34	-0.43539584
20	0x3e94f393	0.29092082
21	0xbf8e5c5c	-1.1121936
22	0xbf1ef3ca	-0.6209074
23	0x3ed4c465	0.41556087
24	0xbeab61b9	-0.33472994
25	0xbefd54d2	-0.49478775
26	0x3d671437	0.056415763
27	0xbf9eb92e	-1.2400262
28	0x3fbc539b	1.4713014
29	0x3e7d4062	0.24731591
30	0x3faf5c84	1.3700109
31	0xbf730e64	-0.94943833
32	0xc03215c3	-2.7825782
33	0x403e14ae	2.9700122
34	0xbf23c08b	-0.6396567
35	0xbfaf6f52	-1.3705847
36	0x3d7c34c2	0.06157375
37	0x4047548b	3.114535
38	0x3ee168b1	0.44025186
39	0xbfee3e32	-1.861273
40	0xbfd9639f	-1.6983527
41	0xbfbb116e	-1.4614694
42	0xbf82ff4c	-1.023416
43	0xc06d6c0f	-3.7097204
44	0x3fe1af7e	1.7631681
45	0x401abd38	2.417799
46	0x40c2381e	6.0693502
47	0xc05f9f71	-3.4941065
48	0xbfc19ab6	-1.5125339
49	0x40648129	3.5703833
50	0xbfccc1ae	-1.5996606
51	0x40481bf8	3.126707
52	0xbeba1650	-0.36345148
53	0xbe0fbca3	-0.14036803
54	0x4041a4c8	3.0256824
55	0x3f35b19b	0.7097413
56	0x3f16c6a0	0.5889683
57	0x4093fef4	4.624872
58	0xc116b4e6	-9.419165
59	0xc02b9d32	-2.6814694
60	0xc11ae326	-9.680456
61	0x3fc95521	1.5729104
62	0xc05341f4	-3.3009005
63	0x408f18f5	4.4717965

bias f4 [2]
0	0x3e1efad1	0.15525366
1	0xbdd75e53	-0.10516038

weight f4 [2]
0	0xbf348d05	-0.7052768
1	0x3ecb03f4	0.39651453

bias f4 [2]
0	0xc05ea3f6	-3.4787574
1	0xbfff7194	-1.9956536

running_mean f4 [2]
0	0x4127181c	10.443386
1	0xc1943331	-18.524996

running_var f4 [2]
0	0x42c03706	96.10747
1	0x45c156b5	6186.8384

weight f4 [26, 18]
0	0xbedd91e0	-0.43275356
1	0xbd1bc607	-0.03803065
2	0xbee94cc5	-0.45566383
3	0x3efc35de	0.49259847
4	0xbf7ca495	-0.9868863
5	0xbdb8bb46	-0.090200946
6	0x3f8f19e6	1.1179779
7	0xbe462d9a	-0.19353333
8	0xbd49030d	-0.049075175
9	0xc01dd523	-2.4661338
10	0xbd2eb9ca	-0.04265765
11	0x3f8c19d7	1.0945386
12	0x3f11cbed	0.5695179
13	0x3fd8c7bf	1.6935958
14	0x3e718be1	0.23588516
15	0xbcb65994	-0.022259511
16	0x3fd12d8e	1.6342027
17	0x3ef0d74f	0.47039267
18	0xbf14daab	-0.5814616
19	0x3f00cbad	0.50310785
20	0x3f55f989	0.83583885
21	0xbee2dead	-0.44310513
22	0x3f72ed8e	0.9489373
23	0x3ea58b81	0.32332996
24	0xbec531e1	-0.38514617
25	0x3e2eeb0e	0.17081854
26	0xbc83023c	-0.015992276
27	0xc02d86f3	-2.7113616
28	0xbf866be8	-1.050168
29	0x3f91cd0a	1.1390698
30	0x3f7ed909	0.9954992
31	0x3fc63eaa	1.5487874
32	0x3fd88555	1.691569
33	0x3f838d0c	1.0277419
34	0x3f0dc9e6	0.553862
35	0xbe49c63f	-0.19704531
36	0xbdef66a8	-0.11689502
37	0xbe5e8f7e	-0.21734425
38	0xbe8357ef	-0.25653026
39	0xbeea2f29	-0.45739105
40	0xbeabaf77	-0.33532307
41	0xbec4a192	-0.38404518
42	0xbeb93f43	-0.36181077
43	0xbe43b9fb	-0.19113915
44	0xbdd81435	-0.10550729
45	0x3f9f7e51	1.2460424
46	0xbf3ced20	-0.73799324
47	0xbf1adafe	-0.60490406
48	0xbd0b9a69	-0.034082804
49	0xbf7fe2b2	-0.99955285
50	0x3f822b3f	1.0169448
51	0x3e93b3e9	0.28848198
52	0x3ebf3c5e	0.37350744
53	0x3fbd0894	1.4768243
54	0x3e6ebb23	0.23313574
55	0x3e9560ec	0.29175508
56	0xbf083ef9	-0.5322109
57	0x3f5199b0	0.81875134
58	0xbf28dea3	-0.65964717
59	0x3f4a4325	0.79008704
60	0x3f6906d9	0.91026074
61	0xbe48c06f	-0.19604658
62	0x3e0d99d3	0.1382821
63	0x3f0c4718	0.5479598
64	0x3f0a7a1a	0.5409256
65	0xc00d65ff	-2.2093503
66	0xbef1c259	-0.47218588
67	0xbf3953d8	-0.7239356
68	0x3ea4cede	0.32189077
69	0x3f706bda	0.9391457
70	0x3e72edd6	0.2372354
71	0x3f60e915	0.87855655
72	0x3f905447	1.127572
73	0xbee24a2b	-0.4419721
74	0xbe96fc06	-0.29489154
75	0xbd3af6c0	-0.045645475
76	0xbe6c7193	-0.230902
77	0xbd457ddc	-0.048215732
78	0xbf25e95c	-0.64809203
79	0xbed2f15e	-0.41199774
80	0xbe8c439e	-0.27395338
81	0x3f36378d	0.71178514
82	0x3e45ba3f	0.19309328
83	0x3c013417	0.007885954
84	0xbf80f9f9	-1.0076286
85	0xbf31e988	-0.69496965
86	0x3f55dfea	0.8354479
87	0x3f87c93a	1.0608284
88	0xbf320bec	-0.6954944
89	0x3eb5be78	0.3549688
90	0x3d0aa0d7	0.033844795
91	0xbed463fc	-0.41482532
92	0x3f0fb118	0.561296
93	0x3c044f97	0.008075616
94	0xbf236aa2	-0.63834584
95	0x3f91cfa1	1.1391488
96	0xbde69f48	-0.11260849
97	0x3e5f92a4	0.21833283
98	0x3e8f1352	0.27944428
99	0xc02ebe32	-2.7303586
100	0xbf436494	-0.76325345
101	0x3de3ac66	0.11116867
102	0xbfb5e75b	-1.4211229
103	0x3fb486fd	1.4103695
104	0x3f9082cf	1.128992
105	0x3dc99649	0.09843118
106	0x3f1c4ebf	0.61057657
107	0x3f2d90c2	0.6779901
108	0xbef2e9f0	-0.47444105
109	0xbeeb7b58	-0.4599254
110	0x3e607c2b	0.21922366
111	0xbe845568	-0.2584641
112	0xbf5b16b2	-0.85581505
113	0xbea70b40	-0.3262577
114	0xbd8bee38	-0.06832546
115	0xbcf04530	-0.029329866
116	0xbdeb42f2	-0.11487378
117	0xbf970fbd	-1.1801678
118	0xbfc33812	-1.5251486
119	0x3f4b9366	0.7952179
120	0xc02fdc47	-2.7478197
121	0xbe395e88	-0.18102467
122	0x3f313c6c	0.6923282
123	0x3e84b7c1	0.25921443
124	0x3ea42870	0.320621
125	0x3fc0dccc	1.5067382
126	0x3f30f53a	0.69124186
127	0xbec8db37	-0.39229748
128	0xbf09038a	-0.53521025
129	0xbe84a516	-0.259072
130	0x3fbdc6ed	1.4826332
131	0xbdeffa33	-0.117176436
132	0xbe007271	-0.12543656
133	0xbe9b51b3	-0.3033577
134	0xbe61645a	-0.22010937
135	0xc048d784	-3.138154
136	0xbf52eea2	-0.82395375
137	0xbea91c8c	-0.33029592
138	0x3f8509d2	1.0393622
139	0xc002cae4	-2.0436335
140	0xc03a7018	-2.9130917
141	0x4010e3e0	2.2639084
142	0x3e97b888	0.29632974
143	0x40068b19	2.1022398
144	0xbdaf7725	-0.08567647
145	0xbf0c0fbc	-0.5471151
146	0xbf0f51f0	-0.559844
147	0xbe475f24	-0.19469887
148	0x3ffee1ca	1.9912655
149	0xbe328d98	-0.17436826
150	0xbed96675	-0.4246098
151	0xbea67aec	-0.32515657
152	0x3f0208eb	0.5079486
153	0x3fd3a982	1.6536105
154	0xc020a051	-2.509785
155	0xbf6f1771	-0.93395144
156	0x3f51e2fc	0.81986976
157	0x3f4aef25	0.79271156
158	0xbff07ad6	-1.8787487
159	0x3e9c9d49	0.3058875
160	0x3c8e7fd3	0.017394936
161	0xbf5b6651	-0.85703
162	0x3e72e7ea	0.2372128
163	0xbf257ffb	-0.6464841
164	0x3f38adff	0.72140497
165	0x3f43deb3	0.7651169
166	0x3e1808cd	0.14847107
167	0x3e362778	0.17788494
168	0x3e3042ad	0.17212935
169	0x3e8d34f5	0.27579466
170	0xbeb7a534	-0.35868227
171	0x3e9c404b	0.30517802
172	0x3f858536	1.0431278
173	0xc0c7a800	-6.239258
174	0x3ecfcc09	0.40585354
175	0x3e634a6a	0.22196355
176	0x3e80ac1a	0.25131303
177	0x3fb9ebb2	1.4525054
178	0x3f79acc2	0.9752923
179	0x3e8ac7a9	0.27105454
180	0xbea5df53	-0.32396945
181	0xbeddc7df	-0.43316552
182	0x3f8c3be5	1.0955778
183	0xbddf9db6	-0.10918753
184	0xbf726a75	-0.9469369
185	0xbed5a20b	-0.4172519
186	0xbe638d7e	-0.22221944
187	0x3e5b12de	0.21393916
188	0x3ebd9d08	0.37033868
189	0x3e67d70c	0.22640628
190	0xbcb0fb85	-0.021604309
191	0x3f951d21	1.1649514
192	0xc0011739	-2.0170424
193	0xbf44995d	-0.76796514
194	0x3f9ef594	1.2418694
195	0xbf2d2aab	-0.6764323
196	0x3fb28ed6	1.394984
197	0x3f9be8d4	1.2180429
198	0xbe09072a	-0.13381639
199	0xbeee36da	-0.46526223
200	0xbf896101	-1.0732728
201	0xbd809aea	-0.062795475
202	0xbf0c4361	-0.5479031
203	0x3b7e31b6	0.0038786954
204	0xbea0b7bc	-0.31390178
205	0x3bdecfe8	0.0067996867
206	0xbe44f035	-0.19232257
207	0x3ed026af	0.40654513
208	0x3e19f2d4	0.15034038
209	0xbdfe1788	-0.12406832
210	0xbf6485d6	-0.8926672
211	0xc016df6c	-2.3573866
212	0x3fb7500d	1.4321305
213	0xc0038d6a	-2.0555062
214	0x3f3dd35c	0.74150634
215	0x400f9877	2.2436807
216	0x3dca2d14	0.09871879
217	0xbd70c75e	-0.05878388
218	0x3e277836	0.1635445
219	0x3e9d3264	0.30702507
220	0x3f8eb078	1.1147604
221	0xbf23e056	-0.64014184
222	0xbeb3bb46	-0.35103816
223	0x3e996538	0.29960036
224	0xbd2e3679	-0.042532418
225	0x4017ea87	2.3736894
226	0xbdba6cf3	-0.09102812
227	0xbdfe584c	-0.12419185
228	0xc094d6b5	-4.6512094
229	0xbf555344	-0.8333018
230	0xbed3eaa5	-0.41389957
231	0x3e8ee75d	0.2791089
232	0xbf02da51	-0.51114374
233	0xbf94f6a5	-1.163777
234	0x3e608e17	0.21929203
235	0xbe9d7f0f	-0.30761
236	0x3e8167c9	0.25274494
237	0xbddc1802	-0.107467666
238	0x3ee6eccb	0.45102534
239	0xbea90dfc	-0.33018482
240	0x3f7cc338	0.9873538
241	0x3de88e55	0.11355273
242	0xbe369267	-0.17829286
243	0x3fc539a0	1.5408211
244	0x3fee7100	1.8628235
245	0xbf39ce73	-0.7258064
246	0x3f4f1cba	0.8090321
247	0xc0907656	-4.5144453
248	0xbffb89c4	-1.9651418
249	0x3ff61413	1.9224876
250	0xbec0a80d	-0.37628213
251	0xbfb644cc	-1.4239745
252	0x3d5dc359	0.054141376
253	0x3f41bb89	0.7567678
254	0x3c24ce49	0.010058948
255	0xbe7b3408	-0.24531567

bias f4 [26]
0	0x3f141afc	0.57853675
1	0x3e9e2464	0.3088714
2	0xbe60162c	-0.21883458
3	0xbc198b83	-0.009371641
4	0x3d32f09f	0.043686505
5	0x3e1fd331	0.15607907
6	0xbee9c451	-0.4565759
7	0xbf4022ca	-0.75053084
8	0xbdae0081	-0.0849619
9	0x3e089532	0.13338163
10	0xbe9ef309	-0.31044796
11	0xbe8c9922	-0.2746058
12	0xbeab0487	-0.33401892
13	0xbd44a122	-0.04800523
14	0x3c918125	0.017761776
15	0xbea7c478	-0.3276708
16	0xbee0fef2	-0.43944508
17	0xbea00970	-0.312572
18	0xbe114efa	-0.14190283
19	0xbd3551a4	-0.04426731
20	0xbe0dffbb	-0.13867085
21	0xbe771720	-0.24129915
22	0xbe2e645a	-0.17030469
23	0x3edfc283	0.43703088
24	0x3cc40e04	0.023932464
25	0x4008ecf2	2.139462

weight f4 [1, 32, 1, 1]
0	0x3edee741	0.43535808
1	0xbef7ca2e	-0.48396438
2	0x3d1c1d07	0.03811362
3	0x3eb0ac11	0.34506276
4	0xbdfff4bd	-0.12497852
5	0xbe4b9ce3	-0.19884066
6	0xbed62b61	-0.4182997
7	0xbf2e086b	-0.67981595
8	0x3e0ffb91	0.14060809
9	0x3ec55c07	0.38546774
10	0xbe274e5a	-0.16338482
11	0x3f915f4f	1.1357211
12	0x3f436a0a	0.7633368
13	0x3f218382	0.6309129
14	0xbf05bcd6	-0.52241266
15	0x3e6cc723	0.2312284
16	0x3f89cf39	1.0766364
17	0xbdcfad87	-0.101405196
18	0x3ec77d0e	0.38962597
19	0xbfdaedf9	-1.7103873
20	0xbf025981	-0.5091782
21	0x3ec7ee3c	0.39048946
22	0x3e838bc8	0.25692582
23	0x3f8c9ad6	1.0984752
24	0xbf962700	-1.1730652
25	0xbdf5ef8b	-0.1200858
26	0xbd382247	-0.044954564
27	0xbfdb5ae2	-1.713711
28	0x3e3dae56	0.18523535
29	0x3f206c9c	0.62665725
30	0x3da2f223	0.0795634
31	0x3ee30ca0	0.4434557

weight f4 [32, 9]
0	0xbd532e77	-0.051557984
1	0xbf8c10a0	-1.0942574
2	0xbe3dce12	-0.18535641
3	0xbd711278	-0.058855504
4	0xbe1e8c39	-0.15483178
5	0xbe7dccbd	-0.24785133
6	0xbede9eea	-0.43480617
7	0xbe21599b	-0.15756838
8	0xbcf0d119	-0.02939658
9	0xbf1fbe21	-0.6239949
10	0x3f058a22	0.521639
11	0xbe9b6da0	-0.30357075
12	0x3edb5789	0.42840222
13	0xbdfb72c3	-0.122777484
14	0x3dc8f210	0.09811795
15	0xbe25019d	-0.16113897
16	0xbe9ce410	-0.30642748
17	0x3debbf7e	0.115111336
18	0x3cdaaaa7	0.026692702
19	0xbe9a28ed	-0.3010935
20	0xbe1c4464	-0.15260464
21	0xbe397eff	-0.18114851
22	0x3c9e7747	0.019343985
23	0xbe1173ef	-0.14204381
24	0xbdf5c6a4	-0.12000778
25	0x3dbb5075	0.09146205
26	0x3e4c77a5	0.19967516
27	0x3eeeca03	0.46638498
28	0xbe62f39e	-0.22163245
29	0xbf50f2a0	-0.81620216
30	0x3e8e2a5d	0.27766696
31	0x3ee255a1	0.44205955
32	0xbe303dfc	-0.17211145
33	0xbe1e26fd	-0.1544456
34	0xbd26e9d7	-0.04075035
35	0xbe69f8bf	-0.22848795
36	0x3eaa2a22	0.3323527
37	0x3f0d5dd9	0.55221325
38	0x3e4371ef	0.19086431
39	0x3e8da3d3	0.2766405
40	0x3eb1b961	0.34711745
41	0x3e133c31	0.1437843
42	0x3e833436	0.2562577
43	0x3eaafe3a	0.33397084
44	0x3d87b634	0.06626549
45	0xbed7f10b	-0.4217609
46	0xbee760ec	-0.45191133
47	0x3dd24289	0.10266597
48	0x3e87224c	0.26393354
49	0x3ebd5938	0.3698213
50	0xbf4fcd9d	-0.81173116
51	0x3ea13f43	0.31493577
52	0x3f0e2493	0.5552456
53	0xbe6c8260	-0.23096609
54	0x3d9e2ae0	0.077230215
55	0x3ea373be	0.31924242
56	0x3d8ac4d2	0.06775822
57	0x3e290ee3	0.16509585
58	0x3eda476f	0.42632625
59	0x3e0138ee	0.12619373
60	0x3e1b4a29	0.15165009
61	0x3e005a68	0.12534487
62	0x3dc4ac1e	0.09603141
63	0xbea9396f	-0.3305163
64	0xbe5be447	-0.214738
65	0x3e26cfcb	0.16290204
66	0x3e086783	0.13320737
67	0x3e152e19	0.14568366
68	0xbc0b0e2b	-0.008487265
69	0xbe91c251	-0.28468564
70	0xbe471fc2	-0.19445708
71	0xbe318f95	-0.17339928
72	0xbd99706a	-0.074921444
73	0x3d91cd48	0.071192324
74	0x3ed9d6be	0.42546648
75	0xbee76d66	-0.45200652
76	0xbe91d3df	-0.28481957
77	0x3e93ca47	0.28865263
78	0x3ecde701	0.40215304
79	0xbeda6dcc	-0.42661893
80	0xbecc22e1	-0.3987036
81	0xbe8e37b3	-0.2777687
82	0xbf1df94d	-0.6170853
83	0xbe0f59c6	-0.1399909
84	0x3f36c613	0.7139599
85	0x3e03aaf1	0.12858178
86	0xbf2351e6	-0.6379684
87	0xbe86ea6d	-0.26350728
88	0xbe821470	-0.25406218
89	0x3f043098	0.5163665
90	0xbe85587e	-0.26044077
91	0xbea44d80	-0.32090378
92	0xbe4b9f5e	-0.19885013
93	0xbcb61f4a	-0.022231717
94	0xbe8aa6b7	-0.27080318
95	0x3e316b42	0.17326072
96	0xbcc6fad6	-0.02428953
97	0x3d3672dd	0.044543136
98	0x3df36c9f	0.11885952
99	0xbda0ff10	-0.07861149
100	0x3dff8378	0.124762475
101	0xbd6adfb4	-0.057342246
102	0x3ee1410c	0.4399494
103	0x3d7c9a5a	0.06167064
104	0xbd32c7a0	-0.04364741
105	0x3d198b9c	0.037486658
106	0xbcc7f1e7	-0.02440734
107	0xbf65822e	-0.89651763
108	0xbe2fcca0	-0.17167902
109	0xbe1e6750	-0.15469098
110	0xbe00b005	-0.12567146
111	0x3cbccfbc	0.023048274
112	0xbdb1c315	-0.08679787
113	0x3dad4e52	0.08462204
114	0xbdbd109b	-0.09231683
115	0xbe2d427c	-0.16919893
116	0xbb441a09	-0.0029922745
117	0x3ee5971f	0.4484186
118	0xbe83f5b0	-0.25773382
119	0x3e501ebf	0.20324229
120	0xbda795f6	-0.081829
121	0x3e094736	0.13406071
122	0xbeb7eb8b	-0.35921893
123	0x3ed0d10f	0.407845
124	0x3e0409b6	0.1289433
125	0xbe0edd3e	-0.13951585
126	0xbf0b3e63	-0.5439207
127	0x3df793bc	0.12088725
128	0xbe89d330	-0.26918936
129	0xbdc258b0	-0.09489572
130	0xbf02dfbb	-0.51122636
131	0xbe689902	-0.22714618
132	0x3e63f05c	0.22259659
133	0x3e96102a	0.29309207
134	0x3ebc3789	0.3676112
135	0x3d55614a	0.052094735
136	0xbdcae2cb	-0.099065386
137	0xbe8442b1	-0.25832132
138	0xbdeff7a8	-0.117171586
139	0xbe5018f1	-0.20322014
140	0x3e528e55	0.20562108
141	0xbe7850c4	-0.2424956
142	0xbd339afd	-0.04384898
143	0x3df7ee1d	0.121059634
144	0xbdc6410d	-0.09680376
145	0xbdb92e34	-0.09042016
146	0xbe2f5886	-0.17123613
147	0xbecd0828	-0.40045285
148	0xbe843a5d	-0.25825778
149	0xbf034dc4	-0.51290536
150	0x3ea4398c	0.32075155
151	0xbe5abbfe	-0.21360776
152	0x3e6f5095	0.23370583
153	0x3ec3dfa6	0.38256568
154	0x3e8db7cd	0.2767929
155	0xbfadf631	-1.3590757
156	0xbde48fdc	-0.111602515
157	0xbda3f401	-0.080055244
158	0xbeebb2d1	-0.46034864
159	0xbf4a1f03	-0.7895357
160	0xbe96aea3	-0.29430112
161	0xbf9075af	-1.1285914
162	0x3dd53fd8	0.10412568
163	0xbe050f02	-0.12994006
164	0x3ec2d10c	0.38050115
165	0xbe9450b8	-0.28967834
166	0xbf657aba	-0.8964039
167	0x3ecef412	0.40420586
168	0xbea6744d	-0.32510605
169	0x3c0156a5	0.007894193
170	0x3de9b4d0	0.1141144
171	0xbf9161c6	-1.1357963
172	0xbf7e69be	-0.993801
173	0xbed2f489	-0.4120219
174	0xbd9ab3b1	-0.07553805
175	0x3ea4fbae	0.32223266
176	0x3e912df6	0.28355378
177	0xbeb705e9	-0.35746697
178	0xbec87e00	-0.3915863
179	0x3f12abd6	0.5729345
180	0x3ea080f8	0.31348395
181	0xbe3dc9ae	-0.18533966
182	0xbe8df3ce	-0.2772507
183	0xbe08cccc	-0.13359374
184	0x3e40841a	0.18800393
185	0xbe9a88a9	-0.30182388
186	0xbe61932e	-0.22028801
187	0xbdc2145d	-0.0947654
188	0xbe8eb286	-0.27870578
189	0xbe60f53f	-0.21968554
190	0x3b604766	0.0034222244
191	0xbed36e9c	-0.41295326
192	0xbd131c4d	-0.03591566
193	0x3e5aca45	0.21366222
194	0xbd9c19a0	-0.07622075
195	0x3ecb96dc	0.39763534
196	0xbe2eca77	-0.17069422
197	0x3d91910b	0.07107743
198	0xbe3019a2	-0.17197278
199	0xbdc06be4	-0.093955785
200	0x3e2182c2	0.15772536
201	0x3ebe0ae7	0.37117693
202	0x3ec9be8e	0.39403194
203	0x3e6a7c06	0.22898874
204	0xbf1a3c97	-0.602487
205	0xbe5c9543	-0.21541314
206	0xbd8ca8c6	-0.068681285
207	0x3e91e06d	0.28491536
208	0xbe759b91	-0.23985125
209	0x3e6734f2	0.22578791
210	0xbe42b6ff	-0.1901512
211	0xbe302c77	-0.17204462
212	0xbe860d3d	-0.26181975
213	0xbf06272a	-0.5240351
214	0xbc85f336	-0.016351324
215	0xbefc59bd	-0.49287215
216	0xbe933da9	-0.2875798
217	0xbdb62dd2	-0.08895458
218	0xbe4e21f7	-0.20130144
219	0x3e1040b1	0.14087178
220	0xbe99cfdc	-0.30041397
221	0xbeae5849	-0.3405173
222	0xbe057428	-0.13032591
223	0xbae9ae01	-0.0017828346
224	0x3cd97b1e	0.026547965
225	0xbd6e0599	-0.058110807
226	0x3e58f00c	0.2118532
227	0xbcb0a39e	-0.021562394
228	0xbe1b5437	-0.15168844
229	0xbe7dc897	-0.2478355
230	0xbdc6f8ca	-0.097154215
231	0xbcff9c15	-0.031202355
232	0xbd52709d	-0.051376928
233	0xbe5a3ac9	-0.21311487
234	0x3d70829c	0.05871831
235	0x3e89e905	0.26935592
236	0x3dab65ee	0.08369051
237	0xbe8b2758	-0.27178454
238	0xbe97f084	-0.29675686
239	0xbe781e9b	-0.24230425
240	0xbe60a466	-0.21937713
241	0xbd969bd1	-0.07353938
242	0xbe9b4321	-0.30324653
243	0x3e397263	0.18110041
244	0x3e0b223f	0.13587283
245	0x3f157df6	0.58395326
246	0xbf295e2a	-0.6615931
247	0xbed68047	-0.41894743
248	0x3eafcdb8	0.34336638
249	0xbe8bc70c	-0.27300298
250	0xbe58a87c	-0.21158022
251	0xbf1c77f6	-0.61120546
252	0x3ee45246	0.4459402
253	0x3f1412ab	0.57840985
254	0xbf112e80	-0.5671158
255	0xbed595de	-0.41715902

bias f4 [32]
0	0x3fba1b6f	1.4539622
1	0x3d0c1771	0.034202043
2	0xbe9b4efc	-0.30333698
3	0xbc30e6e3	-0.010797235
4	0xc0340b2d	-2.813182
5	0x3cc0fca7	0.023557974
6	0xbfda3d28	-1.7049913
7	0xbdcb797c	-0.09935281
8	0x3e059f0f	0.13048957
9	0xbdbcdf7b	-0.09222313
10	0x3d83d072	0.06436242
11	0xbe40baa4	-0.18821198
12	0xbdbee64d	-0.0932127
13	0xbed507bb	-0.4160746
14	0xbe11487f	-0.14187811
15	0xbdfe388b	-0.124131285
16	0x3e33eb65	0.17570265
17	0x3f04edcb	0.51925343
18	0x3e3889e8	0.18021357
19	0x3ec6ad43	0.38804063
20	0xbd5d1fa7	-0.053985264
21	0xbc30e337	-0.01079636
22	0x3e1e5328	0.15461409
23	0x3eaddd57	0.3395793
24	0xbd0f0736	-0.034918986
25	0x3bc81515	0.006106029
26	0x3d574bca	0.052562512
27	0xbeab06da	-0.33403665
28	0x3e78690f	0.24258827
29	0xbe7009ec	-0.23441285
30	0xbeb8ca69	-0.36091927
31	0x3f974522	1.1817973

weight f4 [1, 32]
0	0x3f8b0628	1.0861254
1	0x3eb32714	0.34990752
2	0x3beb1bd8	0.00717495
3	0xbec2d9f9	-0.38056925
4	0x3ef30201	0.47462466
5	0x3ef6f48e	0.48233455
6	0x3e8b3a65	0.2719299
7	0x3dc6c4e2	0.09705521
8	0xbd5103aa	-0.051028885
9	0xbf0719b7	-0.5277361
10	0x3e65b49a	0.22432175
11	0xbed46cd3	-0.41489276
12	0xbdd1fbe3	-0.10253122
13	0x3e8acb5b	0.27108273
14	0xbece57e9	-0.40301445
15	0x3e365b1d	0.17808194
16	0xbf066302	-0.52494824
17	0x3fdc077a	1.7189782
18	0xbe3e4e5a	-0.18584576
19	0x3f5bad06	0.8581089
20	0x3e46fb3b	0.19431774
21	0xbe8db81f	-0.27679536
22	0x3ea0fbf9	0.3144224
23	0x3f31b752	0.6942035
24	0x3e8f0ab9	0.27937868
25	0x3e10c39e	0.14137122
26	0x3e388796	0.18020472
27	0xbf151ea8	-0.582499
28	0xbf0ba26b	-0.54544705
29	0x3e8eda6f	0.27901027
30	0x3ee841a1	0.4536257
31	0x3f46942c	0.7756984

weight f4 [32, 32, 3, 3]
0	0xbcc40026	-0.023925852
1	0xbc0cc504	-0.008591894
2	0xbd5721ad	-0.05252235
3	0x3d6e07d9	0.058112953
4	0x3d38598b	0.04500727
5	0xbd0e47b2	-0.034736343
6	0xbd11dbda	-0.035610057
7	0xbd1fa26c	-0.038973257
8	0xbc3b77f4	-0.011442173
9	0x3d0ac005	0.03387453
10	0x3c3f3cb4	0.011672188
11	0x3d4bee75	0.049787957
12	0x3d3abf73	0.045592736
13	0xbc486864	-0.01223192
14	0xbd40043e	-0.046879046
15	0xbc2964e4	-0.010338996
16	0xbd10fdac	-0.03539817
17	0x3c7028d4	0.014658172
18	0x3d123a0d	0.035699893
19	0xbb8947d8	-0.0041894726
20	0xbced7d25	-0.028990338
21	0xbd245db9	-0.040128443
22	0x3d196b6f	0.037455972
23	0xbcb8b018	-0.022544906
24	0xbd6eaba0	-0.058269143
25	0x3c12cdcc	0.008960199
26	0xbd47ca74	-0.04877706
27	0x3d31fc81	0.043453697
28	0xbcf72c16	-0.030172389
29	0x3c046bec	0.008082371
30	0xbc12fa18	-0.00897076
31	0x3c526f14	0.012843866
32	0x3c766244	0.015038077
33	0x3d09a761	0.03360689
34	0x3cc31ae2	0.02381653
35	0x3cef20ae	0.029190388
36	0x3d07573b	0.033042174
37	0xbd7039e5	-0.058648963
38	0x3c9d14ea	0.019175012
39	0xbb54deb0	-0.0032481365
40	0xbc4e1bc0	-0.012579858
41	0x3b45e030	0.003019344
42	0x39c3e000	0.0003736019
43	0x3cc0da0e	0.023541477
44	0x3d649753	0.055808377
45	0xbd479df6	-0.048734628
46	0xbd235c58	-0.039882988
47	0x3ca6f53e	0.020380612
48	0x3ccefbc2	0.025266532
49	0x3d7114ff	0.058857914
50	0xbd0f66b6	-0.035010062
51	0xbd17faf8	-0.037104577
52	0x3b68afc0	0.0035505146
53	0xbc569620	-0.013097316
54	0xbc0efb68	-0.008726932
55	0xbadf2ce0	-0.0017026924
56	0xbc608124	-0.0137026645
57	0xbd4ddbd2	-0.050258465
58	0xbd29ce4c	-0.041456506
59	0xbc8c2e60	-0.017111957
60	0x3d55ed5b	0.052228313
61	0x3cd7d212	0.026345287
62	0xbb78fca0	-0.0037992373
63	0x3d13defd	0.03610133
64	0x3d2bab0b	0.041911166
65	0xbd1ddb66	-0.038539313
66	0xbd321376	-0.04347559
67	0xbd36592c	-0.044518635
68	0xbcf1d15f	-0.029518781
69	0xbcd7d73e	-0.026347753
70	0xbce87d22	-0.02837998
71	0x3d51bc79	0.051205132
72	0xbba9a780	-0.0051774383
73	0x3d676cf1	0.05650038
74	0xbcac911e	-0.021065291
75	0xbd2edb62	-0.04268969
76	0xbd53e550	-0.05173236
77	0x3cee9a96	0.029126447
78	0x3d26891b	0.040658098
79	0xbd1b616c	-0.037934706
80	0xbc089978	-0.008337371
81	0xba9a60a0	-0.0011778064
82	0xbcd47c26	-0.025938105
83	0xbd060ac4	-0.03272511
84	0xbd1c048a	-0.038090266
85	0xbcfbe7f6	-0.030750256
86	0xbc9c80dc	-0.019104414
87	0x3d5db0bd	0.05412363
88	0xbd058bd2	-0.032604046
89	0xbc95c198	-0.01828079
90	0xbc71ed48	-0.014766045
91	0xbd2ad2fe	-0.041705124
92	0xbd28d504	-0.041218773
93	0xbd3fa0d0	-0.046784222
94	0xbd057816	-0.032585226
95	0x3d1b4a29	0.03791252
96	0xbd346d06	-0.044049285
97	0x3d017929	0.031609688
98	0x3d0aac1f	0.033855554
99	0x3c23526c	0.009968381
100	0xbd56e380	-0.052463055
101	0xbd0bc605	-0.034124393
102	0x3c8f2516	0.017473739
103	0xbcca0606	-0.024661075
104	0x3d59a5cf	0.053136643
105	0x3cf9302e	0.030418482
106	0xbb514f40	-0.0031938106
107	0xbd0c5216	-0.03425797
108	0x3d6d9a95	0.05800875
109	0x3ca388de	0.019962724
110	0x3aab2b60	0.0013059191
111	0x3d1bc6ff	0.038031574
112	0x3c72b5a4	0.014813814
113	0xbc8010f6	-0.015633088
114	0xbd541bda	-0.051784374
115	0xbd5d4359	-0.054019306
116	0xbc171e60	-0.009223551
117	0xbd6239c7	-0.055230882
118	0x3d2c2a2d	0.04203241
119	0x3d210659	0.039312694
120	0xbd08836a	-0.03332845
121	0x3c712144	0.014717404
122	0x3d5aeccf	0.053448495
123	0x3d3627a3	0.044471394
124	0x3c8fc6aa	0.017550785
125	0x3cf209b2	0.029545639
126	0x3d217f11	0.03942782
127	0x3d2793c9	0.040912423
128	0x3c613d74	0.013747562
129	0xbcea11c7	-0.02857293
130	0x3cd6504a	0.026161332
131	0x3d08c57b	0.033391457
132	0x3be98888	0.0071268715
133	0x3d03ac3b	0.032146674
134	0xbc86d0c4	-0.01645697
135	0xbd53a7b3	-0.051673602
136	0xbd6af56c	-0.05736296
137	0x3c02a954	0.007974941
138	0xbd29319e	-0.041307084
139	0x3d368003	0.044555675
140	0xbd539de2	-0.05166424
141	0xbb79c4a0	-0.0038111582
142	0x3bac78a8	0.005263407
143	0xbcb5aad4	-0.022176184
144	0x3c91aaaa	0.017781574
145	0xbd308849	-0.04309872
146	0x3d6ac4bb	0.057316523
147	0xbc52f548	-0.012875862
148	0xbc9673d4	-0.018365778
149	0xbcdfed1e	-0.027334746
150	0xbd03044c	-0.03198652
151	0xbc9229ac	-0.017842136
152	0xbcbb592a	-0.022869665
153	0x3d1cdead	0.038298298
154	0xbd651bac	-0.055934593
155	0xbce1e786	-0.02757622
156	0xbcbf4862	-0.023349945
157	0xbc507c6c	-0.012724977
158	0xbd660e6c	-0.056166098
159	0x3d0a11e1	0.033708457
160	0xbd662098	-0.056183428
161	0xbc942988	-0.01808621
162	0xbc8c09fa	-0.017094601
163	0xbd0b261a	-0.033971883
164	0xbd0e2e5c	-0.03471218
165	0x3d2d4cd1	0.042309586
166	0xbd3cdf1a	-0.046111204
167	0xbcef0cf1	-0.029180976
168	0x3cdabfb2	0.026702736
169	0x3d64f0a7	0.055893566
170	0x3d0d8829	0.03455368
171	0x3cb10dda	0.02161305
172	0x3cee58de	0.02909511
173	0x3c8ccaa2	0.017186467
174	0x3d5e8ae5	0.05433168
175	0x3b51f390	0.0032036044
176	0xbcde3a16	-0.027127307
177	0xbd02004a	-0.031738557
178	0xbcf3801e	-0.029724177
179	0xbd265a20	-0.040613294
180	0x3d5c7bc3	0.053828966
181	0xbce238aa	-0.02761491
182	0x3cc3c74e	0.023898747
183	0xbc951c96	-0.018202107
184	0x3cbb3432	0.022852037
185	0x3ccb3e32	0.02480993
186	0x3d2ca095	0.04214533
187	0x3d2a0991	0.04151303
188	0x3c063adc	0.008192744
189	0x3d38dca7	0.045132305
190	0xbcb58668	-0.022158816
191	0xba39ff40	-0.0007095225
192	0xbc99cef6	-0.018775444
193	0xba952a20	-0.0011380352
194	0x3c077d14	0.008269567
195	0xbd2d3dca	-0.042295255
196	0xbcd11d28	-0.025526598
197	0xbceedeab	-0.02915891
198	0x3bc5b458	0.0060334615
199	0x3d712cc3	0.05888058
200	0x3d163edb	0.036681037
201	0xbcff1c48	-0.031141415
202	0x3c0f411c	0.008743551
203	0x3d5e0a25	0.054208893
204	0x3d401169	0.046891604
205	0x3d693ebb	0.05694459
206	0xbd4c7fed	-0.049926687
207	0xbd497b94	-0.04919012
208	0xbd68b31c	-0.056811437
209	0x3891b200	6.947294e-05
210	0x3d57016f	0.0524916
211	0x3cf55b0e	0.029950645
212	0xbd4c0af0	-0.04981512
213	0x3c36587c	0.011129495
214	0x3d41c1c5	0.047303934
215	0x3b799970	0.003808584
216	0xbd178226	-0.036989354
217	0x3bfb0958	0.007661026
218	0x3b603380	0.0034210384
219	0x3d679c83	0.056545746
220	0x3d3905eb	0.04517166
221	0xbceaeae7	-0.028676463
222	0xbd2f5a1a	-0.042810537
223	0xbd007227	-0.031358864
224	0x3d62b0a7	0.05534425
225	0xbb80df70	-0.003932886
226	0x3c2ba68c	0.01047672
227	0xbd15238a	-0.036410846
228	0x3c84bc52	0.01620308
229	0xbc202a18	-0.009775661
230	0x3d6c7be9	0.057735357
231	0xbc45fce8	-0.012084223
232	0xbcdd9758	-0.027049705
233	0x3aec39e0	0.0018022619
234	0xbcb429a4	-0.021992512
235	0xbd4ef254	-0.05052407
236	0xbd0c204b	-0.034210484
237	0x3c6e5e0c	0.01454879
238	0xbc53fa70	-0.012938127
239	0x3d0dbb59	0.034602497
240	0xbd6a6078	-0.057220906
241	0xbc956ea0	-0.018241227
242	0x3b900d88	0.0043961443
243	0xbc48e248	-0.012260981
244	0x3bed3da8	0.007240016
245	0x3ce21f56	0.027602833
246	0x3be90108	0.0071107186
247	0xbc677948	-0.014128037
248	0x3d09a147	0.03360107
249	0x3d1cd263	0.038286578
250	0xbc314668	-0.010820009
251	0xbb9059e0	-0.004405245
252	0xbd5ad6d9	-0.05342755
253	0xbcde6446	-0.027147423
254	0xbd686dec	-0.056745455
255	0x3b23c550	0.0024989434

bias f4 [32]
0	0xbd098bf8	-0.03358075
1	0x3cc88626	0.02447803
2	0xbcd3c6e8	-0.025851682
3	0xbc8e9ed0	-0.017409712
4	0x3d2909fb	0.041269284
5	0x3d2ccbc9	0.042186532
6	0xbc87f544	-0.016596444
7	0xbd481839	-0.048851226
8	0x3d386189	0.04501489
9	0x3d5b86c9	0.053595338
10	0xbd1ad884	-0.03780414
11	0xbb886c10	-0.0041632727
12	0x3d22f33f	0.03978276
13	0xbd54bfcf	-0.051940735
14	0x3d096e57	0.033552494
15	0x3cee8d26	0.02912004
16	0xbd2ce454	-0.04220994
17	0xbd20f24a	-0.039293565
18	0xbc3629c0	-0.011118352
19	0x3d0560c1	0.032562975
20	0xbd17680f	-0.036964472
21	0xbc99a7ec	-0.01875683
22	0x3c94fd5a	0.018187214
23	0x3d2d3c85	0.042294044
24	0x3c63129c	0.013859417
25	0xbd45c2b2	-0.04828138
26	0x3b027c10	0.0019910373
27	0x3d5e454d	0.05426531
28	0xbcd3d3b6	-0.025857788
29	0xbcf6f362	-0.03014535
30	0xbc2876f8	-0.010282271
31	0xbcdb0466	-0.026735496

weight f4 [32, 32, 3, 3]
0	0x3d5c170d	0.05373292
1	0xbb9f2d48	-0.004857693
2	0xbd39c372	-0.045352407
3	0xbb8bca70	-0.004266076
4	0x3d5d9403	0.054096233
5	0xbd3e8962	-0.046517737
6	0x3cf3eed6	0.029776972
7	0x3d3d8907	0.046273258
8	0x3d451f1d	0.048125375
9	0xbcbcb490	-0.023035318
10	0xbc3ef4ac	-0.011655014
11	0xbd043bc0	-0.032283545
12	0xbd526dca	-0.051374234
13	0xbd0b6228	-0.034029156
14	0x3d2f5257	0.042803135
15	0xbcbc2586	-0.022967111
16	0xbb1660c0	-0.002294585
17	0x3c3b7a9c	0.011442807
18	0x3d0b93cd	0.0340765
19	0x3bc448e8	0.0059901364
20	0xbbf10cc0	-0.0073562562
21	0xbd665236	-0.056230746
22	0xbc0183e8	-0.007904984
23	0x3ca6fcea	0.02038427
24	0xbc0fd8f0	-0.008779749
25	0xbd4a8209	-0.049440417
26	0x3d3c0599	0.045903776
27	0xbc85775e	-0.01629227
28	0x3d05b02d	0.032638717
29	0x3d4a0403	0.049320232
30	0x3d502b77	0.0508227
31	0x3c56c924	0.013109479
32	0xbd20387d	-0.03911637
33	0x3c17039c	0.009217169
34	0xbcd0edac	-0.025503956
35	0x3d30f9af	0.043206867
36	0x3d5e008b	0.054199737
37	0x3ce5710e	0.02800801
38	0xbd2926e5	-0.04129686
39	0x3d4c6d03	0.04990865
40	0xbc01a610	-0.007913128
41	0x3d67936b	0.056537073
42	0xbc8aebf8	-0.016958222
43	0xbd14049c	-0.03613721
44	0x3c181a14	0.009283561
45	0x3d21cc45	0.039501447
46	0xbd359106	-0.04432776
47	0xbcf8ae75	-0.030356625
48	0xbd02585a	-0.03182254
49	0xbbfb8948	-0.0076762773
50	0xbd57bd59	-0.05267081
51	0xbd5a3316	-0.053271376
52	0xbad346a0	-0.001611907
53	0x3a9ce6c0	0.0011970624
54	0x3ccd839a	0.025087167
55	0xbcc19fa0	-0.023635685
56	0xbcf34588	-0.029696241
57	0x3d3f9839	0.04677603
58	0xbb8c5d78	-0.0042836033
59	0xbbc9de00	-0.0061604977
60	0xbc810870	-0.015751094
61	0xbd4f4af0	-0.050608575
62	0xbb1f3420	-0.0024292544
63	0x3c657a9c	0.014006283
64	0x3c6f1d74	0.0145944245
65	0xbd39a4fc	-0.045323357
66	0x3d469369	0.048480425
67	0xbc337a28	-0.010954417
68	0x3d4a32fd	0.049365032
69	0x3d5fb429	0.054615173
70	0x3aeeecc0	0.0018228516
71	0xbd6aa91b	-0.057290178
72	0xbc9221de	-0.017838415
73	0x3d43b0e9	0.047776137
74	0x3c8cd336	0.017190557
75	0xbc5085a4	-0.012727175
76	0x3ccc9a82	0.024976019
77	0xbd193498	-0.037403673
78	0x39c72a00	0.0003798753
79	0x3d665923	0.05623735
80	0xbd29860c	-0.041387603
81	0xbc486ad0	-0.012232497
82	0xbceba7a8	-0.028766468
83	0xbce78198	-0.028260037
84	0x3d18e0af	0.03732365
85	0x3d13ae71	0.036055032
86	0x3d0d61f1	0.034517232
87	0x3d346db1	0.044049922
88	0x3cf1c5fa	0.029513348
89	0xbc28e404	-0.010308269
90	0x3c90d79a	0.017680932
91	0x3d53b411	0.051685397
92	0xbd177bb4	-0.036983207
93	0x3d3616b5	0.04445525
94	0xbd4ed25a	-0.050493576
95	0xbd1569eb	-0.036477964
96	0xbc07a5c0	-0.008279264
97	0x3d3e5f61	0.04647768
98	0xbb51c1d0	-0.003200639
99	0x3d5f231f	0.054476853
100	0x3a5214c0	0.0008013956
101	0x3c9d12e2	0.019174043
102	0x3d4cbeb1	0.049986545
103	0x3a60a300	0.0008569211
104	0xbd61bc09	-0.055110965
105	0xbc822a6c	-0.015889369
106	0x3d6c79b9	0.05773327
107	0xbd63f460	-0.055652976
108	0xbd3f6867	-0.046730425
109	0xbcbe75dc	-0.02324956
110	0x3ca9022e	0.020630922
111	0x3c8a913e	0.01691496
112	0xbd0c841f	-0.034305688
113	0x3c73e8ec	0.014887076
114	0xbd3e9848	-0.046531945
115	0x3d55caaf	0.052195247
116	0xbd5873ce	-0.052844815
117	0x3d35e15b	0.04440437
118	0x3d35f81f	0.04442608
119	0x3bad98d8	0.0052977614
120	0xbd04a737	-0.03238603
121	0x3b908f98	0.004411649
122	0xbc8ae03e	-0.01695263
123	0xbd59b5cc	-0.05315189
124	0xbd06232e	-0.032748394
125	0x3ca94f66	0.020667743
126	0x3d687213	0.056749415
127	0x3c195894	0.009359498
128	0x3d670e2d	0.056410003
129	0x3cd8008e	0.026367452
130	0xbd34e764	-0.044165984
131	0xbc017a40	-0.007902682
132	0xbd5389b7	-0.051645007
133	0x3cf8df42	0.030379895
134	0x3d6de081	0.05807543
135	0x3cb541aa	0.022126038
136	0x3d00ffbd	0.03149389
137	0x3d2bde65	0.04196014
138	0x3ca3392e	0.019924726
139	0x3cf7922e	0.030221071
140	0x3d1729dd	0.03690516
141	0xbc3c30ec	-0.011486273
142	0xbd50496f	-0.05085128
143	0x3cfaad7e	0.030600306
144	0xbd2fe46e	-0.042942457
145	0x3d27a085	0.040924568
146	0x3d2cf54d	0.042226125
147	0x3bb787c8	0.005600903
148	0xbd33ba6c	-0.043878958
149	0x3ccfc14e	0.02536073
150	0x3d617917	0.05504712
151	0xbcd9ab36	-0.026570898
152	0xbd4ce1d2	-0.050020047
153	0x3c9056ee	0.017619576
154	0xbc261ab8	-0.010138206
155	0xbca33b42	-0.019925717
156	0xbcd4d9a6	-0.02598269
157	0x3d64f5fd	0.055898655
158	0xbd232840	-0.039833307
159	0xbb957b28	-0.0045618005
160	0xbc7d7954	-0.015470821
161	0x3d4cd7b1	0.050010387
162	0x3c0e48c4	0.008684341
163	0xbc0a0f14	-0.0084264465
164	0xbd4ef37a	-0.050525166
165	0x3cf6cc9a	0.030126859
166	0xbd34bad2	-0.04412348
167	0x3cd9c3de	0.026582655
168	0xbd6fc884	-0.058540836
169	0x3bfc62f8	0.0077022277
170	0x3d15c1db	0.036561828
171	0xbc809abe	-0.015698787
172	0x3c780124	0.015136991
173	0x3c2fe984	0.010736827
174	0x3c8277c6	0.015926253
175	0xbc5c0c6c	-0.013430696
176	0xbd30d7d0	-0.043174565
177	0x3bad79f8	0.005294081
178	0xbd143b18	-0.03618917
179	0xbd647c36	-0.05578252
180	0xbbfb8f80	-0.0076770186
181	0xbd55ffbb	-0.052245837
182	0x3d592f9b	0.053023916
183	0xbcb29f76	-0.021804553
184	0xbc23be54	-0.009994108
185	0x3cde1bf6	0.027112942
186	0xbd3f7021	-0.046737794
187	0xbc148fcc	-0.009067487
188	0x3c6faefc	0.014629122
189	0xbd524724	-0.051337376
190	0xbc1b157c	-0.0094655715
191	0xbb674500	-0.003528893
192	0xbc40faa4	-0.011778507
193	0xbb13aa80	-0.0022532046
194	0x3d00aa89	0.031412635
195	0x3c83f64e	0.016108658
196	0x3d5318bb	0.051537257
197	0xbd2749cc	-0.040841863
198	0xbcd7d0d8	-0.026344702
199	0xbd4438c9	-0.047905717
200	0xbce375a0	-0.027766049
201	0x3c596254	0.013268072
202	0x3cffe67a	0.03123783
203	0x3d58c619	0.052923296
204	0xbd20e350	-0.039279282
205	0x3bfaf9b8	0.0076591633
206	0xbd6fc477	-0.058536973
207	0x3d095b27	0.033534195
208	0x3d1b58cf	0.03792649
209	0x3d456e91	0.048201147
210	0x3bfe9068	0.0077686794
211	0x3c8b59be	0.017010566
212	0x3d0b4b37	0.034007277
213	0xbc8f9ea6	-0.017531704
214	0xbd21620e	-0.039400153
215	0xbd4c592b	-0.049889725
216	0xbc1f7408	-0.009732254
217	0xbd2e1890	-0.042503893
218	0x3c21ca44	0.009874884
219	0x3d664ddd	0.0562266
220	0xbd375ec2	-0.044768102
221	0xbd475eb0	-0.048674285
222	0xbcee079b	-0.029056361
223	0xbc5d4790	-0.013505831
224	0x3d48368b	0.04888014
225	0x3d6793e7	0.056537535
226	0x3d18e34d	0.037326146
227	0x3d04d483	0.03242923
228	0xbc2dead4	-0.010615069
229	0xbd1ca5fc	-0.038244233
230	0x3a78a6c0	0.0009485297
231	0x3d2cb317	0.04216298
232	0x3c8ed146	0.017433774
233	0xbd01a9e2	-0.031656154
234	0xbc8bd35e	-0.017068561
235	0x3d3e455f	0.046452876
236	0xbd627d7b	-0.05529545
237	0x3d52b673	0.05144353
238	0x3d46b5b3	0.048513126
239	0x3ab2faa0	0.0013655014
240	0xbd37289b	-0.04471646
241	0x3cfdfb2a	0.031003553
242	0x3c538cfc	0.012912031
243	0x3d6798ed	0.056542326
244	0xbcf8f016	-0.03038792
245	0x3c9107fa	0.017703999
246	0xbd348ec6	-0.04408147
247	0xbd60b7c5	-0.054862756
248	0xbd365574	-0.04451509
249	0xbcd5884a	-0.026065964
250	0xbc9ee980	-0.01939845
251	0x3d0c5851	0.034263913
252	0xbb13aac0	-0.0022532195
253	0x3c7a7324	0.015286241
254	0xbd1bb376	-0.038012944
255	0xbd6b6292	-0.05746705

bias f4 [32]
0	0xbd5d5c9d	-0.0540434
1	0xbcf64f0a	-0.030066986
2	0xbbd8c6e8	-0.0066155083
3	0xbd30236f	-0.043002542
4	0x3d146409	0.036228213
5	0x3d66166d	0.05617373
6	0x3cb2b0ee	0.021812882
7	0xbd70139d	-0.058612455
8	0x3cba5c5e	0.022749122
9	0x3d659f29	0.05605999
10	0xbd4a81a5	-0.049440045
11	0x3c38bb2c	0.011275094
12	0x3c2d1754	0.010564644
13	0xbd46adb6	-0.048505507
14	0x3cff2702	0.03114653
15	0xbcba94a6	-0.02277596
16	0xbc5703e8	-0.01312349
17	0x3ca0bf6a	0.019622523
18	0x3ba4fde8	0.005035151
19	0x3d1061a5	0.03524937
20	0xbcb14da8	-0.021643475
21	0xbc1fe568	-0.009759285
22	0x3c91b58e	0.017786767
23	0xbd581d7c	-0.052762493
24	0x3c0322dc	0.008003917
25	0x3c2a530c	0.0103957765
26	0xbd5a1866	-0.053245924
27	0xbd31d066	-0.043411635
28	0xbcaa9e88	-0.020827547
29	0xbcfa24b2	-0.030535076
30	0x3d20b281	0.039232735
31	0xbd335291	-0.043779913

weight f4 [32]
0	0x3f5f2bf8	0.87176466
1	0x3f6a791e	0.9159106
2	0x3ee8c768	0.45464635
3	0x3f518122	0.81837666
4	0x3f11285e	0.5670222
5	0x3e0a67c0	0.1351614
6	0x3f090912	0.53529465
7	0x3f085033	0.53247374
8	0x3ef76f9a	0.48327333
9	0x3f3d9bb1	0.7406569
10	0x3e12695c	0.14298004
11	0x3f4c237d	0.7974165
12	0x3e920722	0.28521067
13	0x3f076f42	0.5290414
14	0x3eac5688	0.33659768
15	0x3b05ae00	0.0020397902
16	0x3f750a2d	0.9571865
17	0x3f763f1e	0.9619006
18	0x3f701fdb	0.9379861
19	0x3f57130c	0.8401344
20	0x3f14db4d	0.58147126
21	0x3dd0a128	0.10186988
22	0x3e9a79d2	0.30171067
23	0x3f7730a1	0.96558577
24	0x3ee89088	0.4542277
25	0x3f4cab91	0.7994929
26	0x3f78ef38	0.9724002
27	0x3ca8c580	0.020601988
28	0x3eb74560	0.35795116
29	0x3f365502	0.7122346
30	0x3e23993c	0.15976423
31	0x3f22ba40	0.63565445

bias f4 [32]
0	0x00000000	0.0
1	0x00000000	0.0
2	0x00000000	0.0
3	0x00000000	0.0
4	0x00000000	0.0
5	0x00000000	0.0
6	0x00000000	0.0
7	0x00000000	0.0
8	0x00000000	0.0
9	0x00000000	0.0
10	0x00000000	0.0
11	0x00000000	0.0
12	0x00000000	0.0
13	0x00000000	0.0
14	0x00000000	0.0
15	0x00000000	0.0
16	0x00000000	0.0
17	0x00000000	0.0
18	0x00000000	0.0
19	0x00000000	0.0
20	0x00000000	0.0
21	0x00000000	0.0
22	0x00000000	0.0
23	0x00000000	0.0
24	0x00000000	0.0
25	0x00000000	0.0
26	0x00000000	0.0
27	0x00000000	0.0
28	0x00000000	0.0
29	0x00000000	0.0
30	0x00000000	0.0
31	0x00000000	0.0

running_mean f4 [32]
0	0xbdadc7ac	-0.0848535
1	0xbf6c34e5	-0.9226821
2	0xbf1496d1	-0.5804263
3	0xbe96418a	-0.29346877
4	0x3dc5608e	0.09637557
5	0xbe0bb531	-0.13643338
6	0x3f0e4ee6	0.5558914
7	0xbe64d1f8	-0.22345722
8	0x3c94d443	0.01816762
9	0x3ed6866b	0.41899428
10	0x3f237853	0.63855475
11	0x3f95046e	1.1641977
12	0x3db62b16	0.08894937
13	0xbef16a1a	-0.47151262
14	0x3dd929d6	0.10603683
15	0xbebe852d	-0.3721098
16	0xbe2eaa48	-0.17057145
17	0xbdef883c	-0.116959065
18	0x3deaac8c	0.11458692
19	0xbec06890	-0.37579775
20	0x3d8cca79	0.06874556
21	0x3ed25aad	0.41084805
22	0x3b79d60b	0.0038121964
23	0x3dd0c469	0.10193712
24	0xbf69aba8	-0.9127755
25	0xbe6eb776	-0.23312172
26	0xbea8cbf2	-0.32968098
27	0xbed7c040	-0.42138863
28	0xbf1944c9	-0.5987058
29	0x3da461a7	0.08026438
30	0x3ecdbc92	0.4018293
31	0xbdf9fcec	-0.12206444

running_var f4 [32]
0	0x3f35860c	0.70907664
1	0x3f9f2421	1.2432901
2	0x3f605089	0.87622887
3	0x3f05017e	0.519554
4	0x3f7bc832	0.9835235
5	0x3f25dbdc	0.64788604
6	0x3f0aca10	0.5421457
7	0x3f6d723f	0.9275245
8	0x3f6ab7f8	0.91686964
9	0x3f9e5d8d	1.23723
10	0x3fa9560b	1.3229383
11	0x3f904ecd	1.1274048
12	0x3f358735	0.70909435
13	0x3ec94ebb	0.3931788
14	0x3fe74ed7	1.8070935
15	0x3f9fb3a7	1.24767
16	0x3f4de97d	0.804344
17	0x3fa4019b	1.281299
18	0x3ddbbfef	0.10729968
19	0x3f81894f	1.0120028
20	0x3f33ff2f	0.70311254
21	0x40067bdf	2.1013105
22	0x3f7563b4	0.9585526
23	0x3f13f69f	0.5779819
24	0x4014f2cc	2.3273191
25	0x3f62ce95	0.8859647
26	0x3e8c4ce8	0.27402425
27	0x3f0e14e4	0.55500627
28	0x3fa15a4d	1.2605683
29	0x3f45370e	0.7703713
30	0x3f47a2fe	0.7798308
31	0x3f69b77f	0.9129562

weight f4 [32]
0	0x3d8ffc60	0.070305586
1	0x3f57e34b	0.84331197
2	0x3dfb6cd8	0.1227662
3	0x3eb12b5e	0.346034
4	0x3ea8ad12	0.32944542
5	0x3f601ae4	0.8754103
6	0x3e43c770	0.19119048
7	0x3e613534	0.21992952
8	0x3e8c7ed8	0.27440524
9	0x3f3c7ae0	0.7362499
10	0x3f1baeaf	0.6081342
11	0x3f51cd9e	0.8195437
12	0x3f7404ca	0.9531981
13	0x3d558440	0.052128077
14	0x3f790384	0.9727099
15	0x3e4004e4	0.18751866
16	0x3f45136d	0.76982766
17	0x3dea0a00	0.114276886
18	0x3ea7da18	0.3278358
19	0x3f13e6e1	0.5777417
20	0x3edd7378	0.43252158
21	0x3f028c2d	0.5099514
22	0x3eae1d7a	0.34006864
23	0x3f373a4b	0.71573323
24	0x3f6a1b5b	0.9144799
25	0x3f0f1751	0.55894953
26	0x3f5af16d	0.85524637
27	0x3e8f8e98	0.28038478
28	0x3f4711b6	0.777614
29	0x3f15dc3e	0.5853919
30	0x3db43170	0.08798492
31	0x3f404fcb	0.75121754

bias f4 [32]
0	0x00000000	0.0
1	0x00000000	0.0
2	0x00000000	0.0
3	0x00000000	0.0
4	0x00000000	0.0
5	0x00000000	0.0
6	0x00000000	0.0
7	0x00000000	0.0
8	0x00000000	0.0
9	0x00000000	0.0
10	0x00000000	0.0
11	0x00000000	0.0
12	0x00000000	0.0
13	0x00000000	0.0
14	0x00000000	0.0
15	0x00000000	0.0
16	0x00000000	0.0
17	0x00000000	0.0
18	0x00000000	0.0
19	0x00000000	0.0
20	0x00000000	0.0
21	0x00000000	0.0
22	0x00000000	0.0
23	0x00000000	0.0
24	0x00000000	0.0
25	0x00000000	0.0
26	0x00000000	0.0
27	0x00000000	0.0
28	0x00000000	0.0
29	0x00000000	0.0
30	0x00000000	0.0
31	0x00000000	0.0

running_mean f4 [32]
0	0x3cff150a	0.031137962
1	0x3d9b756c	0.07590756
2	0xbc3f90c4	-0.01169223
3	0xbe9fe68d	-0.31230584
4	0x3ae319c6	0.0017326407
5	0x3bc2b24f	0.005941666
6	0xbd1bfb58	-0.038081497
7	0xbc5c4bd2	-0.013445811
8	0x3db3a320	0.08771348
9	0xbd6fb314	-0.05852039
10	0xbdde282b	-0.10847505
11	0x3d4a6f28	0.049422413
12	0x3d02f426	0.03197112
13	0x3babf838	0.005248096
14	0x3ded8f9f	0.11599659
15	0xbd70c4ff	-0.05878162
16	0x3cfa3ced	0.03054663
17	0x3ca4b097	0.020103736
18	0xbc59c4b4	-0.013291527
19	0x3dba1f2c	0.09087977
20	0xbe3b1a70	-0.18271804
21	0x3e4e3b18	0.2013973
22	0x3de9af9a	0.114104465
23	0x3bbd2a5e	0.005772873
24	0xbdbb5e73	-0.09148874
25	0xbc1c0707	-0.00952316
26	0xbb0b23b8	-0.0021231007
27	0x3d44bdcb	0.048032563
28	0x399e09bd	0.00030143364
29	0xbdadf3a8	-0.08493739
30	0x3e7d84f4	0.24757749
31	0xbd27244a	-0.040806092

running_var f4 [32]
0	0x3d51b055	0.051193554
1	0x3d4c6664	0.049902335
2	0x3ca2fe11	0.019896539
3	0x3d1652f5	0.036700208
4	0x3cf1d39c	0.029519849
5	0x3d4cbb85	0.04998352
6	0x3cdb6a8a	0.0267842
7	0x3d3de627	0.04636207
8	0x3c98b7e3	0.018642372
9	0x3caf216a	0.021378238
10	0x3dac1172	0.08401765
11	0x3ce11bcf	0.02747908
12	0x3d13471d	0.03595649
13	0x3d1e47fd	0.038642872
14	0x3cc99538	0.024607286
15	0x3d38a651	0.045080487
16	0x3d08a363	0.033358943
17	0x3d34b53e	0.04411816
18	0x3ce84407	0.02835275
19	0x3cd9b2d8	0.026574537
20	0x3d8da81d	0.06916831
21	0x3d7a95b5	0.061177928
22	0x3d642211	0.05569655
23	0x3ccc5ec8	0.024947539
24	0x3c8a5ec1	0.016890885
25	0x3d3eb95d	0.046563495
26	0x3d8b96fa	0.06815906
27	0x3cf356b8	0.029704437
28	0x3c2bb4a2	0.010480078
29	0x3d565630	0.05232829
30	0x3d72d8ce	0.059288792
31	0x3c792629	0.015206852
