models/5_cross_5_iter_0.pt (torch_old, 324948 bytes, 66 tensors)

weight f4 [32, 3, 3, 3]
0	0x3c778da0	0.01510945
1	0xbe32a984	-0.17447478
2	0xbdc17a57	-0.094471626
3	0x3d96e0a2	0.07367064
4	0x3e04cda1	0.12969066
5	0xbdccc061	-0.09997631
6	0xbca03448	-0.01955618
7	0xbdf890f9	-0.12137026
8	0x3e375ae9	0.17905773
9	0x3e2ef3a3	0.17085128
10	0x3e24365f	0.16036366
11	0x3e3a971b	0.18221705
12	0x3ded384e	0.11583005
13	0xbcf397e8	-0.02973552
14	0xbe2057d9	-0.15658511
15	0x3da7715e	0.0817592
16	0x3d5c3ce0	0.053768992
17	0xbe2b63a3	-0.16737227
18	0x3c746c90	0.014918461
19	0xbd504634	-0.0508482
20	0xbde4bc30	-0.111687064
21	0xbd844c66	-0.06459884
22	0xbe0f3e30	-0.13988566
23	0xbd85a452	-0.06525482
24	0xbe162747	-0.1466342
25	0x3e0c32e9	0.13691296
26	0xbdd5b134	-0.104341894
27	0x3ce595a0	0.028025448
28	0xbd255a30	-0.040369213
29	0xbe075b8f	-0.1321852
30	0x3dcc3b8e	0.09972297
31	0x3e3abbb5	0.18235667
32	0x3d3b8048	0.045776635
33	0x3df7f2ae	0.12106834
34	0xbe38136e	-0.17976162
35	0xbd8215d4	-0.0635182
36	0xbdf780ef	-0.12085139
37	0x3dfe9052	0.12429871
38	0xbd92d91e	-0.07170318
39	0x3dc10f66	0.09426765
40	0xbcf98ab0	-0.03046164
41	0x3e3e9de9	0.18614925
42	0xbde7f6e8	-0.113263905
43	0xbe224253	-0.15845613
44	0xbdfaf034	-0.12252846
45	0xbe3fe797	-0.18740688
46	0xbddba68c	-0.10725126
47	0x3e1150f5	0.14191039
48	0xbe1a71d5	-0.15082486
49	0x3e057119	0.13031425
50	0xbe206630	-0.15663981
51	0x3e0a8faf	0.13531373
52	0xbda39844	-0.07988027
53	0xbe30f869	-0.17282261
54	0xbe27e46c	-0.1639573
55	0xbe1410d0	-0.14459538
56	0x3ddbedfa	0.1073875
57	0xbd725f98	-0.059173197
58	0x3bdd7200	0.0067579746
59	0x3de52d86	0.111903235
60	0xbd6de594	-0.05808027
61	0x3e024409	0.12721266
62	0xbded94fa	-0.11600681
63	0x3d5ab9c8	0.05339983
64	0xbe37f788	-0.1796552
65	0xbe2d83db	-0.1694483
66	0xbe3fe12c	-0.1873824
67	0x3c88d280	0.016701937
68	0xbd860a46	-0.06544928
69	0xbd65beac	-0.056090042
70	0x3db89baa	0.090140656
71	0x3cd1acd8	0.025595114
72	0xbda02e60	-0.07821345
73	0x3d7fdc1c	0.062465772
74	0xbd9edf39	-0.0775742
75	0x3e26b511	0.16280009
76	0xbe04ad2a	-0.12956682
77	0x3e3e4c69	0.18583836
78	0xbd98bc06	-0.074577376
79	0x3c0429d0	0.0080666095
80	0xbd9426be	-0.07233952
81	0xbd6d2948	-0.057900697
82	0xbdb02c45	-0.08602194
83	0xbe3d9046	-0.18512067
84	0x3d26e9f0	0.040750444
85	0x3c0c7260	0.008572191
86	0x3e3617f5	0.17782576
87	0xbdb41830	-0.08793676
88	0x3dd0534e	0.10172139
89	0x3de88a5e	0.113545164
90	0x3c624b50	0.013811901
91	0x3db1644a	0.08661707
92	0x3c378590	0.011201277
93	0xbd3c2d50	-0.04594165
94	0xbdeb1717	-0.114790134
95	0x3dd69baa	0.10478909
96	0xbd8f3512	-0.06992544
97	0x3e217955	0.15768941
98	0xbbb49d20	-0.005511895
99	0xbde7502f	-0.11294591
100	0x3c476ac0	0.012171447
101	0xbc1d1570	-0.009587631
102	0xbdbf308b	-0.09335431
103	0xbe266d76	-0.16252694
104	0x3c9ce598	0.019152448
105	0x3d30c764	0.043158904
106	0xbd9aaa18	-0.07551974
107	0xbda2dcb0	-0.07952249
108	0x3b907000	0.0044078827
109	0xbd94117d	-0.07229898
110	0xbdd97069	-0.10617144
111	0x3dd151e2	0.10220696
112	0xbd508490	-0.05090767
113	0xbe35904d	-0.17730828
114	0xbe22ee1b	-0.15911143
115	0xbdc08059	-0.093994804
116	0x3e32240b	0.17396562
117	0x3d771f7c	0.06033276
118	0x3dcbd4ce	0.09952699
119	0xbded0b0d	-0.115743734
120	0x3d9a787a	0.0754251
121	0x3dc6ac22	0.097008005
122	0xbcd63900	-0.026150227
123	0x3ddfce62	0.10928036
124	0xbdd08b13	-0.10182776
125	0x3de8cbfe	0.113670334
126	0xbde96ca5	-0.113976754
127	0x3d380b1c	0.04493247
128	0xbccc65e0	-0.024950922
129	0x3d582d04	0.052777305
130	0xbd84d900	-0.06486702
131	0x3ddebc8e	0.10875808
132	0x3e11b7f9	0.14230336
133	0x3e1ae713	0.1512721
134	0xbda77ba2	-0.08177878
135	0xbdd4246b	-0.10358509
136	0x3dd2cdfa	0.10293193
137	0xbc633450	-0.013867453
138	0xba6ce800	-0.0009037256
139	0xbc98d730	-0.018657297
140	0x3d048e0c	0.03236203
141	0xbe121234	-0.14264756
142	0xbe0c4e44	-0.13701731
143	0x3df92d7e	0.1216688
144	0x3e2a8079	0.16650571
145	0x3d538438	0.051639766
146	0xbcd162f8	-0.025559887
147	0xbe2c9e01	-0.16857149
148	0xbd8dd95c	-0.06926224
149	0xbda0a3b9	-0.078437276
150	0x3933a000	0.00017130375
151	0x3e3de1f9	0.18543233
152	0x3da7bffe	0.081909165
153	0x3d4478bc	0.047966704
154	0xbd8c23cd	-0.06842766
155	0x3d8eb96e	0.06968962
156	0xbd87cb0e	-0.066305265
157	0xbdd71212	-0.105014935
158	0x3dcae55e	0.099070296
159	0xbdf43e44	-0.11925939
160	0x3df9687a	0.121781304
161	0xbe00a853	-0.1256421
162	0xbe1cee10	-0.15325189
163	0xbe26bc20	-0.16282701
164	0x3de682ea	0.112554386
165	0xbdd5230e	-0.10407077
166	0xbdf0044f	-0.11719572
167	0x3d432438	0.047641963
168	0x3d3c57e0	0.04598224
169	0x3c32bcc0	0.010909259
170	0xbdaef61a	-0.08543034
171	0xbe09c3b6	-0.13453564
172	0x3d3a9424	0.045551434
173	0xbe212bb3	-0.15739326
174	0xbddfe5db	-0.10932513
175	0x3d6887f8	0.056770295
176	0xbe334885	-0.17508133
177	0xbdfbc1ec	-0.12292847
178	0xbe232555	-0.1593221
179	0x3d5b52ec	0.053545877
180	0x3e28a895	0.16470559
181	0x3e11c5b9	0.14235581
182	0xbe19f6ef	-0.15035604
183	0x3db71382	0.08939268
184	0x3d3fa1bc	0.0467851
185	0xbd324070	-0.043518484
186	0xbe0575cf	-0.13033222
187	0x3e23bdd1	0.15990378
188	0x3c921020	0.017829955
189	0x3e1e9639	0.15486993
190	0x3dcf4662	0.10120846
191	0x3e23ecf7	0.16008364
192	0x3d985ef2	0.074399844
193	0x3dcd8372	0.10034837
194	0x3e258395	0.16163476
195	0xbdfa6923	-0.122270845
196	0xbd990da3	-0.07473304
197	0xbc39b4f0	-0.011334643
198	0xbe2c3e6e	-0.1682069
199	0x3dec9a26	0.11552839
200	0xbe1ac597	-0.15114437
201	0x3ab61100	0.0013890564
202	0x3dd5192e	0.10405193
203	0x3e03dc51	0.12877013
204	0x3d0cdbbc	0.034389243
205	0xbcba3980	-0.022732496
206	0xbe2fa481	-0.17152597
207	0xbd7ccbc0	-0.06171775
208	0x3da861ca	0.08221777
209	0xbcc4a9c0	-0.024006724
210	0xbe34ab2d	-0.17643423
211	0xbd948fd5	-0.07253996
212	0x3e193e51	0.14965178
213	0xbd85def0	-0.065366626
214	0x3de024de	0.10944532
215	0x3e0de487	0.13856708
216	0xbe3e270e	-0.18569586
217	0xbd3dd434	-0.04634495
218	0xbd2a741c	-0.041614637
219	0xbd50dbd0	-0.05099088
220	0x3c55e0d0	0.013054088
221	0xbc2a6e70	-0.010402307
222	0xbe2e9861	-0.17050315
223	0x3e1cb945	0.1530505
224	0xbcf8ce40	-0.030371785
225	0x3e297b6b	0.16550986
226	0xbe00a44e	-0.12562677
227	0x3d1a3744	0.03765036
228	0x3bc22b60	0.005925581
229	0x3d2cb858	0.04216799
230	0x3e04e7db	0.12979071
231	0xbe235eee	-0.15954182
232	0x3d5950b4	0.05305548
233	0xbe113af4	-0.14182645
234	0x3e1ba39d	0.15199132
235	0x3dfe49d6	0.12416427
236	0x3e07af19	0.13250388
237	0x3b93a340	0.004505545
238	0x3d6738bc	0.05645059
239	0xbd004ab0	-0.031321228
240	0x3d07f108	0.03318885
241	0xbe088068	-0.13330233
242	0x3e29395f	0.16525792
243	0xbd037114	-0.03209026
244	0x3e2fe46d	0.17176981
245	0xbd27d7bc	-0.040977225
246	0xbd83c634	-0.064342886
247	0xbe3527b7	-0.17690931
248	0xbd6a062c	-0.057134792
249	0x3d20cbfc	0.039257035
250	0xbe36f942	-0.17868522
251	0x3d646d98	0.05576858
252	0xbe38cca1	-0.1804681
253	0xbdc439a6	-0.09581308
254	0x3e199745	0.14999111
255	0x3dbe6316	0.09296243

bias f4 [32]
0	0xbe1159bc	-0.14194387
1	0x3c9efe70	0.019408435
2	0x3e36a7b5	0.17837413
3	0x3e12a9af	0.14322542
4	0x3d939046	0.07205252
5	0xbdb092a1	-0.08621717
6	0xbe39a5d7	-0.18129669
7	0xbe02420e	-0.1272051
8	0xbcccf4d0	-0.02501908
9	0x3e31b261	0.17353202
10	0xbdb6aa70	-0.08919227
11	0x3de23402	0.11045076
12	0xbdd3cd5c	-0.103419036
13	0x3dde19aa	0.10844739
14	0xbd55f5d4	-0.052236393
15	0xbe0a503e	-0.13507172
16	0x3c5711c0	0.0131267905
17	0xbdf71757	-0.120649986
18	0x3d0865b8	0.03330013
19	0xbc52c5d0	-0.012864545
20	0xbddfb3fd	-0.10923002
21	0x3dbbf54e	0.091776475
22	0xbcbedae8	-0.023297742
23	0x3d4c9738	0.0499489
24	0xbddb9911	-0.107225545
25	0x3d3cb68c	0.046072528
26	0x3dfa0682	0.122082725
27	0x3d653ee4	0.05596818
28	0x3d0181fc	0.031618103
29	0xbd8d0d97	-0.06887358
30	0x3debac1a	0.11507435
31	0x3d0ec87c	0.034859166

weight f4 [32]
0	0x3f800000	1.0
1	0x3f800000	1.0
2	0x3f800000	1.0
3	0x3f800000	1.0
4	0x3f800000	1.0
5	0x3f800000	1.0
6	0x3f800000	1.0
7	0x3f800000	1.0
8	0x3f800000	1.0
9	0x3f800000	1.0
10	0x3f800000	1.0
11	0x3f800000	1.0
12	0x3f800000	1.0
13	0x3f800000	1.0
14	0x3f800000	1.0
15	0x3f800000	1.0
16	0x3f800000	1.0
17	0x3f800000	1.0
18	0x3f800000	1.0
19	0x3f800000	1.0
20	0x3f800000	1.0
21	0x3f800000	1.0
22	0x3f800000	1.0
23	0x3f800000	1.0
24	0x3f800000	1.0
25	0x3f800000	1.0
26	0x3f800000	1.0
27	0x3f800000	1.0
28	0x3f800000	1.0
29	0x3f800000	1.0
30	0x3f800000	1.0
31	0x3f800000	1.0

bias f4 [32]
0	0x00000000	0.0
1	0x00000000	0.0
2	0x00000000	0.0
3	0x00000000	0.0
4	0x00000000	0.0
5	0x00000000	0.0
6	0x00000000	0.0
7	0x00000000	0.0
8	0x00000000	0.0
9	0x00000000	0.0
10	0x00000000	0.0
11	0x00000000	0.0
12	0x00000000	0.0
13	0x00000000	0.0
14	0x00000000	0.0
15	0x00000000	0.0
16	0x00000000	0.0
17	0x00000000	0.0
18	0x00000000	0.0
19	0x00000000	0.0
20	0x00000000	0.0
21	0x00000000	0.0
22	0x00000000	0.0
23	0x00000000	0.0
24	0x00000000	0.0
25	0x00000000	0.0
26	0x00000000	0.0
27	0x00000000	0.0
28	0x00000000	0.0
29	0x00000000	0.0
30	0x00000000	0.0
31	0x00000000	0.0

running_mean f4 [32]
0	0xbe109f1b	-0.14123194
1	0xbea3e3b8	-0.32009673
2	0xbe36d53d	-0.17854781
3	0xbb87e982	-0.0041477093
4	0x3eb38c99	0.35068205
5	0xbd841acb	-0.06450423
6	0xbf09423f	-0.5361671
7	0xbddda316	-0.10822122
8	0x3e19247c	0.14955324
9	0x3f3eb6e6	0.7449783
10	0x3ec3d2f7	0.3824689
11	0x3e6c1447	0.2305461
12	0x3da6f1de	0.08151601
13	0x3e12ebc9	0.14347757
14	0xbe1c7c1e	-0.15281722
15	0xbebdb3b6	-0.3705117
16	0xbdcffb6c	-0.10155377
17	0xbf008203	-0.5019838
18	0x3db34ae1	0.087545164
19	0x3e7ab8f7	0.24484621
20	0xbcf15339	-0.029458629
21	0x3d982c4e	0.074303254
22	0xbd5419bb	-0.05178235
23	0xbcbbc30f	-0.02292016
24	0xbe9c6a77	-0.30549976
25	0xbe07f4f5	-0.13277037
26	0xbe3dcbc6	-0.18534765
27	0x3d28d464	0.041218176
28	0x3de61743	0.112349056
29	0xbe2a7e18	-0.16649663
30	0xbef3dfe0	-0.4763174
31	0xbe9a626e	-0.3015322

running_var f4 [32]
0	0x3d569e18	0.052396864
1	0x3d287df6	0.04113575
2	0x3ca5376d	0.02016803
3	0x3cfa1de2	0.030531827
4	0x3ce6f744	0.028194077
5	0x3d06f762	0.032950766
6	0x3ceeb77b	0.029140225
7	0x3d237927	0.03991046
8	0x3d447bd4	0.047969654
9	0x3ccd8b5c	0.025090866
10	0x3ceecd8e	0.02915075
11	0x3caf3cda	0.021391321
12	0x3d4ad881	0.04952288
13	0x3d4957b0	0.04915589
14	0x3d6e814c	0.058228776
15	0x3d04e153	0.03244145
16	0x3cb8345d	0.022485906
17	0x3cd98f63	0.02655763
18	0x3d5c554e	0.05379229
19	0x3ca6b29a	0.020348836
20	0x3ce4d191	0.02793196
21	0x3d64abee	0.055828027
22	0x3d20a8f8	0.03922364
23	0x3d33ab1a	0.043864347
24	0x3d2e964c	0.042623803
25	0x3cbd7439	0.023126708
26	0x3cef0bf9	0.029180514
27	0x3d9338cf	0.0718857
28	0x3c9567c5	0.018237958
29	0x3d329846	0.04360225
30	0x3cc96816	0.024585765
31	0x3d056984	0.03257133

weight f4 [2, 32, 1, 1]
0	0xbdcbf6f6	-0.099592134
1	0xbd2abfbc	-0.04168676
2	0xbc42fce0	-0.01190111
3	0xbd611156	-0.054948173
4	0xbe243751	-0.16036727
5	0x3d820dca	0.06350286
6	0xbd901e83	-0.0703707
7	0xbde57532	-0.11203994
8	0xbd147194	-0.03624113
9	0x3dfe50fe	0.12417792
10	0xbd12a6d8	-0.035803646
11	0xbddcfd48	-0.10790497
12	0xbe31c7df	-0.17361401
13	0xbd99337a	-0.074805215
14	0xbdc0614d	-0.09393559
15	0x3e077b61	0.13230659
16	0xbd40799c	-0.046990976
17	0xbdbb8359	-0.09155912
18	0x3dc96d1e	0.098352656
19	0x3dfb224e	0.122624025
20	0xbc27f930	-0.010252282
21	0x3da9fe76	0.08300488
22	0x3db4e53a	0.08832784
23	0x3e314901	0.17313005
24	0xbe113db2	-0.14183691
25	0x3e11daf9	0.14243688
26	0x3d42b8b0	0.047539413
27	0xbe1232ff	-0.14277266
28	0x3d7e50a4	0.062088624
29	0xbd4b3670	-0.049612463
30	0xbce543c0	-0.027986407
31	0xbabfca00	-0.0014632344
32	0xbdfbbfd0	-0.12292445
33	0x3e052639	0.13002862
34	0xbe10e874	-0.14151174
35	0xbda7e3af	-0.08197724
36	0xbdab6f06	-0.083707854
37	0xbdc7e08b	-0.09759625
38	0x3dcfed4a	0.10152681
39	0xbc9c9dd8	-0.019118235
40	0xbc6e5800	-0.014547348
41	0xbd691e70	-0.056913793
42	0xbdf887c4	-0.1213527
43	0x3e1e9e47	0.15490066
44	0xbcc21290	-0.023690492
45	0xbdc5a775	-0.096510805
46	0x3c7cb8f0	0.015424952
47	0xbe246d44	-0.16057307
48	0x3d6e3164	0.05815257
49	0xbda7c6d9	-0.08192224
50	0x3cfbc218	0.0307322
51	0xbdc07251	-0.09396804
52	0x3db51e4a	0.08843668
53	0xbe24d54b	-0.1609699
54	0xbe04d238	-0.12970817
55	0xbdaaab93	-0.083335064
56	0x3e0f7025	0.14007623
57	0xbcd53da8	-0.026030377
58	0xbddeb1dd	-0.108737685
59	0xbcbcfec0	-0.023070693
60	0x3e0861b5	0.13318522
61	0x3ddb88b2	0.10719432
62	0xbd0545e0	-0.03253734
63	0xbd92f291	-0.07175172

bias f4 [2]
0	0xbd1855e4	-0.037191287
1	0x3d8c1da8	0.06841594

weight f4 [2]
0	0x3f800000	1.0
1	0x3f800000	1.0

bias f4 [2]
0	0x00000000	0.0
1	0x00000000	0.0

running_mean f4 [2]
0	0xbf230577	-0.63680214
1	0xbf75e1c5	-0.9604762

running_var f4 [2]
0	0x3ee14d11	0.4400411
1	0x3ef0587e	0.46942514

weight f4 [26, 18]
0	0x3e2845ed	0.16432925
1	0xbd1b83d4	-0.037967518
2	0x3e21cfff	0.15802
3	0xbe2ad0ef	-0.16681264
4	0xbcd7f130	-0.026360124
5	0xbdea8598	-0.11451262
6	0x3cf408f8	0.029789433
7	0x3e39b63b	0.18135922
8	0x3e2cd025	0.16876276
9	0xbe28969c	-0.16463703
10	0x3d10dc2c	0.035366222
11	0x3df6b916	0.12047021
12	0xbd6efe08	-0.05834773
13	0xbe200e42	-0.15630439
14	0x3e305349	0.17219271
15	0xbce4a970	-0.027912825
16	0x3dc7d716	0.09757821
17	0x3d3c28a4	0.045937195
18	0xbd49d2e8	-0.0492734
19	0xbd2e20d0	-0.04251176
20	0xbe65c59d	-0.22438665
21	0xbca13ff0	-0.019683808
22	0xbe0239a2	-0.12717298
23	0x3e1a5a53	0.15073518
24	0xbda14d3e	-0.07876061
25	0x3da5e2da	0.08099909
26	0x3cb292c8	0.021798506
27	0x3e40c94d	0.1882679
28	0x3da4af92	0.080413
29	0x3ddd3f5e	0.10803102
30	0x3ccdce58	0.025122806
31	0x3e2f06dd	0.17092462
32	0x3ddc39c2	0.10753204
33	0x3deb09a2	0.11476447
34	0xbbf3a840	-0.0074358284
35	0x3c90d018	0.017677352
36	0x3d446314	0.04794605
37	0x3c4a5480	0.012349248
38	0x3e56c241	0.2097254
39	0x3d1d1ae4	0.038355723
40	0x3d9d806a	0.07690509
41	0xbdc27cac	-0.094964355
42	0xbc13af40	-0.009013951
43	0xbe1f426c	-0.15552682
44	0x3decb2aa	0.11557515
45	0x3cfa2e28	0.030539587
46	0xbda566a2	-0.08076216
47	0xbc2f4240	-0.010696948
48	0xbe35b960	-0.17746496
49	0xbe048f09	-0.12945189
50	0xbd32a62c	-0.043615505
51	0xbe1f94de	-0.15584132
52	0xbe5cbec6	-0.2155715
53	0x3df10346	0.117682025
54	0x3e1e3581	0.15450098
55	0x3d573d04	0.052548423
56	0x3d5d5414	0.05403526
57	0xbe6633ca	-0.22480693
58	0x3e2365d7	0.15956818
59	0x3c2d2260	0.010567278
60	0xbe656f80	-0.22405815
61	0x3e0b6841	0.13613988
62	0xbd245d38	-0.040127963
63	0xbe40243a	-0.1876382
64	0xbe3f6d60	-0.18694067
65	0xbd9df1fc	-0.077121705
66	0x3d7eef94	0.0622402
67	0xbbb6d180	-0.0055791736
68	0xbe647398	-0.2230972
69	0xbdb06180	-0.08612347
70	0x3b7411c0	0.0037242025
71	0x3d76dffc	0.060272202
72	0xbe309010	-0.17242455
73	0x3d4ac6ec	0.049506113
74	0x3dd79636	0.10526697
75	0x3db02bc6	0.08602099
76	0x3e07e2a5	0.13270052
77	0x3e6227c5	0.22085483
78	0x399c7600	0.00029842556
79	0x3e6720bd	0.22571082
80	0xbe645be4	-0.22300678
81	0xbbd43f40	-0.0064772666
82	0xbe422ba6	-0.18961963
83	0xbdc7fc02	-0.097648636
84	0xbd2288c0	-0.039681196
85	0x3b079c00	0.0020692348
86	0xbd3e9c88	-0.046536
87	0xbe528998	-0.205603
88	0xbe62ec74	-0.22160512
89	0x3cd66578	0.026171431
90	0xbb668200	-0.00351727
91	0xbccb07e0	-0.024784029
92	0xbd978a50	-0.07399428
93	0xbc7ebfe0	-0.015548676
94	0xbd5c1070	-0.053726614
95	0xbe3be21a	-0.1834797
96	0x3e278ef7	0.1636313
97	0x3db8c26a	0.090214565
98	0xbd1e106c	-0.03858988
99	0xbc8b07c0	-0.016971469
100	0xbe048914	-0.12942916
101	0x3d5e104c	0.05421476
102	0x3e53ef51	0.2069676
103	0x3c460c80	0.012087941
104	0x3df890d6	0.12137
105	0xbe4f12b6	-0.20221981
106	0xbde3955b	-0.11112472
107	0xbddaf3fc	-0.106910676
108	0x3e4a6415	0.19764741
109	0xbba90760	-0.00515835
110	0x3e6d9af5	0.23203643
111	0xbd96f658	-0.07371205
112	0x3c43ebb0	0.011958048
113	0x3d61ba24	0.05510916
114	0xbd586f3c	-0.052840456
115	0x3d40498c	0.04694514
116	0xbd034ad8	-0.0320538
117	0xbe6768b3	-0.22598533
118	0xbd77c6fc	-0.0604925
119	0x3d5dfe84	0.054197803
120	0x3e665dcf	0.22496723
121	0xbdf4de9b	-0.11956521
122	0x3dae7eea	0.08520301
123	0xbe24c229	-0.16089691
124	0x3b8321e0	0.004001841
125	0xbc061080	-0.008182645
126	0x3dc941f6	0.09827034
127	0x3deea09a	0.11651726
128	0x3df45716	0.11930673
129	0x3de666be	0.11250065
130	0x3aa65700	0.0012690723
131	0xbdb6d59c	-0.089274615
132	0x3d99a8de	0.07502912
133	0x3e571bbb	0.21006672
134	0x3e0cdb35	0.13755496
135	0x3d8588a6	0.06520204
136	0x3e28c9a5	0.16483171
137	0xbd3c0a80	-0.04590845
138	0xbb106cc0	-0.0022037476
139	0x3d5fa1fc	0.05459784
140	0xbb253c80	-0.0025213063
141	0x3dc53396	0.0962898
142	0x3db2c1d2	0.087283745
143	0x3db7bcae	0.08971535
144	0x3e5d7e65	0.21630247
145	0xbdfb4024	-0.12268093
146	0x3d759454	0.05995591
147	0xbde02546	-0.10944609
148	0xbe010d37	-0.12602697
149	0xbe700727	-0.23440228
150	0x3e2e883f	0.17044161
151	0xbb8af920	-0.004241124
152	0x3dcb5ebe	0.0993018
153	0xbda14444	-0.07874349
154	0xbe704d90	-0.23467088
155	0x3e332eed	0.1749837
156	0x3e0b3f0b	0.13598268
157	0xbe4cb017	-0.19989048
158	0xbe6dabac	-0.23210019
159	0x3d62fa2c	0.055414364
160	0x3c247a90	0.010038987
161	0x3e01ebef	0.12687658
162	0x3dcb326e	0.09921728
163	0x3e06f30d	0.13178654
164	0xbe571bc4	-0.21006685
165	0xbe6b6d92	-0.22991017
166	0x3e16f5bd	0.14742179
167	0xbdf11541	-0.11771632
168	0xbe1a7df8	-0.15087116
169	0x3bb6d940	0.0055800974
170	0xbe1a93d5	-0.15095456
171	0xbe34b9cc	-0.17649001
172	0xbe4c77bc	-0.1996755
173	0xbd384110	-0.044983923
174	0x3e5086bb	0.20363896
175	0x3dc90d22	0.09816958
176	0xbcb8cd90	-0.022558957
177	0x3df0111e	0.11722015
178	0x3e1b2937	0.15152441
179	0xbd172ca8	-0.036907822
180	0xbe1f3b6b	-0.1555001
181	0xbd6e1ce0	-0.058133006
182	0xbcefac40	-0.02925694
183	0x3bf6a820	0.0075273663
184	0xbe35f8b8	-0.1777066
185	0xbce232b0	-0.02761206
186	0xbdbee344	-0.09320691
187	0xbc7efda0	-0.015563399
188	0xbe4ed08a	-0.20196739
189	0x3db04c3a	0.08608289
190	0xbe641536	-0.22273716
191	0x3daae79e	0.08344959
192	0xbe2a02e1	-0.1660266
193	0xbb1b2280	-0.0023671687
194	0x3e544c8d	0.20732327
195	0xbdd13582	-0.10215284
196	0x3d4fa6d4	0.05069621
197	0x39f8b200	0.00047434866
198	0x3e38dcd3	0.18052988
199	0xbdda4908	-0.10658461
200	0xbd34f448	-0.044178277
201	0xbdc2fa32	-0.09520377
202	0x3e264d61	0.16240455
203	0xbc88a500	-0.01668024
204	0xbc2496d0	-0.010045722
205	0x3df25182	0.11831953
206	0x3e5a6a4d	0.21329613
207	0x3e1e6d63	0.15471415
208	0x3cde58e8	0.027142003
209	0x3e4bb1d5	0.19892056
210	0xbccbe6c0	-0.024890304
211	0x3c754290	0.014969483
212	0x3d471754	0.04860623
213	0x3dd1454e	0.10218297
214	0xbdc0db58	-0.094168365
215	0x3dcd3572	0.100199595
216	0x3e373ee1	0.1789508
217	0x3def4efe	0.116849884
218	0xbe0da84a	-0.13833728
219	0x3e665ed3	0.2249711
220	0xbb818440	-0.003952533
221	0xbe4c0ed7	-0.19927536
222	0xbe1bfa4a	-0.15232196
223	0x3e1d251d	0.15346189
224	0xbe305642	-0.17220405
225	0xbe04cb5e	-0.12968203
226	0x3d4ed474	0.05049558
227	0x3e45120f	0.1924517
228	0xbdd59658	-0.104290664
229	0xbe381af5	-0.17979033
230	0xbddeec64	-0.10884932
231	0xbc5c8c40	-0.013461173
232	0xbe0701b7	-0.13184248
233	0xbdd59f1c	-0.10430738
234	0xbe70c459	-0.235124
235	0x3dbfb1e2	0.093601
236	0xbe22c01c	-0.15893596
237	0xbdbeb118	-0.09311122
238	0xbd37c6bc	-0.044867262
239	0x3d6398ac	0.05556552
240	0x3d326d1c	0.043561086
241	0xbda64e36	-0.08120386
242	0xbdd9f30e	-0.10642062
243	0x3da7a41e	0.081856
244	0x3dd723ba	0.10504861
245	0xbd017db8	-0.031614035
246	0xbcbda1a8	-0.023148373
247	0x3deed596	0.11661832
248	0xbe28be95	-0.16478951
249	0x3d7d0c2c	0.061779186
250	0x3dc4184e	0.09574948
251	0xbe360039	-0.17773522
252	0xbda9fe18	-0.08300418
253	0xbe0c0a2c	-0.13675755
254	0x3cb6bfe8	0.022308305
255	0xbe2e8fa2	-0.17046979

bias f4 [26]
0	0xbddcdb5c	-0.10784027
1	0xbd3e1fec	-0.04641716
2	0xbd4a5b00	-0.04940319
3	0x3dd087da	0.10182162
4	0xbe0dc79e	-0.13845679
5	0x3d5f5564	0.054524794
6	0x3e0b8bbb	0.13627522
7	0xbdc2ab10	-0.09505284
8	0xbbb636e0	-0.005560741
9	0x3e2319e7	0.1592785
10	0xbd5d9f5c	-0.054107055
11	0xbde8d606	-0.11368947
12	0x3d22d124	0.039750233
13	0x3cead8f8	0.028667912
14	0x3dea7fe6	0.11450176
15	0xbe270787	-0.16311465
16	0xbdd73348	-0.10507828
17	0x3e61110f	0.21979164
18	0x3e6804c3	0.22658066
19	0x3e008cab	0.1255366
20	0x3e1cc40b	0.1530916
21	0xbd87433e	-0.06604622
22	0x3dc75c86	0.09734444
23	0x3e4e8c95	0.20170815
24	0x3e656b53	0.22404222
25	0xbe0e8e70	-0.13921523

weight f4 [1, 32, 1, 1]
0	0xbd3cf00c	-0.046127364
1	0x3ddb2246	0.106998965
2	0xbe1cddc6	-0.15318975
3	0xbcc44e28	-0.023963049
4	0xbd3455d0	-0.04402715
5	0x3db7f132	0.08981551
6	0xbe0a0bb6	-0.1348103
7	0x3e2f1d55	0.17101033
8	0x3c89a188	0.016800657
9	0x3d7421a8	0.05960241
10	0x3d9ee5fe	0.07758711
11	0xbd10a670	-0.035314977
12	0x39e8b400	0.000443846
13	0x3a869e80	0.0010270625
14	0xbe26eecc	-0.16302031
15	0xbdbf3164	-0.093355924
16	0xbd4ec344	-0.05047919
17	0x3dbe3e6a	0.09289248
18	0x3d4cbebc	0.049986586
19	0x3d962e7a	0.073330835
20	0x3de6cef6	0.112699434
21	0xbc786740	-0.0151613355
22	0xbc834df8	-0.01602839
23	0x3e15dd51	0.14635207
24	0x3d514448	0.05109051
25	0xbd6688ca	-0.056282796
26	0xbe189870	-0.149019
27	0x3cce8e68	0.025214389
28	0x3daa52ba	0.0831656
29	0xbc8b7378	-0.017022833
30	0x3cec1f30	0.028823465
31	0xbd9856d7	-0.074384384

weight f4 [32, 9]
0	0x3e711eb2	0.23546866
1	0xbd818d0c	-0.06325731
2	0xbe2f29b0	-0.17105746
3	0x3da4c230	0.08044851
4	0x3e237db2	0.15965918
5	0x3e8ee4b3	0.2790886
6	0xbdd21e56	-0.10259692
7	0x3e75ec22	0.24015859
8	0xbe3d0b06	-0.18461236
9	0x3d86926c	0.065708965
10	0x3d4bec18	0.049785703
11	0x3e239840	0.15976048
12	0x3c559a20	0.013037235
13	0x3db63a70	0.08897865
14	0xbea289d4	-0.3174578
15	0x3d198160	0.037476897
16	0x3e23fb8a	0.16013923
17	0x3e0645c2	0.13112548
18	0x3e88b6ed	0.2670206
19	0x3e80a0cd	0.2512268
20	0x3ea8be95	0.32957903
21	0xbd58a960	-0.052895904
22	0x3d424748	0.04743126
23	0xbde1f2d0	-0.11032641
24	0xbe700a4b	-0.23441426
25	0x3e7b556a	0.24544302
26	0xbe00fce0	-0.12596464
27	0xbe5a72d6	-0.21332869
28	0x3e3f3112	0.18671063
29	0x3e2bddba	0.167838
30	0xbe1f460b	-0.15554063
31	0xbca58c90	-0.020208627
32	0x3ea4b695	0.3217055
33	0x3d9be1a4	0.07611397
34	0x3d5642a8	0.052309662
35	0x3cc0b130	0.02352199
36	0xbe7129a8	-0.23551047
37	0xbdf7646c	-0.12079701
38	0xbd99bd7c	-0.075068444
39	0xbe6a7ed8	-0.2289995
40	0xbea961be	-0.33082384
41	0xbe0144d3	-0.1262391
42	0x3ea5d9eb	0.3239282
43	0x3ea1ea81	0.31624225
44	0x3d226468	0.039646536
45	0x3e256d5e	0.16155002
46	0xbe9d1bc4	-0.30685246
47	0x3e18547a	0.14875975
48	0xbd9b73e4	-0.07590464
49	0xbe305173	-0.1721857
50	0x3d221be0	0.039577365
51	0xbdbdb7c0	-0.09263563
52	0xbe875a73	-0.26436195
53	0x3e65fb5a	0.22459164
54	0x3dd08110	0.10180867
55	0x3ea141a1	0.31495383
56	0x3d7849e8	0.060617357
57	0xbd8b4f2c	-0.0680221
58	0x3e3252be	0.17414376
59	0xbe2bebc6	-0.16789159
60	0x3e104852	0.14090088
61	0x3e8b0379	0.27151087
62	0xbe51fe3b	-0.20507137
63	0x3e381ab2	0.17978933
64	0x3e9b5675	0.303394
65	0xbddaa0c0	-0.10675192
66	0xbea54f1c	-0.32286918
67	0x3e7b339a	0.24531403
68	0xbe3bc233	-0.183358
69	0x3eaa67e1	0.33282378
70	0xbd9cb430	-0.076515555
71	0xbca35470	-0.019937724
72	0xbe4647c0	-0.19363308
73	0xbdd1bd40	-0.10241175
74	0xbea1b1ee	-0.31581062
75	0xbe9aec88	-0.30258584
76	0x3e97a76d	0.29619923
77	0xbd0b8c28	-0.03406921
78	0x3e7769c2	0.24161437
79	0xbd3dab18	-0.046305746
80	0x3e21cba0	0.15800333
81	0xbe8b9cf3	-0.2726818
82	0x3e88a519	0.2668846
83	0x3d5daba0	0.054118752
84	0x3e019d46	0.12657651
85	0x3e8e48b5	0.27789846
86	0xbe9fc254	-0.31202948
87	0x3d4c32e0	0.049853206
88	0x3ddd12c0	0.10794592
89	0xbe9ebf9a	-0.31005555
90	0x3ea9cb9f	0.33163163
91	0xbe17f510	-0.14839578
92	0x3e79671a	0.24355736
93	0xbd1309d8	-0.03589806
94	0xbe9ddca4	-0.30832398
95	0x3e8e5919	0.2780235
96	0x3e8530c1	0.2601376
97	0x3d4303d8	0.047611088
98	0x3e997b85	0.2997705
99	0xbdac4776	-0.084120676
100	0x3e81e52d	0.2537016
101	0x3e477b4e	0.19480631
102	0x3e6999ca	0.22812572
103	0x3d992e34	0.07479516
104	0x3e42960a	0.19002548
105	0xbdbfa7dc	-0.093581885
106	0xbe382a50	-0.17984891
107	0x3ea4f1e3	0.32215795
108	0x3e53c17e	0.2067928
109	0xbe12d4fb	-0.14339058
110	0x3d548ee0	0.05189407
111	0x3e89e101	0.26929477
112	0x3e9d1c89	0.30685833
113	0x3e70f366	0.23530349
114	0xbca68880	-0.02032876
115	0x3e3a406e	0.1818864
116	0xbd286760	-0.04111421
117	0xbe0b9ed6	-0.1363481
118	0x3d1ee8c8	0.038796216
119	0xbd1d5ac8	-0.038416654
120	0xbea6816a	-0.3252061
121	0x3dcabc5c	0.09899208
122	0xbe88b3ee	-0.26699775
123	0x3de0cc84	0.10976508
124	0xbc96f7c0	-0.018428683
125	0x3e37d1ae	0.1795108
126	0xbe08eb0e	-0.13370916
127	0xbe8718d7	-0.2638614
128	0xbe82ab2b	-0.25521216
129	0xbe9dad86	-0.3079645
130	0xbd874360	-0.06604648
131	0x3e177cfe	0.14793774
132	0x3c280ce0	0.010256976
133	0x3c69de20	0.01427415
134	0xbe1efbeb	-0.15525787
135	0xbe9dd888	-0.30829263
136	0xbe27337b	-0.16328232
137	0xbdec05d0	-0.11524546
138	0x3e2344ea	0.15944257
139	0xbdff3fd6	-0.124633476
140	0xbe4d8576	-0.20070443
141	0xbdde4160	-0.10852313
142	0xbd53c420	-0.05170071
143	0x3e3b7d52	0.18309525
144	0xbcacab80	-0.021077871
145	0x3d6f8898	0.058479875
146	0x3dc05f04	0.09393123
147	0xbdeebd66	-0.11657219
148	0x3e75320e	0.23944876
149	0xbea7a0bf	-0.32739827
150	0x3e4973ca	0.19673076
151	0xbe148a6e	-0.14505932
152	0x3e88f121	0.26746467
153	0xbe7dc713	-0.24782972
154	0x3e384372	0.17994478
155	0x3e9ddac1	0.30830958
156	0x3e6516fe	0.22372052
157	0x3ea68421	0.3252268
158	0xbea4082c	-0.32037485
159	0xbe9b7f48	-0.30370545
160	0xbdba3620	-0.09092355
161	0x3e083aee	0.1330373
162	0x3e59318a	0.21210304
163	0x3e74c192	0.23901966
164	0xbe19a1b0	-0.15003085
165	0x3d8bea14	0.06831756
166	0xbcb9dd00	-0.022688389
167	0x3e0b31e0	0.13593245
168	0x3e838b55	0.2569224
169	0x3d0956a8	0.033529907
170	0xbd50d0e8	-0.05098048
171	0x3e545d4a	0.20738712
172	0x3e4fbf22	0.20287755
173	0x3d506dc0	0.050885916
174	0x3dfb7a30	0.12279165
175	0xbe86586f	-0.26239344
176	0x3dba5360	0.09097934
177	0x3e4d72da	0.20063344
178	0xbdb8a71c	-0.090162486
179	0xbe9d60ef	-0.30738017
180	0xbdfa8500	-0.12232399
181	0xbe044593	-0.12917165
182	0x3e4ebdda	0.2018961
183	0xbe8f2797	-0.27959892
184	0x3e0d2eb6	0.1378735
185	0x3ea1b00f	0.31579635
186	0x3d7cbd20	0.0617038
187	0xbd243520	-0.040089726
188	0x3dec538c	0.11539373
189	0xbd34a8e8	-0.044106394
190	0xbe28ca96	-0.1648353
191	0xbea9d952	-0.33173615
192	0x3ea7f521	0.32804206
193	0xbea0e246	-0.31422633
194	0xbe80b44f	-0.25137565
195	0xbd18eac0	-0.03733325
196	0xbdd71d0c	-0.10503587
197	0xbe97fe83	-0.29686365
198	0x3e96b897	0.29437706
199	0xbe5b3fdb	-0.21411078
200	0xbe1bc1be	-0.15210626
201	0x3dca0a94	0.09865299
202	0x3c234be0	0.0099668205
203	0xbe8fcf67	-0.28087923
204	0x3ea5667b	0.3230475
205	0xbda6ae9c	-0.08138773
206	0x3e639eb2	0.22228506
207	0xbe1e65c0	-0.15468502
208	0xbd4abac0	-0.049494505
209	0x3e4712c2	0.1944075
210	0x3ea0c9db	0.31404004
211	0x3c9d4a30	0.019200414
212	0x3dfc3d4c	0.12316379
213	0xbe875bc0	-0.26437187
214	0xbe5de783	-0.21670346
215	0x3e3ff85a	0.18747082
216	0xbe81971b	-0.25310597
217	0x3caa0940	0.020756364
218	0x3e901569	0.28141335
219	0xbdab63d6	-0.083686516
220	0xbdb06f4c	-0.08614978
221	0xbdec5a06	-0.11540608
222	0x3d59da58	0.053186744
223	0x3e8f113b	0.27942833
224	0xbe167d70	-0.14696288
225	0xbd109600	-0.0352993
226	0xbe75060b	-0.23928086
227	0xbe10a290	-0.14124513
228	0x3b82e100	0.0039941072
229	0xbe5f2633	-0.21791916
230	0xbe9f6ce0	-0.31137753
231	0xbe2c7b6e	-0.1684396
232	0xbbef1500	-0.0072962046
233	0x3e4a636a	0.19764486
234	0xbe9dc9ec	-0.30818117
235	0xbe96804f	-0.29394767
236	0x3c5cd020	0.013477355
237	0x3d57bda8	0.052671105
238	0x3e9a93b7	0.30190822
239	0xbd4fefc0	-0.050765753
240	0x3ea99be5	0.3312675
241	0x3e71fc92	0.23631504
242	0x3cc63e40	0.024199605
243	0xbd02fef8	-0.03198144
244	0xbe76319e	-0.24042365
245	0xbea70fb8	-0.3262918
246	0x3e2469a8	0.1605593
247	0xbdba9b7c	-0.091116875
248	0x3d6b4868	0.0574421
249	0x3e756bda	0.23966923
250	0x3e062a96	0.13102183
251	0xbd061708	-0.032736808
252	0xbe965708	-0.29363275
253	0xbd492c98	-0.049114794
254	0xbe405720	-0.18783236
255	0xbdcd623c	-0.10028502

bias f4 [32]
0	0x3e13b456	0.14424261
1	0x3e730f1e	0.23736235
2	0x3d1b0ca8	0.037853867
3	0x3d13fd08	0.03612998
4	0x3ae8bc00	0.0017756224
5	0xbe8a2efa	-0.26988965
6	0xbc71d360	-0.014759868
7	0x3e9d1d97	0.30686638
8	0x3e89f16b	0.26942
9	0x3dfbd56c	0.12296566
10	0xbe80b7c0	-0.2514019
11	0xbe30c2b6	-0.17261776
12	0x3e86d0f5	0.26331297
13	0x3ca94770	0.020663947
14	0xbd4722f8	-0.048617333
15	0x3e061b8a	0.13096443
16	0xbd4668c8	-0.04843977
17	0x3e96f01d	0.29480067
18	0x3d992534	0.07477799
19	0x3e8c8da5	0.27451816
20	0x3dedbba0	0.11608052
21	0xbe7a54ae	-0.24446365
22	0xbe7dcae6	-0.24784431
23	0x3e3e76a2	0.18599942
24	0xbe5a019e	-0.2128968
25	0xbde14e8c	-0.1100131
26	0xbe3178d0	-0.17331243
27	0x3e217368	0.1576668
28	0x3d1b29c8	0.037881643
29	0xbceeca90	-0.029149324
30	0x3dadcb6c	0.08486065
31	0xbd8a5d34	-0.06756058

weight f4 [1, 32]
0	0xbd831ef2	-0.06402387
1	0xbd18cc20	-0.037304044
2	0x3c8d4418	0.017244384
3	0x3c954028	0.018219069
4	0x3e0bd043	0.13653664
5	0x3b6925c0	0.003557548
6	0x3deb4fde	0.11489843
7	0x3e1fcc4f	0.15605281
8	0x3dff04c2	0.12452079
9	0xbc1c2ef0	-0.009532675
10	0x3d42d470	0.047565877
11	0x3e2478b1	0.16061665
12	0x3da8d686	0.08244042
13	0xbdcc77b6	-0.099837705
14	0xbd43ff08	-0.04785064
15	0xbbcced80	-0.006253898
16	0x3d5dd4ec	0.054158136
17	0xbca1fa78	-0.019772753
18	0x3d921c1a	0.07134266
19	0x3d41532c	0.04719846
20	0x3dcb9c66	0.0994194
21	0xbdcb7a3f	-0.09935426
22	0x3e143985	0.14475067
23	0x3dec9022	0.11550929
24	0xbe2967d2	-0.1654351
25	0x3e2d3c5b	0.16917555
26	0xbd9a925e	-0.075474486
27	0xbe316cee	-0.1732671
28	0xbca6d618	-0.02036576
29	0xbdb1c789	-0.086806364
30	0x3d95e610	0.073192716
31	0x3d818e72	0.063259974

weight f4 [32, 32, 3, 3]
0	0x3d03a817	0.032142725
1	0x3d54b591	0.051930968
2	0xbd5616c4	-0.052267805
3	0xbd5ed3a5	-0.05440106
4	0xbd0b0c80	-0.033947468
5	0xbc19937c	-0.009373542
6	0x3c7d600c	0.015464794
7	0xbc5fddcc	-0.01366372
8	0x38c8ac00	9.568781e-05
9	0xbd143d4a	-0.036191262
10	0x3d28c881	0.04120684
11	0xbd476944	-0.048684373
12	0x3bc35a68	0.005961705
13	0xbd0584c4	-0.03259732
14	0xbd0009aa	-0.031259216
15	0x3d3ff99d	0.04686891
16	0xbd4425dd	-0.04788767
17	0x3c91f33a	0.017816175
18	0x3b1f2fe0	0.002429001
19	0x3d1f3a55	0.03887399
20	0xbc428dfc	-0.011874672
21	0x3c8add52	0.016951237
22	0xbc5729bc	-0.013132509
23	0xbc8b7aae	-0.017026272
24	0xbc430e08	-0.011905201
25	0x3c87e262	0.01658744
26	0x3ab773e0	0.0013996325
27	0x3cb7eca2	0.022451703
28	0x3bda3958	0.006659668
29	0xbd295315	-0.041339
30	0x3cc3a0a6	0.023880314
31	0x3c4070d4	0.01174565
32	0xbcbd4d7a	-0.023108233
33	0x3d0a77cd	0.033805657
34	0x3d59c64d	0.05316763
35	0x3ce795d2	0.028269682
36	0xbba6cca8	-0.005090315
37	0xbd5ede2f	-0.05441111
38	0xbc87c360	-0.016572654
39	0x3d232d31	0.03983802
40	0x3c87dace	0.016583826
41	0x3d4d525f	0.050127383
42	0x3aa22a80	0.0012372285
43	0x3d121969	0.035668764
44	0xbcbbeb86	-0.022939455
45	0x3cd2d2be	0.025735255
46	0x3c8d5d82	0.017256502
47	0xbc93f252	-0.018059883
48	0xbd551982	-0.05202628
49	0x3d037bb9	0.032100413
50	0x3cdde33e	0.027085897
51	0xbd21160a	-0.03932766
52	0x3ba5b038	0.0050564073
53	0x3c8947aa	0.016757805
54	0xbcd09b10	-0.025464565
55	0x3d111897	0.03542384
56	0x3ce534da	0.027979303
57	0xbd22117a	-0.03956745
58	0xba8127e0	-0.0009853803
59	0xbc9a477e	-0.018832918
60	0x3c21c144	0.009872738
61	0xbcff6153	-0.031174337
62	0xbc82520c	-0.015908264
63	0x3bb5a368	0.005543161
64	0xbc871bda	-0.016492773
65	0xbd0a6acd	-0.03379326
66	0x3d0c34b5	0.034229953
67	0xbd184e30	-0.03718394
68	0xbd2018c6	-0.039086126
69	0x3ca45b66	0.020063113
70	0x3c9f95e6	0.019480657
71	0x3cc99a52	0.024609718
72	0x3cc9a7da	0.02461617
73	0x3d46a533	0.04849739
74	0xbb92ed70	-0.004483871
75	0xbc9d572c	-0.019206606
76	0xbd322d98	-0.043500513
77	0x3d062dbd	0.032758463
78	0x3c3e8bdc	0.011630025
79	0xbcad24dc	-0.02113574
80	0x3cf78f12	0.030219588
81	0xbbb25238	-0.00544193
82	0xbd4451c9	-0.04792956
83	0x3d51e0d5	0.051239807
84	0x3c5aa8cc	0.013345908
85	0xbd10356c	-0.035207197
86	0xbd20870d	-0.039191294
87	0xbd199d44	-0.037503496
88	0xbd0e66b5	-0.034765918
89	0x3c026c8c	0.00796045
90	0xbd2e4c0a	-0.042552985
91	0x3d2b759b	0.041860204
92	0xbc8d8cc4	-0.017279036
93	0x3ce4fdde	0.027953085
94	0x3d0b72f3	0.03404517
95	0x3d4d558d	0.050130416
96	0x3cd97666	0.026545715
97	0x3ae5b420	0.0017524995
98	0x3af48600	0.0018655658
99	0x3d25af9b	0.040450674
100	0x3c8570b6	0.016289096
101	0x3ce8c26e	0.028413024
102	0x3d068825	0.03284468
103	0xba478240	-0.00076106563
104	0xbc649788	-0.0139521435
105	0xbd320964	-0.043465987
106	0x3c16d89c	0.009206917
107	0x3a9e9640	0.0012099221
108	0x3c8b1c9a	0.016981412
109	0x3d68c695	0.056830008
110	0x3d0a7307	0.033801105
111	0xbd48fa1d	-0.04906665
112	0xbd57f94a	-0.052727975
113	0xbca6b038	-0.0203477
114	0x3cb4a7f6	0.022052746
115	0x3d2bd0f3	0.041947316
116	0x3d453c81	0.048153404
117	0x3d139785	0.036033172
118	0x3c955a1e	0.018231448
119	0xbd655ef5	-0.05599876
120	0xbd16cff3	-0.03681941
121	0xbc958ab0	-0.018254608
122	0xbd17199b	-0.036889654
123	0xbd43e3d2	-0.04782469
124	0xbcbadfbc	-0.022811763
125	0x3cbac93e	0.022801038
126	0x3d3ae417	0.04562768
127	0x3d604f35	0.054763038
128	0x3cfb5716	0.030681174
129	0xbcf62c24	-0.030050345
130	0x3d5e8c79	0.054333184
131	0x3d18ebe9	0.037334356
132	0x3c87403a	0.016510118
133	0x3d645a61	0.055750255
134	0xbd2b964c	-0.04189138
135	0x3b372df0	0.0027950965
136	0x3d24bb91	0.04021794
137	0x3c8dd032	0.01731119
138	0xbce93477	-0.0284674
139	0xbd1389c3	-0.03602005
140	0x3cd9c32a	0.02658232
141	0xbc4e2e14	-0.012584228
142	0xbd66a2b6	-0.056307517
143	0xbd223dc6	-0.039609693
144	0xbd3c1606	-0.04591944
145	0x3c02f59c	0.007993128
146	0x3d4af909	0.049553905
147	0x3cb2fdfa	0.021849621
148	0x3d02fcfd	0.03197955
149	0x3d479913	0.048729967
150	0x3d267955	0.040643055
151	0xbca428be	-0.020038959
152	0x3caba336	0.020951848
153	0x3ac8dfa0	0.0015325435
154	0xbd47e774	-0.048804715
155	0xbd4cf0f0	-0.050034463
156	0xbd3501b8	-0.044191092
157	0xbcf6490b	-0.030064126
158	0x3c51321c	0.012768295
159	0xbb028fe0	-0.0019922182
160	0xbd68241d	-0.056675065
161	0x3d62456b	0.055241983
162	0xbc961d0c	-0.018324398
163	0xbd2b07c2	-0.041755445
164	0x3cac7d32	0.021055792
165	0x3d1b9c0d	0.03799062
166	0xbb64f3f0	-0.0034935437
167	0xbb770290	-0.0037690736
168	0xbd31963f	-0.043356176
169	0x3d37060b	0.044683497
170	0xbad16540	-0.001597561
171	0x3d68328b	0.056688827
172	0xbd5f0a61	-0.054453257
173	0xbd4bb900	-0.049736977
174	0x3d685037	0.056717124
175	0x3d4292c5	0.04750325
176	0xbd2764a2	-0.040867455
177	0xbbd9b978	-0.006644424
178	0xbd450f46	-0.04811027
179	0xbc971c34	-0.018446065
180	0x3d2bfd4d	0.041989613
181	0xbd380d64	-0.044934645
182	0x3d44be61	0.048033122
183	0xbd4de1c2	-0.050264128
184	0x3c35fbac	0.0111073665
185	0xbd2a7254	-0.041612938
186	0xbd695261	-0.05696333
187	0xbbe63be0	-0.0070261806
188	0xbd086e4e	-0.03330832
189	0x3d15c15b	0.03656135
190	0xbd131386	-0.03590729
191	0xbd6faaaf	-0.058512386
192	0xbd1643e2	-0.03668583
193	0xbd427ac0	-0.047480345
194	0x3ce5dc32	0.028059099
195	0x3cd39706	0.02582885
196	0x3b6ad7f0	0.0035834275
197	0x3ccd07ea	0.025028188
198	0xbd5d92de	-0.05409514
199	0xbd2d434c	-0.042300507
200	0x3d0daee5	0.03459062
201	0xbd11d2ca	-0.035601415
202	0xbd3c833a	-0.046023585
203	0x3cd5d4b2	0.026102398
204	0xbd0343a5	-0.032046933
205	0x3d24d135	0.040238578
206	0x3d2d378d	0.042289305
207	0x3d447b4b	0.047969144
208	0x3d11ef7b	0.035628777
209	0xbd13f6d2	-0.036124058
210	0x3cc5974a	0.024119992
211	0x3d2e8dc5	0.04261567
212	0x3d1e39d3	0.038629364
213	0xbd334498	-0.043766588
214	0xbc4db840	-0.012556136
215	0xbcbf44f4	-0.02334831
216	0x39c09180	0.000367295
217	0x3c57f3dc	0.013180699
218	0x3ac86b60	0.0015290789
219	0xbc04a2f8	-0.008095495
220	0x3c1f2d74	0.009715427
221	0xbcc07b16	-0.023496192
222	0x3d253597	0.04033431
223	0xbd26eb0a	-0.040751494
224	0x3d66189d	0.056175817
225	0x3ca8d132	0.020607565
226	0xbc77209c	-0.015083458
227	0x3d3f2fa1	0.04667628
228	0x3d336e85	0.04380657
229	0xba851240	-0.0010152534
230	0xbcd7e82a	-0.026355822
231	0xbd4d4100	-0.050110817
232	0x3d39b927	0.04534259
233	0xbd49601b	-0.04916392
234	0xbd381a9e	-0.04494726
235	0x3ca40826	0.020023417
236	0xbcce636e	-0.025193896
237	0xbce4b763	-0.027919477
238	0xbcf9a59f	-0.030474482
239	0x3c93bbce	0.018033888
240	0xbb764970	-0.0037580393
241	0xbcbcd00e	-0.023048427
242	0xbbdaaf30	-0.006673716
243	0x3c82d7de	0.015972074
244	0x3d37ce6b	0.04487459
245	0xbb2914b0	-0.0025799684
246	0xbbced900	-0.0063124895
247	0x3d6cd78f	0.05782276
248	0xbd52c1a2	-0.051454194
249	0xbcb3f232	-0.021966074
250	0x3d608357	0.054812755
251	0xbd641777	-0.05568644
252	0xbbc07fe8	-0.0058746226
253	0x3d6f9aef	0.058497366
254	0x3d3f69db	0.04673181
255	0xbd09fe92	-0.033690043

bias f4 [32]
0	0x3c102d94	0.008799929
1	0xbcc65702	-0.02421141
2	0x3d4c3a8d	0.049860526
3	0x3a997500	0.0011707842
4	0x3d48a2dd	0.048983444
5	0xbc77cc1c	-0.015124347
6	0x3d461405	0.048358936
7	0xbbf6b7e8	-0.0075292476
8	0x3cbef572	0.023310397
9	0xbd113ce2	-0.035458453
10	0xbd198d19	-0.037488077
11	0x3d5142c1	0.051089052
12	0xbc659278	-0.014011972
13	0x3ceb5f16	0.028731864
14	0xbce0f8fa	-0.027462471
15	0xbc975c24	-0.018476553
16	0xbd294c4c	-0.041332528
17	0xbd598260	-0.05310285
18	0x3d048209	0.032350574
19	0xbd6eff34	-0.05834885
20	0xbd6480a9	-0.055786762
21	0x3d407159	0.046983097
22	0x3c33698c	0.010950457
23	0x3d47cf1b	0.048781496
24	0xbd681757	-0.056662884
25	0x3ce39a9e	0.027783688
26	0x3d1fca43	0.03901125
27	0xbd670ea2	-0.05641044
28	0x3d64c4e1	0.05585182
29	0xbcfab156	-0.030602138
30	0xbc9dddfc	-0.01927089
31	0x3cb8a3f6	0.02253912

weight f4 [32, 32, 3, 3]
0	0x3d568fb7	0.05238315
1	0xbb1a2d10	-0.0023525394
2	0xbd5b3294	-0.053515032
3	0xbd1562f5	-0.036471326
4	0x3b2c7820	0.0026316717
5	0xbc656cc4	-0.0140029825
6	0xbb4ed830	-0.0031561963
7	0x3d462aef	0.04838079
8	0xbc41baac	-0.011824291
9	0x3c1e1c64	0.009650324
10	0xbc107a84	-0.0088182725
11	0x3cd16a82	0.025563482
12	0xbb48ecd0	-0.003065873
13	0xbc8d6292	-0.017258916
14	0x3c5ab114	0.013347883
15	0x3bdf7908	0.006819848
16	0xbd425772	-0.047446676
17	0x3d169b13	0.036768984
18	0x3c8e792e	0.017391767
19	0xbd077d02	-0.0330782
20	0x3c0fe87c	0.008783456
21	0xbd1f7a03	-0.03893472
22	0xbce63f86	-0.028106462
23	0xbccb1748	-0.024791375
24	0x3d14fd9f	0.036374684
25	0xba659e40	-0.0008759238
26	0x3ca7181a	0.020397235
27	0xbcd9ff04	-0.026610859
28	0xbd18f37c	-0.03734158
29	0xbd159ea8	-0.03652826
30	0xbd557996	-0.052117907
31	0x3d542e79	0.051802132
32	0xbd2f6a6a	-0.042826094
33	0x3cb762fe	0.02238607
34	0xbd642ece	-0.0557087
35	0xbd4b5902	-0.04964543
36	0xbd40b476	-0.0470471
37	0x3ce53bfa	0.0279827
38	0x3d45d667	0.048300173
39	0xbcf93fcd	-0.03042593
40	0xbb78d5f0	-0.0037969314
41	0xbd1e5030	-0.03865069
42	0xbc300424	-0.010743175
43	0x3d6e35df	0.058156844
44	0x3d3a49e1	0.045480613
45	0xbd4a8eed	-0.04945271
46	0x3bb97198	0.0056592934
47	0xbccead12	-0.02522901
48	0xbd48be52	-0.04900963
49	0x3ce2874e	0.027652409
50	0xbccac288	-0.024750963
51	0x3d1156c5	0.03548314
52	0xbcf226af	-0.029559461
53	0xbd499ed9	-0.049223755
54	0x3d27d4bd	0.040974367
55	0x3d4cac91	0.04996926
56	0x3d360a5f	0.044443484
57	0xbd5631a6	-0.052293442
58	0x3d43f773	0.047843408
59	0xbb9f9ec0	-0.0048712194
60	0x3c868bc2	0.016424064
61	0x3c91c932	0.017796133
62	0x3d27e579	0.040990327
63	0x3cd2878a	0.025699396
64	0x3d1226db	0.035681587
65	0x3b2fbf90	0.002681706
66	0xbcbcad98	-0.023031995
67	0xbbd801c0	-0.0065920055
68	0x3bfabc88	0.007651869
69	0xbc6e535c	-0.014546242
70	0x3d2ee46f	0.04269832
71	0x3cd3e032	0.02586374
72	0xbd0ae6c8	-0.033911496
73	0xbd679c08	-0.056545287
74	0xbd656c90	-0.056011736
75	0xbd6c095c	-0.057626113
76	0x3d448f35	0.047988135
77	0x3c7e24fc	0.015511747
78	0x3d43c50d	0.047795344
79	0x3d564f79	0.052321885
80	0xbcf287cb	-0.029605767
81	0xbd39ec5e	-0.045391433
82	0x3d451dd5	0.048124153
83	0x3ae40f00	0.001739949
84	0xbd369616	-0.044576727
85	0xbd26bb54	-0.040705994
86	0xbd3ba967	-0.04581585
87	0xbcd073e4	-0.025445886
88	0x3cad1fba	0.021133292
89	0x3c7bdaa4	0.015371952
90	0x3b4af7e0	0.00309705
91	0xbd07627e	-0.033052914
92	0x3c3c0fac	0.011478346
93	0xba4c57c0	-0.0007795058
94	0xbc1eb64c	-0.009687018
95	0xbd125eac	-0.035734817
96	0xbc19b850	-0.009382322
97	0x3c454884	0.012041215
98	0xbd140e1a	-0.03614626
99	0x3ca22082	0.019790892
100	0xbcc8409c	-0.02444487
101	0x3c54cedc	0.012988772
102	0xbd5ba88d	-0.05362754
103	0xbcf40411	-0.029787095
104	0xbbd042b8	-0.0063556097
105	0xbd2d40e2	-0.042298205
106	0x3d2e5d3d	0.042569388
107	0xbd5553dc	-0.052081928
108	0x3d13949d	0.0360304
109	0xbbc40b90	-0.0059828237
110	0x3d308013	0.04309089
111	0x3b782610	0.0037864484
112	0x3c3b6c04	0.011439327
113	0x3cfc05e6	0.030764531
114	0xbccda08c	-0.025100969
115	0xbd59b980	-0.053155422
116	0xb9a77b00	-0.00031944364
117	0xbd27c2a8	-0.040957123
118	0x3d0d4f27	0.034499314
119	0xbc0f4230	-0.008743808
120	0xbcd0c648	-0.025485173
121	0x3cce705a	0.025200058
122	0x3c46c2e4	0.0121314265
123	0x3ca07af6	0.019589882
124	0x3cee4852	0.02908722
125	0x3c9a0592	0.018801484
126	0xbb7e9ce0	-0.003885083
127	0xbd63a508	-0.055577308
128	0x3cb28306	0.021790992
129	0x3ceca6a2	0.02888805
130	0x3d4843f3	0.048892926
131	0x3b72d8f0	0.0037055574
132	0xbc9dc3d6	-0.01925842
133	0x3d505c15	0.050869066
134	0x3d09db09	0.033656154
135	0x3d3af2d5	0.04564174
136	0xbc0bcda8	-0.008532919
137	0x3ce4e30e	0.0279403
138	0xbb2032c0	-0.0024444312
139	0xbc844456	-0.016145866
140	0x3d1c1057	0.03810152
141	0x3d55294d	0.05204134
142	0x3d397e6b	0.045286577
143	0x3d5ce0eb	0.053925436
144	0xbd06a95f	-0.03287637
145	0xbc4963c0	-0.012291849
146	0xbc03017c	-0.007995959
147	0xbcbfcb8a	-0.023412485
148	0x3c8596b6	0.016307216
149	0x3c0c396c	0.008558612
150	0x3cf32cee	0.02968451
151	0x3c8b2f1e	0.01699024
152	0xba1b2dc0	-0.0005919598
153	0xbd54e8d6	-0.051979862
154	0x3d35d101	0.044388775
155	0x3d386d83	0.045026314
156	0x3b8a9ba8	0.0042299815
157	0x3d4596eb	0.04823963
158	0xbd210462	-0.03931082
159	0xbce25a50	-0.027630955
160	0x3acae7a0	0.0015480407
161	0x3cf6e32a	0.030137617
162	0xbce7fab0	-0.02831778
163	0xbd092b67	-0.033488657
164	0xbc9b730a	-0.018975753
165	0xbbed4b98	-0.0072416775
166	0x3d081397	0.033221807
167	0xbccfedd6	-0.025381964
168	0x3ccbe006	0.024887096
169	0x3c9d2baa	0.01918586
170	0x3d2653b7	0.04060718
171	0x3c957e52	0.01824871
172	0x3d30b7b7	0.043143954
173	0x3d29948d	0.041401435
174	0xbd113bfa	-0.03545759
175	0xbd1aaedb	-0.03776441
176	0x3d443c55	0.0479091
177	0x3d561361	0.052264575
178	0x3cb7a502	0.022417549
179	0xbd07863d	-0.033087004
180	0x3d4421b3	0.0478837
181	0x3cb8552e	0.022501554
182	0x3d6d88d7	0.05799183
183	0x3c4cb10c	0.012493383
184	0x3c8b85e6	0.017031621
185	0x3d48d17b	0.0490279
186	0xbd5c709e	-0.053818338
187	0x3d6aa409	0.057285342
188	0xbcfb7793	-0.030696666
189	0xbb8038a8	-0.003913004
190	0xbd443a55	-0.047907192
191	0xbd2c54f2	-0.042073198
192	0xbc26a0dc	-0.010170188
193	0x3d56a4b1	0.052403156
194	0x3d6cb763	0.05779208
195	0x3d6b3243	0.05742098
196	0x3d4d005d	0.050049175
197	0x3cacb2aa	0.021081287
198	0x3d23e033	0.040008735
199	0x3d38e505	0.045140285
200	0x3b5de2b0	0.003385704
201	0x3c28c5b4	0.010301042
202	0xbc527f2c	-0.012847703
203	0xbd70457d	-0.05866002
204	0xbd023bac	-0.03179519
205	0xbd0f593c	-0.03499721
206	0xbc472e80	-0.012157083
207	0xbd149c90	-0.036282122
208	0x3ccc8686	0.02496649
209	0xbc27bac4	-0.0102373995
210	0xbca19eda	-0.019729067
211	0x3c7b4754	0.01533683
212	0xbc8ee3cc	-0.017442606
213	0x3d3776d3	0.044791054
214	0x3cbd97d2	0.023143683
215	0xbc8cdb40	-0.01719439
216	0xbc6255a0	-0.01381436
217	0xba900a00	-0.0010989308
218	0x3c60b494	0.013714928
219	0x3d3bf547	0.04588821
220	0xbd64c5c8	-0.05585268
221	0x3d101661	0.035177592
222	0xbcc7ad3c	-0.024374597
223	0x3d0cfa19	0.0344182
224	0x3d31204b	0.043243688
225	0x3d015375	0.03157373
226	0xbd245574	-0.040120557
227	0x3b644ca0	0.003483571
228	0xbcf3fc2c	-0.02978333
229	0x3c3aac7c	0.011393663
230	0x3bd6cdc8	0.0065552928
231	0xbc3bbb14	-0.011458177
232	0xbb026970	-0.0019899271
233	0x3cd9967a	0.02656101
234	0x3d6588bb	0.0560386
235	0xba73e500	-0.0009303838
236	0x3c4d34cc	0.012524795
237	0x3ba84308	0.005134944
238	0xbcb3bd38	-0.021940812
239	0x3cd18236	0.025574785
240	0xbd4f01da	-0.050538875
241	0x3d1fee43	0.039045583
242	0x3ca77fca	0.020446677
243	0xbc0c8d5c	-0.008578625
244	0xbc2ecdb0	-0.010669157
245	0x3bbe8278	0.005813893
246	0xbc94754c	-0.018122338
247	0xbca31676	-0.019908171
248	0x3d5493ef	0.051898893
249	0x3d10691b	0.035256486
250	0xbd50f84c	-0.051018044
251	0xbc1ddca0	-0.009635121
252	0x3c9367a6	0.01799376
253	0x3d1c773d	0.038199652
254	0xbd3735d0	-0.044729054
255	0x3c6f8d94	0.014621157

bias f4 [32]
0	0x3d1e5e2f	0.03866404
1	0xbd610c0e	-0.054943137
2	0x3cbf83da	0.023378301
3	0xbd53e32c	-0.05173032
4	0x3cb6a70a	0.022296447
5	0x3c233054	0.009960253
6	0xbd47ee86	-0.048811458
7	0x3ca7307a	0.020408858
8	0xbcbcc196	-0.023041528
9	0xbcbc991a	-0.023022223
10	0xba5b58c0	-0.0008367412
11	0x3d1a85c3	0.03772522
12	0x3d295dd7	0.04134926
13	0xbd630b09	-0.055430446
14	0x3cc37ebe	0.023864146
15	0xbc08cef8	-0.008350126
16	0xbc501cb8	-0.01270216
17	0xbd00ab40	-0.031413317
18	0xbd706023	-0.058685433
19	0xbc6ae37c	-0.014336463
20	0xbd01558c	-0.031575724
21	0x3c743494	0.014905114
22	0x3c9f94ca	0.019480128
23	0xbc57b75c	-0.013166275
24	0xbc5d4710	-0.013505712
25	0xbd283318	-0.04106435
26	0x3c6d2444	0.014473978
27	0x3cb0dd86	0.021590006
28	0x3b8780f8	0.0041352473
29	0xbc93e380	-0.018052816
30	0xbd11b108	-0.03556922
31	0xbb0676b0	-0.002051752

weight f4 [32]
0	0x3f800000	1.0
1	0x3f800000	1.0
2	0x3f800000	1.0
3	0x3f800000	1.0
4	0x3f800000	1.0
5	0x3f800000	1.0
6	0x3f800000	1.0
7	0x3f800000	1.0
8	0x3f800000	1.0
9	0x3f800000	1.0
10	0x3f800000	1.0
11	0x3f800000	1.0
12	0x3f800000	1.0
13	0x3f800000	1.0
14	0x3f800000	1.0
15	0x3f800000	1.0
16	0x3f800000	1.0
17	0x3f800000	1.0
18	0x3f800000	1.0
19	0x3f800000	1.0
20	0x3f800000	1.0
21	0x3f800000	1.0
22	0x3f800000	1.0
23	0x3f800000	1.0
24	0x3f800000	1.0
25	0x3f800000	1.0
26	0x3f800000	1.0
27	0x3f800000	1.0
28	0x3f800000	1.0
29	0x3f800000	1.0
30	0x3f800000	1.0
31	0x3f800000	1.0

bias f4 [32]
0	0x00000000	0.0
1	0x00000000	0.0
2	0x00000000	0.0
3	0x00000000	0.0
4	0x00000000	0.0
5	0x00000000	0.0
6	0x00000000	0.0
7	0x00000000	0.0
8	0x00000000	0.0
9	0x00000000	0.0
10	0x00000000	0.0
11	0x00000000	0.0
12	0x00000000	0.0
13	0x00000000	0.0
14	0x00000000	0.0
15	0x00000000	0.0
16	0x00000000	0.0
17	0x00000000	0.0
18	0x00000000	0.0
19	0x00000000	0.0
20	0x00000000	0.0
21	0x00000000	0.0
22	0x00000000	0.0
23	0x00000000	0.0
24	0x00000000	0.0
25	0x00000000	0.0
26	0x00000000	0.0
27	0x00000000	0.0
28	0x00000000	0.0
29	0x00000000	0.0
30	0x00000000	0.0
31	0x00000000	0.0

running_mean f4 [32]
0	0x3d5e06cc	0.0542057
1	0xbd27c20c	-0.040956542
2	0xbe80461b	-0.25053486
3	0x3e82a07c	0.25513065
4	0xbd86e279	-0.06586165
5	0x3db2561a	0.08707829
6	0x3e8da9e4	0.2766868
7	0xbe509ba7	-0.20371877
8	0xbdc127af	-0.09431397
9	0xbecd29e3	-0.4007102
10	0x3e87fc9c	0.26559913
11	0x3d843478	0.0645532
12	0x3e20560d	0.15657826
13	0xbda855c7	-0.08219486
14	0xbe4f0ba3	-0.20219283
15	0x3ee29777	0.44256184
16	0xbdd8908a	-0.10574444
17	0xbea015e8	-0.31266713
18	0x3cf0417c	0.0293281
19	0x3ea488fc	0.3213576
20	0x3e016f9e	0.12640235
21	0xbe1aaaa3	-0.15104155
22	0x3e55d642	0.20882514
23	0x3e6dd35f	0.23225163
24	0x3da579c0	0.080798626
25	0xbe9c30c2	-0.3050595
26	0xbcb24808	-0.021762863
27	0xbdb0487c	-0.08607575
28	0xbcd0d65a	-0.025492836
29	0xbe23c599	-0.15993346
30	0xbd5a1f9d	-0.053252805
31	0xbea4d465	-0.32193294

running_var f4 [32]
0	0x3d7417eb	0.059593122
1	0x3d9cb968	0.07652551
2	0x3d62884b	0.05530576
3	0x3d4c29cf	0.04984456
4	0x3d96244c	0.07331142
5	0x3d8778ec	0.06614861
6	0x3dc3c47d	0.095589615
7	0x3d4e0caf	0.050305065
8	0x3dd78cd9	0.105249114
9	0x3e09bb0b	0.13450257
10	0x3de03adb	0.10948726
11	0x3d9e8adb	0.07741328
12	0x3cc9b294	0.024621285
13	0x3db73675	0.08945934
14	0x3d8bb5a3	0.06821754
15	0x3dc29f6d	0.09503064
16	0x3da8e0ef	0.08246028
17	0x3d2964a2	0.041355737
18	0x3da50864	0.08058241
19	0x3d3559d1	0.04427511
20	0x3da6740c	0.08127603
21	0x3de9231d	0.113836505
22	0x3d087e61	0.03332365
23	0x3da2b2eb	0.07944282
24	0x3da58b54	0.08083215
25	0x3daf1acc	0.08550033
26	0x3db85aa6	0.09001665
27	0x3e1403cd	0.14454575
28	0x3d9348af	0.07191598
29	0x3d4346d8	0.047674984
30	0x3d3b3c59	0.04571185
31	0x3d9e4dca	0.07729681

weight f4 [32]
0	0x3f800000	1.0
1	0x3f800000	1.0
2	0x3f800000	1.0
3	0x3f800000	1.0
4	0x3f800000	1.0
5	0x3f800000	1.0
6	0x3f800000	1.0
7	0x3f800000	1.0
8	0x3f800000	1.0
9	0x3f800000	1.0
10	0x3f800000	1.0
11	0x3f800000	1.0
12	0x3f800000	1.0
13	0x3f800000	1.0
14	0x3f800000	1.0
15	0x3f800000	1.0
16	0x3f800000	1.0
17	0x3f800000	1.0
18	0x3f800000	1.0
19	0x3f800000	1.0
20	0x3f800000	1.0
21	0x3f800000	1.0
22	0x3f800000	1.0
23	0x3f800000	1.0
24	0x3f800000	1.0
25	0x3f800000	1.0
26	0x3f800000	1.0
27	0x3f800000	1.0
28	0x3f800000	1.0
29	0x3f800000	1.0
30	0x3f800000	1.0
31	0x3f800000	1.0

bias f4 [32]
0	0x00000000	0.0
1	0x00000000	0.0
2	0x00000000	0.0
3	0x00000000	0.0
4	0x00000000	0.0
5	0x00000000	0.0
6	0x00000000	0.0
7	0x00000000	0.0
8	0x00000000	0.0
9	0x00000000	0.0
10	0x00000000	0.0
11	0x00000000	0.0
12	0x00000000	0.0
13	0x00000000	0.0
14	0x00000000	0.0
15	0x00000000	0.0
16	0x00000000	0.0
17	0x00000000	0.0
18	0x00000000	0.0
19	0x00000000	0.0
20	0x00000000	0.0
21	0x00000000	0.0
22	0x00000000	0.0
23	0x00000000	0.0
24	0x00000000	0.0
25	0x00000000	0.0
26	0x00000000	0.0
27	0x00000000	0.0
28	0x00000000	0.0
29	0x00000000	0.0
30	0x00000000	0.0
31	0x00000000	0.0

running_mean f4 [32]
0	0x3e5e07d4	0.21682674
1	0xbe6ca5a6	-0.23110065
2	0x3e3815f8	0.1797713
3	0xbdf97cf7	-0.12182038
4	0x3d9f9686	0.07792382
5	0x3eb7b06d	0.3587679
6	0xbe34d805	-0.1766053
7	0xbcbcd675	-0.02305148
8	0x3dfaab31	0.122396834
9	0xbe10b89e	-0.14132926
10	0xbdc5af4f	-0.09652578
11	0x3c4f605f	0.012657254
12	0x3ea085ab	0.3135198
13	0xbdd5265e	-0.104077086
14	0x3cfefa3a	0.031125177
15	0xbe06f105	-0.13177879
16	0x3ea0998a	0.3136714
17	0x3dc476c9	0.09592969
18	0x3d36c04e	0.04461699
19	0xbda9afea	-0.08285506
20	0xbd8241e3	-0.06360223
21	0xbe4ee9a8	-0.2020632
22	0x3e55599f	0.20834969
23	0xbdbfbcff	-0.0936222
24	0x3c69d232	0.014271306
25	0xbd6d1c20	-0.05788815
26	0x3e374098	0.17895734
27	0x3d89d9c6	0.0673099
28	0x3e14bdc8	0.14525521
29	0x3d0bd9fd	0.034143437
30	0xbea463ca	-0.32107383
31	0x3e44b8ee	0.1921117

running_var f4 [32]
0	0x3d86f415	0.06589524
1	0x3e2c9ad2	0.16855934
2	0x3daad911	0.083421834
3	0x3da9c55a	0.08289595
4	0x3db3adb8	0.087733686
5	0x3d7074fd	0.05870532
6	0x3e017b6b	0.12644736
7	0x3dbbea48	0.09175545
8	0x3df9963c	0.12186858
9	0x3d73cb76	0.059520207
10	0x3e04cb9a	0.12968293
11	0x3df5d489	0.120034285
12	0x3dae3a22	0.08507182
13	0x3d948745	0.07252363
14	0x3de96ccd	0.11397705
15	0x3d946487	0.072457366
16	0x3d9bc68b	0.076062284
17	0x3d4cbbb3	0.04998369
18	0x3d9c1189	0.07620532
19	0x3d831c8e	0.06401931
20	0x3e2ff9e6	0.17185172
21	0x3db6d6c0	0.08927679
22	0x3d9eb7f8	0.07749933
23	0x3d2c7e64	0.042112723
24	0x3dfe2ebc	0.124112576
25	0x3d6040f5	0.054749448
26	0x3d5e685d	0.054298747
27	0x3d6c42c5	0.057680864
28	0x3d94c555	0.072642006
29	0x3da83e20	0.082149744
30	0x3dd62258	0.10455769
31	0x3ddbc69f	0.10731243
