models/5_cross_5_v1.pt (torch_old, 327252 bytes, 66 tensors)

weight f4 [32, 5, 3, 3]
0	0x3f417664	0.75571275
1	0x3ec4eb34	0.38460696
2	0x3ec56d50	0.3855996
3	0x3f315892	0.6927577
4	0x3ef9578a	0.486996
5	0xbf031513	-0.5120403
6	0x3e1b02b6	0.15137753
7	0x3dc07706	0.09397702
8	0xbf147402	-0.57989514
9	0xbec38cd8	-0.38193393
10	0xbc08e68c	-0.008355748
11	0x3e8ea1fe	0.27857965
12	0xbe0396d6	-0.12850508
13	0x3e87d6e3	0.26531133
14	0x3eaa89b3	0.3330818
15	0x3e8c2e40	0.27379036
16	0x3ed9cf5d	0.42541018
17	0xbe418b57	-0.1890081
18	0x3efa089d	0.48834696
19	0x3e9e8cce	0.309668
20	0x3eb7dada	0.35909158
21	0x3f1b52d4	0.6067326
22	0x3e94a12f	0.29029223
23	0xbf8073c1	-1.0035325
24	0x3f40fe36	0.75387895
25	0x3dfa65ec	0.12226471
26	0xbf3e2397	-0.74273056
27	0xbede7bee	-0.43453926
28	0x3d0c2290	0.03421265
29	0x3e8ef875	0.27923933
30	0xbe55c8c0	-0.20877361
31	0x3e93b82a	0.28851444
32	0x3eb420b8	0.35181212
33	0x3df2b2ea	0.118505314
34	0x3f004fa3	0.50121516
35	0xbe012926	-0.12613353
36	0x3d448da6	0.04798665
37	0x3d64512e	0.05574148
38	0x3dda7da5	0.10668496
39	0x3d2997d4	0.04140456
40	0x3d476665	0.048681635
41	0x3dd4ac97	0.103844814
42	0x3dda7884	0.10667518
43	0x3da4aa62	0.080403104
44	0x3dce2c2d	0.100670196
45	0xbeb394e5	-0.35074535
46	0xbdb0e252	-0.08636917
47	0x3ec4216f	0.38306758
48	0xbe1a1adf	-0.15049313
49	0x3c06e62b	0.008233587
50	0xbebdf8b8	-0.3710382
51	0xbeb2bced	-0.34909764
52	0xbe9d717c	-0.30750644
53	0xbe001fea	-0.12512174
54	0x3e41369d	0.1886849
55	0x3eeca5fb	0.46220383
56	0x3e86c9f3	0.2632595
57	0x3f674f41	0.90355307
58	0x3df33c1d	0.118767
59	0x3e3b6c7b	0.18303101
60	0x3f759b89	0.9594045
61	0xbe50eba8	-0.20402396
62	0xbe5380a1	-0.20654537
63	0x3f137826	0.57605207
64	0xbe152ddc	-0.14568275
65	0x3cea794c	0.028622292
66	0xbddfb94e	-0.10924016
67	0xbee325b2	-0.44364697
68	0x3dc639d2	0.09678997
69	0xbe8684c1	-0.26273158
70	0x3c2033ac	0.009777945
71	0x3ed3529c	0.41273963
72	0x3e9e7c41	0.30954173
73	0x3f110478	0.56647444
74	0x3ecd2eeb	0.40074858
75	0x3f949d17	1.161044
76	0x3e5f4c05	0.21806343
77	0x3ea0f776	0.31438798
78	0x3f9d2d7a	1.2279503
79	0x3cbe954e	0.023264553
80	0xbdf79819	-0.12089557
81	0xbe024fdc	-0.12725776
82	0xbe185997	-0.14877926
83	0xbdeca9b2	-0.11555804
84	0xbdba0dc6	-0.09084658
85	0xbdbdb91d	-0.09263823
86	0xbe1568aa	-0.14590707
87	0xbe136fef	-0.14398168
88	0xbe0e8249	-0.13916887
89	0xbe0c1c3a	-0.13682643
90	0xbe3ff9e0	-0.18747663
91	0xbde2bd57	-0.1107127
92	0xbdb401a0	-0.087893724
93	0xbdd9cf83	-0.10635283
94	0xbe1489cd	-0.14505692
95	0xbe5865d2	-0.21132591
96	0xbe29f133	-0.16595916
97	0xbdbd7f84	-0.09252837
98	0xbdbc571b	-0.091963015
99	0x3d096c32	0.03355045
100	0x3d2a6d16	0.04160794
101	0xbd9a2d58	-0.0752818
102	0x3dba1246	0.09085517
103	0x3d3d2c54	0.046184853
104	0x3df8d304	0.12149623
105	0x3df06e6b	0.117398106
106	0xbc2ace87	-0.0104252165
107	0x3caa88f6	0.020817261
108	0xbe3d08ff	-0.18460463
109	0xbdb10eb8	-0.086453855
110	0xbd7dcb7e	-0.061961643
111	0xbdf2409c	-0.118287295
112	0xbe53fd27	-0.20702039
113	0xbe333e09	-0.17504133
114	0xbe61de74	-0.22057515
115	0xbdcc0653	-0.09962144
116	0xbdc5fd3c	-0.09667441
117	0x3d37e7f4	0.044898942
118	0x3ccd3d6c	0.025053702
119	0x3c405016	0.011737844
120	0x3df03129	0.117281266
121	0xbc463752	-0.01209815
122	0x3daeddf0	0.08538425
123	0x3dd72f92	0.1050712
124	0x3b19ceeb	0.002346928
125	0x3d441d4d	0.047879506
126	0xbd1b2582	-0.037877567
127	0xbcee5c98	-0.029096887
128	0x3c3a0246	0.011353081
129	0xbc53e5c6	-0.0129332
130	0x3c9f754d	0.019465113
131	0xba37bd29	-0.0007009083
132	0xbcf42cdf	-0.029806552
133	0xbc188e46	-0.009311264
134	0xbcc5e6ab	-0.024157843
135	0xbd0d854d	-0.034550954
136	0xbda53ded	-0.08068452
137	0xbd04c091	-0.032410208
138	0x3d3977d3	0.04528029
139	0xbdf9eb81	-0.12203122
140	0x3c493de7	0.012282825
141	0xbd2ee5db	-0.042699676
142	0xbe22c0d2	-0.15893868
143	0x3da8cfd9	0.08242769
144	0x3d7eabe9	0.062175665
145	0x3dbcefa6	0.09225397
146	0x3c262708	0.010141142
147	0xbdb5c16d	-0.08874784
148	0x3e1ef63f	0.15523623
149	0x3dcd4378	0.10022634
150	0x3dec3241	0.11533023
151	0x3d73d1bc	0.05952619
152	0xbb8dc8c6	-0.0043269126
153	0xbd071a78	-0.032984227
154	0x3d33d77b	0.04390667
155	0xbd9b9ff4	-0.07598868
156	0x3d51934a	0.051165856
157	0xbe158482	-0.14601329
158	0x3db39fc9	0.08770711
159	0xbd863408	-0.06552893
160	0xbe71cd4f	-0.23613475
161	0x3c1c517b	0.009540911
162	0x3d5e5542	0.054280527
163	0x3dd11fb0	0.10211122
164	0xbb6925aa	-0.0035575428
165	0xbcc847ef	-0.024448363
166	0x3e57ab4b	0.21061437
167	0x3e01a7b5	0.12661631
168	0x3e071c81	0.13194467
169	0x3dca17ab	0.098677956
170	0xbd32ea6f	-0.043680605
171	0xbe746597	-0.23866878
172	0xbe846a72	-0.2586246
173	0xbe823b05	-0.25435653
174	0xbe85f3c1	-0.26162532
175	0xbe513ea2	-0.20434049
176	0xbe5d7a42	-0.21628669
177	0xbe5bc0a0	-0.214602
178	0xbe5f1fc3	-0.2178946
179	0xbe56ab8a	-0.20963874
180	0xbde72361	-0.11286045
181	0xbe4c2841	-0.1993723
182	0x3d8a218d	0.067446806
183	0xbd4e5b66	-0.050380133
184	0xbe115419	-0.14192237
185	0xbd2ed73e	-0.04268574
186	0xbe26e5fe	-0.16298673
187	0xbd8c1976	-0.06840794
188	0xbe2a4d36	-0.16631016
189	0x3d1ca2e8	0.038241297
190	0xbd8929a0	-0.066973925
191	0x3cdb58f8	0.026775822
192	0xbd8d9136	-0.069124624
193	0x3bcf1b00	0.0063203573
194	0xbe21f353	-0.15815477
195	0xbe054df5	-0.1301802
196	0x3d362a65	0.044474024
197	0xbe93191c	-0.28730094
198	0xbd36762b	-0.044546288
199	0xbe5ee076	-0.21765313
200	0x3cc81bf2	0.024427388
201	0xbcc5c3cf	-0.02414122
202	0xbe0ed4a5	-0.13948305
203	0xbd02cd47	-0.03193405
204	0xbe1fc49c	-0.15602344
205	0xbde8239e	-0.113349184
206	0xbe278208	-0.16358197
207	0x3dc36f60	0.095427275
208	0xbe2b70f6	-0.1674231
209	0x3d885b66	0.06658058
210	0xbd55b06d	-0.052170206
211	0xbcd05ae5	-0.025433967
212	0xbe1505e5	-0.1455303
213	0xbe135883	-0.14389233
214	0x3d38a64b	0.045080464
215	0xbe9f5ef7	-0.3112714
216	0x3eb51f62	0.35375506
217	0x3e982b3c	0.29720485
218	0x3e9d4052	0.30713135
219	0x3ea152c3	0.31508455
220	0x3e9fb142	0.31189924
221	0x3e9c78cb	0.30560908
222	0x3e9e6885	0.30939117
223	0x3e9ff297	0.3123977
224	0x3e9e5486	0.3092386
225	0x3c45f6ee	0.012082798
226	0x3e2caad1	0.16862036
227	0x3e5efbbf	0.21775721
228	0x3d5b2614	0.05350311
229	0xbd2c7bf3	-0.042110395
230	0x3e60cd54	0.21953326
231	0x3e2e0435	0.16993792
232	0x3e12fb69	0.14353718
233	0xbe82b7d0	-0.25530863
234	0xbd12ed39	-0.035870764
235	0xbb8bcfc5	-0.0042667114
236	0xbe14ca36	-0.14530262
237	0x3de11a3a	0.109913304
238	0x3c203696	0.009778639
239	0xbdad1218	-0.08450717
240	0xbdd6d0af	-0.10489022
241	0xbc18ec56	-0.009333691
242	0x3bbbff3b	0.005737213
243	0xbd4489d6	-0.047983013
244	0x3e58e4c7	0.21181022
245	0x3e76bf5f	0.2409644
246	0x3c316a27	0.010828531
247	0xbcd1903c	-0.025581472
248	0x3e4a6d4c	0.19768256
249	0x3e22562b	0.15853183
250	0x3e16bc2e	0.14720222
251	0xbe4e92e6	-0.20173225
252	0xbd1a1a83	-0.03762294
253	0xbd47db62	-0.048793204
254	0xbe4f388b	-0.20236413
255	0x3e0ebaa1	0.13938381

bias f4 [32]
0	0x3cbb0ead	0.022834146
1	0x3d02df3b	0.03195117
2	0x3bbb203f	0.005710631
3	0xbce87164	-0.028374381
4	0xbc2190ea	-0.00986121
5	0xb977519b	-0.00023586156
6	0x3ae78159	0.001766245
7	0x3c9aab89	0.018880622
8	0x3d0ae9bb	0.03391431
9	0x3c8e010e	0.017334487
10	0xbcc33ab3	-0.0238317
11	0x3c40cb6f	0.011767252
12	0xbcd89050	-0.026436001
13	0xbc8c1a25	-0.01710231
14	0x3cf472f5	0.029839972
15	0x3cf77fa9	0.03021224
16	0xbc747007	-0.0149192875
17	0xbbd3062a	-0.006439944
18	0xbc84b5f6	-0.016200047
19	0xbc623fad	-0.013809127
20	0x3c39cc43	0.011340204
21	0x3ce7d829	0.028301315
22	0x3b462364	0.0030233497
23	0x3cd7fd3e	0.026365872
24	0x3c99deb9	0.01878296
25	0xbcd19600	-0.02558422
26	0xbc2f1cee	-0.01068805
27	0x3bd5c3ea	0.006523599
28	0x3c9188a5	0.017765353
29	0x3c360755	0.0111101465
30	0xbc773691	-0.015088693
31	0xbc14edbb	-0.0090898825

weight f4 [32]
0	0x3f8abe85	1.0839392
1	0x3fa5fb70	1.2967358
2	0xbe960221	-0.292985
3	0x3d1428c5	0.036171693
4	0x3f2dca08	0.678864
5	0xbd156196	-0.03647002
6	0x3c3f3eb0	0.011672661
7	0xbd74d70d	-0.0597754
8	0xbc81124e	-0.015755799
9	0x3f36de31	0.7143279
10	0x3cd8ae61	0.026450338
11	0x3db1b140	0.08676386
12	0x3d36691c	0.044533834
13	0x3f8b9701	1.0905458
14	0x3f6c6412	0.92340195
15	0x3fae3c71	1.3612195
16	0x3f86e447	1.0538415
17	0x3daa427a	0.08313461
18	0x3f95c558	1.170085
19	0x3f51e368	0.8198762
20	0xbdbc1348	-0.09183365
21	0x3f9b7923	1.2146343
22	0xbd0e5da6	-0.03475728
23	0x3ec196c0	0.37810326
24	0x3f1b1ca6	0.6059059
25	0xbd662f6d	-0.056197572
26	0xbd21dee4	-0.039519206
27	0xbe0a3475	-0.13496573
28	0x3e9f4490	0.31106997
29	0x3f375dc5	0.71627456
30	0x3f6856da	0.90757525
31	0x3fd5b083	1.6694492

bias f4 [32]
0	0xbe7dbb1b	-0.24778406
1	0x3ed5e2a2	0.4177447
2	0xbe8ea8b8	-0.27863097
3	0xbe88e9de	-0.26740927
4	0x3eb9677b	0.36211762
5	0xbe5aa328	-0.21351302
6	0xbe87b47a	-0.2650488
7	0xbda6140c	-0.081092924
8	0xbe4a8e5b	-0.19780867
9	0x3ed853df	0.4225149
10	0xbe45ecde	-0.19328639
11	0xbe52f717	-0.2060207
12	0xbe0e9304	-0.1392327
13	0x3dc24d43	0.09487393
14	0x3f0d99e5	0.5531295
15	0xbe763565	-0.24043806
16	0x3d83e679	0.064404435
17	0xbe1b6cfe	-0.15178296
18	0x3f2e2f4f	0.6804094
19	0xbd4568d5	-0.04819568
20	0xbead5f86	-0.3386194
21	0x3ea87c13	0.3290716
22	0xbdfa4401	-0.12220002
23	0xbf325bab	-0.69671124
24	0xbf0b20d7	-0.54346985
25	0xbe922ee3	-0.28551397
26	0xbe2a2d89	-0.16618933
27	0xbedead04	-0.43491375
28	0x3e4d6d89	0.20061316
29	0xbee5dfc3	-0.4489728
30	0x3d90570f	0.07047855
31	0x3f7b6191	0.9819575

running_mean f4 [32]
0	0x3f37817d	0.7168196
1	0xbe36c115	-0.17847092
2	0xbe4afeb4	-0.19823724
3	0xbf57840e	-0.84185874
4	0x3f778449	0.96686226
5	0x3d88c043	0.06677296
6	0xbe474a09	-0.19461836
7	0xbc5e506a	-0.013568977
8	0xbed23277	-0.41054127
9	0x3ea60c35	0.32431188
10	0x3e7e1219	0.24811591
11	0xbecce410	-0.40017748
12	0x3e90989a	0.28241426
13	0x3f1db4cd	0.61604005
14	0x3f0b3592	0.54378617
15	0x3fc8c8fc	1.5686336
16	0x3f3e6b9f	0.74382967
17	0x3f8ef600	1.1168823
18	0x3ed81766	0.42205352
19	0xbec8e8a0	-0.3923998
20	0x3ea2cea2	0.31798273
21	0xbf17603d	-0.5913122
22	0x3ebac97c	0.36481845
23	0x3f3f542b	0.74737805
24	0x3f343700	0.70396423
25	0x3f158912	0.5841228
26	0x3efd60d8	0.49487948
27	0x3f0bf4ce	0.5467042
28	0xbfb9bc5f	-1.4510611
29	0x3ebce3bd	0.368925
30	0x3f52742a	0.822085
31	0x3feea066	1.86427

running_var f4 [32]
0	0x3f69af80	0.91283417
1	0x3ef72100	0.48267365
2	0x3d0b7168	0.0340437
3	0x3ccd8419	0.025087403
4	0x3d3c892e	0.046029262
5	0x3d743ef3	0.059630346
6	0x3d708439	0.058719847
7	0x3d6678e1	0.056267623
8	0x3d163e8a	0.036680736
9	0x3ee22aac	0.4417318
10	0x3e061159	0.13092555
11	0x3d7f966b	0.06239931
12	0x3d969f88	0.07354647
13	0x3f890cf4	1.0707078
14	0x3e9c52c0	0.30531883
15	0x3f230d31	0.63692003
16	0x3e4f9857	0.20272957
17	0x3d8bd2eb	0.06827339
18	0x3f4f1772	0.8089515
19	0x3ee5672c	0.44805276
20	0x3e9aa23f	0.3020191
21	0x3f312a68	0.6920533
22	0x3cd349e3	0.025792068
23	0x3edebbaa	0.4350255
24	0x3edcaf67	0.4310257
25	0x3d541c5d	0.05178486
26	0x3e13c20c	0.14429492
27	0x3d83ce61	0.06435848
28	0x3e362983	0.17789273
29	0x3e90c0e0	0.28272152
30	0x3f9bc936	1.217078
31	0x3e94369c	0.28947914

weight f4 [2, 32, 1, 1]
0	0xbddea58f	-0.108714215
1	0x3f3ce83f	0.7379188
2	0x3e1c530b	0.15266053
3	0xbeb743bf	-0.35793874
4	0x3e86a39e	0.26296705
5	0xbea46308	-0.32106805
6	0x3d885cd4	0.066583306
7	0xbd5a15ff	-0.053243633
8	0xbd1a2426	-0.03763213
9	0x3e889468	0.26675725
10	0x3e8c2bdd	0.27377215
11	0x3ebd636b	0.36989912
12	0xbebb6567	-0.366008
13	0xbba10f2f	-0.00491514
14	0xbdc91849	-0.09819085
15	0xbeddfe7b	-0.43358216
16	0xbd42d6c9	-0.047568116
17	0xbe612b20	-0.21989107
18	0xbe5480b2	-0.20752218
19	0x3e784aae	0.24247238
20	0xbde3bf90	-0.11120522
21	0x3e8b401c	0.2719735
22	0xbdfd6b02	-0.12373926
23	0xbf173782	-0.59069073
24	0xbe8b8629	-0.27250794
25	0x3f1b39a6	0.6063484
26	0xbe88c2a3	-0.26710996
27	0xbf283561	-0.6570645
28	0x3f2562c3	0.64603823
29	0x3e7a0d54	0.24419147
30	0x3eb91c23	0.3615428
31	0xbd7618b3	-0.06008215
32	0x401838f9	2.3784773
33	0xbdec1a48	-0.1152845
34	0x3f45e81b	0.7730729
35	0x3fc94e6c	1.5727057
36	0xbf3ca8ac	-0.7369487
37	0xbd693d10	-0.056943
38	0xbf056364	-0.52104783
39	0xbf93f671	-1.1559583
40	0xbc8a0f00	-0.016852856
41	0x3dd57214	0.10422149
42	0xbf757e2d	-0.95895654
43	0x3eca9cdb	0.39572796
44	0x3e45b191	0.19306017
45	0x3f3aad65	0.7292083
46	0x3f041119	0.5158859
47	0x400fc4e3	2.246392
48	0x3e2234db	0.15840475
49	0xbf44f4dc	-0.76936126
50	0xbe84a6c0	-0.2590847
51	0x3fa7b457	1.310191
52	0xbef7cdf1	-0.48399308
53	0x3f07ce02	0.5304872
54	0xbf7b5a6d	-0.98184854
55	0x3fe474bf	1.7848128
56	0xbf87b43a	-1.0601876
57	0x3fcc860b	1.5978407
58	0x3dc19c3f	0.0945363
59	0xbd404e23	-0.046949517
60	0xbf8ab8a3	-1.0837597
61	0xbf8637cc	-1.0485778
62	0x3fcef6f3	1.6169113
63	0x3caa0ef7	0.020759089

bias f4 [2]
0	0x3cbd42df	0.023103176
1	0x3d13a85e	0.03604924

weight f4 [2]
0	0x3e76a2f3	0.24085598
1	0xbf763add	-0.9618357

bias f4 [2]
0	0xc0077554	-2.1165361
1	0xc0486c0b	-3.1315944

running_mean f4 [2]
0	0x3ed5886c	0.41705644
1	0x410f5089	8.957162

running_var f4 [2]
0	0x4173bb20	15.233185
1	0x4322f030	162.93823

weight f4 [26, 18]
0	0x3d1326ec	0.03592579
1	0x3c91757e	0.01775622
2	0x3d12d2ea	0.035845675
3	0xbd669237	-0.056291785
4	0x3ca38c00	0.019964218
5	0x3e164518	0.14674795
6	0x3cbe461c	0.02322679
7	0xbaf9f699	-0.0019070684
8	0x3c7e7bea	0.015532473
9	0x3cca2afd	0.024678702
10	0x3e9fc119	0.3120201
11	0xbcd3c60c	-0.025851272
12	0x3f0e815d	0.5566614
13	0x3e1f0d73	0.15532474
14	0xbdee4825	-0.11634854
15	0xbdb38c5f	-0.08767008
16	0x3e274392	0.1633437
17	0xbc9a811e	-0.018860396
18	0xb6ddf1bd	-6.6144553e-06
19	0x3d528b5f	0.051402446
20	0x3d34efc3	0.044173967
21	0xb9d1f367	-0.00040044935
22	0xbd0de2fe	-0.034640305
23	0x3d9a95a6	0.075480744
24	0xbcb3e31f	-0.021958886
25	0x3cbb62dc	0.022874288
26	0xbbb6323b	-0.005560187
27	0xbe670f01	-0.22564317
28	0xbf1b0693	-0.60556906
29	0xbca28250	-0.019837528
30	0x3f538f55	0.8264058
31	0xbe24350e	-0.16035864
32	0x3e2c9adc	0.16855949
33	0x3cae03c9	0.02124204
34	0x3e8814ff	0.2657852
35	0x3da24997	0.079241924
36	0x3cc2066f	0.023684708
37	0x3d8932fc	0.066991776
38	0x3d05a3b1	0.03262681
39	0x3d8205be	0.063487515
40	0x3b5bc7c8	0.0033535827
41	0xbdbb3a3c	-0.09141967
42	0x3b3f9ee8	0.0029239003
43	0x3cb82c5a	0.022482086
44	0xbd43ad83	-0.047772896
45	0xbe5804ba	-0.21095553
46	0xbe9545a3	-0.2915469
47	0xbc94bb9f	-0.018155871
48	0x3e89ff82	0.2695275
49	0x3ebe40e3	0.3715888
50	0x3dc91208	0.09817892
51	0xbddeafbf	-0.10873365
52	0x3cef2c62	0.029195968
53	0x3dc26a18	0.09492892
54	0xbc7a6aac	-0.015284222
55	0xbd0cf638	-0.0344145
56	0x3d2f021e	0.04272663
57	0x3b845ae6	0.0040391563
58	0x3d2155c9	0.03938845
59	0x3c9b5d9f	0.01896554
60	0x3cd034dd	0.025415832
61	0x3d3c4598	0.045964807
62	0x3cdce275	0.026963452
63	0xbede9055	-0.43469492
64	0x3f78ce09	0.97189385
65	0xbe0e73c0	-0.13911343
66	0xbdff06f3	-0.12452497
67	0x3e01b43c	0.1266641
68	0xbe12af2d	-0.14324637
69	0x3ddf83b2	0.10913791
70	0xbe5205dc	-0.20510048
71	0xbf176532	-0.59138787
72	0xbbf97858	-0.007613223
73	0x3dbf8bbb	0.09352823
74	0xbc74fc71	-0.014952765
75	0x3e0dfdd7	0.13866363
76	0x3d9631f0	0.073337436
77	0x3db4e263	0.08832242
78	0x3e49c30e	0.19703314
79	0x3dff6b04	0.124715835
80	0x3d103d60	0.03521478
81	0xbe65a248	-0.22425187
82	0x3f274c13	0.65350455
83	0x3e44047e	0.19142339
84	0xbe16c091	-0.14721896
85	0x3eed958f	0.46403167
86	0xbe9064a2	-0.28201777
87	0x3d7b9915	0.061425287
88	0xbe741596	-0.2383636
89	0xbeb66844	-0.35626423
90	0xbcc5d5fb	-0.024149885
91	0xbd21e0f0	-0.039521158
92	0xbd2356d8	-0.039877743
93	0x3d6b393f	0.05742764
94	0x3dee5f68	0.11639291
95	0x3d3104b6	0.043217383
96	0xbc8bdbc1	-0.01707256
97	0xbaada150	-0.0013246927
98	0x3d8f1add	0.06987546
99	0x3e0edfcf	0.13952564
100	0xbe002297	-0.12513195
101	0xba529465	-0.0008032977
102	0x3f357ef8	0.70896864
103	0x3dc121db	0.094302855
104	0x3e2c95b9	0.1685399
105	0x3c1a7806	0.00942803
106	0x3e18d1cf	0.14923786
107	0x3dd0752d	0.101785995
108	0x3d8767d3	0.066116
109	0x3d9db8de	0.07701276
110	0xbcc73d76	-0.024321299
111	0xbb83b872	-0.0040197903
112	0x3dd2aad8	0.10286492
113	0x3e1facf2	0.15593317
114	0xbccb25a4	-0.024798222
115	0x3d3ed8d7	0.046593513
116	0x3e542506	0.20717248
117	0x3e248b06	0.16068658
118	0xbf11cafe	-0.56950366
119	0xbe14aa42	-0.14518073
120	0x3e924a3f	0.2857227
121	0x3df3e40d	0.119087316
122	0x3d7fbbda	0.06243501
123	0x3d89c12f	0.067263
124	0x3ddab363	0.106787466
125	0xbd59af7b	-0.053145867
126	0xbc4ff8cb	-0.012693594
127	0xbcc2a030	-0.023758024
128	0x3d1b27c9	0.03787974
129	0xbd255740	-0.04036641
130	0xbd65b26f	-0.05607837
131	0x3cf8c8d0	0.030369192
132	0xbdedd0c0	-0.116120815
133	0xbc802125	-0.015640805
134	0xbcd60abb	-0.026128164
135	0xbeb3406e	-0.35010093
136	0x3eb201e7	0.34767076
137	0x3ceabe09	0.028655069
138	0x3e873913	0.26410732
139	0x3dfa0c00	0.1220932
140	0x3e716b14	0.23576003
141	0x3d838eab	0.06423696
142	0x3e9eca2a	0.31013614
143	0xbdf58782	-0.11988737
144	0x3c6a0105	0.01428247
145	0x3b5e9a99	0.003396666
146	0xbc8d923c	-0.017281644
147	0x3d5dde42	0.05416704
148	0xbd3dcca2	-0.04633773
149	0xbd6d1669	-0.0578827
150	0xbdbf60dd	-0.09344647
151	0x3d2a0d56	0.041516624
152	0xbcd92ea8	-0.026511505
153	0xbcd38153	-0.025818503
154	0xbe7a3eff	-0.24438094
155	0x3e853a44	0.26021016
156	0x3e15edaf	0.1464145
157	0x3d899bcc	0.06719169
158	0xbdb97f2b	-0.090574585
159	0x3d973d1b	0.07384702
160	0xbe616022	-0.22009328
161	0x3e13022c	0.14356297
162	0xbcdf6fa5	-0.027274916
163	0xbc5187c4	-0.012788717
164	0x3d0ec1f2	0.03485293
165	0xbd1149ae	-0.035470657
166	0xbdc2c723	-0.095106386
167	0xbd58fe6c	-0.05297701
168	0xbd0be1c2	-0.034150846
169	0xbd4ed5a3	-0.05049671
170	0x3d0cd3d8	0.034381717
171	0x3c54d58b	0.012990366
172	0x3e12bc64	0.14329678
173	0x3e0cab71	0.13737275
174	0x3c0f8286	0.008759147
175	0x3e27a364	0.16370922
176	0xbe0ef3af	-0.13960145
177	0xbd86b886	-0.06578164
178	0xbe41baf8	-0.18918979
179	0x3e2b9682	0.16756633
180	0xbdc1c0b5	-0.09460584
181	0x3c9286c5	0.017886529
182	0xbd8b207f	-0.067933075
183	0x3caf71f1	0.021416636
184	0xbd976b64	-0.0739353
185	0xbd861632	-0.06547202
186	0xbc95fa36	-0.018307786
187	0xb98a9298	-0.00026430632
188	0xbcc04dec	-0.023474656
189	0x3e8b70a5	0.27234378
190	0xbe87bcf9	-0.26511362
191	0xbe3ae422	-0.18251088
192	0xbeb2a2f0	-0.34889936
193	0x3e57df18	0.21081197
194	0xbe0e35a6	-0.13887653
195	0x3d977e44	0.0739713
196	0x3d99f55e	0.07517503
197	0x3d8862fd	0.066595055
198	0xbd5cdede	-0.05392348
199	0xbc823a55	-0.015896956
200	0xbd4b6a86	-0.049662136
201	0xbd56cd27	-0.052441742
202	0xbbcf0c19	-0.006318581
203	0xbcc0913c	-0.023506753
204	0xbd1d66ce	-0.03842812
205	0xbd37594e	-0.044762902
206	0xbcf57794	-0.029964246
207	0x3d8de6dd	0.06928799
208	0xbe3f11e5	-0.1865917
209	0xbcb71417	-0.022348447
210	0x3edf9050	0.4366479
211	0x3dd60bb4	0.10451451
212	0x3e2bfe53	0.16796236
213	0xbe21f002	-0.15814212
214	0x3e86143b	0.2618731
215	0x3e79aca0	0.24382257
216	0x3b842156	0.0040322943
217	0x3dd19daf	0.10235154
218	0xbc1ffa12	-0.009764211
219	0x3d1d0472	0.038334318
220	0xbc92302d	-0.017845238
221	0x3c24d8fe	0.010061501
222	0xbcc1a481	-0.023638012
223	0x3ddd6dca	0.10811956
224	0x3d811862	0.06303479
225	0x3eb5888f	0.35455748
226	0xbe6ca701	-0.23110582
227	0x3e0095fc	0.12557214
228	0x3e9fbfd4	0.3120104
229	0x3e1d5e90	0.15368104
230	0x3c5c6866	0.013452625
231	0xbe180c12	-0.14848354
232	0x3e80289b	0.2503098
233	0xbd213c06	-0.039363883
234	0xbb64fb8e	-0.0034939977
235	0xbdf595a9	-0.11991436
236	0xbd1da8c3	-0.03849102
237	0xbc483d72	-0.012221681
238	0xbd5958eb	-0.053063314
239	0xbd37cae6	-0.044871233
240	0xbcd5afb6	-0.026084762
241	0xbd794af5	-0.0608625
242	0xbcbf70bc	-0.023369186
243	0xbea495f3	-0.32145652
244	0xbe8bee16	-0.27330083
245	0xbd9896e1	-0.07450653
246	0xbe105a37	-0.14096914
247	0xbe85bf0d	-0.26122323
248	0x3cf24c5c	0.029577427
249	0x3e607d9b	0.21922915
250	0xbe0b6119	-0.13611259
251	0xbeebee2c	-0.46080148
252	0x3a966ef9	0.0011477164
253	0x3c9bcfb8	0.019019946
254	0x3c835d40	0.016035676
255	0x3be2d2e2	0.006922112

bias f4 [26]
0	0xbeabf07f	-0.3358192
1	0x3f0f4109	0.5595861
2	0xbe9938d4	-0.2992617
3	0xbcd45e25	-0.025923798
4	0x3f197ba3	0.5995428
5	0x3ec262e0	0.3796606
6	0x3e9c64fd	0.30545798
7	0xbe710e4e	-0.23540613
8	0xbe83a34f	-0.25710532
9	0x3e0ff7a2	0.14059308
10	0x3c18f00a	0.0093345735
11	0xbef9fe79	-0.4882696
12	0xbee31860	-0.44354534
13	0xbcdb7ac7	-0.026791943
14	0xbe8eb4bd	-0.27872267
15	0x3d32ce1f	0.043653604
16	0xbe81bc71	-0.25339082
17	0xbef6698e	-0.48127407
18	0xbec15c27	-0.3776562
19	0xbe20d9de	-0.1570811
20	0xbdee3563	-0.116312765
21	0x3e6f407d	0.23364444
22	0xbee35e57	-0.44407913
23	0x3d708b24	0.058726445
24	0xbefbdb46	-0.4919073
25	0x4006c312	2.1056561

weight f4 [1, 32, 1, 1]
0	0xbe3df57c	-0.18550676
1	0xbd3e2205	-0.046419162
2	0xbd75e415	-0.06003197
3	0xbdee807f	-0.116456024
4	0xbd180b5c	-0.03712021
5	0xbcf16968	-0.029469207
6	0x3d1d1447	0.038349416
7	0xbd08d3df	-0.03340518
8	0xbd2b8334	-0.041873172
9	0x3e0280ac	0.12744397
10	0x3e38b3ca	0.18037334
11	0x3dad3432	0.08457221
12	0x3d7f4e46	0.062330507
13	0x3db46a18	0.08809298
14	0xbdb9ec6b	-0.09078296
15	0xbe3fb390	-0.18720841
16	0x3d102c2c	0.035198376
17	0x3dd35ac3	0.10320046
18	0xbe4dc1dd	-0.20093484
19	0x3d25ded9	0.040495727
20	0x3d1ef736	0.038809977
21	0x3d819da0	0.06328893
22	0xbe21b48d	-0.15791531
23	0x3e19c192	0.15015247
24	0x3c9f5991	0.019451888
25	0x3d70d965	0.058801074
26	0xbdac7a9b	-0.08421823
27	0xbd835aad	-0.064137794
28	0xbc08ed6a	-0.008357385
29	0x3e5b9731	0.21444394
30	0xbe2796e7	-0.16366158
31	0x3eb1c258	0.34718585

weight f4 [32, 9]
0	0x3c1c2383	0.009529951
1	0x3d957e37	0.07299464
2	0xbc8ce543	-0.017199164
3	0xbdf27d47	-0.11840301
4	0xbcd3d788	-0.02585961
5	0xbe1c169f	-0.15243004
6	0xbdaad7a8	-0.083419144
7	0x3da89fad	0.08233581
8	0x3e0c4035	0.13696368
9	0xbd225f34	-0.039641574
10	0xbddd0471	-0.10791863
11	0x3e4dd61b	0.20101206
12	0xbd7ba460	-0.061436057
13	0x3d006b1c	0.031352147
14	0x3dff013e	0.12451409
15	0xbdc5a6cf	-0.09650957
16	0xbc876e2f	-0.016532032
17	0xbe12d274	-0.14338094
18	0xbbefe6d2	-0.007321217
19	0x3e13ebf4	0.14445478
20	0xbd2c9386	-0.042132877
21	0x3dbd2bef	0.09236895
22	0xbe1ecb0b	-0.15507142
23	0x3d8c4840	0.06849718
24	0xbd838f04	-0.064237624
25	0xbcb613f9	-0.02222632
26	0x3dd29da3	0.10283973
27	0xbe7b70cb	-0.24554746
28	0xbea389c2	-0.31941038
29	0xbe7186e4	-0.23586613
30	0xbd914dfb	-0.07094952
31	0xbe70ad8f	-0.23503707
32	0xbd0faf87	-0.035079505
33	0xbd66423e	-0.056215517
34	0xbe6d8afc	-0.2319755
35	0x3e0ae69e	0.13564536
36	0xbcb342df	-0.021882473
37	0xbbcb1258	-0.006197255
38	0xbce6961a	-0.028147746
39	0xbc1c276b	-0.009530882
40	0xbbf02a15	-0.0073292353
41	0xbd704f1e	-0.058669202
42	0xbd01ed36	-0.031720363
43	0xbc9a69bf	-0.018849252
44	0x3b1121be	0.0022145356
45	0x3dbfa151	0.093569405
46	0xbd8ad873	-0.06779566
47	0xbcc72301	-0.024308683
48	0x3cbfe675	0.02342532
49	0x3cf07b80	0.029355764
50	0xbe3cff46	-0.18456754
51	0x3cdecced	0.027197326
52	0x3dbaaaef	0.09114634
53	0xbe43f09e	-0.19134757
54	0xbe02e683	-0.12783246
55	0xbe07d379	-0.13264264
56	0xbe31ab6b	-0.17350547
57	0xbdb91171	-0.0903653
58	0xbd3a548c	-0.045490786
59	0xbcdb50dd	-0.026771957
60	0x3d292a1e	0.04129993
61	0xbd912378	-0.07086843
62	0x3d8b5c98	0.0680477
63	0xbd85a495	-0.06525532
64	0xbda70ef9	-0.08157153
65	0xbdb9d945	-0.09074644
66	0x3d1e573f	0.038657423
67	0xbd05bf02	-0.032652862
68	0xbdedbbd4	-0.11608091
69	0xbc60c680	-0.013719201
70	0x3d186103	0.037201893
71	0x3d82f779	0.06394858
72	0xbd654026	-0.05596938
73	0xbcb81ebb	-0.02247559
74	0xbcf42ddf	-0.02980703
75	0x3d28cb13	0.04120929
76	0xbd057139	-0.03257868
77	0x3da744e3	0.08167436
78	0xbd9af2b1	-0.07565821
79	0xbc68e6fd	-0.014215228
80	0x3e28ca41	0.16483404
81	0x3cbf87ef	0.023380248
82	0x3dbdb956	0.09263866
83	0xbd47e9ed	-0.048807073
84	0x3d9429f4	0.072345644
85	0xbdcfa1d3	-0.101382874
86	0xbddd0f75	-0.10793964
87	0xbc1ef39e	-0.009701638
88	0x3d3ac7c5	0.04560067
89	0xbd307ad1	-0.043085877
90	0xbdaca4d3	-0.08429875
91	0x3dcae777	0.0990743
92	0x3c1c2c7a	0.009532088
93	0x3de9184f	0.113815896
94	0x3d1eac3b	0.03873847
95	0x3d6228b8	0.055214614
96	0x3cfb7fa5	0.030700514
97	0x3e1a243c	0.15052885
98	0xbc9795d5	-0.018504063
99	0xbc8e24cf	-0.017351536
100	0x3b890b0e	0.004182226
101	0x3d3a0cdf	0.04542243
102	0xbd8ae181	-0.06781293
103	0x3df59380	0.11991024
104	0xbceca1be	-0.028885718
105	0x3c65a4bf	0.014016329
106	0x3c434c3a	0.011920029
107	0xbd0c9011	-0.03431708
108	0xbde0fa84	-0.10985282
109	0xbe20cf17	-0.15703999
110	0x3c061892	0.008184569
111	0x3c182fa6	0.009288704
112	0xbcdc495b	-0.026890447
113	0x3d0af86d	0.033928324
114	0xbd9126a7	-0.070874505
115	0xbca42d9b	-0.020041278
116	0x3c869a5f	0.016431032
117	0xbd52617f	-0.05136251
118	0x3c667b15	0.014067431
119	0xbe224846	-0.15847883
120	0x3df809e0	0.121112585
121	0xbe54eb9c	-0.20793003
122	0xbc8b9890	-0.01704052
123	0xbd9502c4	-0.07275918
124	0x3b0e58d8	0.0021720435
125	0x3e09e66b	0.13466804
126	0xbc85e863	-0.016346162
127	0xbe921b0d	-0.28536263
128	0xbd9ca774	-0.07649127
129	0xbe90551b	-0.2818993
130	0x3dbfc77b	0.0936422
131	0x3d17a96a	0.0370268
132	0xbeab477b	-0.33452973
133	0xbe53f76e	-0.20699856
134	0x3d65d210	0.056108534
135	0xbe13bfd7	-0.1442865
136	0x3dafff1f	0.08593582
137	0x3da31ca1	0.07964445
138	0x3e099663	0.13436274
139	0xbb847dff	-0.00404334
140	0x3d987d2f	0.07445752
141	0x3d4a8369	0.04944173
142	0x3d860d4e	0.065455064
143	0xbc0cd8b0	-0.008596584
144	0xbd866c22	-0.065635934
145	0x3e0fbcaa	0.14036813
146	0xbd988650	-0.07447493
147	0xbe20324c	-0.15644187
148	0xbd971532	-0.073770896
149	0xbc5da809	-0.013528832
150	0x3d21b1f1	0.03947634
151	0x3dbe4c96	0.09291951
152	0xbd6e0ecc	-0.05811958
153	0xbe1daa7c	-0.15397066
154	0xbdcf8543	-0.101328395
155	0x3d19bea7	0.037535336
156	0x3d1fba19	0.038995836
157	0xbd317822	-0.04332746
158	0x3c5d93de	0.013524024
159	0xbd3d0517	-0.046147432
160	0xbd3be921	-0.045876626
161	0xbcc9895e	-0.024601635
162	0xbba1cfb1	-0.004938089
163	0xbd851985	-0.06499008
164	0x3e1ca96b	0.15299003
165	0xbbae188c	-0.005312985
166	0x3dd125b9	0.10212273
167	0xbd49efc6	-0.04930093
168	0xbd2eb197	-0.04264983
169	0xba43cb4e	-0.00074689544
170	0x3d23285b	0.039833408
171	0xbec9916d	-0.39368764
172	0xbde94877	-0.11390775
173	0x3da279dd	0.079334
174	0xbdd479a2	-0.10374762
175	0x3d10f559	0.03539023
176	0xbce6d092	-0.028175626
177	0xbdd35a8f	-0.10320007
178	0xbda57290	-0.08078492
179	0x3d2955ba	0.04134152
180	0xbce8e7b0	-0.02843079
181	0x3d414928	0.047188908
182	0xbd263ce5	-0.040585417
183	0xbde1b3c2	-0.11020614
184	0x3ce25463	0.02762813
185	0x3b108ee6	0.002205783
186	0xbcb8a21f	-0.022538243
187	0xbb6e292a	-0.0036340454
188	0x3db00e2b	0.08596452
189	0xbe6d5ad6	-0.23179182
190	0x3cacec64	0.021108814
191	0x3dad2180	0.08453655
192	0xbcb765d8	-0.02238743
193	0xbd36b146	-0.044602655
194	0xbd6ab356	-0.057299934
195	0x3cc71fea	0.02430721
196	0xbbb16f48	-0.005414877
197	0xbd995d5d	-0.07488511
198	0xbb5b08d9	-0.0033422022
199	0xbd3bdcd8	-0.04586491
200	0xbdd63bbc	-0.10460612
201	0x3ca66ba9	0.020315008
202	0x3d1bc2f2	0.03802771
203	0x3c0cd549	0.008595773
204	0x3d4faa61	0.050699595
205	0x3e6cd48d	0.23127957
206	0xbda91c61	-0.08257366
207	0xbe10f4ff	-0.14155959
208	0xbe085878	-0.13314998
209	0x3dacc623	0.08436229
210	0x3b0d9211	0.0021601955
211	0xbd054c31	-0.032543365
212	0x3d113192	0.035447665
213	0x3bbd40b3	0.005775535
214	0xbce481a8	-0.027893856
215	0x3d6e97c5	0.058250207
216	0x3d293c7e	0.041317455
217	0xbd5bdc26	-0.053676747
218	0x3df861ec	0.12128052
219	0x3e07ef37	0.13274847
220	0x3d0a4223	0.03375448
221	0xbe4a055a	-0.19728604
222	0xbdc34820	-0.09535241
223	0xbd83737d	-0.06418512
224	0x3ce09a70	0.027417392
225	0xbddb85fc	-0.10718915
226	0xbe6328e5	-0.22183569
227	0x3de42270	0.11139381
228	0x3c5569ec	0.013025742
229	0xbe7f65a2	-0.24941114
230	0xbe742f26	-0.2384611
231	0x3d2a2007	0.04153445
232	0xbc6adcff	-0.014334916
233	0x3d8bfea4	0.06835678
234	0xbb38d8d4	-0.0028205412
235	0x3e1ccd97	0.15312801
236	0x3dab6d75	0.08370487
237	0xbd8e6898	-0.069535434
238	0xbc6b1c65	-0.0143500315
239	0xbe0a429c	-0.13501972
240	0xbd522724	-0.05130686
241	0x3d45d2d7	0.048296776
242	0x3daa91ef	0.08328616
243	0x3c300727	0.010743893
244	0xbd03fad1	-0.03222162
245	0x3ebbf8c5	0.36713234
246	0xbe167ab5	-0.14695247
247	0xbdb6060e	-0.088878736
248	0x3e773970	0.24143004
249	0xbea589d5	-0.3233172
250	0xbdef4a09	-0.11684043
251	0xbea67ce3	-0.32517156
252	0xbd2e6892	-0.042580195
253	0xbe16bf4d	-0.14721413
254	0xbdbf8955	-0.09352366
255	0xbe255dc0	-0.16149044

bias f4 [32]
0	0x3c90fecf	0.017699627
1	0xbd94e089	-0.07269389
2	0xbd6ed324	-0.05830683
3	0x3e869264	0.26283562
4	0xbc8e2e58	-0.017356083
5	0xbd4006b5	-0.046881396
6	0x3b59b127	0.0033217163
7	0xbdb8ef15	-0.09029976
8	0xbdfae201	-0.12250138
9	0xbc74af3f	-0.01493436
10	0xbe9211e7	-0.28529283
11	0x3db9a111	0.09063924
12	0x3d1f6219	0.038911913
13	0x3d3fdfa5	0.046844143
14	0xbe25a7ec	-0.16177338
15	0xbc8fd591	-0.017557891
16	0x3d7c3a05	0.06157877
17	0x3d32ce43	0.043653738
18	0xbd7b6085	-0.061371345
19	0x3dcdd50b	0.100504
20	0xbd4926f2	-0.049109407
21	0xbc8b48e8	-0.017002538
22	0xbc84834a	-0.016175885
23	0xbda641d5	-0.08118025
24	0x3d3a544c	0.045490548
25	0xbec119b2	-0.37714916
26	0xbbb288f2	-0.005448454
27	0x3e2a79e6	0.16648063
28	0xbe9b173e	-0.3029117
29	0x3d259b23	0.040431153
30	0x3e2806ef	0.16408895
31	0xbdaeb5a6	-0.085307404

weight f4 [1, 32]
0	0x3e11ca66	0.14237365
1	0xbe9060b4	-0.2819878
2	0xbdf1c97d	-0.11806009
3	0x3f1a2fb1	0.6022902
4	0x3c06797c	0.008207675
5	0x3e10304c	0.14080924
6	0x3e7aad4b	0.24480169
7	0xbdd822a5	-0.10553483
8	0xbe020580	-0.1269741
9	0xbd95965f	-0.07304072
10	0x3e4fbc70	0.20286727
11	0xbd8163da	-0.06317873
12	0x3da5c779	0.08094687
13	0x3e438038	0.1909188
14	0x3f0fcaf6	0.5616907
15	0xbdc5e1f8	-0.09662241
16	0x3e0afdf1	0.13573433
17	0x3e030cce	0.12797853
18	0x3da7cbd8	0.08193177
19	0x3eda206d	0.42602864
20	0xbd48c2f1	-0.049014036
21	0xbe46402c	-0.19360417
22	0xbe01646e	-0.12635967
23	0xbe1ae332	-0.1512573
24	0xbdbf072b	-0.09327539
25	0xbf0292dd	-0.51005346
26	0xbdcad181	-0.09903241
27	0x3f024aec	0.5089557
28	0xbebe2cc1	-0.3714352
29	0xbdb6527c	-0.089024514
30	0xbc901674	-0.017588831
31	0x3df1f50a	0.118143156

weight f4 [32, 32, 3, 3]
0	0x3d54ebeb	0.0519828
1	0x3c2b9ccc	0.010474395
2	0x3a0d4f00	0.0005390495
3	0xbd495d05	-0.049160976
4	0xbcf227af	-0.029559938
5	0x3d0928e9	0.03348628
6	0xbc2bb194	-0.01047935
7	0xbc221c8c	-0.009894501
8	0x3c8e1076	0.017341834
9	0x3c128874	0.008943666
10	0xbc2ebe40	-0.010665476
11	0xbca5fca4	-0.02026207
12	0x3b880a58	0.0041516237
13	0xbd2b599d	-0.04183351
14	0x3cb96c46	0.022634637
15	0xbc599198	-0.013279341
16	0xbd1c6324	-0.038180485
17	0xbcccc870	-0.02499792
18	0x3c3f4114	0.011673231
19	0xbd11e85a	-0.03562198
20	0x3d527f9f	0.05139124
21	0x3c560034	0.013061572
22	0x3d1be54d	0.038060475
23	0xbd3190fe	-0.043351166
24	0xbcda53c0	-0.026651263
25	0xbb768890	-0.0037618019
26	0x3d51b443	0.0511973
27	0xbd4768bc	-0.048683867
28	0xbcec6fdf	-0.028861938
29	0xbc9701d6	-0.018433493
30	0x3bee1448	0.0072656013
31	0x3d6353cb	0.055499833
32	0x3cdde34a	0.027085919
33	0xbd4a5940	-0.04940152
34	0x3c749a14	0.014929313
35	0x3d4ffc41	0.050777677
36	0xbcbbcda2	-0.022925202
37	0xbcf05d8a	-0.029341478
38	0xbd1dda25	-0.038538117
39	0x3d419795	0.0472637
40	0xbc0385c0	-0.008027494
41	0x3d3e4ce9	0.046460066
42	0x3d36ab5f	0.044597026
43	0x3c9b3e3a	0.01895057
44	0xbb432200	-0.0029774904
45	0x3d41ad2f	0.0472843
46	0xbd02b130	-0.03190726
47	0xbc5c66b4	-0.013452221
48	0xbbc7a5c0	-0.006092757
49	0xbd23e3a8	-0.04001203
50	0x3b88e918	0.0041781776
51	0xbd21de30	-0.039518535
52	0x3d473d3b	0.04864238
53	0xbb1cf0e0	-0.0023947284
54	0x3d5db9cb	0.054132264
55	0x3c5d172c	0.013494294
56	0xbce37021	-0.027763428
57	0x3cda8b2e	0.026677694
58	0x3cb7e7aa	0.022449333
59	0xbd364626	-0.044500493
60	0x3d182e9d	0.03715383
61	0xbca6aebe	-0.020346995
62	0x3d19f58d	0.03758769
63	0x3d66dde3	0.05636395
64	0x3cc02a26	0.023457598
65	0x3c8d85be	0.017275687
66	0xbca6b3d6	-0.020349424
67	0x3d68b647	0.05681446
68	0xbd5da97f	-0.054116722
69	0x3beaea48	0.007169042
70	0x3cef0f62	0.02918214
71	0xbb819ff0	-0.0039558336
72	0xbc0979e4	-0.008390877
73	0x3d4bbc41	0.04974008
74	0x3d166e51	0.0367263
75	0xbd53d564	-0.051717177
76	0x3c229cb4	0.009925056
77	0xbd501b44	-0.050807253
78	0xbd65e425	-0.05612578
79	0x3c03b92c	0.008039754
80	0x3d28a1f7	0.041170087
81	0x3c930b36	0.017949682
82	0x3b78e830	0.0037980191
83	0xbae589c0	-0.0017512366
84	0x3b730ef0	0.003708776
85	0xbd1f9c32	-0.03896732
86	0x3ca40aca	0.020024676
87	0x3d478833	0.048713874
88	0xbb082e60	-0.0020779595
89	0xbd0ce11d	-0.034394372
90	0x3cb96a4a	0.02263369
91	0xbcae8530	-0.021303743
92	0xbd0f924e	-0.035051636
93	0xbb1de4b0	-0.0024092607
94	0x3cd38ffe	0.025825497
95	0xbd04fbfd	-0.032466877
96	0xbd5e1dcb	-0.05422763
97	0x3d321d63	0.043485057
98	0xbd25c44e	-0.040470414
99	0xbc7efe74	-0.015563596
100	0x3ce923d2	0.028459463
101	0xbcc2057e	-0.02368426
102	0x3d62c885	0.05536701
103	0xbd32d782	-0.043662556
104	0x3d6c0237	0.0576193
105	0x3cb2cb12	0.021825347
106	0xbd19b7be	-0.037528746
107	0xbbb38fb8	-0.005479779
108	0x3d524b7b	0.051341515
109	0xbcf48780	-0.029849768
110	0xbd0890f7	-0.033341374
111	0xbc3e9254	-0.011631567
112	0x3d13e74d	0.036109257
113	0x3d27965f	0.04091489
114	0xbb8a7f58	-0.0042266063
115	0xbd620946	-0.055184625
116	0x3c55f8ec	0.013059836
117	0x3d54cfff	0.051956173
118	0xbd371412	-0.044696875
119	0xbc58d510	-0.013234392
120	0xbcc38f88	-0.023872152
121	0xbd714262	-0.0589012
122	0x3c76ceec	0.015063982
123	0x3d63b9cf	0.055597123
124	0xbc7fd3c4	-0.015614454
125	0xbd2ca2c0	-0.042147398
126	0xbd60a7b4	-0.054847434
127	0x3c1bfb3c	0.009520348
128	0xbd08a296	-0.03335818
129	0x3c7174cc	0.014737319
130	0xbd6a73c5	-0.057239313
131	0x3b715ef0	0.0036830269
132	0x3b4274f0	0.002967175
133	0xbd36b3c9	-0.04460505
134	0xbd098b99	-0.033580396
135	0x3ca58f2a	0.020209868
136	0x3d46965b	0.048483234
137	0x3ca130c6	0.019676577
138	0xbbc120d8	-0.005893808
139	0x3ad18b00	0.001598686
140	0x3d268cf3	0.040661763
141	0x3d122ac1	0.035685305
142	0x3d56657b	0.052342873
143	0xbcfa3b80	-0.03054595
144	0x3d11fb0b	0.035639804
145	0xbc5aaf68	-0.013347484
146	0xbd0bc015	-0.03411873
147	0xbc26dba4	-0.010184202
148	0x3d503ce3	0.050839316
149	0xbb0b3e50	-0.0021246858
150	0x3b6b8d10	0.0035942234
151	0xbc4fb37c	-0.01267707
152	0x3cbc26ea	0.022967774
153	0x3ca0d9ea	0.01963516
154	0xbcc32980	-0.0238235
155	0xbcae811e	-0.021301802
156	0x3cf742b6	0.030183177
157	0xbd3a8d45	-0.04554488
158	0x3cae82f6	0.021302681
159	0x3cd68e62	0.02619094
160	0xbc020650	-0.007936075
161	0xbc2689d4	-0.010164697
162	0x3bea7188	0.0071546473
163	0xbd2d7ca0	-0.04235518
164	0x3d2bd75d	0.041953433
165	0x3c0cbfb4	0.008590627
166	0xbd572967	-0.05252972
167	0x3d31f1db	0.043443542
168	0x3d21932f	0.039447006
169	0x3cc77f16	0.024352591
170	0xbc2e1ce4	-0.010627005
171	0xbc650014	-0.013977069
172	0xbc8adc68	-0.016950801
173	0x3d24c25d	0.04022442
174	0xbd3ee6c2	-0.046606787
175	0xb9b1a280	-0.00033881143
176	0xbd68601d	-0.056732286
177	0xbd61da1e	-0.055139653
178	0xbc462198	-0.01209297
179	0xbb88c5f8	-0.0041739903
180	0x3d52a08f	0.05142265
181	0x3ce9a226	0.028519701
182	0xbd36900a	-0.04457096
183	0x3c14a41c	0.00907233
184	0x3ca2b792	0.019862924
185	0xbcd99524	-0.026560374
186	0x3c1b5eec	0.00948308
187	0xbcdcfda8	-0.026976421
188	0xbd5e111e	-0.054215543
189	0x3cfa3a9e	0.030545529
190	0xbd177c3c	-0.036983714
191	0xbd696e2d	-0.056989837
192	0x3c6c24d4	0.014413077
193	0x3cdccd92	0.026953492
194	0xbd3a99ac	-0.04555671
195	0xbc0b3b50	-0.008498028
196	0x3cc22d16	0.02370314
197	0x3d426def	0.047468122
198	0xbd6633a1	-0.05620158
199	0xbc2ad394	-0.010426421
200	0x3bb52518	0.0055281036
201	0xbc0924bc	-0.008370575
202	0xbce1a666	-0.027545165
203	0xbd120ece	-0.03565865
204	0xbc7ad860	-0.015310377
205	0x3d2f998f	0.042871054
206	0xbc49fce4	-0.01232836
207	0xbd204f8b	-0.039138358
208	0x3d12f993	0.035882544
209	0x3d2b2a03	0.041788112
210	0xbd48d127	-0.04902759
211	0xbd1b8306	-0.03796675
212	0xbd6a2c14	-0.057170942
213	0x3cfb78ba	0.030697215
214	0xbd087c26	-0.033321522
215	0x3ca36aca	0.019948382
216	0x3c8ff492	0.017572675
217	0xbd569d9a	-0.052396394
218	0x3cad36aa	0.02114423
219	0x3d6c3775	0.057670075
220	0x3cfc9326	0.030831885
221	0x3d1d4381	0.038394455
222	0xbd6158d0	-0.05501634
223	0x3d38e0c7	0.04513624
224	0xbd22f455	-0.039783794
225	0x3c2a685c	0.010400858
226	0x3c3cfd0c	0.01153494
227	0x3d0911ef	0.03346437
228	0x3d2c158d	0.04201274
229	0x3cf36df6	0.02971552
230	0xbd022864	-0.0317768
231	0xbcc8c3da	-0.024507452
232	0xbcd421fe	-0.025895115
233	0x3d6f3f33	0.05840988
234	0x3c60c884	0.013719682
235	0x3d616b1d	0.05503379
236	0x3c7da744	0.015481774
237	0x3d68a5fb	0.056798916
238	0xbcea629f	-0.02861148
239	0xbd25f7e6	-0.040519617
240	0xbd2bde87	-0.041960265
241	0xbd42854a	-0.047490396
242	0xbd6947b3	-0.056953143
243	0xbd1320e2	-0.03592003
244	0xbd67b9ac	-0.056573555
245	0x3d178967	0.03699627
246	0xbd4513f0	-0.048114717
247	0x3d46a47f	0.04849672
248	0x3c379e94	0.011207242
249	0x3c9633b2	0.018335197
250	0x3cb2b626	0.02181537
251	0xbd1e22a1	-0.038607243
252	0xbd429f15	-0.047514994
253	0xbbd0c8f8	-0.0063716136
254	0xbc5eb394	-0.013592619
255	0xbcc28ba0	-0.023748219

bias f4 [32]
0	0xbc7cbef4	-0.015426386
1	0xbc76681c	-0.01503947
2	0xbb98b1c0	-0.0046598613
3	0xbcefecae	-0.029287662
4	0xba27f880	-0.0006407574
5	0xbd4ee20a	-0.050508536
6	0xbcab3264	-0.020898052
7	0x3c48303c	0.012218531
8	0xbcfc3f6c	-0.03079196
9	0x3d67a1a9	0.056550656
10	0xbcf3d6d8	-0.029765531
11	0xbd32bf37	-0.043639388
12	0xbd02b0ef	-0.03190702
13	0x3d6533b7	0.055957522
14	0xbd57d1ac	-0.052690193
15	0xbc8035ac	-0.015650593
16	0x3c039fdc	0.008033719
17	0x3c9084ce	0.017641451
18	0x3cd6b042	0.026207093
19	0x3c8cf782	0.017207865
20	0x3d407041	0.046982054
21	0x3d683363	0.05668963
22	0x3d19e4e7	0.037571814
23	0xbd623ba6	-0.055232666
24	0xbd421041	-0.047378782
25	0xbd0c6a0e	-0.03428083
26	0xbb969628	-0.0045955367
27	0x3cc5c66a	0.024142463
28	0x3cffa3aa	0.03120597
29	0xbc8dd922	-0.017315451
30	0x3ce30eae	0.02771696
31	0xbcf2fe52	-0.029662285

weight f4 [32, 32, 3, 3]
0	0x3d0d1bd5	0.03445037
1	0xbc7f93d4	-0.01559921
2	0x3c38713c	0.011257466
3	0x3bef6e78	0.00730687
4	0xbd6eb20e	-0.058275275
5	0xbd5861fd	-0.052827824
6	0x3bea7778	0.007155355
7	0x3cd33b92	0.025785241
8	0x3c0a8e1c	0.008456733
9	0x3c93bcca	0.018034358
10	0x3cc87ffa	0.024475086
11	0x3d0c5e0d	0.03426938
12	0xbd12e17c	-0.03585957
13	0x3d420e2f	0.047376808
14	0x3c4d037c	0.012513038
15	0x3c735ba4	0.014853392
16	0x3c716da4	0.014735613
17	0x3ccd324e	0.025048401
18	0x39bed280	0.0003639646
19	0x3d12a9f3	0.035806607
20	0x3d5ea31b	0.05435477
21	0xbd1e7556	-0.03868612
22	0xbcbd5a9e	-0.023114499
23	0xbc6acf98	-0.014331721
24	0xbbf75c00	-0.007548809
25	0xbd56abef	-0.052410062
26	0x3d20703f	0.039169546
27	0xbd51eb89	-0.051250014
28	0x3d1a72a9	0.037707005
29	0xbd4b62ec	-0.049654886
30	0x3d384b0d	0.04499345
31	0x3d69ac35	0.057048995
32	0x3d4b45d1	0.04962713
33	0xbc8eaa50	-0.017415196
34	0xbd1f88c4	-0.03894879
35	0xbc8d6e04	-0.017264374
36	0x3d1e5db1	0.03866357
37	0x3c063cac	0.008193176
38	0x3b2ed9c0	0.0026680082
39	0xbc1c3650	-0.0095344335
40	0xbd695584	-0.05696632
41	0xbd56eda5	-0.05247273
42	0xbd05f6a8	-0.032705933
43	0xbb974c10	-0.0046172217
44	0x3d0c5143	0.034257185
45	0x3c184d9c	0.009295847
46	0x3d6b064d	0.057379056
47	0xbd279672	-0.04091496
48	0xbc4153d8	-0.011799775
49	0xbc5d51e8	-0.0135082975
50	0xbd5f617a	-0.05453632
51	0xbd380a4a	-0.044931687
52	0x3d213a19	0.039362047
53	0xbd47d39a	-0.048785783
54	0xbcc83b7c	-0.024442427
55	0x3c97fd76	0.018553477
56	0xbd3dfdec	-0.046384737
57	0x3d034fa3	0.03205837
58	0x3d6fbb0f	0.058528002
59	0xbd3e4a7c	-0.046457753
60	0x3c9621d6	0.018326681
61	0xbd29b500	-0.04143238
62	0x3c848a9e	0.01617938
63	0xbd35b8b6	-0.044365607
64	0xbd3788a7	-0.044808056
65	0xbca42f2a	-0.02004202
66	0x3c809562	0.015696231
67	0x3d0aca8b	0.033884566
68	0xbcbac2ac	-0.022797905
69	0xbbd59ea0	-0.0065191537
70	0xbcc04ea8	-0.023475006
71	0xbc1d2c68	-0.009593107
72	0x3bed5018	0.007242214
73	0xbd54b956	-0.051934563
74	0xbd6c0f89	-0.057632003
75	0x3c2a3e94	0.010390896
76	0x3d5d9f49	0.054106984
77	0xba86c840	-0.0010283068
78	0xbccdebc0	-0.025136828
79	0xbd109886	-0.035301708
80	0x3ca5ad02	0.020224098
81	0xbcd5894e	-0.026066449
82	0x3c966156	0.01835696
83	0xbc15a0ec	-0.009132605
84	0x3d14a991	0.036294524
85	0xbc11d798	-0.008901499
86	0xbd5963e9	-0.053073797
87	0xbc9ee02e	-0.019394007
88	0x3cda91fa	0.026680935
89	0xbcb9f9d2	-0.022702131
90	0xbac51660	-0.0015036575
91	0xbc356d5c	-0.011073437
92	0x3d5521eb	0.0520343
93	0xbbfb0bd0	-0.0076613203
94	0xbd5457e9	-0.05184165
95	0x3d61b5af	0.055104908
96	0x3ca15e7a	0.01969837
97	0xbbf08fd0	-0.0073413625
98	0xbc8d251a	-0.017229605
99	0x3caaa57e	0.020830866
100	0x3d5a9859	0.053367946
101	0x3d1feb07	0.0390425
102	0xbd266ab0	-0.04062909
103	0x3d15e85d	0.036598552
104	0xba8a3b60	-0.001054626
105	0x3c6772c4	0.014126483
106	0xbd24c072	-0.040222593
107	0xbb8206e0	-0.0039681047
108	0x3c3e8064	0.01162729
109	0xbcd30f72	-0.0257642
110	0x3d341def	0.04397386
111	0x3cebe996	0.028797906
112	0x3b669930	0.0035186522
113	0xbd6791d2	-0.05653555
114	0xbac212c0	-0.0014806613
115	0x3cce7db2	0.02520642
116	0xbc36f914	-0.011167783
117	0xbd3aa046	-0.045563005
118	0xbca7f368	-0.020501807
119	0x3c990106	0.018677246
120	0x3a8171e0	0.0009875856
121	0xbd6ec5a8	-0.05829397
122	0xbd3932a2	-0.045214303
123	0xbd544cfa	-0.051831223
124	0xbd51d3ef	-0.051227506
125	0xbd3e4d76	-0.04646059
126	0x3d2c27fd	0.042030323
127	0x3d151123	0.036393296
128	0xbc7c8c30	-0.015414283
129	0xbb72f540	-0.003707245
130	0x3b716370	0.003683295
131	0x3c1bfcbc	0.009520706
132	0xbd64fecc	-0.055907056
133	0x3c8d690a	0.017262
134	0x3c96b12e	0.018395033
135	0xbd23d137	-0.039994445
136	0xbd59e647	-0.053198125
137	0xbc31660c	-0.0108275525
138	0xbd00a416	-0.031406485
139	0x3abcd7c0	0.001440756
140	0xbd245b6a	-0.04012624
141	0xbcf8c3ac	-0.030366741
142	0x3c10cf8c	0.0088385455
143	0x3cd580fa	0.026062477
144	0xbcbe0a24	-0.023198195
145	0x3c9c2612	0.019061122
146	0xbcca6f1a	-0.02471118
147	0xbd54f03a	-0.05198691
148	0xbd5fd813	-0.054649424
149	0x3cf20ae2	0.029546205
150	0x3d5f6535	0.054539878
151	0xbd6938b4	-0.056938842
152	0x3ca16a22	0.019703928
153	0xbd368f57	-0.044570293
154	0xbba73358	-0.005102556
155	0xbc884346	-0.016633641
156	0xbd6da5fb	-0.05801962
157	0xbc904fea	-0.017616231
158	0xbd17ef98	-0.03709373
159	0xbbac4550	-0.005257286
160	0x3bce4918	0.0062953345
161	0xbd157704	-0.036490455
162	0x3d25dcc5	0.040493745
163	0xbd4e297e	-0.05033254
164	0x3d6d0dd3	0.057874512
165	0x3d18f511	0.03734309
166	0xbc03b75c	-0.008039322
167	0xbd53a0bf	-0.05166697
168	0xbd41d844	-0.047325388
169	0xbd2c5a7e	-0.042078488
170	0x3cf7fa1a	0.030270625
171	0x3aadcf20	0.0013260581
172	0xbc909c72	-0.017652724
173	0xbc74a124	-0.014930997
174	0xb9776a00	-0.00023595244
175	0x3d3af83f	0.045646902
176	0x3d5d3181	0.05400229
177	0x3c17d3dc	0.00926682
178	0x3c8266ca	0.015918154
179	0x3aa501e0	0.001258906
180	0x3d26b33b	0.04069827
181	0x379b7000	1.8529594e-05
182	0x3c96c45a	0.018404175
183	0x3b9c6848	0.0047731735
184	0x3c887f1e	0.016662177
185	0x3d6ba057	0.05752596
186	0x3c50e17c	0.012749072
187	0xbafbc820	-0.0019209422
188	0x3cffdb4a	0.031232495
189	0xbd487f56	-0.048949562
190	0xbbc71da0	-0.0060765296
191	0xbc4644f4	-0.012101401
192	0x3d243519	0.0400897
193	0x3c6270b4	0.013820816
194	0xbd5573ba	-0.05211232
195	0xbc2a0420	-0.01037696
196	0xbbaa4478	-0.0051961504
197	0xbd3a9fc2	-0.045562513
198	0x3c83dfce	0.01609793
199	0xbd1d6080	-0.038422108
200	0xbc7dafe0	-0.015483826
201	0xbd1d3a69	-0.038385782
202	0x3aabf260	0.0013118498
203	0x3c11e254	0.0089040585
204	0x3d5ecea7	0.054396298
205	0xbcb22306	-0.021745216
206	0xbba39da8	-0.0049931593
207	0x3d18cf4d	0.037307072
208	0xbd70c232	-0.05877895
209	0xbc6b473c	-0.014360245
210	0x3d614e09	0.05500606
211	0x3cf79ac6	0.030225169
212	0xbc944dfe	-0.018103596
213	0x3d307689	0.043081794
214	0xbc9cd72c	-0.01914557
215	0x3c179364	0.009251449
216	0xbce99fee	-0.028518643
217	0x3b64fb20	0.0034939721
218	0x3d656975	0.056008775
219	0xbd4316e3	-0.04762925
220	0xbd31ffde	-0.043456905
221	0x3d0632a9	0.032763157
222	0x3cd60586	0.02612568
223	0xbca1ea92	-0.019765172
224	0xbc83092a	-0.01599558
225	0x3d505693	0.050863814
226	0x3b79e270	0.0038129352
227	0xbba820d0	-0.0051308647
228	0x3ce42a4a	0.027852196
229	0x3aa2dde0	0.0012425743
230	0xbd19f618	-0.03758821
231	0x3b2c16e0	0.0026258752
232	0xbd3adb73	-0.04561944
233	0x3c9b28ce	0.018940356
234	0x3cd848d6	0.026401918
235	0x3d47c2e9	0.048769865
236	0x3cad2fe2	0.021140996
237	0x3cb8a646	0.022540223
238	0xbcd73a8a	-0.02627303
239	0x3d507919	0.050896738
240	0x3d1bf3f7	0.03807446
241	0xbd1bcbfa	-0.038036324
242	0xbd18734f	-0.03721934
243	0xbc6b2d40	-0.01435405
244	0x3c15f6e4	0.009153102
245	0x3d08632b	0.0332977
246	0xbcd3766a	-0.0258133
247	0x3cfa45ba	0.030550826
248	0x3d63ed87	0.055646446
249	0x3d2d6619	0.042333696
250	0x3cf383be	0.029725906
251	0xbd57833e	-0.052615397
252	0x3b4d4560	0.0031321868
253	0xbd6ebc0f	-0.058284815
254	0xbc420b84	-0.011843566
255	0x3d63fd2b	0.05566136

bias f4 [32]
0	0xbd44d8fb	-0.04805849
1	0xbb96ee60	-0.0046060532
2	0xbd62aa6a	-0.0553383
3	0x3d2a62b9	0.041598056
4	0xbcbc3e1c	-0.022978835
5	0xbc6b6f7c	-0.014369842
6	0x3b488a90	0.0030600168
7	0x3d017f69	0.03161565
8	0xbc16f54c	-0.009213757
9	0xbd4c8226	-0.049928807
10	0xbc07c420	-0.008286506
11	0x3d6ac09b	0.05731259
12	0xbd265888	-0.040611774
13	0x3becd328	0.00722732
14	0xbd46b759	-0.048514698
15	0x3ca2ed0e	0.019888427
16	0x3c4e008c	0.012573373
17	0x3d41004d	0.047119427
18	0x3d391243	0.04518343
19	0x3c6b6ec4	0.01436967
20	0xbd0f6255	-0.035005886
21	0x3d153a81	0.036432747
22	0xbd696f00	-0.056990623
23	0x3c7588dc	0.014986243
24	0x3d4939c7	0.049127366
25	0x3d281927	0.041039612
26	0x3cb9d29e	0.022683438
27	0xbd22bf18	-0.039733022
28	0x3d2b6d61	0.04185236
29	0xbd3b2a6d	-0.045694757
30	0x3d133a81	0.035944466
31	0xbce6af7b	-0.028159847

weight f4 [32]
0	0x3f800000	1.0
1	0x3f800000	1.0
2	0x3f800000	1.0
3	0x3f800000	1.0
4	0x3f800000	1.0
5	0x3f800000	1.0
6	0x3f800000	1.0
7	0x3f800000	1.0
8	0x3f800000	1.0
9	0x3f800000	1.0
10	0x3f800000	1.0
11	0x3f800000	1.0
12	0x3f800000	1.0
13	0x3f800000	1.0
14	0x3f800000	1.0
15	0x3f800000	1.0
16	0x3f800000	1.0
17	0x3f800000	1.0
18	0x3f800000	1.0
19	0x3f800000	1.0
20	0x3f800000	1.0
21	0x3f800000	1.0
22	0x3f800000	1.0
23	0x3f800000	1.0
24	0x3f800000	1.0
25	0x3f800000	1.0
26	0x3f800000	1.0
27	0x3f800000	1.0
28	0x3f800000	1.0
29	0x3f800000	1.0
30	0x3f800000	1.0
31	0x3f800000	1.0

bias f4 [32]
0	0x00000000	0.0
1	0x00000000	0.0
2	0x00000000	0.0
3	0x00000000	0.0
4	0x00000000	0.0
5	0x00000000	0.0
6	0x00000000	0.0
7	0x00000000	0.0
8	0x00000000	0.0
9	0x00000000	0.0
10	0x00000000	0.0
11	0x00000000	0.0
12	0x00000000	0.0
13	0x00000000	0.0
14	0x00000000	0.0
15	0x00000000	0.0
16	0x00000000	0.0
17	0x00000000	0.0
18	0x00000000	0.0
19	0x00000000	0.0
20	0x00000000	0.0
21	0x00000000	0.0
22	0x00000000	0.0
23	0x00000000	0.0
24	0x00000000	0.0
25	0x00000000	0.0
26	0x00000000	0.0
27	0x00000000	0.0
28	0x00000000	0.0
29	0x00000000	0.0
30	0x00000000	0.0
31	0x00000000	0.0

running_mean f4 [32]
0	0x3cbb4e22	0.022864405
1	0x3dd96592	0.10615076
2	0x3d91a1ce	0.0711094
3	0x3d90d42f	0.07071721
4	0x3ed24877	0.4107091
5	0xbd5359bd	-0.051599253
6	0x3daa15f9	0.08304972
7	0x3dce87ae	0.100844726
8	0x3dd2c6d3	0.10291829
9	0x3c4a41b4	0.012344766
10	0xbdc5412f	-0.096315734
11	0x3dca8b5b	0.09889861
12	0x3af9e76c	0.0019066161
13	0x3e26b9b8	0.16281784
14	0xbdd1e7e5	-0.102493085
15	0x3df24c15	0.11830918
16	0x3e32eea3	0.17473845
17	0xbe882754	-0.26592505
18	0xbe6c2e4f	-0.2306454
19	0xbc53fa4d	-0.012938094
20	0x3e8969d3	0.2683855
21	0x3a859d8f	0.0010194051
22	0x3df4798d	0.119372465
23	0xbdaa573e	-0.083174214
24	0xbe504404	-0.20338446
25	0x3d74529a	0.059649087
26	0x3e922d0a	0.28549987
27	0xbc55f2f1	-0.01305841
28	0xbd972732	-0.07380523
29	0xbdec625a	-0.115421966
30	0xbe41fb02	-0.18943408
31	0x3e06745e	0.13130328

running_var f4 [32]
0	0x3daf41db	0.08557483
1	0x3d85b5cf	0.06528818
2	0x3d587951	0.05285007
3	0x3d3a7ca9	0.04552904
4	0x3d23bea8	0.039976746
5	0x3d509bb9	0.05092976
6	0x3d98c17f	0.074587815
7	0x3d48015a	0.048829414
8	0x3d524c90	0.051342547
9	0x3dc5b1db	0.09653064
10	0x3d15a595	0.036534864
11	0x3d81a97e	0.06331156
12	0x3d81701e	0.06320213
13	0x3d8e1afe	0.06938742
14	0x3d933b88	0.07189089
15	0x3d646aab	0.05576579
16	0x3dab8d5e	0.08376573
17	0x3de49b24	0.11162403
18	0x3d5920b6	0.05300971
19	0x3d626901	0.05527592
20	0x3d21862a	0.03943459
21	0x3d780e08	0.060560256
22	0x3d4c579d	0.049888242
23	0x3d5447fb	0.05182646
24	0x3d2006c3	0.03906895
25	0x3d82f451	0.06394256
26	0x3dd79d48	0.10528046
27	0x3d2b558c	0.04182963
28	0x3d4703dc	0.048587665
29	0x3dbd4a50	0.092426896
30	0x3de9a6d5	0.11408774
31	0x3d4b8b96	0.049693666

weight f4 [32]
0	0x3f800000	1.0
1	0x3f800000	1.0
2	0x3f800000	1.0
3	0x3f800000	1.0
4	0x3f800000	1.0
5	0x3f800000	1.0
6	0x3f800000	1.0
7	0x3f800000	1.0
8	0x3f800000	1.0
9	0x3f800000	1.0
10	0x3f800000	1.0
11	0x3f800000	1.0
12	0x3f800000	1.0
13	0x3f800000	1.0
14	0x3f800000	1.0
15	0x3f800000	1.0
16	0x3f800000	1.0
17	0x3f800000	1.0
18	0x3f800000	1.0
19	0x3f800000	1.0
20	0x3f800000	1.0
21	0x3f800000	1.0
22	0x3f800000	1.0
23	0x3f800000	1.0
24	0x3f800000	1.0
25	0x3f800000	1.0
26	0x3f800000	1.0
27	0x3f800000	1.0
28	0x3f800000	1.0
29	0x3f800000	1.0
30	0x3f800000	1.0
31	0x3f800000	1.0

bias f4 [32]
0	0x00000000	0.0
1	0x00000000	0.0
2	0x00000000	0.0
3	0x00000000	0.0
4	0x00000000	0.0
5	0x00000000	0.0
6	0x00000000	0.0
7	0x00000000	0.0
8	0x00000000	0.0
9	0x00000000	0.0
10	0x00000000	0.0
11	0x00000000	0.0
12	0x00000000	0.0
13	0x00000000	0.0
14	0x00000000	0.0
15	0x00000000	0.0
16	0x00000000	0.0
17	0x00000000	0.0
18	0x00000000	0.0
19	0x00000000	0.0
20	0x00000000	0.0
21	0x00000000	0.0
22	0x00000000	0.0
23	0x00000000	0.0
24	0x00000000	0.0
25	0x00000000	0.0
26	0x00000000	0.0
27	0x00000000	0.0
28	0x00000000	0.0
29	0x00000000	0.0
30	0x00000000	0.0
31	0x00000000	0.0

running_mean f4 [32]
0	0xbe2964a8	-0.16542304
1	0x3e75c643	0.24001412
2	0xbda78af8	-0.08180803
3	0x3e74e1bd	0.23914237
4	0xbca61280	-0.020272493
5	0xbd9fd972	-0.07805146
6	0x3e571d50	0.21007276
7	0xbe0d4ae5	-0.13798101
8	0xbe69ec14	-0.22843963
9	0x3d957798	0.07298201
10	0xbe38db83	-0.18052487
11	0x3e9c5d0c	0.3053974
12	0x3e8dbbc6	0.27682322
13	0xbd83b7a5	-0.06431512
14	0x3be61f26	0.007022756
15	0x3e443da3	0.19164138
16	0xbdc4fe7b	-0.09618851
17	0x3e24b5f5	0.16085036
18	0xbeac9c04	-0.3371278
19	0xbcc1aea0	-0.023642838
20	0xbe19f5b9	-0.15035142
21	0x3d87a3f0	0.066230655
22	0xbd91b939	-0.071154065
23	0x3ea4aea7	0.321645
24	0x3c0531db	0.008129562
25	0x3c92af52	0.017905865
26	0x3dda353a	0.106546834
27	0x3c10b4e6	0.008832192
28	0xbd3c38f8	-0.045952767
29	0xbe0c62c7	-0.13709556
30	0x3e6e59ef	0.23276494
31	0xbe48dbcd	-0.19615097
