models/5_cross_5_iter_0.pt (torch_old, 339781 bytes, 66 tensors)

weight f4 [32, 3, 3, 3]
00000000: 30b4 373c 43a8 3abe 29ed 283e 3fff 0a3e
00000010: 2822 08be 7825 a5bc 8a7f c53d 9921 aebd
00000020: 97c5 09be 33eb 2d3e 6c65 6bbd 2d44 1b3e
00000030: 9d28 213e 0ee6 f13d 19e9 0a3e a066 8bbb
00000040: 0aae e5bd b6af 86bd 9a80 3bbe 0c80 003d
00000050: cbf2 033e f9d5 393e 5a79 843d ba23 d5bd
00000060: 00c4 bc39 eacf ff3d ba0d e63d f482 1c3d
00000070: fcea 5abd f781 143e ec34 153d aa43 a13d
00000080: 806a d5bc 2218 15be 2f86 43be 2ad3 27be
00000090: c34e 323e a45a 433d 2278 f83d cde5 053e
000000a0: b9fb 44be 80f4 e13b f2fa 35be 8210 8e3d
000000b0: 2aed 9e3d 2c9a 6abd 8833 b2bc 5690 813d
000000c0: 3579 113e bba0 2fbe 3867 e9bc 9669 ac3d
000000d0: bce1 09be 9c16 3bbe ce6d 0cbe 6b71 1f3e
000000e0: 0a2e d43d 4066 d23c 4939 d2bd 10f3 46bc
000000f0: f72a 30be 50e3 aa3c a66f 843d d069 d63c
00000100: 7cc9 7b3d 0038 20be 62f8 c73d 088e ea3c
00000110: 99be 26be b0c6 b7bd 00e6 1abb 0c3b f1bd
00000120: 78f6 c3bd 5081 35bd bc3f 75bd 7aa9 1dbe
00000130: e9e3 1fbe 0be1 253e 4141 203e 9c98 1a3d
00000140: d080 323d a879 053d ccab 11bd 24d9 25bd
00000150: 5862 3d3d 1eff bb3d 9bef 443e 6130 283e
00000160: 30dd 1fbe ba5d c43d 8084 0b3b 45be 3cbe
00000170: 881b bdbd d6a4 e3bd 24a7 393d 4098 5f3c
00000180: 2425 783d 8ea1 f63d 56f4 9d3d 9eb3 c43d
00000190: 9e39 f73d 0e8e df3d a962 c9bd 4de2 283e
000001a0: c3e1 303e f063 a4bc dbff 0a3e fc8d 58bd
000001b0: fdb1 023e 2a8b b73d e021 9d3b 72e3 da3d
000001c0: fe1e c43d 1e94 e23d 74a4 223d 26de 9d3d
000001d0: 1557 05be 6b73 433e 5e96 f63d 5b0b 0a3e
000001e0: f553 3fbe 2042 37bc 33c8 b3bd b1e2 133e
000001f0: 3ac8 a13d 571b 41be 01ed 20be 2cc5 78bd
00000200: 7f43 42be 72ef c93d b6c7 ad3d 681b 863c
00000210: 4083 9ebc c0b0 443b 4a52 e9bd 100a b43c
00000220: c840 41bd a264 943d c7bd 1dbe d5cf 1f3e
00000230: 1571 3fbe 46c6 fb3d 5886 10bd d28d e33d
00000240: 09cd 393e 5c50 1c3d 1897 c4bc c2e3 fc3d
00000250: 1ef6 d13d 7974 b5bd 790c 17be 007d 0ebe
00000260: 03c4 153e e1fb 173e 505e 343d a030 cdbb
00000270: e165 0dbe 2194 253e 8059 bcbc bbfa 44be
00000280: 0fa2 1c3e 4033 e53c 36da d23d cd97 0e3e
00000290: 4ff2 dcbd 59b0 e0bd 8c80 103d f3a5 2c3e
000002a0: 0bbf eabd 9a18 b43d aa6c 93bd ec75 3fbe
000002b0: 1a76 e4bd e372 20be b4fb 88bd d358 dbbd
000002c0: cd5d 033e 3636 853d c0e2 4d3b a676 32be
000002d0: 78d0 863c c4ca 13be 191b 96bd 512e 23be
000002e0: 692e e7bd 640b 7e3d 12de 06be 04af 75bd
000002f0: 2404 36bd a020 9c3c 7616 ea3d d126 393e
00000300: b8f8 afbc beeb e7bd 0012 62bc 00e2 7ebc
00000310: b1c2 1f3e 1d5c 443e 9db6 2d3e 6622 fabd
00000320: 88cb 51bd 5e02 c73d 3cc3 6c3d 4d22 dbbd
00000330: 91e2 95bd 14a3 f3bd 6bf8 ecbd 3565 08be
00000340: c79f 23be 5e3d 853d 66e7 42be 7775 433e
00000350: de3e 943d 7b6b 0f3e 924b fe3d dc70 15bd
00000360: 5ce0 00be 0af9 00be 62c8 39be 449d 67bd
00000370: 7446 06bd 010e f0bd adcc 363e d899 653d
00000380: 4026 e5bd 5bb7 d1bd 2c1a 4cbd 50a7 79bc
00000390: 8035 3e3c 0fc0 2fbe 022d 36be 7c80 333d
000003a0: 23c6 1b3e 90b5 9b3c f673 9b3d c814 34be
000003b0: 4308 2e3e ae4f a93d 7e2e d63d 4ff8 1a3e
000003c0: 38ca 2b3d 4c88 a9bd e810 dfbc 7550 023e
000003d0: 7d22 403e aa55 d8bd e4b5 3cbe efe0 103e
000003e0: ccc4 f9bd 918a 0abe bda9 adbd 6a21 d53d
000003f0: d238 ec3d 8830 19be c6c9 ba3d a594 023e
0.011212394 -0.18228249 0.1649672 0.13573931 -0.1329428 -0.020159468 0.09643467 -0.08502502
-0.13454281 0.16984253 -0.05746977 0.15162726 0.15738149 0.118114576 0.13565482 -0.004254177
-0.11214836 -0.06576483 -0.18310776 0.031372115 0.12885587 0.1814803 0.064684585 -0.10407205
0.00036004186 0.12490828 0.11233087 0.038210824 -0.053446755 0.14502703 0.036427423 0.07874234
-0.02605176 -0.14559987 -0.19094156 -0.16389146 0.17412858 0.047693864 0.121322885 0.13075943
-0.1923665 0.0068956017 -0.1777151 0.06936742 0.07760079 -0.057275936 -0.021753088 0.06326358
0.14206393 -0.17151158 -0.028491601 0.084185764 -0.13465017 -0.18270344 -0.13713762 0.1557061
0.10360344 0.025683522 -0.102648325 -0.012142912 -0.1720389 0.020860344 0.06466608 0.026173502
0.061471447 -0.15646362 0.09764172 0.028632179 -0.16283645 -0.089734435 -0.0023635626 -0.117788404
-0.095684946 -0.044312775 -0.059875235 -0.15396681 -0.15614285 0.16199128 0.15649892 0.037743196
0.043579876 0.032586724 -0.03556423 -0.040490285 0.046236366 0.09179519 0.19232027 0.16424705
-0.1561172 0.095881894 0.0021288693 -0.18431957 -0.09233767 -0.11115424 0.045325413 0.013647139
0.060582295 0.12042533 0.07712619 0.09604572 0.120715365 0.10915767 -0.09833271 0.16492577
0.17273621 -0.020067185 0.13574164 -0.05286978 0.1276321 0.0896209 0.004795298 0.10687913
0.09576224 0.11063407 0.039707616 0.07708387 -0.130215 0.19086997 0.12040399 0.13480894
-0.18684371 -0.011185199 -0.08778419 0.14441945 0.07899518 -0.18858086 -0.1571541 -0.060734913
-0.1897106 0.09860124 0.084853575 0.01637049 -0.019349694 0.0030012578 -0.113926485 0.021977454
-0.04718092 0.07245757 -0.15404426 0.15606625 -0.18695481 0.12293677 -0.03528437 0.111110345
0.18144621 0.038162574 -0.023997828 0.12348129 0.10252021 -0.08860106 -0.14750852 -0.13914871
0.14625554 0.14842178 0.044035256 -0.0062619 -0.13808395 0.16169788 -0.022991896 -0.19236271
0.15296195 0.02797854 0.10295527 0.13925095 -0.10788404 -0.10971136 0.03527884 0.1686018
-0.1146222 0.08793755 -0.071984604 -0.18697327 -0.111553386 -0.15668826 -0.066886336 -0.10710301
0.12828751 0.065044805 0.003141567 -0.17428073 0.016456828 -0.14432818 -0.07329387 -0.15935637
-0.11288149 0.06202258 -0.1317065 -0.05998136 -0.044437543 0.019058526 0.11430065 0.18081214
-0.021480903 -0.11324261 -0.013798237 -0.015556812 0.15601613 0.19175763 0.16964193 -0.12213592
-0.051219493 0.097172484 0.057803378 -0.10699902 -0.07318605 -0.11896339 -0.115708195 -0.13319857
-0.15978919 0.065058455 -0.19033584 0.19087778 0.072385535 0.14005844 0.12416758 -0.036484584
-0.12585586 -0.12595001 -0.18142846 -0.056546465 -0.032782033 -0.11721421 0.17851515 0.05605492
-0.11188936 -0.102400504 -0.049829647 -0.015237644 0.011609435 -0.17163108 -0.17790607 0.043823704
0.15212302 0.019007474 0.07590477 -0.17586052 0.16995339 0.08267151 0.104580864 0.15133785
0.041940898 -0.0827795 -0.027229741 0.12726004 0.18763156 -0.10563214 -0.18428761 0.14148305
-0.12195739 -0.13529421 -0.08479641 0.10406764 0.11534275 -0.1495992 0.091205165 0.12752016

bias f4 [32]
00000000: 93d1 07be 5c26 273d a0be 8dbb 908e 30bc
00000010: 6364 203e 2a0a b63d 4c37 463d ecdb 413d
00000020: 7171 9ebd 5786 02be e564 3f3e 8129 3f3e
00000030: 3ca1 12be 9530 233e 7583 393e dac6 e73d
00000040: c0dc 0d3c dbe2 323e 969a 8a3d 041d 453d
00000050: dc95 6bbd 4b6a 123e af77 273e d36d 1e3e
00000060: d8c2 02be 7c9a 2f3d d090 cdbc b846 0bbe
00000070: c83e 20be 4c1f 3dbd 2061 cb3b 09bd 023e
-0.1326354 0.040808067 -0.004325703 -0.010776177 0.15663294 0.088886574 0.04839258 0.047328874
-0.07736481 -0.12746559 0.18690832 0.18668176 -0.14319319 0.15936501 0.18116553 0.11317225
0.008658588 0.17469351 0.06767766 0.048123375 -0.057515964 0.1429836 0.1635425 0.15471582
-0.1276964 0.042871937 -0.025093466 -0.13601196 -0.15648949 -0.046172425 0.0062066466 0.12767424

weight f4 [32]
00000000: cc48 1a3f b07c 673d 9d50 3d3f 86e6 d43e
00000010: c0ab 773e 3ade c63e e4c0 a93e ac34 913e
00000020: 93aa 0c3f 6b22 283f ad3c 5e3f 96c8 2a3f
00000030: 48b0 0e3f ca3e 9b3e 46b7 683f 19f8 1c3f
00000040: 025a 103f 418e 373f 5023 c03e 7432 6c3f
00000050: f1b0 7a3f 1064 6f3d f60f 143f 66dd 9a3e
00000060: e8a5 293f a858 f23e e326 123f 048d e83e
00000070: c064 123d 6451 e93e f868 d23e 5630 f93e
0.6026733 0.056515396 0.7395113 0.41582125 0.24186611 0.3884142 0.33154976 0.28360498
0.54947776 0.6567752 0.86811334 0.6671232 0.55737734 0.30321342 0.90904653 0.61316067
0.5638734 0.7170144 0.3752694 0.92264485 0.9792624 0.058445036 0.57836854 0.3024704
0.6626878 0.47333264 0.57090586 0.45420086 0.035740614 0.4556991 0.4109571 0.4866969

bias f4 [32]
00000000: 0000 0000 0000 0000 0000 0000 0000 0000
00000010: 0000 0000 0000 0000 0000 0000 0000 0000
00000020: 0000 0000 0000 0000 0000 0000 0000 0000
00000030: 0000 0000 0000 0000 0000 0000 0000 0000
00000040: 0000 0000 0000 0000 0000 0000 0000 0000
00000050: 0000 0000 0000 0000 0000 0000 0000 0000
00000060: 0000 0000 0000 0000 0000 0000 0000 0000
00000070: 0000 0000 0000 0000 0000 0000 0000 0000
0.0 0.0 0.0 0.0 0.0 0.0 0.0 0.0
0.0 0.0 0.0 0.0 0.0 0.0 0.0 0.0
0.0 0.0 0.0 0.0 0.0 0.0 0.0 0.0
0.0 0.0 0.0 0.0 0.0 0.0 0.0 0.0

running_mean f4 [32]
00000000: 1e39 33be 2ead a0be 6b2f 08be 5911 023f
00000010: 27f7 0f3f 08d7 323e 3aa9 66bc 636f ea3e
00000020: e4d5 cebe c5b3 59bd b2a0 013f 4fc0 873e
00000030: 583e 9cbd 2d23 0abf 134f 36bd a6bd 163e
00000040: a5d4 163f 0f8b 2f3f 7b32 d0be a54f bd3e
00000050: 9bbf aa3e 0b74 80be dd04 343e 2cbd 003e
00000060: d322 a53e 593a 813e 63c3 ae3c 8a55 df3e
00000070: 8287 0bbe 9874 9dbe ad5a 813e 58ad 143d
-0.17502257 -0.31382126 -0.13299339 0.5080772 0.562365 0.1746484 -0.014078433 0.45788106
-0.4039756 -0.053149957 0.50635827 0.26513907 -0.076290786 -0.53959924 -0.044509005 0.14720783
0.5891822 0.6857156 -0.40663514 0.36974826 0.33349308 -0.25088534 0.1757998 0.12572163
0.3225313 0.25239828 0.021333402 0.4361995 -0.13625911 -0.30753016 0.25264493 0.036298126

running_var f4 [32]
00000000: f904 4e3c 38b1 e53b 3025 663c 849e 973b
00000010: 378d 913b 95f9 d33b 7f99 4e3c b166 df3c
00000020: 1ba0 7d3c 9480 2c3c 6e04 523c 2493 bc3b
00000030: a265 c93b aff6 9c3c ecad a63b 7ed2 113c
00000040: 4c98 aa3c a431 8e3c 3234 ce3c 01e5 913b
00000050: 8d60 2a3c 18ec 0b3c d981 283c 6e8f 943c
00000060: 980e d63b 108d 6c3c 8635 223c 2027 ec3b
00000070: 2d60 793b ab6b ec3b 93ed 283c 1ffb 7e3c
0.012574428 0.0070096515 0.014046952 0.004627051 0.004441883 0.0064689615 0.0126098385 0.027270647
0.015480067 0.010528702 0.012818439 0.005754845 0.006146149 0.019160597 0.005086651 0.008900283
0.020824574 0.017357655 0.025171373 0.004452348 0.010398996 0.008540176 0.010284864 0.018134799
0.0065325014 0.014437929 0.009900456 0.0072068125 0.003805171 0.0072149835 0.010310548 0.015562802

weight f4 [2, 32, 1, 1]
00000000: 295b 053e 61a4 0d3e 083b 7c3d 400f 93bc
00000010: a0d8 2cbd 6512 093e 65cc 0e3e 09ab 113e
00000020: 1881 efbc d825 7abd 6c7d 06bd 9fa5 aabd
00000030: 3420 8b3d e241 fcbd 6067 b2bb f28a e93d
00000040: a220 25be 80b6 0a3d c397 133e 1862 30bd
00000050: 403a 603c d3dc 1b3e 9495 6bbd d5d8 19be
00000060: 8ecb f73d 8f58 cdbd 3125 d6bd 75af 043e
00000070: 00c1 3a3b 07a5 cfbd 4e88 803d c06b ddbb
00000080: 0061 533b f0b5 4cbd 275d 25be 98b4 293d
00000090: c115 07be 2aba 94bd e321 f8bd 5d5d 1a3e
000000a0: 0116 053e 9b24 99bd 8882 05bd a133 0f3e
000000b0: 157a 083e 285c bdbc 170c 15be 4aed ab3d
000000c0: cb8d 203e 1d6e 2d3e 2c41 f9bd f7a9 283e
000000d0: 3844 52bd 6872 33be 2080 a9bd 1b86 0cbe
000000e0: b2d6 f0bd a83c f73c 05c8 bcbd e81b 80bc
000000f0: 378f 19be 6b96 88bd 0086 c2bc e7f6 33be
0.13023056 0.13832237 0.061579734 -0.017951608 -0.042198777 0.13385923 0.13945158 0.14225401
-0.029236361 -0.061071247 -0.032834455 -0.08332371 0.06793252 -0.12317254 -0.005444452 0.11403455
-0.1612573 0.03386545 0.14413361 -0.0430623 0.013685763 0.15220957 -0.057515696 -0.15024121
0.12099372 -0.10026657 -0.104563124 0.12957557 0.0028496385 -0.10138898 0.06275998 -0.0067572296
0.0032253861 -0.049978197 -0.16148816 0.041431993 -0.13191892 -0.072620705 -0.121158384 0.15074678
0.12996675 -0.07477685 -0.032595187 0.13984539 0.1332782 -0.023115233 -0.14555393 0.08394869
0.1567909 0.16936536 -0.12170634 0.16471086 -0.05133459 -0.17524111 -0.08276391 -0.13723032
-0.117597 0.03018029 -0.09217838 -0.015638307 -0.14996038 -0.06669315 -0.023745537 -0.17574655

bias f4 [2]
00000000: 8fe1 03be f67b d33d
-0.12879013 0.10326378

weight f4 [2]
00000000: 0a2e 6f3f 01da 7c3f
0.93429625 0.9877015

bias f4 [2]
00000000: 0000 0000 0000 0000
0.0 0.0

running_mean f4 [2]
00000000: db2f 103e 2e73 a8be
0.14080755 -0.32900375

running_var f4 [2]
00000000: a6cb 633e 566d d63e
0.22245654 0.41880292

weight f4 [26, 18]
00000000: 8cac 42be 53e1 053e d94a 0d3e d323 1b3e
00000010: 6e0e d6bd 2468 0e3d f86f 08be 20f4 52bd
00000020: 4e8e c13d 653f 00be 6272 82bd 7ee0 63be
00000030: 282b d43c f841 c93c f08b 9ebc 9e09 00be
00000040: febd 92bd e898 f63c af78 103e 5d2e 1ebe
00000050: cc04 4bbd 2233 db3d d1fe 5d3e d75e 6cbe
00000060: cc2e a6bd b07d 57be 8be5 4d3e 448d 9bbd
00000070: 1cb1 f8bd 3e0f 903d 858c 5e3e 4e6b d63d
00000080: 428c 6abe fb3d 1f3e ba90 bd3d e0c5 1abe
00000090: acae 2b3d e37e 6bbe ca14 25be bc87 783d
000000a0: 0079 32be 4604 843d 9043 c1bc a7aa 403e
000000b0: d0c6 64bc 7ff7 693e 662f 82bd d134 f6bd
000000c0: 2e89 6dbe 4cfa 483d f498 20bd 08b8 64bd
000000d0: 5000 11be 9c8f 27bd c605 11be 3421 1c3d
000000e0: 6357 3fbe 7023 f1bd 40e3 e1bd 7737 47be
000000f0: e8d0 aa3c 8099 383c c339 643e 0421 f4bd
00000100: 53d2 25be 827b 42be 4835 11bd 40cb c3bb
00000110: 20e6 143c 0a22 8f3d 8c36 28be a4dc 0c3d
00000120: d4ab 043d b907 703e c9d7 66be 9ee4 31be
00000130: 62f1 a53d b405 4a3d a34e 6e3e de1f 44be
00000140: 7734 023e ad27 093e 9002 94bc 9004 65bc
00000150: 3634 6dbe c2ea e5bd a2f7 84bd bcd7 23be
00000160: 84e3 22be 48c3 df3c 32f3 bfbd 3053 353c
00000170: 3025 7cbd df56 363e 38ef 8bbc 4ac3 dc3d
00000180: 549b 5dbd 003a 0dbb dd59 6c3e d847 d1bd
00000190: ac0f 673d db0e 1a3e fa48 863d 1834 973c
000001a0: 7e8a 8d3d cafa a43d 3317 043e 34dd 60be
000001b0: 61a1 323e b0bb 97bd 4eb8 f3bd 02a0 0abe
000001c0: 1192 513e 7e09 b53d a6e5 813d 68c0 f13c
000001d0: 3b06 65be 08bf 1bbe b8a6 fcbd fe87 c93d
000001e0: 3c75 383d 2103 593e 8068 8ebb 6c76 673d
000001f0: b0b9 43bc 80a1 03bc bb26 63be ea3a 33be
00000200: 6f20 56be 1c3e 5b3d a437 0e3d 3a6e de3d
00000210: 5be0 29be b8c1 c9bc e38f 07be 16ab 58be
00000220: 9fbf 3dbe 40eb f2bb 40f9 dbbb 08ab 83bd
00000230: 883a 9e3c 740f 3fbd 8049 bfba 1ad8 2dbe
00000240: c5ac 3a3e 904b 03be f6fc a03d 519c 203e
00000250: 4a1d b1bd 1dda 62be 30f3 90bc a9c8 1c3e
00000260: f54c 613e 04d3 b0bd 705c 0dbe 827e cd3d
00000270: 19a2 2a3e 083c 8abc 6270 c1bd 7182 313e
00000280: 0159 273e f499 51be c7b0 3a3e db51 343e
00000290: 99ad 553e de4a c4bd 6fc6 213e 696e 653e
000002a0: 4e8d 84bd ef94 023e 2eb0 dd3d cd55 1bbe
000002b0: c4f6 3d3d 287c 51be 6432 0bbe 64aa 5d3d
000002c0: 038c 2c3e d8a9 a23c da86 f63d 18c0 4ebe
000002d0: 34d2 7c3d c9b7 4e3e d048 46bd 05d1 203e
000002e0: 085b c03c d4ba 4b3d 2879 c0bc 4d36 35be
000002f0: 8532 1f3e 9866 4fbe 1278 3cbe 80e5 2cbd
00000300: 48cd cfbd d83d d9bd d807 95bd 9178 5f3e
00000310: 6891 f6bd d534 073e 9584 663e 6a41 f73d
00000320: 780f fa3c e493 4d3d 4bbd 383e acac 5dbe
00000330: b77d 033e f525 353e 1c9f 363d 8ccb d1bd
00000340: 644c 19bd 869a ccbd adca 69be 0f78 2e3e
00000350: 6d7b 2abe 2e24 31be 50eb 27be 055e 1ebe
00000360: fdf6 0d3e 6e12 15be a64f ffbd c106 363e
00000370: bc2f 07be 887d b73c 7538 4f3e f8c5 39be
00000380: d893 cc3c d6dd 8a3d 362f 1ebe daae 38be
00000390: c3e6 033e 2582 393e e7eb 1e3e b989 033e
000003a0: 1c28 7c3d 8737 173e fc98 0ebe 3da0 6e3e
000003b0: e5d2 08be 5422 3a3d 4013 c9bb 60f1 71bc
000003c0: 0745 1bbe ca1b a93d 55aa 1e3e 2d90 5f3e
000003d0: 21eb 173e 5b70 4b3e 06f5 83bd 1d66 103e
000003e0: f41e 073d 4e42 8e3d c581 443e 006d 073a
000003f0: 2f99 003e 7674 803d 8532 063e d858 abbc
-0.19011134 0.13074236 0.13798083 0.15150385 -0.10451971 0.034767285 -0.13323963 -0.051502347
0.094509706 -0.12524183 -0.06369473 -0.22253606 0.025899485 0.02456759 -0.019353837 -0.12503669
-0.071651444 0.030102208 0.14108537 -0.15447374 -0.04956512 0.10703112 0.21679236 -0.23083054
-0.081143945 -0.2104404 0.20107095 -0.07595304 -0.12143156 0.07034157 0.21733291 0.104696855
-0.22905067 0.15550987 0.0925612 -0.15114546 0.041914627 -0.22997622 -0.16121212 0.06067632
-0.1742897 0.064461276 -0.023591787 0.18815099 -0.013963416 0.22848319 -0.06356697 -0.12021793
-0.23196861 0.049066827 -0.039208367 -0.05583957 -0.14160275 -0.04090844 -0.14162359 0.038117602
-0.18685679 -0.11774337 -0.110296726 -0.19454752 0.020851567 0.011267066 0.2228766 -0.1192036
-0.16193514 -0.18992427 -0.035451204 -0.005975157 0.009088069 0.06988914 -0.16427058 0.034390107
0.03239043 0.23440446 -0.22543253 -0.17372367 0.08102681 0.049321845 0.23272185 -0.19152781
0.12715326 0.13394041 -0.018067628 -0.013978139 -0.23164448 -0.11226417 -0.06492545 -0.16000265
-0.15907103 0.027314797 -0.09372558 0.011067197 -0.061558902 0.17806576 -0.017081842 0.10779436
-0.05410321 -0.0021549463 0.23081155 -0.10218781 0.05641143 0.1504473 0.06556888 0.018457457
0.06911181 0.08055647 0.12899475 -0.21959382 0.17444374 -0.074088454 -0.11900388 -0.135376
0.20465876 0.08839701 0.0634263 0.029510692 -0.22365658 -0.15209591 -0.123364866 0.098403916
0.04503368 0.211926 -0.0043459535 0.05650942 -0.011946127 -0.00803411 -0.22182743 -0.17502943
-0.2091081 0.05352603 0.03472103 0.10860868 -0.16589491 -0.024628505 -0.13238482 -0.21159014
-0.18530129 -0.007413298 -0.0067130625 -0.06429106 0.01931502 -0.046645597 -0.0014594048 -0.16976967
0.18229969 -0.12821794 0.078607485 0.1568463 -0.086481646 -0.22153516 -0.017694086 0.15310921
0.22002013 -0.08633998 -0.13804793 0.10033895 0.16663398 -0.016874328 -0.094452634 0.17334916
0.16342546 -0.20468885 0.18231498 0.1760935 0.20867004 -0.09584592 0.15798353 0.224054
-0.06472264 0.12752126 0.10824619 -0.15169449 0.046377912 -0.20457518 -0.13593441 0.054117575
0.16850285 0.019856378 0.1203744 -0.20190465 0.061723903 0.20187296 -0.048409283 0.15704735
0.023480907 0.04973872 -0.023495272 -0.17696495 0.15546615 -0.2025398 -0.18405178 -0.042211056
-0.10146576 -0.10607499 -0.07276887 0.21823336 -0.12039453 0.13203748 0.22511514 0.120730236
0.030524954 0.050189868 0.1804096 -0.216479 0.12840925 0.1769026 0.044585332 -0.102439016
-0.037426367 -0.099904105 -0.22831221 0.17037986 -0.16648646 -0.17298958 -0.16398358 -0.15465553
0.1386375 -0.14557812 -0.124663636 0.17776014 -0.13201803 0.022398725 0.2023638 -0.18141925
0.024972841 0.06780593 -0.15447697 -0.1803545 0.12880997 0.18116052 0.15519677 0.12845506
0.06156169 0.14767276 -0.13925546 0.23303314 -0.133617 0.045442894 -0.006136328 -0.014767021
-0.1516305 0.082572535 0.15494664 0.21832342 0.14835788 0.19867079 -0.06443219 0.14101453
0.032988504 0.0694624 0.19190128 0.00051660836 0.12558435 0.06272213 0.13105209 -0.020916387

bias f4 [26]
00000000: 4e96 1fbe 7876 9fbd c28f 6ebe 88bd b4bd
00000010: 1078 19bd 8258 d2bd 4384 243e 0dba 5d3e
00000020: f424 4d3d f555 2d3e 8578 2fbe ca8d d53d
00000030: 8131 57be d8f6 04be 30d5 4f3c b275 e73d
00000040: 12fa 933d 2ffc 433e 8867 c9bc 2f3d 6d3e
00000050: 5e5b b6bd e547 223e 7c64 9abd 801b 4e3c
00000060: 8418 0f3d 481f 18be
-0.1558468 -0.07786268 -0.23297027 -0.08825213 -0.037468016 -0.10270788 0.16066079 0.21653004
0.05008407 0.16927321 -0.17135818 0.10427435 -0.21014978 -0.12984788 0.012685105 0.113017455
0.072254315 0.19139169 -0.0245855 0.23167871 -0.08904146 0.15847738 -0.07538697 0.012579799
0.03493549 -0.14855683

weight f4 [1, 32, 1, 1]
00000000: b4dc 643d d458 0f3d d313 82bd b258 09be
00000010: c05a 8f3c a01b d2bd 730f 34be 3582 2f3e
00000020: 86f4 e43d d2bc eb3d 8586 273e 0056 93ba
00000030: 5471 c7bd 02dd bf3d 452c abbd 492d b3bd
00000040: cd0e 2dbe 8e54 e43d 306f 2cbe d862 e33c
00000050: 101a b2bc fe5b b9bd ef3d 2f3e 3060 0bbc
00000060: 8295 c13d 6795 1ebe 7a24 b93d f682 da3d
00000070: 19fa 143e 80de 903a 96a2 f63d 2316 debd
0.05587454 0.034996822 -0.063514374 -0.13412741 0.017499328 -0.10259175 -0.17584018 0.17139514
0.11179452 0.11510624 0.16359909 -0.001124084 -0.097384125 0.09368326 -0.08358053 -0.08748872
-0.16900177 0.1114894 -0.1683929 0.027757093 -0.021740943 -0.09050749 0.1711347 -0.00850682
0.094523445 -0.1548668 0.090401605 0.1066951 0.1454853 0.0011052638 0.120427296 -0.10844066

weight f4 [32, 9]
00000000: 8093 5e3b a857 35be ac33 80be fda8 a83e
00000010: 20c5 273d d8ce 4dbd ec83 94be 9a2b 453e
00000020: 863e 2d3e 469f f6bd a06b 003c d075 b3bc
00000030: 9ac8 733e a2eb 99be 605a 4a3c 987f 15bd
00000040: 3e3a 7d3e 2327 8dbe 44a2 bb3d 20e1 6cbe
00000050: 80d6 13bc dcc8 97bd 6cdd 84be a304 76be
00000060: 75c9 a93e f3dd 9fbe e915 833e 3bd2 a0be
00000070: d4ed 85bd 608f db3d 3c3b b7bd 5e63 2fbe
00000080: a60b 7b3e 90c0 ac3d a036 53bc aaf2 583e
00000090: f897 4dbd 16bf 143e a07b 41be 58c3 2bbd
000000a0: 49dd 823e 7233 a2be 43e1 2cbe 2c4d fa3d
000000b0: 93e1 02be 7a40 9dbe f290 113e deef 81be
000000c0: a878 58be 6c23 f0bd 181a 56be 12cc 443e
000000d0: 2b2b 873e a121 813e e085 b1bd 3473 e73d
000000e0: 4088 1c3d 2321 9ebe 7243 293e ac48 bcbd
000000f0: 40cd b23b fd63 a23e 37b3 82be 48af 7c3d
00000100: bca8 91be 10f3 c0bc 6137 8d3e 38f6 1e3e
00000110: 9b53 1fbe 882b 063d a092 cc3d 4ff5 97be
00000120: a947 873e e8e1 44bd 00a8 dabb 3b12 a8be
00000130: e349 0dbe 1ca2 a43d 4872 773d 1fdc a53e
00000140: 62a8 703e e8e1 12be 3028 213e 400d 50be
00000150: a041 14bc 688d 52bd 88ee 433d e623 80be
00000160: 7ce1 cfbd 7cd0 f7bd 80e6 5a3d 8bde 94be
00000170: 670a 9f3e 2e49 40be d49a c03d 0002 693c
00000180: 96e2 7cbe f55f 993e 38a9 693d eaa4 743e
00000190: 2ef2 5b3e e03d b6bd a68b 793e ea09 a2be
000001a0: 109a efbc 4662 313e 95f7 833e b097 12be
000001b0: c38b 7bbe 8278 353e 4040 1c3e 2086 fabd
000001c0: fbb3 70be 51b1 983e 40b2 9f3c 861c 233e
000001d0: 9ce8 b33d 00e0 6c3c 3e9a 6d3e 17e2 9ebe
000001e0: 4d15 913e 4629 ccbd e42a 85be 80cd 833c
000001f0: 2ecd 643e 30f3 bbbc fe87 073e b0f6 df3d
00000200: b0ae e13d 16f1 01be cc27 9fbd 80b3 1d3c
00000210: 90f5 b3bd 58d9 1dbd 736c 41be 40d5 6fbe
00000220: c014 153e 4cdc 8fbd d480 9bbd 3540 9b3e
00000230: c08a fd3b 1055 85be b4ad a9be acf9 f13d
00000240: c80f 44bd b865 05bd e6d6 3fbe 9a59 383e
00000250: 9a29 593e eb3a 9d3e 40a9 89be 0054 153e
00000260: c0b4 acbd e6bd 93be c079 80be 18a4 54be
00000270: 0089 b1ba 32ca 4d3e afff a0be b2ea 403e
00000280: e30f 6ebe 0c9c ae3d 360d b3bd f0da d53d
00000290: 97ad a13e 8a09 7a3e f05c 3cbe 9aac a3be
000002a0: 86cc 5dbe a0be 7bbd e5d6 8e3e 00d0 baba
000002b0: 4d53 9e3e d943 873e eb63 6cbe d943 943e
000002c0: f0e1 173e e82b 643d 5922 923e 57a9 93be
000002d0: 76b8 603e 8155 a73e 8683 163e c07b a33d
000002e0: 40ad d53b 9cd8 8a3d 4380 31be e0f7 673d
000002f0: 7c07 9cbd a381 10be 8325 7ebe 6f36 923e
00000300: 9039 8f3d d0e8 ec3c fe10 4fbe fb17 40be
00000310: ac72 a0bd 1e96 99be a5c9 913e b454 b93d
00000320: 5b37 25be a032 113e 448e a1be d891 6c3d
00000330: b021 893d 80be 46be e897 76bd ca86 a7be
00000340: 9efa 083e 3d09 933e 235d 82be 5043 e53d
00000350: ec49 ddbd d6ef 573e ecad c3bd 80f9 75be
00000360: 9c6d a1bd db0e 5fbe e959 aa3e 0027 68bd
00000370: 6853 3cbd bb9b 71be 5b6f 8ebe 37e9 853e
00000380: 7aad 753e 5680 8ebe 96d2 fcbd 80ff 653d
00000390: f9ca 923e d6bf 15be f47b 8dbd 9b49 4cbe
000003a0: 3d30 a53e 700c 31be a766 a23e 00c1 fc3c
000003b0: 46de 47be 5009 90bc 48fd 3f3d 110e aa3e
000003c0: fb64 90be 7eb6 4cbe ebf8 a7be 00e3 cf3a
000003d0: 20e2 dc3d a0bb d4bd 3052 8ebe 40b3 e9bd
000003e0: 4c80 d9bd ec3f eebd 30f8 bfbd 387d 2fbe
000003f0: a025 fa3d e0a5 383d fc39 8bbd 107d acbd
0.0033962429 -0.1770922 -0.25039423 0.32941428 0.040959477 -0.05024609 -0.29006898 0.19254914
0.16918382 -0.12042098 0.00783816 -0.021906763 0.23806992 -0.30062586 0.012350649 -0.036498636
0.24729249 -0.2756892 0.09161809 -0.23132753 -0.009023309 -0.07411358 -0.2595018 -0.24025206
0.33161512 -0.3122402 0.25602654 -0.31410393 -0.06539503 0.10720706 -0.08946845 -0.1712775
0.24516162 0.08435166 -0.012891442 0.21186319 -0.050193757 0.14526019 -0.18894815 -0.04193434
0.25559452 -0.31679875 -0.16882806 0.122217506 -0.12781362 -0.30713254 0.14215448 -0.25378317
-0.21139777 -0.11725506 -0.20908391 0.19218472 0.26400122 0.2522097 -0.08668113 0.1130127
0.038215876 -0.30884656 0.16529635 -0.091935486 0.0054565966 0.3171691 -0.25527355 0.0616906
-0.28449047 -0.023553401 0.27581313 0.15523612 -0.15559237 0.03275636 0.09988904 -0.29679343
0.2642186 -0.048067003 -0.006672859 -0.3282641 -0.13797717 0.080387324 0.06041172 0.32394502
0.23501733 -0.14343989 0.15737987 -0.20317554 -0.009048849 -0.051404387 0.047834903 -0.25027388
-0.101504296 -0.12100312 0.05344248 -0.29076037 0.31062624 -0.18777916 0.09404531 0.014221668
-0.2469581 0.29956022 0.057046145 0.23891035 0.21479103 -0.088985205 0.24369678 -0.3164819
-0.029248267 0.17322645 0.25774828 -0.14315677 -0.24565034 0.17721751 0.15258884 -0.122326136
-0.23506157 0.29822782 0.019494176 0.1592885 0.08784601 0.014457703 0.2320337 -0.31031868
0.28336564 -0.0996881 -0.26009285 0.016089201 0.22343895 -0.02294311 0.1323547 0.10935724
0.11019647 -0.12689623 -0.077712625 0.009625316 -0.08787072 -0.038537353 -0.18889026 -0.23421192
0.14558697 -0.0702444 -0.075929314 0.30322424 0.0077374876 -0.2604146 -0.33140337 0.11815199
-0.047866613 -0.03256771 -0.18734321 0.1800293 0.21207276 0.30709013 -0.2688694 0.14582825
-0.08432913 -0.2885582 -0.25092888 -0.20765722 -0.0013544858 0.20096663 -0.3144507 0.18839529
-0.23248248 0.08525857 -0.08742754 0.1044215 0.3157775 0.24417701 -0.18394828 -0.31967622
-0.21660051 -0.06146109 0.27898327 -0.0014252663 0.30922928 0.2641895 -0.2308499 0.28958014
0.14832282 0.055705935 0.2854183 -0.28840134 0.21945366 0.32682422 0.1469861 0.07982588
0.006520897 0.06779596 -0.17334084 0.056632876 -0.07618615 -0.14111952 -0.24818997 0.28557155
0.06993401 0.028919607 -0.20221326 -0.18759148 -0.07834372 -0.29997343 0.28474155 0.09049359
-0.16134398 0.14179468 -0.31553853 0.057756275 0.066958785 -0.19408607 -0.060203463 -0.32720023
0.13376853 0.28717986 -0.25461683 0.111944795 -0.10805115 0.21087584 -0.09554657 -0.24020958
-0.078822345 -0.2178301 0.3327172 -0.05667782 -0.04597798 -0.23594563 -0.27819332 0.2615449
0.23991957 -0.27832288 -0.123448536 0.056151867 0.2867048 -0.14623961 -0.06908408 -0.19949953
0.32263365 -0.17289901 0.31718943 0.030853748 -0.19518384 -0.017582566 0.046872407 0.33213857
-0.28202042 -0.1999149 -0.32807097 0.0015860498 0.107853174 -0.10387349 -0.2779708 -0.11411142
-0.10620174 -0.11633286 -0.0937351 -0.17137611 0.12214208 0.045080066 -0.06798169 -0.08422291

bias f4 [32]
00000000: 0ff8 94be e01e 51be b045 9cbc b862 4bbd
00000010: 4064 afbd d6be 3dbe 2290 8ebe e578 913e
00000020: e2f1 553e a027 7bbe 6af3 4d3e d019 d3bd
00000030: bed9 4bbe e9ca 8d3e 1a75 203e a099 72be
00000040: 9b71 893e 9a96 2c3e abe0 61be 0832 6abd
00000050: 1050 943c cb6a 72be d096 f7bd 9eef 16be
00000060: a0d4 71bd 0e58 17be c691 303e b8bc 67bd
00000070: 8662 81be 582e 2d3d f017 bfbc 3ad7 473e
-0.29095504 -0.20421934 -0.019076198 -0.049654692 -0.08564043 -0.1852983 -0.2784434 0.28412548
0.20893052 -0.24526834 0.20112386 -0.10307658 -0.19907281 0.2769387 0.1566967 -0.23691416
0.26844487 0.16854325 -0.2205836 -0.05717662 0.018104583 -0.23673551 -0.12089312 -0.14739844
-0.059040666 -0.14779684 0.17243108 -0.05657646 -0.2527048 0.042280525 -0.023326844 0.19515696

weight f4 [1, 32]
00000000: 53d9 2ebe f911 253e 0faa 33be 9a9f cc3d
00000010: 3dab 1cbe 23ec fdbd 4f0e b9bd 661f c33d
00000020: 5e4e 80bd f2bd ffbd d7ec 0b3e c55f cebd
00000030: 4c39 4b3d 6414 213d b88a 19bd d17d 0d3e
00000040: 5672 ec3d 1965 293e 8120 a2bd 9a22 14be
00000050: abe0 cbbd 20d4 3ebd f67e db3d 6b19 a5bd
00000060: f407 9ebd a4fd 733d c052 17be a031 7c3d
00000070: a266 ec3d 4abc ef3d 7c67 07be 269e 9a3d
-0.1707509 0.16120137 -0.17545341 0.09991379 -0.15299697 -0.12398555 -0.09035932 0.09527473
-0.06264947 -0.12487401 0.13664566 -0.1007686 0.04961519 0.039326087 -0.037485808 0.13817526
0.11545245 0.16542472 -0.07916356 -0.14466324 -0.099549614 -0.046589017 0.10717575 -0.08061489
-0.07716361 0.059568062 -0.1477766 0.061570764 0.11543013 0.11705835 -0.1322307 0.07549696

weight f4 [32, 32, 3, 3]
00000000: 16c8 44bd c0ad 14ba 8742 233d d14c 063d
00000010: d8fe be3b d553 4ebd 6d9c 333d 5cc9 a5bc
00000020: f3f3 223d d194 6f3d a33a 713d 8eef 89bc
00000030: a108 273d f701 37bd 58cc bdbc 3670 b33c
00000040: d48d 69bd c4d1 07bd 8694 a73c 2b60 6f3d
00000050: 7058 2ebc 6cc4 2f3c e4cb 613c 3c64 e6bc
00000060: 7104 503d de36 63bd 4ac0 cabc bcf8 3abd
00000070: 9407 35bc 80c6 9439 4ebe 853c 488d ef3b
00000080: 90ca 6fbd c09e 42ba cde4 5a3d d66f b33c
00000090: 0004 ffb9 e6ff d63c acea 39bd 0071 473a
000000a0: 8181 223d 144a 693c a83f e0bc 7e35 8bbc
000000b0: e0f0 ad3a 6c56 12bd 08ac 36bc 5542 713d
000000c0: 1c83 7e3c 00f0 eb39 d335 2a3d 4511 fcbc
000000d0: dc2e 27bd 1df7 70bd b818 993b c46c 6c3c
000000e0: c6f3 62bd 06af d6bc 0080 36b8 6300 5d3d
000000f0: 1f30 3e3d 5c20 66bd 44ba 1d3c 7e51 c43c
00000100: ce44 d53c 787e 9e3b 6dc7 19bd 0f0c 383d
00000110: 3668 28bd 8427 aabc 18b0 5fbc aad1 c33c
00000120: 07ec 70bd fe7c ef3c 529b 2dbd 012d 1e3d
00000130: 3a23 ea3c 45ed 463d 1459 293c 70d0 d3bc
00000140: a085 0fbc bd3c 5cbd dac9 923c 758e 4a3d
00000150: a029 97ba 283d da3b 4997 4d3d e2a3 983c
00000160: 282c f83b 2ace 49bd c4e3 72bc 4d6a 0d3d
00000170: eaaf 4abd 0066 e839 b085 7fbc 43a7 70bd
00000180: bc8d 0ebd 83f1 6b3d 5a6e 19bd a5fd 003d
00000190: 6ab4 ec3c 58d4 b2bb 047e 62bc b417 343c
000001a0: 8893 1fbc 9069 4c3b ae93 c43c 5344 483d
000001b0: e68d ae3c 10a3 6b3b e188 033d 8a6d f93c
000001c0: 7b51 3a3d 0053 cdba 832c 62bd fcb1 5ebd
000001d0: 9800 de3b 2729 20bd 58bc 923b 4763 2b3d
000001e0: 6b0e 37bd bab8 c9bc 8020 4fbd c646 c5bc
000001f0: d4b2 04bc 5579 68bd ed8f 193d 2079 45bd
00000200: b268 aebc 90ea 62bd 2488 a2bc b86a 42bc
00000210: b114 213d 0adc bc3c 668c 82bc 44f2 a4bc
00000220: 2f36 71bd 4013 1ebc d03c 28bd 3574 f0bc
00000230: f098 0abc 547e 58bd c439 523c a041 1bbc
00000240: aed3 d63c 7681 55bd cdb3 223d c13b 06bd
00000250: cb7a 603d cc97 33bd eed7 c1bc 7676 9a3c
00000260: 20c9 48bd aaca fb3c 12da 51bd 84ff 45bd
00000270: 3fc9 66bd 3806 03bd 49a9 3c3d 833d 403d
00000280: 92a6 4abd da9d 2abd 84a1 05bd 8bac 063d
00000290: 3876 15bc 77fd 063d 40a4 3cbd 0d93 51bd
000002a0: 46f0 68bd 4268 f73c 8059 b6b9 f4f9 4dbd
000002b0: 9d8d 3cbd e42e 4bbc aadd 893c e5e8 2abd
000002c0: 075d 433d 36e2 913c 1cf4 0c3c 7848 b0bc
000002d0: 2312 423d bfdd 2fbd 7ef0 e63c 000e b33a
000002e0: 7af4 b9bc b054 56bb f0ff abbc b622 40bd
000002f0: 0050 353a 4fe1 5e3d 83a4 233d bdd2 643d
00000300: ca72 f83c 441f 23bd 2455 80bc 1d5e 1b3d
00000310: 661d 1ebd 7014 16bb 28b8 973b ac2a 033c
00000320: 63eb 473d d81e ccbb 779b 22bd 9a83 b63c
00000330: 2049 97bb 60e5 65bd f8fe 49bd 109d a4bc
00000340: 000d b33a 53f6 333d 485b b13b 00e8 fbb9
00000350: d138 6b3d 6a48 a73c 45ab e7bc 7b0d 3cbd
00000360: ef2d 0e3d ea7a b93c 173e 60bd 5b32 333d
00000370: 6eaa 903c b593 633d 6e1d cebc f8d1 d53b
00000380: bcc3 4e3c 48f7 cf3b fcd9 5f3c 0057 113b
00000390: a92b 53bd a039 22bc 8d18 f1bc 595b e4bc
000003a0: 23f0 0d3d 68c4 90bb dbe6 083d a1de 003d
000003b0: 1037 09bc e004 e43a 76ae 89bc 1636 53bd
000003c0: 019b fbbc 10f7 24bd 907d 51bb 2644 4bbd
000003d0: cd18 173d 42ac d13c b8ef 21bd c891 37bd
000003e0: 13ed 6dbd 008a 43b9 2850 bf3b 5c92 2bbd
000003f0: c9e2 313d 2692 30bd ce24 c7bc f27f 9e3c
-0.04804238 -0.0005671643 0.039858367 0.0327881 0.0058287196 -0.050372917 0.04385035 -0.020237617
0.03978343 0.05849153 0.05889381 -0.016837861 0.040779714 -0.04467961 -0.023168728 0.021904092
-0.057020023 -0.033159032 0.020456564 0.058441322 -0.010641202 0.010727983 0.0137815215 -0.028123967
0.050785486 -0.055472247 -0.024749894 -0.045647368 -0.01104917 0.00028376654 0.016326096 0.007310543
-0.058542788 -0.0007424168 0.053440858 0.021903913 -0.0004864037 0.026245069 -0.045389816 0.0007608086
0.039674286 0.014238853 -0.027374104 -0.01699328 0.0013270639 -0.03572695 -0.011149414 0.05890115
0.015534189 0.00045001507 0.041555237 -0.030769954 -0.040816173 -0.058829416 0.004672136 0.014430229
-0.05540826 -0.026206505 -4.351139e-05 0.053955447 0.04643261 -0.056183204 0.009626929 0.02396464
0.026033785 0.0048368536 -0.037543703 0.044933375 -0.04111501 -0.020770796 -0.013652824 0.023903687
-0.058818843 0.029234406 -0.042384453 0.038617138 0.02858125 0.04856612 0.010336179 -0.025856227
-0.008759886 -0.053768862 0.017918516 0.049452264 -0.0011532791 0.0066601224 0.050193105 0.018632833
0.007573623 -0.04926888 -0.014824811 0.034525204 -0.04948417 0.00044326484 -0.015595838 -0.058753263
-0.034803137 0.05760337 -0.037458755 0.031491894 0.028894622 -0.0054574423 -0.01382399 0.010991979
-0.009739764 0.003119085 0.0239962 0.048893284 0.021307897 0.0035955347 0.03211296 0.03044774
0.045487862 -0.0015664995 -0.05521823 -0.054368958 0.006774973 -0.039101746 0.0044780187 0.041842725
-0.044691484 -0.024624217 -0.050568104 -0.024081599 -0.008099277 -0.056756336 0.037490774 -0.048211217
-0.021290157 -0.055399477 -0.019840308 -0.011866264 0.039326373 0.023054142 -0.015936088 -0.020135053
-0.058889564 -0.009648144 -0.04107362 -0.029352287 -0.008459315 -0.05285485 0.012831155 -0.009476095
0.026223984 -0.052125417 0.039722253 -0.03277183 0.054804605 -0.043845937 -0.023662534 0.018855315
-0.049019933 0.030736286 -0.05123336 -0.04833938 -0.056344267 -0.031988353 0.04605988 0.046933662
-0.04947526 -0.041654445 -0.032624736 0.032879394 -0.009122424 0.032956567 -0.04605508 -0.05116563
-0.056869768 0.030201081 -0.00034780428 -0.050287202 -0.04603349 -0.012401316 0.01682933 -0.04172601
0.04769614 0.017808061 0.008603122 -0.02151893 0.047380578 -0.042936083 0.028190847 0.0013660789
-0.022699583 -0.0032704286 -0.020996064 -0.046908103 0.0006916523 0.05441409 0.039951812 0.05586504
0.030328173 -0.03982474 -0.015665598 0.03793155 -0.038602255 -0.0022900365 0.0046301074 0.008005779
0.048808467 -0.006229263 -0.039699044 0.02227955 -0.0046168715 -0.056126952 -0.049315423 -0.020094424
0.001366049 0.043936085 0.005412493 -0.00048047304 0.05742723 0.020420272 -0.02827991 -0.045911293
0.034711774 0.022641618 -0.054746713 0.043749195 0.017659392 0.055560786 -0.025160518 0.0065252744
0.012619909 0.006346617 0.013662811 0.00221771 -0.05155531 -0.009901434 -0.029430652 -0.02787559
0.03465284 -0.0044179447 0.033423286 0.031462315 -0.008374944 0.0017396472 -0.016806822 -0.051565252
-0.03071356 -0.04027468 -0.003196571 -0.04962554 0.036888886 0.025594834 -0.039535254 -0.044816762
-0.05808742 -0.00018648058 0.005838413 -0.041887626 0.04342917 -0.043108128 -0.024309542 0.019348118

bias f4 [32]
00000000: 16d1 823c e8ff d4bb f0c8 66bd e9ca 293d
00000010: 5c1b 40bd f8e7 54bd 4293 c23c 586f fc3b
00000020: f010 c1bc 128f eb3c 9ef1 a3bc 5858 bb3b
00000030: e860 f0bb 8e8b ff3c 08c7 13bd b8de c3bb
00000040: 9afa 61bd 680c aebc f6ad babc 8074 283a
00000050: 4530 033d 145c 9ebc 5470 013c 9208 98bc
00000060: 459a 303d 342b 02bc e834 983b f235 ddbc
00000070: 01bf 68bd b19a 1c3d 1e52 e63c c3e6 133d
0.01596884 -0.006500233 -0.056343973 0.041453276 -0.046901092 -0.051979035 0.023751859 0.007703703
-0.023567647 0.028754745 -0.020012673 0.0057173185 -0.007335771 0.031194475 -0.036078483 -0.005977478
-0.055170633 -0.02124615 -0.02278803 0.0006426051 0.032028455 -0.019331016 0.007900316 -0.018558774
0.043115873 -0.007944871 0.004644979 -0.027003262 -0.05682278 0.038233463 0.028115328 0.036108743

weight f4 [32, 32, 3, 3]
00000000: 2e7e 5abd 2c6d 413c 9e6e 42bd 5629 57bd
00000010: e134 1d3d 8290 b23c 2cb9 5c3c 7771 1d3d
00000020: 6e0e 04bd e46c 4c3c 9224 20bd 9558 513d
00000030: f08f 2abd c1fb 183d 1440 5ebc 0431 683c
00000040: dd97 063d 1738 f0bc b4cc 7c3c 168c 45bd
00000050: 9a3e 08bd 1331 413d 3929 093d 5cfc f1bc
00000060: 3acb 8e3c f39e 113d 6610 db3c b033 eabc
00000070: ada5 70bd 9377 4a3d 8f49 493d 8294 32bd
00000080: e2f1 ee3c af3f 2b3d 6064 2cbd 5451 53bc
00000090: 0aad c93c 5e29 bdbc e2b9 8cbc c24a c03c
000000a0: 81cd f3bc 1213 9c3c 20b2 b7bb 9bb0 23bd
000000b0: 05c4 153d 244a 1abd 0acf 87bc 27b8 02bd
000000c0: 20f7 603b a6e1 12bd f8c3 53bd 836a 243d
000000d0: e85d f0bb 26df 97bc a45e 3abc f515 3f3d
000000e0: da94 0ebd f14f 43bd a807 41bc 2c38 5d3c
000000f0: b81e a7bb 4077 633a 808d a03a 1ea6 15bd
00000100: 90c0 5c3b 6381 46bd 2101 2a3d 8127 383d
00000110: a242 ee3c 7344 663d 60be 8eba b693 fb3c
00000120: 2051 123b 7c05 1cbc 9824 fb3b de45 a13c
00000130: 4560 603d a488 59bc 5dbb 3a3d a4a0 1dbc
00000140: 4046 063b 0457 113c d4de 04bd 926b eebc
00000150: b35e 633d c033 b9ba 774c 6b3d 1e92 10bd
00000160: bc25 58bc c6c1 abbc 33f5 453d 72ad 14bd
00000170: 7541 64bd 6c44 393c 5ba3 683d 48ba 02bc
00000180: 169a 2fbd 17e8 493d 3c54 4fbc 004e 0539
00000190: 5291 c63c c221 b0bc 800a d43a 48cb 07bc
000001a0: 139e 293d ccec 513c 26a5 82bc 000a d038
000001b0: 349d 483c 224e bc3c 9bbe 663d f882 81bc
000001c0: 345f 6f3c d086 5cbc dc75 cebc 53ec 2f3d
000001d0: 7095 3d3b 969c a8bc db1e 4f3d be9a d2bc
000001e0: 2771 3cbd baf6 9bbc e8ec 45bd 12e1 cbbc
000001f0: cdbf 023d a785 5e3d ac66 77bc 6e70 2bbd
00000200: 2b5b 513d 32bd ab3c 76bf 89bc c601 953c
00000210: f333 4b3d 1831 11bc 1442 6d3c 5477 3bbd
00000220: 721f 90bc ea2d 8bbc b806 cb3b 2f2c 113d
00000230: d08d 373b 485b dd3b 6ad3 ee3c 782c 12bd
00000240: 7a6d f23c ac25 a3bc e066 d3ba c429 30bc
00000250: dc01 9cbc f638 d43c 9812 b5bc aade bb3c
00000260: 5049 bdbb c7f6 573d 51d0 633d 4601 abbc
00000270: 708f 5abc 76c3 963c 0a10 dcbc c07b 7ebb
00000280: 2c35 053c 3d06 3b3d fe28 02bd c9bc 4a3d
00000290: eeb9 e13c e9c1 403d 8063 5b3a 93bc 41bd
000002a0: 9a3d b2bc 7812 0dbd 6d37 543d e081 97bb
000002b0: 12af e13c b85d de3b 5fef 04bd 00cf 77bb
000002c0: ee86 fdbc 9c5e 94bc ab59 6b3d dc3e 243c
000002d0: bbe3 1a3d 65d5 4e3d 1b65 3a3d 5a4c d1bc
000002e0: 7408 323c 448f 24bd aa23 b6bc 00f3 acba
000002f0: e507 473d 47af 33bd b25c b83c 20b7 23bd
00000300: 30ee 59bc 57d0 123d ec20 3bbc c0d3 8eba
00000310: cde2 0d3d bdeb 0a3d 30ee 063b 39b1 363d
00000320: 3c82 0d3c f960 653d 5184 493d 319f 153d
00000330: bc6b 72bc 4010 3e3b 752f 163d a9f7 163d
00000340: 9c0c 8bbc b08b 52bb 2fbf 363d b79c 4bbd
00000350: 6ab1 ccbc bb83 493d 90c2 49bc 325a bb3c
00000360: 576f 543d c0c5 de3a 3444 513c d275 11bd
00000370: 1ace 4ebd d91b 3e3d 291e 2e3d bae4 cd3c
00000380: 9090 dfbb 7870 74bc d81d 5dbc 6044 24bc
00000390: 3a76 993c 38da 67bc 9399 0e3d 646b d7bc
000003a0: 6d7d 2a3d d8f4 c7bc 1c16 1ebc 8c28 34bd
000003b0: 00d2 ed38 e403 d8bc ce40 9e3c e61c 16bd
000003c0: 28b2 81bc 8a1b 61bd c5ea 493d 003a 04bd
000003d0: 8090 98bc a04b d73a aa8c be3c 10c5 633b
000003e0: 7258 38bd 624d 2bbd 950c 593d bdff 643d
000003f0: 225d 993c 79d1 2c3d edf7 303d b282 85bc
-0.05334299 0.011805814 -0.047468774 -0.052529655 0.038380507 0.021797422 0.013471883 0.038438287
-0.032240324 0.012477133 -0.039097376 0.05110987 -0.041641176 0.037349466 -0.013565082 0.0141718425
0.03285967 -0.02932362 0.015429664 -0.0482293 -0.033262827 0.04716594 0.03348658 -0.02953928
0.01743089 0.035551976 0.026741218 -0.0285891 -0.05875175 0.04943044 0.049142417 -0.04359866
0.029168073 0.04180878 -0.042087913 -0.012897808 0.024618644 -0.023091014 -0.01717848 0.023473147
-0.029761078 0.019052062 -0.005605951 -0.039963346 0.036563892 -0.037668362 -0.016578216 -0.031913903
0.0034326985 -0.035859726 -0.051700562 0.04014064 -0.0073354132 -0.018539023 -0.011375103 0.0466518
-0.034809925 -0.04768366 -0.011781611 0.013502162 -0.0051000975 0.00086771324 0.0012249202 -0.036535375
0.0033684112 -0.048463237 0.041504983 0.04495955 0.029084507 0.056217622 -0.0010890476 0.030710083
0.0022326186 -0.009522792 0.0076642744 0.019686636 0.05477931 -0.013277207 0.04558884 -0.009620819
0.002048865 0.008870844 -0.032439068 -0.029104028 0.055510234 -0.0014129803 0.05744597 -0.0352956
-0.01319259 -0.020966422 0.048329543 -0.036298223 -0.055726487 0.011307817 0.056796413 -0.007978983
-0.042871557 0.049293604 -0.01265436 0.00012712926 0.024239216 -0.021500472 0.0016177446 -0.008288212
0.041410517 0.012812804 -0.01594789 9.9200755e-05 0.012244511 0.022986475 0.05633412 -0.015809521
0.014610101 -0.013459876 -0.025202684 0.042949986 0.0028928183 -0.020582478 0.050566535 -0.025708552
-0.046006348 -0.019038547 -0.048321635 -0.024887595 0.031921197 0.05432668 -0.0151001625 -0.04185527
0.051112335 0.020964239 -0.016814929 0.018189322 0.04961009 -0.0088618025 0.014481086 -0.045768097
-0.01759312 -0.016989667 0.0061958693 0.035442527 0.002800811 0.0067552663 0.029153544 -0.03568694
0.029593218 -0.019915424 -0.0016128682 -0.010752145 -0.019043855 0.025906067 -0.022103593 0.022933323
-0.005776562 0.05272558 0.055618588 -0.02087463 -0.013339862 0.01840375 -0.026863117 -0.0038831085
0.008130353 0.045660246 -0.031777374 0.049496446 0.027554478 0.047059927 0.00083690137 -0.04729898
-0.02175789 -0.03444144 0.05181067 -0.0046236366 0.0275493 0.0067860745 -0.032454845 -0.003781259
-0.030948129 -0.01811152 0.05745856 0.0100247525 0.037814837 0.050496478 0.045506578 -0.025549103
0.010866273 -0.04017569 -0.022233803 -0.0013194978 0.048591513 -0.04386833 0.022505138 -0.039969563
-0.013301417 0.03584322 -0.011421423 -0.0010896847 0.034640122 0.033916224 0.0020588748 0.044602606
0.008637007 0.056000683 0.049198452 0.03652877 -0.014796194 0.0029001385 0.036666352 0.03685728
-0.016973786 -0.0032126717 0.04461592 -0.04971 -0.024986941 0.049197894 -0.012314454 0.022870157
0.051863994 0.001699619 0.012772609 -0.035512753 -0.050489523 0.046413276 0.04250923 0.02513348
-0.006822653 -0.014919393 -0.013495885 -0.0100260675 0.018733133 -0.0141511485 0.03481443 -0.026296325
0.04162352 -0.024408743 -0.009648826 -0.04398398 0.00011340156 -0.026369043 0.01931801 -0.036648653
-0.015832022 -0.054957904 0.04929616 -0.032281876 -0.01862359 0.0016425736 0.023260433 0.003475491
-0.045006223 -0.041821845 0.052990515 0.055907954 0.018721167 0.042191956 0.04320519 -0.016297672

bias f4 [32]
00000000: f503 233d 6c95 3dbd 48a1 bbbc 6849 5abd
00000010: a0f4 c6ba 80b7 8ebb 1c62 773c 3381 4f3d
00000020: 18fa 07bc 7823 dd3b 0b99 373d 9875 43bd
00000030: f2e9 d4bc 9a9f 40bd 548a 6f3c a299 d93c
00000040: b5c4 3b3d 6001 cfba 56dd 90bc 7215 9fbc
00000050: a20f 52bd a1a1 303d 355d 13bd be19 e13c
00000060: f8b4 e8bb 4b3a 093d 4433 55bd efe6 f5bc
00000070: 52ac fdbc 1f1a 6f3d 970f 693d 1995 033d
0.039798696 -0.046285078 -0.022904053 -0.053292662 -0.0015179105 -0.004355371 0.015099075 0.050660323
-0.008299373 0.006748613 0.044823688 -0.047719568 -0.02599046 -0.047027208 0.014620382 0.026562516
0.04584189 -0.0015793256 -0.017683666 -0.019419406 -0.05128444 0.04312289 -0.03597756 0.027478095
-0.0071016513 0.033502858 -0.052050844 -0.030017344 -0.030965958 0.05837452 0.056899633 0.032124612

weight f4 [32]
00000000: 00ee 423f e82f 833e f753 773f fcba 3d3e
00000010: 63c1 1c3f 20a1 823d a491 e53e 906a 163d
00000020: 9c7b 1b3f b4a5 593e 004e db3a 4039 253d
00000030: 3086 343e e2a8 a73e d2e1 3a3f c37e 663f
00000040: 6cde 333f a8aa 8a3d 81ce 7f3f 4fe7 2b3f
00000050: 8b69 2a3f 7e51 7d3f 0572 653f 0c10 fb3e
00000060: 7607 303f 7b88 5d3f 6971 3d3f 4345 703f
00000070: 4428 783f 844b 0b3f b2b8 de3e b81b 503f
0.7614441 0.25622487 0.96612495 0.1852836 0.61232585 0.063783884 0.44837677 0.03672272
0.6073549 0.21254617 0.001673162 0.0403378 0.17629313 0.32746035 0.73000824 0.90037173
0.70261264 0.06770831 0.99924475 0.67149824 0.66567296 0.9895247 0.89627105 0.4903568
0.68761384 0.8653638 0.74001175 0.93855685 0.9693644 0.544121 0.43500286 0.81292295

bias f4 [32]
00000000: 0000 0000 0000 0000 0000 0000 0000 0000
00000010: 0000 0000 0000 0000 0000 0000 0000 0000
00000020: 0000 0000 0000 0000 0000 0000 0000 0000
00000030: 0000 0000 0000 0000 0000 0000 0000 0000
00000040: 0000 0000 0000 0000 0000 0000 0000 0000
00000050: 0000 0000 0000 0000 0000 0000 0000 0000
00000060: 0000 0000 0000 0000 0000 0000 0000 0000
00000070: 0000 0000 0000 0000 0000 0000 0000 0000
0.0 0.0 0.0 0.0 0.0 0.0 0.0 0.0
0.0 0.0 0.0 0.0 0.0 0.0 0.0 0.0
0.0 0.0 0.0 0.0 0.0 0.0 0.0 0.0
0.0 0.0 0.0 0.0 0.0 0.0 0.0 0.0

running_mean f4 [32]
00000000: 285a 1abe 579a 1c3d c22b 0fbd 1414 833d
00000010: ed94 41be c268 55be dd1e 2f3e f0f9 d43d
00000020: 6120 1f3d d101 283c 45ea 8ebb 2363 f13d
00000030: 051a 84bc c58c ec3c d668 c5bd 6ef6 16bc
00000040: 3cc6 0dbe 88ac e1bd fc80 77bd 6ad5 e0bc
00000050: d529 303e fcaf 15bd 8bb8 943d e31a 9b3d
00000060: df46 673c 784a 293d b7b8 1bbd 2098 0d3e
00000070: e50d 3dbe f272 773d 3c56 303e 1029 b9bd
-0.15073454 0.038233127 -0.03495384 0.06400314 -0.18904467 -0.20840743 0.17101617 0.10399234
0.03884924 0.010254339 -0.004361423 0.11786487 -0.016125688 0.028875718 -0.096391365 -0.009214027
-0.13845152 -0.11019236 -0.060425743 -0.027445514 0.17203458 -0.036544785 0.07261761 0.075734876
0.014116018 0.041330785 -0.038017955 0.13827562 -0.18462332 0.060412355 0.17220396 -0.09041035

running_var f4 [32]
00000000: 6790 e63c 8679 8d3c ee95 cb3c 6170 ec3c
00000010: 44b7 303c 019a 3d3d 7a74 843c e11c d83c
00000020: 8e2d 0f3d 302c f13c 3218 3b3d b1ee aa3c
00000030: 42ed 833c 7ce0 d63c d336 a73c 7995 043d
00000040: 14a2 4a3d 5953 a93c 8b69 543c 301d d63c
00000050: 7a71 683c b08e 7b3c 8cb2 e83c 1a10 b43c
00000060: e4e5 9d3c 5771 af3c 598a 843c 385e 093d
00000070: 9656 163d 4edd e13c 3a30 9e3c 22f1 963c
0.028145028 0.017269861 0.024851765 0.02886218 0.010785881 0.046289448 0.016168822 0.026380958
0.034955554 0.029440016 0.04567737 0.02086577 0.016104344 0.02623009 0.020411884 0.03236911
0.049470976 0.020669626 0.0129646165 0.026136965 0.014187211 0.015353844 0.02840545 0.021980334
0.01927466 0.02141635 0.01617925 0.03353712 0.03670367 0.027571347 0.019310106 0.018425528

weight f4 [32]
00000000: e588 4e3f a2a0 fe3e 3c33 f23e 0d3b 313f
00000010: 00cc a83c 3025 613e 20fa cb3e 055e 7b3f
00000020: 1f65 473f 1627 ec3e d227 283f 3047 b43d
00000030: 5b48 7e3f a075 b33c 0c1c 5f3e f96d 073f
00000040: e288 003f f4ac 133e 2090 e03e 5615 c63e
00000050: dcb1 843e 3095 a03d 0cfb 423e c847 5c3e
00000060: 60c0 0a3f 3e46 a73e fa12 e33e ac39 593f
00000070: f1fb 763f ce58 803e 5295 3b3f 8038 a53b
0.80677634 0.49731928 0.47304714 0.6923073 0.020605087 0.21986842 0.39839268 0.9819034
0.77888674 0.4612357 0.6568576 0.088026404 0.99329156 0.021906674 0.21788043 0.5290218
0.50208867 0.14421445 0.4385996 0.38688153 0.25916946 0.07840955 0.1904108 0.21511757
0.5419979 0.32670778 0.44350415 0.84853625 0.9647818 0.25067753 0.7327472 0.0050421357

bias f4 [32]
00000000: 0000 0000 0000 0000 0000 0000 0000 0000
00000010: 0000 0000 0000 0000 0000 0000 0000 0000
00000020: 0000 0000 0000 0000 0000 0000 0000 0000
00000030: 0000 0000 0000 0000 0000 0000 0000 0000
00000040: 0000 0000 0000 0000 0000 0000 0000 0000
00000050: 0000 0000 0000 0000 0000 0000 0000 0000
00000060: 0000 0000 0000 0000 0000 0000 0000 0000
00000070: 0000 0000 0000 0000 0000 0000 0000 0000
0.0 0.0 0.0 0.0 0.0 0.0 0.0 0.0
0.0 0.0 0.0 0.0 0.0 0.0 0.0 0.0
0.0 0.0 0.0 0.0 0.0 0.0 0.0 0.0
0.0 0.0 0.0 0.0 0.0 0.0 0.0 0.0

running_mean f4 [32]
00000000: 8de9 363e 040e babd ec53 f43d aea8 79be
00000010: 01b8 b3bd f00b 03be 151a 133e 6189 71bc
00000020: 9304 f2bd b13a c5bb afe7 b0bc ea29 38bd
00000030: 3163 d3bd 0df2 a2bd a428 ec3b b050 46bd
00000040: 6296 183e 7f33 98bd a1ef 833d 608b c93b
00000050: 463d 25be d47a 633d 4e4e 06be 5ea0 b53d
00000060: f4ce 1c3d 1876 b9bd c9ef c2bd e3f3 be39
00000070: 53f5 33be a72e 16be d935 f83c 91de fb3d
0.1786253 -0.090847045 0.11930069 -0.24380752 -0.0877533 -0.12797523 0.14365418 -0.014742226
-0.11817279 -0.0060189595 -0.02159485 -0.044961847 -0.10321654 -0.07956324 0.007206993 -0.048416793
0.14901116 -0.07431697 0.0644219 0.006150648 -0.16136655 0.05553706 -0.13115808 0.08868478
0.038283303 -0.09055728 -0.09518392 0.00036421334 -0.17574053 -0.14666234 0.030299114 0.122983105

running_var f4 [32]
00000000: 8aba 373d e51c 3d3d 6144 673d 73b6 143d
00000010: 6c7c 6a3c f52e a63c 55c4 f03c 7aff 3f3d
00000020: af5b 9c3c 286f 243d ba14 0b3d 0a91 cc3c
00000030: 1943 0f3d 00dc f83c fa51 833c 5005 223d
00000040: 5120 493d 44fb b73c 0f28 393d dc18 963c
00000050: 310a 1d3d 62b3 2f3d 5921 dd3c 596a f83c
00000060: d4d1 003d d4f1 333d 6c1e 313d eafb 0c3d
00000070: 38af 723d 36ae f33c a20a 183d 6562 533d
0.044855632 0.046170134 0.056461696 0.03630681 0.014311891 0.020286063 0.029390493 0.0468745
0.019086687 0.04014507 0.033955313 0.024971504 0.0349761 0.030378342 0.0160303 0.039555848
0.049103085 0.02245868 0.04520422 0.0183224 0.038339797 0.042895682 0.02699344 0.030324148
0.031450108 0.043931797 0.043241903 0.03441993 0.059249133 0.029746156 0.037119515 0.05160751
