models/5_cross_5_iter_60.pt (torch_old, 339781 bytes, 66 tensors)

weight f4 [32, 3, 3, 3]
0	0xbe92fa75	-0.2870671
1	0xbec0cfc5	-0.37658516
2	0x3e0c41a1	0.1369691
3	0xbe805303	-0.25063333
4	0xbd08ea93	-0.033426832
5	0xbd934bba	-0.07192178
6	0xbd5a17ca	-0.053245343
7	0xbb28ccb0	-0.002575677
8	0x3c8d6025	0.01725776
9	0x3e9fc1e3	0.3120261
10	0x3efeaddc	0.4974202
11	0xbdcb291a	-0.09919949
12	0x3de278cf	0.11058199
13	0xbeb88f19	-0.36046675
14	0x3e99ae78	0.30015922
15	0x3e078aaa	0.1323649
16	0x3e0c75b8	0.13716781
17	0x3e84a43d	0.25906554
18	0x3e802ff3	0.25036582
19	0x3d7462ff	0.059664723
20	0x3c01eb4c	0.007929634
21	0x3e56019f	0.20899056
22	0x3da12cbf	0.07869863
23	0xbd0d6d6c	-0.03452818
24	0x3e0ed48d	0.13948269
25	0x3df6af72	0.12045182
26	0x3e4768e7	0.19473611
27	0x3f9fed27	1.2494248
28	0xbe61f134	-0.22064668
29	0xbfa4a88d	-1.2863938
30	0x3d51bafd	0.051203717
31	0x3f74d0b5	0.9563096
32	0xbea97c4a	-0.33102638
33	0xbe3f17bd	-0.18661399
34	0x3f90ba9c	1.1306949
35	0xbf3bd032	-0.73364556
36	0xbfd1bda8	-1.6386003
37	0x3eea7fe5	0.458007
38	0xbf45d716	-0.7728132
39	0x3ec2c50f	0.3804097
40	0x3e730839	0.23733605
41	0x3f85c376	1.0450275
42	0xbddf4e72	-0.10903634
43	0xbf95d18f	-1.1704577
44	0x3e96819a	0.29395753
45	0xbf05fee6	-0.5234207
46	0xbe92bc4a	-0.28659278
47	0xbf03e510	-0.51521397
48	0xbed689cf	-0.41902015
49	0xbf0cb5fe	-0.549652
50	0xbe5d2993	-0.2159789
51	0xbed6ef9c	-0.41979682
52	0xbeaaecef	-0.3338389
53	0xbe860fdf	-0.26183984
54	0x3f66479a	0.89953005
55	0xbfc881bb	-1.5664591
56	0x3f5c704c	0.8610885
57	0xc0014e55	-2.020406
58	0xc0251745	-2.5795453
59	0x3f2656de	0.649763
60	0x3d966055	0.073425926
61	0x4020c9b0	2.51231
62	0x40411a25	3.0172207
63	0x3f226a34	0.63443303
64	0xc0e11bcd	-7.0346437
65	0x3ea70ea0	0.32628345
66	0xc039e063	-2.9043205
67	0xbfa4d433	-1.2877258
68	0x3f8f83f8	1.1212149
69	0x40284414	2.6291552
70	0x3e79c4ab	0.24391429
71	0x4012da27	2.294565
72	0xbe824f4a	-0.25451118
73	0xbe8a82f2	-0.27053028
74	0xbe5e26ff	-0.21694563
75	0xbdc98df1	-0.09841526
76	0xbe0598c3	-0.13046555
77	0xbe7cb69e	-0.24679038
78	0xbe38eb9e	-0.18058631
79	0xbd13d137	-0.036088195
80	0xbe5821c4	-0.2110663
81	0xbdb4c916	-0.088274166
82	0xbec41c93	-0.3830305
83	0x3f1c9486	0.6116413
84	0xbf1094bf	-0.5647697
85	0xbe8f8eb4	-0.2803856
86	0xbeb56c8b	-0.35434374
87	0xbcf95985	-0.030438194
88	0xbf797c11	-0.97454935
89	0x3e93f652	0.28898865
90	0xbf845bba	-1.0340493
91	0x3e0709fd	0.13187404
92	0xbea87285	-0.3289987
93	0x3ecbd312	0.3980947
94	0x3dcb19b2	0.0991701
95	0x3f7954d4	0.9739506
96	0x3dac3c2e	0.08409916
97	0x3c3e190b	0.01160265
98	0xbf585ffd	-0.84521466
99	0xbf09eea4	-0.5387976
100	0xbf5bb866	-0.85828245
101	0xbf06fbe7	-0.5272812
102	0xbf37f9af	-0.7186536
103	0xbf5a49e8	-0.8526902
104	0xbf3f277f	-0.7466964
105	0xbf098c6f	-0.5372991
106	0xbf5bb2c7	-0.8581967
107	0xbf2d187d	-0.6761549
108	0x3eaefe34	0.34178317
109	0x3c4e72da	0.012600625
110	0x3f02f797	0.5115904
111	0x3f83f3d3	1.0308784
112	0x3e18ab8e	0.14909193
113	0xbdb999a7	-0.0906251
114	0x3ded1c0f	0.115776174
115	0x3cd07cd5	0.02545015
116	0x3ebb30f5	0.3656079
117	0x3f04b6bc	0.5184133
118	0xbf81300f	-1.0092791
119	0xbf5ddec7	-0.86668056
120	0xbeb1f5db	-0.34757885
121	0x3fb3d430	1.404913
122	0xbed7e4eb	-0.42166838
123	0x3e46a86b	0.19400184
124	0x3e1d32cc	0.15351409
125	0xbe95bdf9	-0.292465
126	0xbef54fbf	-0.47912404
127	0xbec1ea43	-0.3787404
128	0xbf00e5ae	-0.50350463
129	0xbf084aec	-0.5323932
130	0xbed14891	-0.40875676
131	0xbf07811d	-0.52931386
132	0xbe7f3cba	-0.24925509
133	0xbeed50f6	-0.4635083
134	0xbed11bb6	-0.40841454
135	0x3ec58e1a	0.38584977
136	0x3dc6464c	0.09681377
137	0xbda83064	-0.08212355
138	0x3e86ee9b	0.26353917
139	0x3e3b4479	0.18287839
140	0x3dfd1f3a	0.123594716
141	0x3e83e410	0.25759935
142	0x3ebbd683	0.36687097
143	0x3e79f58a	0.24410072
144	0xbe8e6461	-0.27810958
145	0x3e318908	0.1733743
146	0xbe5ea09a	-0.21740952
147	0xbe996098	-0.29956508
148	0xbe8acd86	-0.27109927
149	0xbe13949c	-0.14412159
150	0xbdf081fb	-0.11743542
151	0xbdd0a5e3	-0.101878904
152	0x3cc18348	0.02362217
153	0xbda8d329	-0.082434006
154	0x3defcb6c	0.117087215
155	0xbe0e6580	-0.13905907
156	0xbda87e0d	-0.08227167
157	0xbe2108fc	-0.15726084
158	0xbe312336	-0.17298588
159	0xbd6b3fba	-0.05743382
160	0xbe01c244	-0.12671763
161	0x3de194da	0.11014719
162	0xbedf8e51	-0.43663266
163	0xbf154d7b	-0.5832135
164	0xbe8f9b57	-0.28048202
165	0xbec150bd	-0.3775691
166	0x3f1c1bb7	0.6097979
167	0xbf50f50d	-0.8162392
168	0x3e8a54a8	0.27017713
169	0xbecaa332	-0.39577633
170	0xbe3c1a01	-0.18369295
171	0xbeaf2359	-0.34206656
172	0x3ea5e547	0.32401487
173	0xbf2e57fc	-0.68103004
174	0xbee07f6b	-0.43847212
175	0xbf5c8c80	-0.86151886
176	0xbee978b5	-0.45599905
177	0xbef2d8fc	-0.4743117
178	0x3e81b4d0	0.2533326
179	0x3f78b021	0.9714375
180	0x3eb63ad8	0.3559177
181	0x3e261f26	0.1622282
182	0x3e3bc0ba	0.18335238
183	0x3e991993	0.29902324
184	0x3e7f6e9d	0.2494454
185	0x3e85851a	0.2607811
186	0x3ec38e7a	0.38194638
187	0x3ed1e60d	0.40995827
188	0x3eb14e17	0.3462989
189	0x3fcf6a06	1.6204231
190	0xbf3e288c	-0.7428062
191	0x3f363aea	0.71183646
192	0xbfd86f7d	-1.6909024
193	0x3fb72d82	1.4310763
194	0x3fa18f31	1.2621824
195	0xbf0f76f5	-0.5604089
196	0x40aaba9d	5.33528
197	0xc0230f78	-2.5478191
198	0x3fd977b1	1.6989652
199	0xbfa5b550	-1.2945957
200	0xbf2d5d25	-0.6772025
201	0x3fa5591d	1.291782
202	0xbe270ab3	-0.16312675
203	0x3f67c1ca	0.90530074
204	0x3ffffeeb	1.999967
205	0x3f7f5897	0.9974455
206	0x3eddde48	0.4333365
207	0xbeca65fa	-0.39530927
208	0xbf18befa	-0.5966641
209	0xbea98e9a	-0.3311661
210	0xbec9fd52	-0.3945108
211	0xbeeedec0	-0.4665432
212	0xbeb82eaa	-0.35973102
213	0xbec30977	-0.3809316
214	0xbf0e5b9f	-0.5560855
215	0xbee18e25	-0.4405376
216	0xbe361043	-0.17779641
217	0x3e98c83c	0.29840267
218	0xbecd41d4	-0.40089285
219	0x3ca981ad	0.020691717
220	0xbe3b1392	-0.18269184
221	0xbe591c09	-0.21202101
222	0xbe6bdda6	-0.23033771
223	0xbe7cc894	-0.2468589
224	0x3e1017db	0.140716
225	0x3dc8ae10	0.09798825
226	0xbea6e48b	-0.3259624
227	0xbd25644d	-0.040378857
228	0xbd48dce1	-0.04903877
229	0xbe36d61f	-0.17855118
230	0xbcc0f6f7	-0.023555262
231	0x3eb90807	0.36138937
232	0xbd833beb	-0.06407913
233	0xbe552f1c	-0.20818752
234	0xbe67b6bc	-0.22628301
235	0xbdfd0715	-0.123548664
236	0xbd5ab34b	-0.053393643
237	0xbe299088	-0.1655904
238	0xbe3b307b	-0.18280213
239	0xbe5934f6	-0.21211609
240	0xbe11059e	-0.14162299
241	0xbd9e2061	-0.077210195
242	0xbd946a6d	-0.072468616
243	0x3e277de9	0.16356625
244	0xbec034de	-0.37540334
245	0xbdf1e484	-0.11811164
246	0x3ed921a9	0.42408493
247	0x3cf515c0	0.029917598
248	0x3e63b2d1	0.22236182
249	0x3f775452	0.9661304
250	0xbe521d0c	-0.20518893
251	0x3e14bbfd	0.14524837
252	0xbd3c8dfd	-0.046033848
253	0xbe8f5fcc	-0.28002775
254	0x3eadf5ac	0.33976495
255	0x3e42226f	0.18958448

bias f4 [32]
0	0x3cbca3fa	0.023027409
1	0xbdabe512	-0.08393301
2	0xbda253b1	-0.07926119
3	0x3d7bb56e	0.06145232
4	0xbe28ed45	-0.16496761
5	0xbc9e1756	-0.019298237
6	0x3e0015f6	0.12508377
7	0x3e267fb3	0.16259651
8	0x3da60eff	0.08108329
9	0x3d37025f	0.044679996
10	0x3d5727dc	0.052528247
11	0x3e2b4b9a	0.16728058
12	0x3ca9de79	0.020735966
13	0xbdfa8cd9	-0.12233896
14	0x3e211f60	0.15734625
15	0x3e02196c	0.1270501
16	0xbdd06f3b	-0.101774655
17	0x3c118d38	0.008883767
18	0xbe11ffb6	-0.14257702
19	0xbe24a2fe	-0.16077802
20	0x3d00e4db	0.031468254
21	0x3dc3cda5	0.09560708
22	0xbd0eafca	-0.034835614
23	0xbdd6ae84	-0.10482505
24	0x3dc0d0db	0.09414836
25	0x3d086873	0.033302736
26	0xbd836f3c	-0.06417701
27	0x3de7f9e7	0.11326962
28	0xbca6e5f5	-0.020373324
29	0x3d05fdd7	0.032712784
30	0xbdf94d95	-0.12173001
31	0xbda43b5b	-0.08019134

weight f4 [32]
0	0x3d8f04c1	0.069833286
1	0x3eaf862d	0.34282055
2	0x4055150b	3.3294094
3	0x3f2fd153	0.6867878
4	0x3e23cfc6	0.15997228
5	0xbdda6f31	-0.10665739
6	0x3d0a9e85	0.033842582
7	0xc082f225	-4.0920587
8	0x3d8fd8ca	0.07023771
9	0x3dca2b12	0.09871496
10	0x40a77e30	5.2341537
11	0x40e22277	7.066707
12	0xc04450f4	-3.067441
13	0x404630e2	3.0967336
14	0x402aeb67	2.6706178
15	0xbd5661f8	-0.052339524
16	0x3bf80880	0.0075693727
17	0x4005ca13	2.0904586
18	0x3e75deb1	0.24010731
19	0x4006b3fa	2.104735
20	0x3d0a254f	0.033726986
21	0x40b47cee	5.64025
22	0xbdfedda1	-0.12444616
23	0xc0b5d9dc	-5.682844
24	0x40dded15	6.9351907
25	0x3f983513	1.1891197
26	0x40c3608c	6.1055355
27	0x407c8689	3.9457114
28	0x3e2ac3dd	0.16676278
29	0x403c3d55	2.9412434
30	0x3fff1a24	1.9929852
31	0xbe1c18f0	-0.15243888

bias f4 [32]
0	0xbee700a9	-0.4511769
1	0xbfa95324	-1.3228498
2	0x3ea4deea	0.3220132
3	0x406b685a	3.678244
4	0xbf804b5f	-1.0023001
5	0xbece6b30	-0.40316153
6	0xbed1cdd3	-0.40977344
7	0xc01fc40f	-2.4963415
8	0xbeda2993	-0.42609844
9	0xbf1d6c1a	-0.61493075
10	0xbfbbba60	-1.4666252
11	0x3f49dd69	0.7885347
12	0x3f6d3f52	0.92674744
13	0x3f8bdcdd	1.0926777
14	0x3f651182	0.8947984
15	0xbf41fc65	-0.7577575
16	0xbf108314	-0.5645001
17	0x3e9be47a	0.3044775
18	0xbf41dd33	-0.7572815
19	0xbde32d35	-0.11092607
20	0xbec41157	-0.3829448
21	0xbf91dbbf	-1.1395186
22	0xbeddbc87	-0.43307897
23	0xbfe77cc6	-1.8084953
24	0xc024df98	-2.576147
25	0x3f0f279a	0.559198
26	0xbf47b387	-0.7800831
27	0xbebc43d5	-0.36770502
28	0xbf02c930	-0.5108824
29	0xbe7e428f	-0.24830078
30	0x3e1a1f44	0.1505099
31	0xbf13e984	-0.5777819

running_mean f4 [32]
0	0x3f2645a6	0.64950025
1	0xbfe2087a	-1.7658837
2	0xc03e8169	-2.9766486
3	0xc061974a	-3.524859
4	0xbfc58dee	-1.5433939
5	0xbea43c29	-0.3207715
6	0xba6e304d	-0.0009086177
7	0x3fb10083	1.3828281
8	0xbf738281	-0.9512101
9	0x40554484	3.3323069
10	0x3fe94dad	1.822683
11	0xc0918d62	-4.5485086
12	0xc04eecbd	-3.2331994
13	0x40067da7	2.1014192
14	0x418a0071	17.250216
15	0x3f6485a4	0.8926642
16	0xbfef62da	-1.8702042
17	0x40eb6ab5	7.3567758
18	0x3f6b3060	0.9187069
19	0x40b00bcd	5.5014405
20	0x3f340411	0.70318705
21	0x4052de99	3.2948363
22	0xbea8a33b	-0.32937035
23	0x3fa6ded0	1.3036747
24	0x3edc3fa4	0.43017304
25	0x40794a12	3.895146
26	0xc1010949	-8.064767
27	0xc04f62e7	-3.2404115
28	0x3fa3fb51	1.2811071
29	0x3ff6d7b5	1.9284579
30	0x4040c428	3.0119724
31	0x3d103ad9	0.03521237

running_var f4 [32]
0	0x3ea63aa7	0.32466623
1	0x409b85fe	4.8601065
2	0x417ea82a	15.916056
3	0x3f042d4c	0.5163162
4	0x3f844911	1.0334798
5	0x3e56837e	0.20948598
6	0x3f9a838e	1.2071397
7	0x4113beb9	9.234063
8	0x3e60c8f5	0.21951659
9	0x3f32072b	0.6954219
10	0x41276920	10.463165
11	0x41c9fdde	25.248959
12	0x4196316e	18.774136
13	0x410ae7fd	8.681638
14	0x41b6351b	22.77593
15	0x3f85d335	1.045508
16	0x3f8e1d67	1.1102723
17	0x41ad1c31	21.638765
18	0x3f3b27a3	0.73107356
19	0x40ffef0a	7.9979296
20	0x3de94ec4	0.113919765
21	0x40a98995	5.2980447
22	0x3d14c58e	0.036321215
23	0x40a3a3d9	5.113751
24	0x40d42d85	6.6305566
25	0x416ad813	14.6777525
26	0x4134eaf1	11.307359
27	0x41f656e8	30.792435
28	0x3f4cb69a	0.7996613
29	0x42130901	36.758793
30	0x4163ffc7	14.249946
31	0x3e19026d	0.14942332

weight f4 [2, 32, 1, 1]
0	0x3f0cd3c2	0.55010617
1	0x3f194903	0.5987703
2	0xbdbaad39	-0.09115071
3	0x3f8c3e50	1.0956516
4	0xbe91f390	-0.28506136
5	0x3e048351	0.12940718
6	0x3fae3269	1.3609134
7	0xbf7af598	-0.98030996
8	0x3efe8851	0.49713376
9	0xbf97b29e	-1.1851385
10	0x3f577231	0.8415862
11	0x3f64005b	0.8906304
12	0x3df292bc	0.118443936
13	0xbf4ce0b4	-0.8003037
14	0x40269a92	2.6031842
15	0x3fe132e8	1.759366
16	0xbf1db76d	-0.6160801
17	0x3e3c41a9	0.18384422
18	0x3e4e123e	0.20124146
19	0xbed281e1	-0.41114715
20	0x3e8ca80f	0.2747197
21	0xbf866ea3	-1.0502514
22	0xbf161989	-0.58632714
23	0x3ec8eac3	0.3924161
24	0xbea1d62b	-0.3160871
25	0xbeef38ce	-0.46723026
26	0x3d5a35c4	0.05327393
27	0xbf95e20a	-1.1709607
28	0x3fb1d65f	1.3893546
29	0x3e6f2590	0.23354173
30	0x3fa597f9	1.2937003
31	0xbf6584e6	-0.8965591
32	0xc0282aaf	-2.6276052
33	0x40337ebf	2.804611
34	0xbf1aa160	-0.6040249
35	0xbfa5a9d1	-1.2942449
36	0x3d6e28ec	0.058144495
37	0x403c3aa0	2.9410782
38	0x3ed4daba	0.41573125
39	0xbfe0f957	-1.7576092
40	0xbfcd483f	-1.6037673
41	0xbfb0a688	-1.3800821
42	0xbf776772	-0.9664222
43	0xc0603316	-3.503118
44	0x3fd51d93	1.664965
45	0x40121eed	2.2831376
46	0x40b76738	5.73135
47	0xc0532b41	-3.299515
48	0xbfb6d246	-1.428292
49	0x4057c71e	3.3715281
50	0xbfc15a24	-1.5105634
51	0x403cf6b8	2.9525585
52	0xbeafb90e	-0.34320873
53	0xbe07bb32	-0.13255003
54	0x4036dbbe	2.857162
55	0x3f2b92c5	0.6702083
56	0x3f0e60e3	0.5561659
57	0x408bc087	4.367252
58	0xc10e5045	-8.894597
59	0xc0220e82	-2.5321355
60	0xc1124329	-9.1413965
61	0x3fbe1e14	1.4852929
62	0xc0477deb	-3.1170604
63	0x40872086	4.22272

bias f4 [2]
0	0x3e162018	0.1466068
1	0xbdcb5fdd	-0.09930394

weight f4 [2]
0	0xbf2a7ed5	-0.6659978
1	0x3ebfb580	0.3744316

bias f4 [2]
0	0xc0523db4	-3.285016
1	0xbff137a8	-1.884511

running_mean f4 [2]
0	0x411f2077	9.945426
1	0xc191485d	-18.160334

running_var f4 [2]
0	0x42b50fb6	90.530685
1	0x4526f61f	2671.3826

weight f4 [26, 18]
0	0xbed13ad1	-0.40865186
1	0xbd1318e6	-0.035912417
2	0xbedc4e78	-0.43028617
3	0x3eee29fa	0.465164
4	0xbf6e92b2	-0.9319259
5	0xbdae715d	-0.08517716
6	0x3f872167	1.0557069
7	0xbe3b23e9	-0.18275417
8	0xbd3dd0da	-0.046341754
9	0xc0150acb	-2.3287838
10	0xbd24feff	-0.040282246
11	0x3f844c61	1.0335809
12	0x3f09ada0	0.53780556
13	0x3fccb4c7	1.5992669
14	0x3e6417b4	0.22274667
15	0xbcac3205	-0.021019945
16	0x3fc586a3	1.5431713
17	0x3ee36d94	0.4441954
18	0xbf0c90b6	-0.5490831
19	0x3ef33f20	0.47509098
20	0x3f4a0e7d	0.7892836
21	0xbed63bf5	-0.4184262
22	0x3f6565f1	0.89608675
23	0x3e9c5318	0.30532146
24	0xbeba3655	-0.36369577
25	0x3e252d2b	0.16130511
26	0xbc776d14	-0.01510169
27	0xc023dcd2	-2.5603528
28	0xbf7ddea1	-0.9916783
29	0x3f89aea7	1.0756425
30	0x3f70a777	0.9400553
31	0x3fbb33ea	1.4625218
32	0x3fcc7650	1.5973606
33	0x3f787348	0.97050905
34	0x3f05e443	0.52301425
35	0xbe3e8936	-0.1860703
36	0xbde21170	-0.11038482
37	0xbe522a48	-0.20523942
38	0xbe780e64	-0.2422424
39	0xbedd247b	-0.43191895
40	0xbea21fbe	-0.31664842
41	0xbeb9adfd	-0.36265555
42	0xbeaeedf7	-0.34165928
43	0xbe38d3a1	-0.1804948
44	0xbdcc0b96	-0.09963147
45	0x3f969c9f	1.1766547
46	0xbf3267a4	-0.69689393
47	0xbf123b7a	-0.57122004
48	0xbd03d474	-0.032185033
49	0xbf71a249	-0.9438825
50	0x3f75d6a7	0.9603066
51	0x3e8b79e5	0.27241436
52	0x3eb495c5	0.35270515
53	0x3fb28160	1.3945732
54	0x3e616fa1	0.2201524
55	0x3e8d0ed3	0.27550372
56	0xbf00a84a	-0.5025679
57	0x3f45ecf9	0.77314717
58	0xbf1f76c8	-0.6229062
59	0x3f3effe3	0.746092
60	0x3f5c0c73	0.85956496
61	0xbe3d929f	-0.18512963
62	0x3e05b6bb	0.13057987
63	0x3f0476d8	0.5174384
64	0x3f02c3c8	0.5107999
65	0xc00585ce	-2.0862918
66	0xbee44b45	-0.44588676
67	0xbf2f019a	-0.6836182
68	0x3e9ba1b2	0.303968
69	0x3f630826	0.8868431
70	0x3e656636	0.22402272
71	0x3f546286	0.82962835
72	0x3f884aaf	1.0647792
73	0xbed5afef	-0.4173579
74	0xbe8e932d	-0.2784666
75	0xbd308d4f	-0.043103512
76	0xbe5f4683	-0.21804242
77	0xbd3a7e17	-0.045530405
78	0xbf1cab6f	-0.61199087
79	0xbec731d6	-0.3890521
80	0xbe84739c	-0.25869453
81	0x3f2c1185	0.6721423
82	0x3e3ab776	0.18234047
83	0x3bf40420	0.007446781
84	0xbf7396af	-0.951518
85	0xbf28013f	-0.656269
86	0x3f49f688	0.788918
87	0x3f8038ea	1.0017369
88	0xbf282181	-0.6567612
89	0x3eab9ee8	0.33519673
90	0x3d02e819	0.031959627
91	0xbec88f84	-0.39171994
92	0x3f07b064	0.53003526
93	0x3bf9e31e	0.0076259514
94	0xbf1a5047	-0.60278744
95	0x3f89b11d	1.0757176
96	0xbdd9c71a	-0.10633679
97	0x3e531f17	0.20617329
98	0x3e871b48	0.26388
99	0xc0250329	-2.5783179
100	0xbf3882df	-0.72074693
101	0x3dd6fe53	0.10497727
102	0xbfabc58c	-1.3419662
103	0x3faa792a	1.3318226
104	0x3f887650	1.0661106
105	0x3dbe5c30	0.09294927
106	0x3f139a1f	0.57657045
107	0x3f23e5f5	0.6402276
108	0xbee56295	-0.44801775
109	0xbede5dea	-0.43431026
110	0x3e53fb99	0.20701446
111	0xbe79ee05	-0.24407203
112	0xbf4ee30a	-0.80815184
113	0xbe9dbe25	-0.3080913
114	0xbd8422e6	-0.06451969
115	0xbce2e397	-0.027696414
116	0xbdde2888	-0.108475745
117	0xbf8ea5a0	-1.1144295
118	0xbfb85887	-1.4402016
119	0x3f403cef	0.7509298
120	0xc02610ef	-2.5947835
121	0xbe2f0bb3	-0.17094307
122	0x3f275d57	0.653768
123	0x3e7aa68d	0.24477597
124	0x3e9b046c	0.3027681
125	0x3fb61f1f	1.4228247
126	0x3f2719f4	0.65273976
127	0xbebdab7a	-0.3704489
128	0xbf016209	-0.50540215
129	0xbe7a8380	-0.24464226
130	0x3fb334fe	1.4000547
131	0xbde29c71	-0.11064995
132	0xbdf29621	-0.11845041
133	0xbe92ab27	-0.28646204
134	0xbe54d6a3	-0.20785002
135	0xc03da80d	-2.963382
136	0xbf472f3d	-0.77806455
137	0xbe9fb120	-0.31189823
138	0x3f7b427f	0.9814834
139	0xbff704c7	-1.9298333
140	0xc0300dbf	-2.750839
141	0x4008d210	2.1378212
142	0x3e8f456b	0.2798265
143	0x3ffe1949	1.9851466
144	0xbda5b126	-0.08090429
145	0xbf0442c9	-0.51664406
146	0xbf075691	-0.52866465
147	0xbe3c446d	-0.18385477
148	0x3ff0afa9	1.8803607
149	0xbe289ba7	-0.16465627
150	0xbecd4ae7	-0.40096208
151	0xbe9d3539	-0.30704668
152	0x3ef59637	0.47966167
153	0x3fc7dfb0	1.5615139
154	0xc017adeb	-2.36999
155	0xbf61c6aa	-0.8819376
156	0x3f46329c	0.77420974
157	0x3f3fa128	0.7485528
158	0xbfe31671	-1.7741224
159	0x3e93e45b	0.2888516
160	0x3c869056	0.016426247
161	0xbf4f2e57	-0.80930084
162	0x3e6560a8	0.22400153
163	0xbf1c487e	-0.61048114
164	0x3f2e64c6	0.6812252
165	0x3f38f612	0.72250473
166	0x3e0f914b	0.14020269
167	0x3e2c026d	0.167978
168	0x3e2671d9	0.16254367
169	0x3e855809	0.26043728
170	0xbead6ab5	-0.33870474
171	0x3e938c80	0.2881813
172	0x3f7c2bb9	0.98504215
173	0xc0bc8948	-5.891758
174	0x3ec439b2	0.38325268
175	0x3e56a196	0.20960078
176	0x3e73032f	0.23731683
177	0x3faf90db	1.3716081
178	0x3f6bc4fb	0.92097443
179	0x3e830d46	0.25596064
180	0xbe9ca216	-0.30592412
181	0xbed16dd8	-0.40904117
182	0x3f846c50	1.0345554
183	0xbdd32998	-0.10310668
184	0xbf64ea4d	-0.89420015
185	0xbec9bbe7	-0.3940117
186	0xbe56e120	-0.20984316
187	0x3e4edf6e	0.20202419
188	0x3eb30da8	0.34971356
189	0x3e5aed43	0.2137957
190	0xbca71ffd	-0.020400995
191	0x3f8ccf24	1.1000714
192	0xbff3cdf9	-1.9047233
193	0xbf39a662	-0.72519505
194	0x3f961b39	1.1727058
195	0xbf238610	-0.6387644
196	0x3fa89cdd	1.3172871
197	0x3f933989	1.1501933
198	0xbe016560	-0.12636328
199	0xbee0f262	-0.43934923
200	0xbf81b9ed	-1.0134865
201	0xbd72e2c5	-0.059298296
202	0xbf047368	-0.51738596
203	0x3b7009c0	0.0036626905
204	0xbe97c447	-0.29641935
205	0x3bd26703	0.0064209714
206	0xbe39f887	-0.18161212
207	0x3ec48f6c	0.38390672
208	0x3e115fd2	0.14196709
209	0xbdeff103	-0.11715891
210	0xbf57cb82	-0.84294903
211	0xc00e7842	-2.22609
212	0x3fad1a26	1.3523605
213	0xbff873f9	-1.9410392
214	0x3f3340c1	0.7002068
215	0x40079949	2.1187308
216	0x3dbeea99	0.0932209
217	0xbd635e87	-0.05551007
218	0x3e1e242d	0.15443487
219	0x3e9470e8	0.2899239
220	0x3f86be42	1.0526812
221	0xbf1ac05f	-0.60449785
222	0xbea9b8d1	-0.33148816
223	0x3e90da88	0.28291726
224	0xbd248285	-0.040163536
225	0x400f74fa	2.2415147
226	0xbdb00ad9	-0.08595819
227	0xbdf02dee	-0.117275104
228	0xc08c8cf0	-4.3922043
229	0xbf4971e9	-0.7868944
230	0xbec81d2b	-0.39084753
231	0x3e86f1b4	0.2635628
232	0xbef7219d	-0.48267832
233	0xbf8caaf7	-1.0989674
234	0x3e540c7a	0.20707884
235	0xbe94b925	-0.29047504
236	0x3e74656a	0.23866811
237	0xbdcfd5f6	-0.10148232
238	0x3eda1051	0.42590573
239	0xbe9fa376	-0.31179398
240	0x3f6eaf6f	0.9323644
241	0x3ddb9aa7	0.10722857
242	0xbe2c6766	-0.16836318
243	0x3fba3dc1	1.4550096
244	0x3fe12933	1.7590698
245	0xbf2f755e	-0.68538463
246	0x3f4393ba	0.7639729
247	0xc0886a9f	-4.2630153
248	0xbfed874f	-1.8556918
249	0x3fe85faa	1.8154194
250	0xbeb5ed54	-0.3553263
251	0xbfac1e27	-1.3446702
252	0x3d516981	0.051126007
253	0x3f36f163	0.71462077
254	0x3c1ba11f	0.0094988635
255	0xbe6d366c	-0.23165292

bias f4 [26]
0	0x3edc3ed0	0.43016672
1	0x3e14c9d1	0.14530112
2	0xbc266ed5	-0.01015826
3	0xbe18ef2b	-0.14934985
4	0x3e7b7500	0.2455635
5	0xbd85e102	-0.065370575
6	0xbd86dbfb	-0.06584927
7	0xbe7737c4	-0.24142367
8	0xbec7c129	-0.39014557
9	0x3d755b4d	0.059901524
10	0xbe3d3ee5	-0.18481024
11	0xbedc310a	-0.43006164
12	0x3c914ef4	0.017737843
13	0xbe8eb8cf	-0.27875373
14	0xbec7ddbb	-0.39036354
15	0xbe102efe	-0.14080426
16	0xbef5ce6b	-0.48009047
17	0xbe94836f	-0.29006526
18	0xbf35a1ed	-0.70950204
19	0xbeb3442a	-0.35012943
20	0x3e16ee45	0.1473933
21	0x3bbcbfcc	0.0057601687
22	0xbbed4e1e	-0.0072419783
23	0xbdcd74ab	-0.10032018
24	0x3f1fa4ce	0.62360847
25	0x400ae60f	2.1702917

weight f4 [1, 32, 1, 1]
0	0x3f4e8bd2	0.806821
1	0xbf6f0d7d	-0.93379956
2	0xbd5c0959	-0.053719852
3	0x3f1788ee	0.59193313
4	0x3e409094	0.18805152
5	0x3e777252	0.24164703
6	0xbcca591e	-0.024700698
7	0xbf559607	-0.8343205
8	0xbc8d5011	-0.017250093
9	0x3f9710bd	1.1801983
10	0xbd210bb6	-0.03931781
11	0x3fa742a8	1.3067217
12	0x3f5a8df7	0.8537287
13	0x3f211052	0.6291553
14	0xbf691863	-0.91052836
15	0x3f32efca	0.6989714
16	0x3f7cb5c6	0.98714864
17	0xbe53e174	-0.20691472
18	0x3e19e158	0.15027368
19	0xbfd5594f	-1.666788
20	0xbf6b03ee	-0.9180287
21	0x3f17f468	0.5935731
22	0xbd21f43c	-0.03953956
23	0x3f853e9e	1.0409734
24	0xbf51411d	-0.8173998
25	0x3d806375	0.0626897
26	0xbb62de7d	-0.0034617477
27	0xbfe7e591	-1.8116933
28	0x3db309c8	0.087421
29	0x3ee59e5b	0.44847378
30	0x3ebb38bc	0.36566722
31	0x3f8753e0	1.0572472

weight f4 [32, 9]
0	0xbe33677c	-0.17519945
1	0xbfa3f01d	-1.2807652
2	0xbf3ca28b	-0.7368552
3	0xbe46728a	-0.1937963
4	0xbea3ec3d	-0.32016173
5	0xbeb06af3	-0.34456596
6	0xbe19ee52	-0.15032318
7	0x3de39dd1	0.111140855
8	0x3c740a13	0.01489498
9	0xbf5e9410	-0.86944675
10	0x3ec58383	0.38576898
11	0xbf382103	-0.7192537
12	0x3ed5c415	0.4175116
13	0x3d2f8b25	0.042857308
14	0x3dea17b1	0.114303
15	0xbe22d211	-0.15900446
16	0xbe6276bb	-0.22115605
17	0x3ebb8b25	0.36629596
18	0x3cb87466	0.02251644
19	0xbe91a4ec	-0.28446138
20	0xbe1a2ca1	-0.15056087
21	0xbe2efa92	-0.17087772
22	0x3c62d734	0.013845254
23	0xbe0c9a34	-0.13730699
24	0xbde45c88	-0.111504614
25	0x3db4a669	0.08820803
26	0x3e380c81	0.1797352
27	0x3f1c510c	0.6106117
28	0xbcdeafef	-0.027183501
29	0xbf877d71	-1.0585157
30	0xbe4dffa0	-0.20117044
31	0x3f0f5006	0.5598148
32	0xbe1c418a	-0.15259376
33	0xbedf19ab	-0.4357427
34	0xbeb13d4a	-0.34617072
35	0x3e1a17c8	0.15048134
36	0x3e817324	0.25283158
37	0x3ed15683	0.40886316
38	0x3e48a6ff	0.19594954
39	0x3e2045ad	0.15651579
40	0x3eaec930	0.3413787
41	0x3e26b22e	0.16278908
42	0x3ef278e3	0.47357854
43	0x3e6b5d2c	0.22984761
44	0x3e92a41a	0.28640825
45	0xbf8030e7	-1.0014924
46	0xbe76fbed	-0.2411954
47	0x3e476aab	0.19474284
48	0x3ee9b75e	0.4564771
49	0x3eff3e37	0.49852154
50	0xbf1bfdab	-0.6093394
51	0x3ed6a69d	0.4192399
52	0x3f10511c	0.56373763
53	0xbeaa884f	-0.3330712
54	0x3d96a058	0.07354802
55	0x3e8cc061	0.27490523
56	0x3cc5bc9d	0.02413779
57	0x3e02d54f	0.12776683
58	0x3ec3c7d5	0.38238397
59	0x3e09aa77	0.13443933
60	0x3e6855b4	0.22688943
61	0x3d261e56	0.040556274
62	0x3e6e7481	0.2328663
63	0xbf04b683	-0.5184099
64	0xbe85222e	-0.2600264
65	0x3e9904be	0.2988643
66	0xbd14ef11	-0.036360804
67	0xbe4c00c0	-0.19922161
68	0x3db54ff8	0.088531435
69	0xbe7a0f77	-0.24419962
70	0xbedde544	-0.43338978
71	0xbd349216	-0.04408463
72	0xbd821d0a	-0.06353195
73	0xbd90fd30	-0.07079542
74	0x3f02b060	0.51050377
75	0xbef61c9f	-0.4806871
76	0xbe5f7702	-0.21822742
77	0x3ebaa6bd	0.36455336
78	0x3e6aa7f9	0.22915639
79	0xbef93d49	-0.4867957
80	0xbeafc322	-0.34328562
81	0xbe8d4792	-0.27593666
82	0xbf5f7ef2	-0.8730308
83	0x3ed01f30	0.40648794
84	0x3f09619a	0.53664553
85	0x3e0d04b1	0.13771321
86	0xbf701dfb	-0.93795747
87	0xbefe01ca	-0.4961074
88	0xbce61045	-0.02808393
89	0x3e9aaf3f	0.30211827
90	0xbe9cec68	-0.30649114
91	0xbeb6ddc8	-0.3571608
92	0xbde6a634	-0.112621695
93	0xbe35bd8b	-0.17748086
94	0xbeb48506	-0.3525774
95	0x3db79f3c	0.089659184
96	0x3e3fd994	0.18735343
97	0xbc955ed7	-0.0182337
98	0x3db1ce02	0.08681871
99	0x3e8391c4	0.25697148
100	0xbe342638	-0.17592704
101	0x3e8f4a7f	0.27986524
102	0x3ed0b92b	0.40766272
103	0xbf55876d	-0.8340977
104	0xbe5afe2b	-0.2138602
105	0xbe2cdeb4	-0.1688183
106	0x3e28e6ea	0.16494337
107	0xbf79ee0d	-0.9762886
108	0xbe16a0f1	-0.14709832
109	0xbe13d612	-0.1443713
110	0xbdf3467a	-0.11878677
111	0x3d22dda4	0.039762154
112	0xbdb1497a	-0.08656593
113	0x3dd616fa	0.10453601
114	0xbdc9a7c0	-0.09846449
115	0xbe22f9bd	-0.1591558
116	0x3c59d25f	0.013294785
117	0x3e8f45eb	0.2798303
118	0x3c8c76df	0.017146526
119	0x3f0953fd	0.5364378
120	0xbe01230a	-0.12611023
121	0x3c6648ab	0.014055411
122	0xbf04753a	-0.51741374
123	0x3db62001	0.08892823
124	0x3df8793c	0.121324986
125	0xbdda780b	-0.10667428
126	0xbf39d335	-0.725879
127	0xbec42402	-0.38308722
128	0xbed58c14	-0.41708434
129	0x3e355008	0.17706311
130	0xbf0e3f19	-0.5556503
131	0xbe4e4c3c	-0.20146269
132	0x3e8e171f	0.27752015
133	0x3f3a2615	0.7271436
134	0x3f06151c	0.5237596
135	0xbda4f589	-0.080546446
136	0xbda7430c	-0.08167085
137	0xbe73cb45	-0.2380801
138	0xbe9a63cb	-0.3015426
139	0xbe6fcc4d	-0.23417778
140	0x3e89860d	0.26860085
141	0xbe92863c	-0.28618038
142	0xbd43f78c	-0.0478435
143	0x3d3e54cb	0.046467584
144	0xbe402e29	-0.18767609
145	0xbe339b93	-0.17539816
146	0xbd9c7f99	-0.07641525
147	0xbf1027f7	-0.5631098
148	0x3d90fc1b	0.07079335
149	0xbf03f4f6	-0.51545656
150	0x3e35fead	0.17772932
151	0xbeb444f6	-0.35208863
152	0x3eb35ab0	0.35030127
153	0x3e88a4d1	0.26688245
154	0x3d0da638	0.034582347
155	0xbfcb8ee3	-1.590298
156	0xbeb5c065	-0.35498348
157	0xbd735f2b	-0.05941693
158	0xbf559f44	-0.83446145
159	0xbf9322eb	-1.1495031
160	0xbe8522ea	-0.260032
161	0xbf6bde74	-0.9213631
162	0xbe1fbc16	-0.15599093
163	0x3db149cc	0.08656654
164	0x3f2b371e	0.6688098
165	0xbf1a19bd	-0.60195524
166	0xbf32d2a5	-0.6985267
167	0x3e38ea0d	0.18058033
168	0xbe320644	-0.17385203
169	0xbe1b4d1b	-0.15166132
170	0xbc9b42ef	-0.018952815
171	0xbfa195a6	-1.2623794
172	0xbf4c4976	-0.7979959
173	0xbedc76de	-0.43059438
174	0xbe6aedac	-0.22942227
175	0x3f22fe14	0.6366894
176	0x3e3c5359	0.1839117
177	0xbf16a0ac	-0.58838916
178	0xbe9539d7	-0.2914569
179	0x3f19a513	0.6001751
180	0x3e9de426	0.30838126
181	0xbe638134	-0.22217256
182	0xbeaa3243	-0.33241472
183	0xbd4df40c	-0.05028157
184	0x3e3ec3c6	0.18629369
185	0xbe8e3fb1	-0.27782968
186	0xbe71dafe	-0.23618695
187	0xbc7c1bf7	-0.015387527
188	0xbe73abbd	-0.23795982
189	0xbea2663e	-0.3171863
190	0xbc46dd38	-0.012137704
191	0xbf2597e6	-0.64684904
192	0xbe8bc5e3	-0.27299413
193	0x3eb1a295	0.34694353
194	0xbe6d6079	-0.23181333
195	0x3f15b756	0.58482873
196	0x3dbd93a8	0.09256679
197	0xbe3fdc9d	-0.18736501
198	0x3efc7a20	0.49311924
199	0xbe2efb67	-0.1708809
200	0x3e4911f9	0.19635762
201	0x3e82310b	0.25428042
202	0x3e0f099f	0.13968514
203	0xbe0e6c0b	-0.13908403
204	0xbf829ce6	-1.0204132
205	0xbf7cad72	-0.98702157
206	0xbe20cb66	-0.1570259
207	0xbee2d24b	-0.44301066
208	0xbe8c33da	-0.2738331
209	0x3f1b93d9	0.6077247
210	0xbf0fb7b3	-0.5613968
211	0xbf09660d	-0.5367134
212	0xbe03d096	-0.12872538
213	0xbf22fc93	-0.6366665
214	0xbed966b9	-0.42461184
215	0xbebddabf	-0.37080953
216	0xbe93a6fa	-0.2883833
217	0xbe02f2ff	-0.12788008
218	0xbe3fb473	-0.1872118
219	0x3de343b7	0.110969
220	0xbea41af8	-0.32051826
221	0xbeaac11b	-0.33350453
222	0xbdfa89a0	-0.12233281
223	0x3d2d0e2e	0.04224985
224	0x3d4325de	0.047643535
225	0xbe146180	-0.14490318
226	0x3eb11af8	0.34590888
227	0xbe3fa631	-0.1871574
228	0xbdc1c1fa	-0.09460826
229	0xbeae9e23	-0.34105024
230	0xbe4df647	-0.20113479
231	0x3e1f9adf	0.15586422
232	0xbe3ead9c	-0.18620914
233	0xbeaabbc0	-0.33346367
234	0xbec1aee2	-0.37828737
235	0x3e3a064d	0.18166466
236	0x3eb6312a	0.35584384
237	0x3d462bc6	0.04838159
238	0xbf23a6ef	-0.63926595
239	0xbe9ee01b	-0.31030354
240	0xbf1346f6	-0.5753015
241	0xbf0007d4	-0.50011945
242	0xbec4f6f4	-0.3846966
243	0x3e86a3ca	0.26296836
244	0x3ee87516	0.4540183
245	0x3e837afb	0.25679764
246	0xbf662eab	-0.8991496
247	0xbef12e45	-0.47105613
248	0xbe413a86	-0.18869981
249	0xbee05c87	-0.43820593
250	0xbe2cae69	-0.16863407
251	0xbf80724c	-1.0034881
252	0x3f048131	0.5175963
253	0x3f211de6	0.62936246
254	0xbf0dabf2	-0.5534049
255	0xbecefce6	-0.4042732

bias f4 [32]
0	0x3fd29e7b	1.6454614
1	0xbe8d500f	-0.27600142
2	0xbe936f05	-0.2879564
3	0xbf1488f0	-0.5802145
4	0xc04d9d80	-3.212738
5	0xbe15d341	-0.14631368
6	0xbff98dbc	-1.9496379
7	0x3e823e3f	0.25438115
8	0x3d173c49	0.036922727
9	0xbeeddd04	-0.46457684
10	0x3db49036	0.088165686
11	0xbeac9573	-0.3370777
12	0xbda830bd	-0.08212421
13	0xbf6b5e03	-0.91940325
14	0xbdc2b141	-0.09506465
15	0x3cc2afa2	0.023765389
16	0x3ea3fa05	0.32026687
17	0x3ee537d7	0.44769165
18	0x3f0ae40f	0.5425424
19	0x3e79ace4	0.24382359
20	0x3ca69495	0.020334521
21	0xbe7ffe8e	-0.24999449
22	0xbe01eb9b	-0.12687533
23	0x3eedfcd0	0.46481943
24	0xbcc3a15b	-0.023880651
25	0x3e799cce	0.24376222
26	0x3e42908e	0.19000456
27	0xbef2bfcc	-0.47411954
28	0xbd13ff3a	-0.036132075
29	0xbe743200	-0.23847198
30	0xbf0e3fe1	-0.5556622
31	0x3fc026df	1.5011863

weight f4 [1, 32]
0	0x3f623cc3	0.88373965
1	0x3ea86a4c	0.32893598
2	0x3c833340	0.016015649
3	0xbf0955c2	-0.5364648
4	0x3ecd623a	0.40114003
5	0x3ec638ff	0.3871536
6	0x3e818db8	0.25303435
7	0x3f1954d8	0.59895086
8	0xbe238457	-0.15968452
9	0xbf260747	-0.64854854
10	0x3e99b43f	0.3002033
11	0xbf2b0914	-0.6681073
12	0xbdd7038f	-0.104987256
13	0x3e2b8d68	0.16753161
14	0xbf0e3899	-0.5555511
15	0x3eb123b0	0.3459754
16	0xbeacd944	-0.3375951
17	0x3fda4d67	1.7054871
18	0xbe97cecd	-0.29649964
19	0x3f2b6bb6	0.6696123
20	0x3e85a21d	0.26100245
21	0xbf111302	-0.5666963
22	0x3f0e4211	0.5556956
23	0x3f975202	1.1821902
24	0x3ea3c2eb	0.31984648
25	0x3f08e8be	0.53480136
26	0x3f57a75f	0.84239763
27	0xbf0e27df	-0.5552959
28	0xbea56917	-0.3230674
29	0x3eaab35d	0.33339968
30	0x3ef14514	0.47123015
31	0x3f543f78	0.82909346

weight f4 [32, 32, 3, 3]
0	0xbcc40026	-0.023925852
1	0xbc0cc504	-0.008591894
2	0xbd5721ad	-0.05252235
3	0x3d6e07d9	0.058112953
4	0x3d38598b	0.04500727
5	0xbd0e47b2	-0.034736343
6	0xbd11dbda	-0.035610057
7	0xbd1fa26c	-0.038973257
8	0xbc3b77f4	-0.011442173
9	0x3d0ac005	0.03387453
10	0x3c3f3cb4	0.011672188
11	0x3d4bee75	0.049787957
12	0x3d3abf73	0.045592736
13	0xbc486864	-0.01223192
14	0xbd40043e	-0.046879046
15	0xbc2964e4	-0.010338996
16	0xbd10fdac	-0.03539817
17	0x3c7028d4	0.014658172
18	0x3d123a0d	0.035699893
19	0xbb8947d8	-0.0041894726
20	0xbced7d25	-0.028990338
21	0xbd245db9	-0.040128443
22	0x3d196b6f	0.037455972
23	0xbcb8b018	-0.022544906
24	0xbd6eaba0	-0.058269143
25	0x3c12cdcc	0.008960199
26	0xbd47ca74	-0.04877706
27	0x3d31fc81	0.043453697
28	0xbcf72c16	-0.030172389
29	0x3c046bec	0.008082371
30	0xbc12fa18	-0.00897076
31	0x3c526f14	0.012843866
32	0x3c766244	0.015038077
33	0x3d09a761	0.03360689
34	0x3cc31ae2	0.02381653
35	0x3cef20ae	0.029190388
36	0x3d07573b	0.033042174
37	0xbd7039e5	-0.058648963
38	0x3c9d14ea	0.019175012
39	0xbb54deb0	-0.0032481365
40	0xbc4e1bc0	-0.012579858
41	0x3b45e030	0.003019344
42	0x39c3e000	0.0003736019
43	0x3cc0da0e	0.023541477
44	0x3d649753	0.055808377
45	0xbd479df6	-0.048734628
46	0xbd235c58	-0.039882988
47	0x3ca6f53e	0.020380612
48	0x3ccefbc2	0.025266532
49	0x3d7114ff	0.058857914
50	0xbd0f66b6	-0.035010062
51	0xbd17faf8	-0.037104577
52	0x3b68afc0	0.0035505146
53	0xbc569620	-0.013097316
54	0xbc0efb68	-0.008726932
55	0xbadf2ce0	-0.0017026924
56	0xbc608124	-0.0137026645
57	0xbd4ddbd2	-0.050258465
58	0xbd29ce4c	-0.041456506
59	0xbc8c2e60	-0.017111957
60	0x3d55ed5b	0.052228313
61	0x3cd7d212	0.026345287
62	0xbb78fca0	-0.0037992373
63	0x3d13defd	0.03610133
64	0x3d2bab0b	0.041911166
65	0xbd1ddb66	-0.038539313
66	0xbd321376	-0.04347559
67	0xbd36592c	-0.044518635
68	0xbcf1d15f	-0.029518781
69	0xbcd7d73e	-0.026347753
70	0xbce87d22	-0.02837998
71	0x3d51bc79	0.051205132
72	0xbba9a780	-0.0051774383
73	0x3d676cf1	0.05650038
74	0xbcac911e	-0.021065291
75	0xbd2edb62	-0.04268969
76	0xbd53e550	-0.05173236
77	0x3cee9a96	0.029126447
78	0x3d26891b	0.040658098
79	0xbd1b616c	-0.037934706
80	0xbc089978	-0.008337371
81	0xba9a60a0	-0.0011778064
82	0xbcd47c26	-0.025938105
83	0xbd060ac4	-0.03272511
84	0xbd1c048a	-0.038090266
85	0xbcfbe7f6	-0.030750256
86	0xbc9c80dc	-0.019104414
87	0x3d5db0bd	0.05412363
88	0xbd058bd2	-0.032604046
89	0xbc95c198	-0.01828079
90	0xbc71ed48	-0.014766045
91	0xbd2ad2fe	-0.041705124
92	0xbd28d504	-0.041218773
93	0xbd3fa0d0	-0.046784222
94	0xbd057816	-0.032585226
95	0x3d1b4a29	0.03791252
96	0xbd346d06	-0.044049285
97	0x3d017929	0.031609688
98	0x3d0aac1f	0.033855554
99	0x3c23526c	0.009968381
100	0xbd56e380	-0.052463055
101	0xbd0bc605	-0.034124393
102	0x3c8f2516	0.017473739
103	0xbcca0606	-0.024661075
104	0x3d59a5cf	0.053136643
105	0x3cf9302e	0.030418482
106	0xbb514f40	-0.0031938106
107	0xbd0c5216	-0.03425797
108	0x3d6d9a95	0.05800875
109	0x3ca388de	0.019962724
110	0x3aab2b60	0.0013059191
111	0x3d1bc6ff	0.038031574
112	0x3c72b5a4	0.014813814
113	0xbc8010f6	-0.015633088
114	0xbd541bda	-0.051784374
115	0xbd5d4359	-0.054019306
116	0xbc171e60	-0.009223551
117	0xbd6239c7	-0.055230882
118	0x3d2c2a2d	0.04203241
119	0x3d210659	0.039312694
120	0xbd08836a	-0.03332845
121	0x3c712144	0.014717404
122	0x3d5aeccf	0.053448495
123	0x3d3627a3	0.044471394
124	0x3c8fc6aa	0.017550785
125	0x3cf209b2	0.029545639
126	0x3d217f11	0.03942782
127	0x3d2793c9	0.040912423
128	0x3c613d74	0.013747562
129	0xbcea11c7	-0.02857293
130	0x3cd6504a	0.026161332
131	0x3d08c57b	0.033391457
132	0x3be98888	0.0071268715
133	0x3d03ac3b	0.032146674
134	0xbc86d0c4	-0.01645697
135	0xbd53a7b3	-0.051673602
136	0xbd6af56c	-0.05736296
137	0x3c02a954	0.007974941
138	0xbd29319e	-0.041307084
139	0x3d368003	0.044555675
140	0xbd539de2	-0.05166424
141	0xbb79c4a0	-0.0038111582
142	0x3bac78a8	0.005263407
143	0xbcb5aad4	-0.022176184
144	0x3c91aaaa	0.017781574
145	0xbd308849	-0.04309872
146	0x3d6ac4bb	0.057316523
147	0xbc52f548	-0.012875862
148	0xbc9673d4	-0.018365778
149	0xbcdfed1e	-0.027334746
150	0xbd03044c	-0.03198652
151	0xbc9229ac	-0.017842136
152	0xbcbb592a	-0.022869665
153	0x3d1cdead	0.038298298
154	0xbd651bac	-0.055934593
155	0xbce1e786	-0.02757622
156	0xbcbf4862	-0.023349945
157	0xbc507c6c	-0.012724977
158	0xbd660e6c	-0.056166098
159	0x3d0a11e1	0.033708457
160	0xbd662098	-0.056183428
161	0xbc942988	-0.01808621
162	0xbc8c09fa	-0.017094601
163	0xbd0b261a	-0.033971883
164	0xbd0e2e5c	-0.03471218
165	0x3d2d4cd1	0.042309586
166	0xbd3cdf1a	-0.046111204
167	0xbcef0cf1	-0.029180976
168	0x3cdabfb2	0.026702736
169	0x3d64f0a7	0.055893566
170	0x3d0d8829	0.03455368
171	0x3cb10dda	0.02161305
172	0x3cee58de	0.02909511
173	0x3c8ccaa2	0.017186467
174	0x3d5e8ae5	0.05433168
175	0x3b51f390	0.0032036044
176	0xbcde3a16	-0.027127307
177	0xbd02004a	-0.031738557
178	0xbcf3801e	-0.029724177
179	0xbd265a20	-0.040613294
180	0x3d5c7bc3	0.053828966
181	0xbce238aa	-0.02761491
182	0x3cc3c74e	0.023898747
183	0xbc951c96	-0.018202107
184	0x3cbb3432	0.022852037
185	0x3ccb3e32	0.02480993
186	0x3d2ca095	0.04214533
187	0x3d2a0991	0.04151303
188	0x3c063adc	0.008192744
189	0x3d38dca7	0.045132305
190	0xbcb58668	-0.022158816
191	0xba39ff40	-0.0007095225
192	0xbc99cef6	-0.018775444
193	0xba952a20	-0.0011380352
194	0x3c077d14	0.008269567
195	0xbd2d3dca	-0.042295255
196	0xbcd11d28	-0.025526598
197	0xbceedeab	-0.02915891
198	0x3bc5b458	0.0060334615
199	0x3d712cc3	0.05888058
200	0x3d163edb	0.036681037
201	0xbcff1c48	-0.031141415
202	0x3c0f411c	0.008743551
203	0x3d5e0a25	0.054208893
204	0x3d401169	0.046891604
205	0x3d693ebb	0.05694459
206	0xbd4c7fed	-0.049926687
207	0xbd497b94	-0.04919012
208	0xbd68b31c	-0.056811437
209	0x3891b200	6.947294e-05
210	0x3d57016f	0.0524916
211	0x3cf55b0e	0.029950645
212	0xbd4c0af0	-0.04981512
213	0x3c36587c	0.011129495
214	0x3d41c1c5	0.047303934
215	0x3b799970	0.003808584
216	0xbd178226	-0.036989354
217	0x3bfb0958	0.007661026
218	0x3b603380	0.0034210384
219	0x3d679c83	0.056545746
220	0x3d3905eb	0.04517166
221	0xbceaeae7	-0.028676463
222	0xbd2f5a1a	-0.042810537
223	0xbd007227	-0.031358864
224	0x3d62b0a7	0.05534425
225	0xbb80df70	-0.003932886
226	0x3c2ba68c	0.01047672
227	0xbd15238a	-0.036410846
228	0x3c84bc52	0.01620308
229	0xbc202a18	-0.009775661
230	0x3d6c7be9	0.057735357
231	0xbc45fce8	-0.012084223
232	0xbcdd9758	-0.027049705
233	0x3aec39e0	0.0018022619
234	0xbcb429a4	-0.021992512
235	0xbd4ef254	-0.05052407
236	0xbd0c204b	-0.034210484
237	0x3c6e5e0c	0.01454879
238	0xbc53fa70	-0.012938127
239	0x3d0dbb59	0.034602497
240	0xbd6a6078	-0.057220906
241	0xbc956ea0	-0.018241227
242	0x3b900d88	0.0043961443
243	0xbc48e248	-0.012260981
244	0x3bed3da8	0.007240016
245	0x3ce21f56	0.027602833
246	0x3be90108	0.0071107186
247	0xbc677948	-0.014128037
248	0x3d09a147	0.03360107
249	0x3d1cd263	0.038286578
250	0xbc314668	-0.010820009
251	0xbb9059e0	-0.004405245
252	0xbd5ad6d9	-0.05342755
253	0xbcde6446	-0.027147423
254	0xbd686dec	-0.056745455
255	0x3b23c550	0.0024989434

bias f4 [32]
0	0xbd098bf8	-0.03358075
1	0x3cc88626	0.02447803
2	0xbcd3c6e8	-0.025851682
3	0xbc8e9ed0	-0.017409712
4	0x3d2909fb	0.041269284
5	0x3d2ccbc9	0.042186532
6	0xbc87f544	-0.016596444
7	0xbd481839	-0.048851226
8	0x3d386189	0.04501489
9	0x3d5b86c9	0.053595338
10	0xbd1ad884	-0.03780414
11	0xbb886c10	-0.0041632727
12	0x3d22f33f	0.03978276
13	0xbd54bfcf	-0.051940735
14	0x3d096e57	0.033552494
15	0x3cee8d26	0.02912004
16	0xbd2ce454	-0.04220994
17	0xbd20f24a	-0.039293565
18	0xbc3629c0	-0.011118352
19	0x3d0560c1	0.032562975
20	0xbd17680f	-0.036964472
21	0xbc99a7ec	-0.01875683
22	0x3c94fd5a	0.018187214
23	0x3d2d3c85	0.042294044
24	0x3c63129c	0.013859417
25	0xbd45c2b2	-0.04828138
26	0x3b027c10	0.0019910373
27	0x3d5e454d	0.05426531
28	0xbcd3d3b6	-0.025857788
29	0xbcf6f362	-0.03014535
30	0xbc2876f8	-0.010282271
31	0xbcdb0466	-0.026735496

weight f4 [32, 32, 3, 3]
0	0x3d5c170d	0.05373292
1	0xbb9f2d48	-0.004857693
2	0xbd39c372	-0.045352407
3	0xbb8bca70	-0.004266076
4	0x3d5d9403	0.054096233
5	0xbd3e8962	-0.046517737
6	0x3cf3eed6	0.029776972
7	0x3d3d8907	0.046273258
8	0x3d451f1d	0.048125375
9	0xbcbcb490	-0.023035318
10	0xbc3ef4ac	-0.011655014
11	0xbd043bc0	-0.032283545
12	0xbd526dca	-0.051374234
13	0xbd0b6228	-0.034029156
14	0x3d2f5257	0.042803135
15	0xbcbc2586	-0.022967111
16	0xbb1660c0	-0.002294585
17	0x3c3b7a9c	0.011442807
18	0x3d0b93cd	0.0340765
19	0x3bc448e8	0.0059901364
20	0xbbf10cc0	-0.0073562562
21	0xbd665236	-0.056230746
22	0xbc0183e8	-0.007904984
23	0x3ca6fcea	0.02038427
24	0xbc0fd8f0	-0.008779749
25	0xbd4a8209	-0.049440417
26	0x3d3c0599	0.045903776
27	0xbc85775e	-0.01629227
28	0x3d05b02d	0.032638717
29	0x3d4a0403	0.049320232
30	0x3d502b77	0.0508227
31	0x3c56c924	0.013109479
32	0xbd20387d	-0.03911637
33	0x3c17039c	0.009217169
34	0xbcd0edac	-0.025503956
35	0x3d30f9af	0.043206867
36	0x3d5e008b	0.054199737
37	0x3ce5710e	0.02800801
38	0xbd2926e5	-0.04129686
39	0x3d4c6d03	0.04990865
40	0xbc01a610	-0.007913128
41	0x3d67936b	0.056537073
42	0xbc8aebf8	-0.016958222
43	0xbd14049c	-0.03613721
44	0x3c181a14	0.009283561
45	0x3d21cc45	0.039501447
46	0xbd359106	-0.04432776
47	0xbcf8ae75	-0.030356625
48	0xbd02585a	-0.03182254
49	0xbbfb8948	-0.0076762773
50	0xbd57bd59	-0.05267081
51	0xbd5a3316	-0.053271376
52	0xbad346a0	-0.001611907
53	0x3a9ce6c0	0.0011970624
54	0x3ccd839a	0.025087167
55	0xbcc19fa0	-0.023635685
56	0xbcf34588	-0.029696241
57	0x3d3f9839	0.04677603
58	0xbb8c5d78	-0.0042836033
59	0xbbc9de00	-0.0061604977
60	0xbc810870	-0.015751094
61	0xbd4f4af0	-0.050608575
62	0xbb1f3420	-0.0024292544
63	0x3c657a9c	0.014006283
64	0x3c6f1d74	0.0145944245
65	0xbd39a4fc	-0.045323357
66	0x3d469369	0.048480425
67	0xbc337a28	-0.010954417
68	0x3d4a32fd	0.049365032
69	0x3d5fb429	0.054615173
70	0x3aeeecc0	0.0018228516
71	0xbd6aa91b	-0.057290178
72	0xbc9221de	-0.017838415
73	0x3d43b0e9	0.047776137
74	0x3c8cd336	0.017190557
75	0xbc5085a4	-0.012727175
76	0x3ccc9a82	0.024976019
77	0xbd193498	-0.037403673
78	0x39c72a00	0.0003798753
79	0x3d665923	0.05623735
80	0xbd29860c	-0.041387603
81	0xbc486ad0	-0.012232497
82	0xbceba7a8	-0.028766468
83	0xbce78198	-0.028260037
84	0x3d18e0af	0.03732365
85	0x3d13ae71	0.036055032
86	0x3d0d61f1	0.034517232
87	0x3d346db1	0.044049922
88	0x3cf1c5fa	0.029513348
89	0xbc28e404	-0.010308269
90	0x3c90d79a	0.017680932
91	0x3d53b411	0.051685397
92	0xbd177bb4	-0.036983207
93	0x3d3616b5	0.04445525
94	0xbd4ed25a	-0.050493576
95	0xbd1569eb	-0.036477964
96	0xbc07a5c0	-0.008279264
97	0x3d3e5f61	0.04647768
98	0xbb51c1d0	-0.003200639
99	0x3d5f231f	0.054476853
100	0x3a5214c0	0.0008013956
101	0x3c9d12e2	0.019174043
102	0x3d4cbeb1	0.049986545
103	0x3a60a300	0.0008569211
104	0xbd61bc09	-0.055110965
105	0xbc822a6c	-0.015889369
106	0x3d6c79b9	0.05773327
107	0xbd63f460	-0.055652976
108	0xbd3f6867	-0.046730425
109	0xbcbe75dc	-0.02324956
110	0x3ca9022e	0.020630922
111	0x3c8a913e	0.01691496
112	0xbd0c841f	-0.034305688
113	0x3c73e8ec	0.014887076
114	0xbd3e9848	-0.046531945
115	0x3d55caaf	0.052195247
116	0xbd5873ce	-0.052844815
117	0x3d35e15b	0.04440437
118	0x3d35f81f	0.04442608
119	0x3bad98d8	0.0052977614
120	0xbd04a737	-0.03238603
121	0x3b908f98	0.004411649
122	0xbc8ae03e	-0.01695263
123	0xbd59b5cc	-0.05315189
124	0xbd06232e	-0.032748394
125	0x3ca94f66	0.020667743
126	0x3d687213	0.056749415
127	0x3c195894	0.009359498
128	0x3d670e2d	0.056410003
129	0x3cd8008e	0.026367452
130	0xbd34e764	-0.044165984
131	0xbc017a40	-0.007902682
132	0xbd5389b7	-0.051645007
133	0x3cf8df42	0.030379895
134	0x3d6de081	0.05807543
135	0x3cb541aa	0.022126038
136	0x3d00ffbd	0.03149389
137	0x3d2bde65	0.04196014
138	0x3ca3392e	0.019924726
139	0x3cf7922e	0.030221071
140	0x3d1729dd	0.03690516
141	0xbc3c30ec	-0.011486273
142	0xbd50496f	-0.05085128
143	0x3cfaad7e	0.030600306
144	0xbd2fe46e	-0.042942457
145	0x3d27a085	0.040924568
146	0x3d2cf54d	0.042226125
147	0x3bb787c8	0.005600903
148	0xbd33ba6c	-0.043878958
149	0x3ccfc14e	0.02536073
150	0x3d617917	0.05504712
151	0xbcd9ab36	-0.026570898
152	0xbd4ce1d2	-0.050020047
153	0x3c9056ee	0.017619576
154	0xbc261ab8	-0.010138206
155	0xbca33b42	-0.019925717
156	0xbcd4d9a6	-0.02598269
157	0x3d64f5fd	0.055898655
158	0xbd232840	-0.039833307
159	0xbb957b28	-0.0045618005
160	0xbc7d7954	-0.015470821
161	0x3d4cd7b1	0.050010387
162	0x3c0e48c4	0.008684341
163	0xbc0a0f14	-0.0084264465
164	0xbd4ef37a	-0.050525166
165	0x3cf6cc9a	0.030126859
166	0xbd34bad2	-0.04412348
167	0x3cd9c3de	0.026582655
168	0xbd6fc884	-0.058540836
169	0x3bfc62f8	0.0077022277
170	0x3d15c1db	0.036561828
171	0xbc809abe	-0.015698787
172	0x3c780124	0.015136991
173	0x3c2fe984	0.010736827
174	0x3c8277c6	0.015926253
175	0xbc5c0c6c	-0.013430696
176	0xbd30d7d0	-0.043174565
177	0x3bad79f8	0.005294081
178	0xbd143b18	-0.03618917
179	0xbd647c36	-0.05578252
180	0xbbfb8f80	-0.0076770186
181	0xbd55ffbb	-0.052245837
182	0x3d592f9b	0.053023916
183	0xbcb29f76	-0.021804553
184	0xbc23be54	-0.009994108
185	0x3cde1bf6	0.027112942
186	0xbd3f7021	-0.046737794
187	0xbc148fcc	-0.009067487
188	0x3c6faefc	0.014629122
189	0xbd524724	-0.051337376
190	0xbc1b157c	-0.0094655715
191	0xbb674500	-0.003528893
192	0xbc40faa4	-0.011778507
193	0xbb13aa80	-0.0022532046
194	0x3d00aa89	0.031412635
195	0x3c83f64e	0.016108658
196	0x3d5318bb	0.051537257
197	0xbd2749cc	-0.040841863
198	0xbcd7d0d8	-0.026344702
199	0xbd4438c9	-0.047905717
200	0xbce375a0	-0.027766049
201	0x3c596254	0.013268072
202	0x3cffe67a	0.03123783
203	0x3d58c619	0.052923296
204	0xbd20e350	-0.039279282
205	0x3bfaf9b8	0.0076591633
206	0xbd6fc477	-0.058536973
207	0x3d095b27	0.033534195
208	0x3d1b58cf	0.03792649
209	0x3d456e91	0.048201147
210	0x3bfe9068	0.0077686794
211	0x3c8b59be	0.017010566
212	0x3d0b4b37	0.034007277
213	0xbc8f9ea6	-0.017531704
214	0xbd21620e	-0.039400153
215	0xbd4c592b	-0.049889725
216	0xbc1f7408	-0.009732254
217	0xbd2e1890	-0.042503893
218	0x3c21ca44	0.009874884
219	0x3d664ddd	0.0562266
220	0xbd375ec2	-0.044768102
221	0xbd475eb0	-0.048674285
222	0xbcee079b	-0.029056361
223	0xbc5d4790	-0.013505831
224	0x3d48368b	0.04888014
225	0x3d6793e7	0.056537535
226	0x3d18e34d	0.037326146
227	0x3d04d483	0.03242923
228	0xbc2dead4	-0.010615069
229	0xbd1ca5fc	-0.038244233
230	0x3a78a6c0	0.0009485297
231	0x3d2cb317	0.04216298
232	0x3c8ed146	0.017433774
233	0xbd01a9e2	-0.031656154
234	0xbc8bd35e	-0.017068561
235	0x3d3e455f	0.046452876
236	0xbd627d7b	-0.05529545
237	0x3d52b673	0.05144353
238	0x3d46b5b3	0.048513126
239	0x3ab2faa0	0.0013655014
240	0xbd37289b	-0.04471646
241	0x3cfdfb2a	0.031003553
242	0x3c538cfc	0.012912031
243	0x3d6798ed	0.056542326
244	0xbcf8f016	-0.03038792
245	0x3c9107fa	0.017703999
246	0xbd348ec6	-0.04408147
247	0xbd60b7c5	-0.054862756
248	0xbd365574	-0.04451509
249	0xbcd5884a	-0.026065964
250	0xbc9ee980	-0.01939845
251	0x3d0c5851	0.034263913
252	0xbb13aac0	-0.0022532195
253	0x3c7a7324	0.015286241
254	0xbd1bb376	-0.038012944
255	0xbd6b6292	-0.05746705

bias f4 [32]
0	0xbd5d5c9d	-0.0540434
1	0xbcf64f0a	-0.030066986
2	0xbbd8c6e8	-0.0066155083
3	0xbd30236f	-0.043002542
4	0x3d146409	0.036228213
5	0x3d66166d	0.05617373
6	0x3cb2b0ee	0.021812882
7	0xbd70139d	-0.058612455
8	0x3cba5c5e	0.022749122
9	0x3d659f29	0.05605999
10	0xbd4a81a5	-0.049440045
11	0x3c38bb2c	0.011275094
12	0x3c2d1754	0.010564644
13	0xbd46adb6	-0.048505507
14	0x3cff2702	0.03114653
15	0xbcba94a6	-0.02277596
16	0xbc5703e8	-0.01312349
17	0x3ca0bf6a	0.019622523
18	0x3ba4fde8	0.005035151
19	0x3d1061a5	0.03524937
20	0xbcb14da8	-0.021643475
21	0xbc1fe568	-0.009759285
22	0x3c91b58e	0.017786767
23	0xbd581d7c	-0.052762493
24	0x3c0322dc	0.008003917
25	0x3c2a530c	0.0103957765
26	0xbd5a1866	-0.053245924
27	0xbd31d066	-0.043411635
28	0xbcaa9e88	-0.020827547
29	0xbcfa24b2	-0.030535076
30	0x3d20b281	0.039232735
31	0xbd335291	-0.043779913

weight f4 [32]
0	0x3f5f2bf8	0.87176466
1	0x3f6a791e	0.9159106
2	0x3ee8c768	0.45464635
3	0x3f518122	0.81837666
4	0x3f11285e	0.5670222
5	0x3e0a67c0	0.1351614
6	0x3f090912	0.53529465
7	0x3f085033	0.53247374
8	0x3ef76f9a	0.48327333
9	0x3f3d9bb1	0.7406569
10	0x3e12695c	0.14298004
11	0x3f4c237d	0.7974165
12	0x3e920722	0.28521067
13	0x3f076f42	0.5290414
14	0x3eac5688	0.33659768
15	0x3b05ae00	0.0020397902
16	0x3f750a2d	0.9571865
17	0x3f763f1e	0.9619006
18	0x3f701fdb	0.9379861
19	0x3f57130c	0.8401344
20	0x3f14db4d	0.58147126
21	0x3dd0a128	0.10186988
22	0x3e9a79d2	0.30171067
23	0x3f7730a1	0.96558577
24	0x3ee89088	0.4542277
25	0x3f4cab91	0.7994929
26	0x3f78ef38	0.9724002
27	0x3ca8c580	0.020601988
28	0x3eb74560	0.35795116
29	0x3f365502	0.7122346
30	0x3e23993c	0.15976423
31	0x3f22ba40	0.63565445

bias f4 [32]
0	0x00000000	0.0
1	0x00000000	0.0
2	0x00000000	0.0
3	0x00000000	0.0
4	0x00000000	0.0
5	0x00000000	0.0
6	0x00000000	0.0
7	0x00000000	0.0
8	0x00000000	0.0
9	0x00000000	0.0
10	0x00000000	0.0
11	0x00000000	0.0
12	0x00000000	0.0
13	0x00000000	0.0
14	0x00000000	0.0
15	0x00000000	0.0
16	0x00000000	0.0
17	0x00000000	0.0
18	0x00000000	0.0
19	0x00000000	0.0
20	0x00000000	0.0
21	0x00000000	0.0
22	0x00000000	0.0
23	0x00000000	0.0
24	0x00000000	0.0
25	0x00000000	0.0
26	0x00000000	0.0
27	0x00000000	0.0
28	0x00000000	0.0
29	0x00000000	0.0
30	0x00000000	0.0
31	0x00000000	0.0

running_mean f4 [32]
0	0x3e86e85c	0.2634915
1	0xbf4ca682	-0.7994157
2	0xbe0ce67c	-0.13759798
3	0xbe0ba817	-0.1363834
4	0xbea33d82	-0.31882864
5	0x3e86ef1c	0.263543
6	0x3f17ecac	0.5934551
7	0xbe56c920	-0.2097516
8	0x3ea95082	0.33069235
9	0x3ec65dbc	0.3874339
10	0x3f1e6f87	0.6188893
11	0x3fa75825	1.3073775
12	0xbc66047e	-0.014039157
13	0xbef0e651	-0.47050717
14	0xbd842d61	-0.06453968
15	0xbd7c70e8	-0.061631113
16	0xbbaab887	-0.0052099857
17	0xbe4d405c	-0.20044082
18	0x3e5d175a	0.21590939
19	0xbf15c5c6	-0.58504903
20	0xbe4dce10	-0.20098138
21	0x3e7c5619	0.24642219
22	0xbdc65b60	-0.09685397
23	0xbdb1f0e8	-0.08688527
24	0xbf3763da	-0.71636736
25	0xbe73b7e9	-0.23800625
26	0xbec57c05	-0.38571182
27	0xbecf3b66	-0.40475005
28	0xbf383755	-0.7195943
29	0x3e71a626	0.23598537
30	0x3eb3853e	0.35062593
31	0xbe61493b	-0.22000591

running_var f4 [32]
0	0x3ec0c7c2	0.37652403
1	0x3efda93e	0.49543184
2	0x3f0a2a37	0.53970665
3	0x3f13343c	0.5750158
4	0x3f0a6791	0.5406428
5	0x3f17b843	0.59265536
6	0x3ef7adfb	0.48374924
7	0x3f145858	0.579473
8	0x3f11f95e	0.5702113
9	0x3f566008	0.8374028
10	0x3f430be6	0.7619003
11	0x3f60ba88	0.87784624
12	0x3f786816	0.9703382
13	0x3f024a9e	0.50895107
14	0x3ec8f643	0.39250383
15	0x3f6dab03	0.9283907
16	0x3f027ac5	0.5096858
17	0x3f637706	0.8885349
18	0x3f3cd1a8	0.7375741
19	0x3f6efdd2	0.9335605
20	0x3f19d16b	0.6008517
21	0x3f64a1de	0.8930949
22	0x3f2528e9	0.6451555
23	0x3e9646a7	0.29350778
24	0x3f5da593	0.8658077
25	0x3f51c403	0.81939715
26	0x3f051f4e	0.5200089
27	0x3f27d9d1	0.65566736
28	0x3f054c49	0.52069527
29	0x3f5dbd94	0.866174
30	0x3f1edf5e	0.6205958
31	0x3eee3c68	0.4653046

weight f4 [32]
0	0x3d8ffc60	0.070305586
1	0x3f57e34b	0.84331197
2	0x3dfb6cd8	0.1227662
3	0x3eb12b5e	0.346034
4	0x3ea8ad12	0.32944542
5	0x3f601ae4	0.8754103
6	0x3e43c770	0.19119048
7	0x3e613534	0.21992952
8	0x3e8c7ed8	0.27440524
9	0x3f3c7ae0	0.7362499
10	0x3f1baeaf	0.6081342
11	0x3f51cd9e	0.8195437
12	0x3f7404ca	0.9531981
13	0x3d558440	0.052128077
14	0x3f790384	0.9727099
15	0x3e4004e4	0.18751866
16	0x3f45136d	0.76982766
17	0x3dea0a00	0.114276886
18	0x3ea7da18	0.3278358
19	0x3f13e6e1	0.5777417
20	0x3edd7378	0.43252158
21	0x3f028c2d	0.5099514
22	0x3eae1d7a	0.34006864
23	0x3f373a4b	0.71573323
24	0x3f6a1b5b	0.9144799
25	0x3f0f1751	0.55894953
26	0x3f5af16d	0.85524637
27	0x3e8f8e98	0.28038478
28	0x3f4711b6	0.777614
29	0x3f15dc3e	0.5853919
30	0x3db43170	0.08798492
31	0x3f404fcb	0.75121754

bias f4 [32]
0	0x00000000	0.0
1	0x00000000	0.0
2	0x00000000	0.0
3	0x00000000	0.0
4	0x00000000	0.0
5	0x00000000	0.0
6	0x00000000	0.0
7	0x00000000	0.0
8	0x00000000	0.0
9	0x00000000	0.0
10	0x00000000	0.0
11	0x00000000	0.0
12	0x00000000	0.0
13	0x00000000	0.0
14	0x00000000	0.0
15	0x00000000	0.0
16	0x00000000	0.0
17	0x00000000	0.0
18	0x00000000	0.0
19	0x00000000	0.0
20	0x00000000	0.0
21	0x00000000	0.0
22	0x00000000	0.0
23	0x00000000	0.0
24	0x00000000	0.0
25	0x00000000	0.0
26	0x00000000	0.0
27	0x00000000	0.0
28	0x00000000	0.0
29	0x00000000	0.0
30	0x00000000	0.0
31	0x00000000	0.0

running_mean f4 [32]
0	0x3d80d756	0.06291072
1	0x3dbf5934	0.09343186
2	0x3b4dc7ee	0.0031399685
3	0xbe9d1d1a	-0.30686265
4	0x3c830721	0.01599461
5	0x3c37afb6	0.011211326
6	0xbc9e25ca	-0.019305129
7	0x3bd9e1d4	0.0066492353
8	0x3d81cfa4	0.063384324
9	0xbd96431c	-0.07337019
10	0xbe02290f	-0.12710975
11	0x3d87e3ba	0.06635232
12	0x3d0b8fa1	0.034072522
13	0xbc60d47f	-0.013722538
14	0x3d832af1	0.06404675
15	0xbd35e463	-0.04440726
16	0x3a2abf1a	0.00065134617
17	0xbd1fd5e0	-0.039022326
18	0xbd0ff08c	-0.035141513
19	0x3dd3c120	0.1033957
20	0xbe1cc463	-0.1530929
21	0x3e574306	0.21021661
22	0x3e24a2e4	0.16077763
23	0x3cc712ba	0.024300922
24	0xbdd64a2a	-0.104633644
25	0x3c4577e7	0.012052513
26	0xbd2c9320	-0.042132497
27	0x3e358fce	0.17730638
28	0x3c5b0935	0.013368894
29	0xbda629a1	-0.08113409
30	0x3e476718	0.19472921
31	0x3c970687	0.01843573

running_var f4 [32]
0	0x3d1136c6	0.035452627
1	0x3d35e737	0.044409957
2	0x3d16af09	0.03678802
3	0x3d125221	0.035722855
4	0x3c873f26	0.016509604
5	0x3d233f57	0.039855327
6	0x3d0f8f12	0.03504855
7	0x3cccfdee	0.025023427
8	0x3c9c54c2	0.019083384
9	0x3d1559d2	0.036462612
10	0x3cf2b06f	0.029625146
11	0x3d1cce16	0.038282476
12	0x3d239565	0.039937396
13	0x3d15212d	0.036408592
14	0x3cf5f3e9	0.030023532
15	0x3d36655f	0.04453027
16	0x3ca2dfef	0.01988217
17	0x3d0de00d	0.0346375
18	0x3ca7182f	0.020397274
19	0x3d03d23e	0.032182924
20	0x3d110f46	0.035414957
21	0x3cfe6422	0.031053606
22	0x3ca458e5	0.02006192
23	0x3d204424	0.039127484
24	0x3cdf2395	0.027238647
25	0x3cd86b4c	0.02641835
26	0x3d275592	0.04085309
27	0x3cfe5156	0.031044643
28	0x3cac8eba	0.021064151
29	0x3ce9b528	0.028528765
30	0x3d519076	0.05116316
31	0x3cd70566	0.026247691
